dnn-models/cifar10_resnet10-single.onnx (onnx, 192446 bytes, 30 tensors)

layers.0.0.decision_head.channel_gates f4 [5, 16]
0	0x3f28e97e	0.6598128
1	0x3ee1fb70	0.44137144
2	0x3ee3e515	0.44510713
3	0x3eda83f7	0.42678806
4	0x3eef75ed	0.46769658
5	0x3ef21ef2	0.47289234
6	0x3eeed725	0.46648517
7	0x3eee3ff6	0.46533173
8	0x3edcd144	0.43128407
9	0x3ef86604	0.48515332
10	0x3f5bfe35	0.85934764
11	0x3ef80fd7	0.48449585
12	0x3eed8d0d	0.46396676
13	0x3eebc403	0.46047983
14	0x3ef9d938	0.48798537
15	0x3ee8eb04	0.45491803
16	0x3ef6b467	0.4818451
17	0x3efbdc6d	0.4919161
18	0x3ee2cc54	0.44296515
19	0x3eea1274	0.45717204
20	0x3efacc21	0.48983863
21	0x3ef258f6	0.47333497
22	0x3ed82344	0.42214406
23	0x3ef582cd	0.47951356
24	0x3eefd6ed	0.46843663
25	0x3ef130d9	0.4710758
26	0x3f8e3c90	1.1112232
27	0x3ede22e2	0.43385988
28	0x3ee177a0	0.4403658
29	0x3ee59500	0.4484024
30	0x3ee8a349	0.45437077
31	0x3edddaea	0.4333108
32	0x3f414a5a	0.75504076
33	0x3ef4d0b8	0.4781549
34	0x3ee4a916	0.44660252
35	0x3eeb1bcd	0.45919648
36	0x3ef64274	0.48097575
37	0x3eeab932	0.45844418
38	0x3ef60171	0.48047975
39	0x3ed5089f	0.4160814
40	0x3eeea4b2	0.46610028
41	0x3ef9249c	0.48660743
42	0x3f5657ce	0.8372773
43	0x3eefbaa0	0.4682207
44	0x3ef262fd	0.47341147
45	0x3eee4789	0.46538952
46	0x3eeab631	0.45842126
47	0x3ed7b2da	0.4212864
48	0x3f30db1c	0.69084334
49	0x3ef25952	0.4733377
50	0x3eed3d78	0.4633596
51	0x3ef1f78c	0.47259176
52	0x3efc7d76	0.4931447
53	0x3ee1c62f	0.44096515
54	0x3ef7c208	0.48390222
55	0x3ef4b97a	0.47797757
56	0x3efbf09b	0.49207005
57	0x3ef7eb81	0.48421863
58	0x3f5d4e74	0.86447835
59	0x3ee5586e	0.4479403
60	0x3ef02442	0.46902663
61	0x3ee6528c	0.44984853
62	0x3ebca1d0	0.36842203
63	0x3ee42f7a	0.44567472
64	0x3ed6d1ed	0.41957036
65	0x3ef4305c	0.47693145
66	0x3edcbaac	0.4311117
67	0x3ee8673e	0.45391268
68	0x3eee87f3	0.46588096
69	0x3ee58fb6	0.44836205
70	0x3efea6a2	0.49736506
71	0x3edb5c41	0.42843822
72	0x3eee88e8	0.46588826
73	0x3ee89b65	0.45431057
74	0x3f8a121d	1.0786778
75	0x3ee76e89	0.4520152
76	0x3ee073b8	0.43838286
77	0x3eddeba0	0.4334383
78	0x3ef3fa09	0.476517
79	0x3ef42ca3	0.47690305

layers.0.1.decision_head.channel_gates f4 [5, 16]
0	0x3ee7d09b	0.4527634
1	0x3ef51590	0.47868013
2	0x3ef9da8b	0.48799548
3	0x3eeed0bd	0.4664363
4	0x3ef7efa9	0.48425034
5	0x3ef11531	0.4708648
6	0x3eeb57fa	0.45965558
7	0x3ef95b69	0.48702553
8	0x3eec01fa	0.46095258
9	0x3ef037d8	0.46917605
10	0x3ef4021e	0.47657865
11	0x3efed425	0.49771228
12	0x3ef4f9b4	0.47846758
13	0x3ef1bdaa	0.47215015
14	0x3f50f0da	0.8161751
15	0x3ef27f6a	0.47362834
16	0x3ee76b16	0.45198888
17	0x3efde282	0.49586874
18	0x3f38f210	0.7224436
19	0x3eec0679	0.46098688
20	0x3f5a04ea	0.8516375
21	0x3ef579bb	0.47944435
22	0x3ef6e541	0.48221782
23	0x3ee07cab	0.43845114
24	0x3ee84e56	0.45372266
25	0x3ef64e53	0.48106632
26	0x3f77fc3e	0.96869266
27	0x3f157438	0.5838046
28	0x3ef84b2e	0.48494858
29	0x4006301e	2.0966868
30	0x3eea4be5	0.45761028
31	0x3ef8f5e0	0.48625088
32	0x3ef4240e	0.47683758
33	0x3efea9d9	0.49738958
34	0x3ef6f73a	0.48235494
35	0x3efcd320	0.49379826
36	0x3ee39afe	0.44454187
37	0x3ee4cd37	0.44687817
38	0x3f1f5c61	0.62250334
39	0x3ee7ff40	0.45311928
40	0x3f293df8	0.6611018
41	0x3eef9425	0.46792713
42	0x3ef80f52	0.48449188
43	0x3eebad6a	0.46030742
44	0x3efd8ce9	0.49521568
45	0x3ec05fa7	0.37572977
46	0x3f5d13ce	0.86358345
47	0x3f565697	0.83725876
48	0x3eebe5d7	0.4607379
49	0x3ef87dc1	0.48533443
50	0x3eea1371	0.45717958
51	0x3ef73533	0.48282775
52	0x3efa1648	0.48845124
53	0x3ef6aa0d	0.48176613
54	0x3ef00f00	0.46886444
55	0x3ef4a620	0.47782993
56	0x3ee7def1	0.45287278
57	0x3ef2611c	0.47339714
58	0x3ef344db	0.4751347
59	0x3f2ccb10	0.6749735
60	0x3ef5372a	0.4789365
61	0x3eef979e	0.46795362
62	0x3f5809d3	0.8438999
63	0x3ef984f5	0.4873425
64	0x3ee00601	0.4375458
65	0x3eea6afd	0.4578475
66	0x3ef73ee0	0.48290157
67	0x3eed1a1e	0.46308988
68	0x3ecf0c5b	0.40439114
69	0x3ec685ca	0.38773948
70	0x3ee88528	0.4541409
71	0x3eef4b49	0.46737126
72	0x3ee3bc32	0.4447952
73	0x3ee53eb6	0.44774407
74	0x3ef1ff56	0.47265118
75	0x3f2fb3ec	0.68633914
76	0x3edcd597	0.43131706
77	0x3edb3a77	0.42818043
78	0x3f38744e	0.72052467
79	0x3ef00dad	0.46885434

layers.1.0.decision_head.channel_gates f4 [5, 32]
0	0x3f350fcc	0.7072723
1	0x3f7c38d0	0.9852419
2	0x3ed242f6	0.41066712
3	0x3eee0a7d	0.46492377
4	0x3f8443c1	1.0333177
5	0x3ee24619	0.44194105
6	0x3ef7c98a	0.4839595
7	0x3efdddba	0.49583226
8	0x3ef48f1f	0.47765443
9	0x3eeed44f	0.46646354
10	0x3f990954	1.1955972
11	0x3f4a0fbb	0.7893025
12	0x3eeec758	0.46636462
13	0x3f1ff52a	0.62483466
14	0x3ef67d1a	0.4814232
15	0x3efd4143	0.49463853
16	0x3f9baab0	1.2161465
17	0x3f8d2328	1.1026354
18	0x3eebff97	0.46093437
19	0x3efec57d	0.49760047
20	0x3ef452fa	0.47719556
21	0x3ef1dfed	0.47241154
22	0x3ef8a137	0.48560497
23	0x3efb71a1	0.4911013
24	0x3ef93aa5	0.48677555
25	0x3ef9e27f	0.48805615
26	0x3f356617	0.708589
27	0x3f5ec020	0.8701191
28	0x3ef44c8a	0.47714645
29	0x3ef7eb9e	0.4842195
30	0x3eef3074	0.46716654
31	0x3efc601a	0.4929207
32	0x3f5a85e4	0.8536055
33	0x3f6556a1	0.8958531
34	0x3ef4e2a1	0.47829154
35	0x3ee0e01b	0.4392098
36	0x3efc0d8b	0.49229082
37	0x3eda5dac	0.4264959
38	0x3ee549ce	0.4478287
39	0x3ecd880b	0.40142855
40	0x3ee1efb0	0.4412818
41	0x3ea7caaa	0.32771808
42	0x3ef2d171	0.47425416
43	0x3f6e525d	0.93094426
44	0x3f2dea75	0.6793588
45	0x3efc8a6b	0.49324355
46	0x3ef32c70	0.4749484
47	0x3f5af9e9	0.8553758
48	0x3f88a645	1.0675741
49	0x3edea077	0.434818
50	0x3ef66dd4	0.48130667
51	0x3ede9919	0.4347618
52	0x3efa08f0	0.48834944
53	0x3ef43fd6	0.47704953
54	0x3eed5747	0.4635565
55	0x3edcca67	0.4312317
56	0x3edc6e9a	0.43053132
57	0x3ee596eb	0.44841704
58	0x3facd4a5	1.3502394
59	0x3f403cb4	0.75092626
60	0x3f418d3e	0.75606143
61	0x3ee1003a	0.43945485
62	0x3ef472cb	0.4774383
63	0x3ee11c32	0.43966824
64	0x3f3cc204	0.73733544
65	0x3edaa52d	0.42704144
66	0x3edd00a9	0.43164566
67	0x3ed21118	0.41028666
68	0x3edad587	0.42741033
69	0x3ede1d2f	0.4338164
70	0x3eea48e7	0.45758745
71	0x3efdec2e	0.49594253
72	0x3ee06682	0.43828207
73	0x3ee6b858	0.45062518
74	0x3ed88a3f	0.42292973
75	0x3ef5b314	0.47988188
76	0x3ef9fee1	0.4882727
77	0x3ee81d2f	0.45334765
78	0x3ede179f	0.43377396
79	0x3ed8dc43	0.42355546
80	0x3f2b2fad	0.6686962
81	0x3ef15674	0.4713627
82	0x3f168611	0.5879832
83	0x3ee350e1	0.44397643
84	0x3ee8666b	0.4539064
85	0x3eef770a	0.46770507
86	0x3ecb39b7	0.3969247
87	0x3ed9b966	0.4252426
88	0x3ee0fa6a	0.4394105
89	0x3ee968b6	0.455877
90	0x3ee404fc	0.44535053
91	0x3ee1abfb	0.44076523
92	0x3ece98ed	0.40351048
93	0x3f15c347	0.58501095
94	0x3ee52124	0.44751847
95	0x3edccf50	0.43126917
96	0x3ebeef9f	0.3729219
97	0x3f246d9e	0.6422976
98	0x3fb1690d	1.3860184
99	0x3efb6d85	0.49106994
100	0x3efc474e	0.4927315
101	0x3ef0ec87	0.47055456
102	0x3efa9293	0.48939952
103	0x3eb2d963	0.34931478
104	0x3eeaea98	0.45882106
105	0x3eeaf369	0.45888832
106	0x3ecc0465	0.39847103
107	0x3ef8261b	0.48466572
108	0x3ef46b3c	0.47738063
109	0x3f52e380	0.8237839
110	0x3eca2fb4	0.3948952
111	0x3ee62acc	0.44954526
112	0x3f95e58b	1.1710676
113	0x3f82a326	1.0206039
114	0x3f1f2a11	0.62173563
115	0x3efcf9b9	0.49409273
116	0x3ef186e0	0.47173214
117	0x3ef4efd5	0.47839227
118	0x3f7405d3	0.9532139
119	0x3f594579	0.8487163
120	0x3f40ac8f	0.75263304
121	0x3ee6b4b3	0.45059738
122	0x3ef7fe6a	0.4843629
123	0x3f582f10	0.8444681
124	0x3eff99be	0.49921983
125	0x3ef6865c	0.48149383
126	0x3f5a2557	0.85213226
127	0x3ef5af56	0.47985333
128	0x3ef4b056	0.47790784
129	0x3f4d2f1e	0.8015002
130	0x3f053cf5	0.5204614
131	0x3eedee25	0.46470752
132	0x3f6d29cb	0.92641896
133	0x3ef79e87	0.48363134
134	0x3efcd17f	0.49378583
135	0x3ed57dbf	0.416975
136	0x3ef555d5	0.47917047
137	0x3ee1bbb9	0.44088534
138	0x3f3f2e4e	0.7468003
139	0x3f5f7063	0.87280864
140	0x3eede8ce	0.46466678
141	0x3f80e022	1.00684
142	0x3ee81f6d	0.45336476
143	0x3ef16b9b	0.4715241
144	0x3f9257d7	1.1433057
145	0x3f5807cf	0.84386915
146	0x3ef4f185	0.47840515
147	0x3f27fc6a	0.6561953
148	0x3ef6174f	0.48064658
149	0x3eea035b	0.45705685
150	0x3f8091d1	1.00445
151	0x3fb72d5d	1.4310719
152	0x3f586fec	0.8454578
153	0x3ef4b0f5	0.47791258
154	0x3f401765	0.750357
155	0x3efa6ced	0.4891123
156	0x3f995133	1.1977905
157	0x3ec7d5d9	0.3903034
158	0x3efe74c5	0.49698463
159	0x3edc87fa	0.43072492

layers.1.1.decision_head.channel_gates f4 [5, 32]
0	0x3ef8edb1	0.48618844
1	0x3eeea18b	0.46607623
2	0x3eee73d5	0.46572748
3	0x3ef2b223	0.47401533
4	0x3ee8fd2c	0.45505655
5	0x3efd3c27	0.49459955
6	0x3ee97857	0.45599625
7	0x3f4a3258	0.7898307
8	0x3ef81171	0.48450807
9	0x3f6ed3db	0.93292016
10	0x3efd0809	0.49420193
11	0x3ef34d73	0.47520027
12	0x3f6b2d94	0.9186642
13	0x3ef9ed41	0.48813823
14	0x3f28b316	0.65898263
15	0x3efa19ae	0.48847717
16	0x3f4bef16	0.7966169
17	0x3ef672d1	0.48134473
18	0x3eed3bed	0.46334782
19	0x3ef6dc3a	0.48214895
20	0x3eed1bc3	0.46310243
21	0x3f5391d1	0.82644373
22	0x3ef5631e	0.47927183
23	0x3ef735c9	0.48283222
24	0x3ee69012	0.45031792
25	0x3f3dac72	0.74091256
26	0x3eeee70c	0.4666065
27	0x3eef80b6	0.46777886
28	0x3ee16a40	0.44026375
29	0x3f6e4d44	0.9308665
30	0x3ef1efc5	0.47253242
31	0x3ef15a0b	0.4713901
32	0x3ee737e1	0.4515982
33	0x3eed6663	0.46367177
34	0x3eedc29e	0.46437544
35	0x3ef89cfa	0.48557264
36	0x3ef06aef	0.46956584
37	0x3eed4996	0.46345204
38	0x3ee31ba5	0.4435703
39	0x3f5312b7	0.8245043
40	0x3ef7a26a	0.483661
41	0x3f3df33a	0.7419926
42	0x3ef3bc08	0.47604394
43	0x3ef75ba2	0.48312098
44	0x3f3fcb91	0.7491999
45	0x3eec0064	0.46094048
46	0x3f4ea889	0.80725914
47	0x3ef86d52	0.48520905
48	0x3f4a2c45	0.789738
49	0x3f478366	0.77934873
50	0x3eeeec49	0.46664646
51	0x3ef09fb4	0.46996844
52	0x3ef80d64	0.48447716
53	0x3f4c042a	0.79693854
54	0x3ef97ac5	0.48726478
55	0x3f333f37	0.70018333
56	0x3ef50891	0.47858098
57	0x3f5cfa12	0.86319077
58	0x3ef14d67	0.47129366
59	0x3ef169a4	0.4715091
60	0x3eed4be6	0.46346968
61	0x3f8b3f93	1.0878776
62	0x3ee22992	0.4417234
63	0x3efb5ddf	0.49095055
64	0x3efab1fa	0.4896391
65	0x3ef25b4d	0.47335282
66	0x3ee84676	0.45366257
67	0x3eee97ca	0.4660018
68	0x3eea9ce2	0.45822817
69	0x3efe350d	0.4964985
70	0x3ef53382	0.4789086
71	0x3f58c157	0.84670013
72	0x3ef3ad8b	0.4759334
73	0x3f4fe9ac	0.8121593
74	0x3ef94c78	0.48691154
75	0x3eec8e46	0.46202296
76	0x3f28e0d5	0.65968066
77	0x3efb64da	0.4910038
78	0x3f4c8a6b	0.7989871
79	0x3ef02fad	0.46911374
80	0x3f686c05	0.90789825
81	0x3f4c2071	0.79737
82	0x3ef39b61	0.47579482
83	0x3ee3a0d7	0.4445865
84	0x3eeee6ec	0.46660554
85	0x3f52399d	0.8211916
86	0x3ef36457	0.4753749
87	0x3f398e4c	0.7248275
88	0x3efcfb89	0.49410656
89	0x3f53461e	0.82528865
90	0x3eee22f9	0.46511057
91	0x3ef42b9f	0.4768953
92	0x3ef5dbf9	0.48019388
93	0x3f7096bd	0.9398001
94	0x3eed1ea6	0.46312445
95	0x3ef37f4e	0.47558063
96	0x3ee36512	0.44413048
97	0x3ef75c5a	0.48312646
98	0x3ef0ebb1	0.47054818
99	0x3ef8ead8	0.48616672
100	0x3efa9546	0.48942012
101	0x3eec5ce4	0.4616462
102	0x3ee72bb0	0.45150518
103	0x3f474389	0.77837425
104	0x3ef2fd8b	0.47459063
105	0x3f660dc7	0.8986477
106	0x3efba8ce	0.49152225
107	0x3eeab92b	0.45844397
108	0x3f4e39b3	0.8055679
109	0x3edb374b	0.42815623
110	0x3f3927da	0.72326434
111	0x3edc2177	0.42994282
112	0x3f4e7342	0.8064462
113	0x3f461bd7	0.7738623
114	0x3eee76d1	0.46575025
115	0x3ef40914	0.47663176
116	0x3ef59b84	0.47970212
117	0x3f2ca960	0.67445946
118	0x3ef4ed46	0.47837275
119	0x3f2f366f	0.68442434
120	0x3ef31cc2	0.47482878
121	0x3f61e3c5	0.88238174
122	0x3efb534d	0.4908699
123	0x3ee996f1	0.45622972
124	0x3eef10a7	0.46692392
125	0x3f812eef	1.0092448
126	0x3ef3990a	0.47577697
127	0x3ef722de	0.4826879
128	0x3ef7bca1	0.483861
129	0x3efa5183	0.48890314
130	0x3ed6ee07	0.41978475
131	0x3ee25ec4	0.44212925
132	0x3eea38a6	0.45746344
133	0x3ef53960	0.47895336
134	0x3ed8fc25	0.4237987
135	0x3f57061f	0.83993715
136	0x3eeea801	0.46612552
137	0x3f4af448	0.79278994
138	0x3ef76691	0.4832044
139	0x3ef0068f	0.46880004
140	0x3f3d4cae	0.7394513
141	0x3ee7f269	0.45302132
142	0x3f458ad8	0.77164984
143	0x3ef6d180	0.4820671
144	0x3f4a9291	0.7912989
145	0x3f3a2db4	0.7272599
146	0x3ee201ba	0.44141942
147	0x3eec588a	0.461613
148	0x3edf4825	0.4360973
149	0x3f3f9522	0.74836934
150	0x3ef8551f	0.48502442
151	0x3f2df608	0.6795354
152	0x3eea4174	0.45753062
153	0x3f6cbdd5	0.9247716
154	0x3efd4337	0.49465343
155	0x3ee64d5c	0.44980896
156	0x3eedaf97	0.46423027
157	0x3f884e25	1.0648848
158	0x3ef15af1	0.47139695
159	0x3ee58e68	0.4483521

linear.weight f4 [10, 32]
0	0x3ec3ee65	0.38267818
1	0xbf9e35f1	-1.2360212
2	0x3f271996	0.65273416
3	0x3daee3b5	0.085395254
4	0xbef2ad35	-0.4739777
5	0xbf30e830	-0.6910429
6	0x3f41efed	0.7575672
7	0xbf85d779	-1.0456382
8	0x3f890263	1.0703853
9	0xbf33a316	-0.70170724
10	0x3f063d92	0.524377
11	0x3f469195	0.7756589
12	0x3f6f0ae8	0.93376017
13	0x3ed5d094	0.41760695
14	0xbf093faf	-0.536128
15	0xbee999e3	-0.4562522
16	0x3ecb9f17	0.39769813
17	0x3e00f694	0.12594062
18	0xbe36fa46	-0.17868909
19	0xbfd5f8da	-1.6716568
20	0xbf4d8893	-0.8028652
21	0xbf19e38d	-0.6011284
22	0xbe717d18	-0.23582876
23	0x3e8ed53c	0.2789706
24	0xbf221507	-0.63313335
25	0xbe7bb2c4	-0.24579912
26	0x3e890f63	0.26769552
27	0xbf36471f	-0.7120227
28	0x3ee13144	0.439829
29	0x3ffcc2d1	1.9746953
30	0x3ef7022f	0.48243853
31	0x3fa135ff	1.2594603
32	0x3ce37001	0.027763369
33	0xbe4f076f	-0.2021768
34	0xbfb16146	-1.385781
35	0x402dd424	2.716073
36	0x3e6bed12	0.23039654
37	0x3f5d885c	0.8653619
38	0x3f594f35	0.84886485
39	0x3f5228da	0.82093585
40	0xbe800f27	-0.2501156
41	0xbf9311ec	-1.1489844
42	0xbf00860d	-0.50204545
43	0x3e12d899	0.14340438
44	0x3f20d4a2	0.6282445
45	0xbef165e7	-0.47148058
46	0xbf9022ca	-1.1260617
47	0xbe94624b	-0.28981242
48	0xbf18d7b6	-0.5970415
49	0xbf79535d	-0.9739283
50	0xbea65651	-0.3248773
51	0xbe8cdab1	-0.27510598
52	0x3ec19ac7	0.37813398
53	0x3ffdde0b	1.9833387
54	0xbe6493b5	-0.22321971
55	0xbe66f97a	-0.22556105
56	0xbf274282	-0.6533586
57	0xbf2c7f0b	-0.6738135
58	0xbf0e99b9	-0.5570331
59	0x3ecb3e04	0.39695752
60	0xbf56f606	-0.8396915
61	0xbf551287	-0.83231395
62	0x3f9ac69a	1.2091858
63	0x3d17784e	0.036979966
64	0x3f0b5a4f	0.54434675
65	0x3f432db0	0.7624159
66	0x3e893a7a	0.26802427
67	0x3ee25850	0.44208002
68	0xbf136877	-0.57581276
69	0x3e9666bd	0.29375258
70	0xbf733316	-0.94999826
71	0xbecbff63	-0.39843282
72	0x3f9a7f26	1.2070053
73	0x3edd324c	0.43202436
74	0x3e8a82ac	0.2705282
75	0xbf8825b7	-1.063651
76	0xbc5eba46	-0.013594216
77	0xbf7583e5	-0.9590438
78	0x3f06d078	0.5266185
79	0xbed7a421	-0.42117408
80	0x3d465882	0.04842425
81	0x3fed9a66	1.8562744
82	0x3f15b70e	0.58482444
83	0xbfcc0745	-1.5939718
84	0xbeda89c7	-0.4268324
85	0xbfd5c321	-1.6700174
86	0x3f7e606f	0.99365896
87	0xbf5741a3	-0.8408453
88	0x3fda2ecc	1.7045531
89	0xbf415915	-0.75526553
90	0xbbf18811	-0.0073709567
91	0x3f22a345	0.6353038
92	0x3f3b1a0b	0.73086613
93	0x3e6141aa	0.21997705
94	0xbe3757c8	-0.1790458
95	0xbe2e2b4f	-0.17008708
96	0xbf4608b0	-0.77357006
97	0xbed869b7	-0.42268154
98	0xbe22d5e3	-0.15901904
99	0xbf8078af	-1.003683
100	0xbefec566	-0.49759978
101	0x3fa4ed15	1.2884852
102	0xbb8cb9ac	-0.0042945947
103	0xbf0b6933	-0.54457396
104	0xbe48325b	-0.19550459
105	0x3fad6de8	1.3549166
106	0x3f0fe74c	0.56212306
107	0xbe4b5ada	-0.19858876
108	0x3ef09c9f	0.46994492
109	0x3f3acb79	0.72966725
110	0x3e5879b9	0.21140184
111	0x3db91fa3	0.09039237
112	0xbf9bb9de	-1.2166097
113	0x3f3fcfc6	0.7492641
114	0xbf2785b9	-0.6543842
115	0x3ee57398	0.44814754
116	0x3e0a9ea3	0.13537078
117	0x3e716b3f	0.23576067
118	0x3e3392dc	0.17536491
119	0x3ebf4ad0	0.37361765
120	0x3ecb1c71	0.39670137
121	0x3f95a9b9	1.169242
122	0xbdfd1e10	-0.123592496
123	0x3d754295	0.05987795
124	0xbdd0c550	-0.101938844
125	0xbea68c0e	-0.32528728
126	0xbf1d3936	-0.6141542
127	0xbf579db1	-0.84224993
128	0xbf262305	-0.64897186
129	0x3f8cf6ab	1.1012777
130	0xbefdc222	-0.49562174
131	0xbf8b7984	-1.0896459
132	0xbef7e05e	-0.48413366
133	0x3da60002	0.0810547
134	0x3f7eb21c	0.99490523
135	0xbf39be02	-0.72555554
136	0x3f56a4e8	0.83845377
137	0x3f83eac8	1.0306025
138	0xbdb2989a	-0.08720513
139	0xbdb2f610	-0.08738339
140	0xbf9be415	-1.217898
141	0xbe9a49bf	-0.3013439
142	0xbf7ba930	-0.98305035
143	0x3fa9dcd5	1.3270518
144	0x3f89a7f4	1.075438
145	0xbf9e2ccf	-1.2357424
146	0xbf844a5f	-1.0335196
147	0x3f3d9959	0.74062115
148	0x3f06c751	0.5264788
149	0xbf6d7542	-0.92757046
150	0xbf562911	-0.8365641
151	0xbeec63ac	-0.46169794
152	0x3f347dfd	0.7050474
153	0xbe7b5cd9	-0.24547137
154	0x4011b8cb	2.2769039
155	0x3f497cdd	0.7870615
156	0x3eddec81	0.433445
157	0xbee81dbc	-0.45335186
158	0xbecbcc64	-0.39804375
159	0x3f221dde	0.63326824
160	0xbf3b5b5a	-0.73186266
161	0x3ec167bb	0.37774453
162	0xbf20df44	-0.62840676
163	0x3d6394c5	0.0555618
164	0xbf2811cd	-0.6565216
165	0x3f47cb7e	0.7804488
166	0xbf35c9f5	-0.71011287
167	0xbec72051	-0.38891843
168	0xbf1d9c7d	-0.6156691
169	0xbd45f0d8	-0.04832539
170	0xbea3dd13	-0.32004604
171	0xbe449936	-0.1919907
172	0xbf85c650	-1.0451145
173	0x3fe1b66c	1.7633796
174	0xbe97d533	-0.29654846
175	0xbe615ed2	-0.22008827
176	0xbd4dd9f4	-0.050256684
177	0x3f584b10	0.84489536
178	0x40084b2d	2.1295884
179	0x3fc73994	1.5564446
180	0xbdd756d9	-0.10514612
181	0xbea40485	-0.32034698
182	0xbf43a6fe	-0.76426685
183	0x3d53f8f0	0.051751077
184	0x3f02f7bc	0.5115926
185	0x3efff59b	0.4999207
186	0xbe643b43	-0.22288232
187	0x3f0cbf88	0.54979753
188	0x3f622c22	0.8834859
189	0xbf153df6	-0.5829767
190	0xbf23d173	-0.6399147
191	0xbee751ea	-0.45179683
192	0x3d0e8362	0.034793265
193	0x3f64c36c	0.8936069
194	0x3d7e08cc	0.062020108
195	0x3cf4352b	0.029810509
196	0xbf30e164	-0.6909392
197	0xbf434373	-0.76274794
198	0xbf875210	-1.0571918
199	0x3e37a48a	0.1793386
200	0xbf2cceda	-0.6750313
201	0x3e5d72ab	0.21625774
202	0x3fa97f36	1.3241947
203	0x3e2e563e	0.17025086
204	0xbf8dc73f	-1.107643
205	0x3eccf1b9	0.4002817
206	0xbeaa0445	-0.33206382
207	0xbf3dfb91	-0.74211985
208	0xbe6de9e6	-0.23233756
209	0xbef70934	-0.4824921
210	0x3dd7059d	0.104991175
211	0xbe3977cf	-0.1811211
212	0x3fd691e0	1.6763268
213	0x3f3f2853	0.74670905
214	0x3fdbce70	1.7172375
215	0xbf6c5117	-0.92311233
216	0xbec42775	-0.38311353
217	0xbf08e1e8	-0.53469706
218	0x3d99818b	0.074954115
219	0xbf1e3ff8	-0.6181636
220	0x3e1851d1	0.1487496
221	0x3ecee9a8	0.4041264
222	0xbe806d7d	-0.25083533
223	0xbfa4e506	-1.2882392
224	0xbca84883	-0.020542389
225	0xbf347668	-0.70493174
226	0x3ea19bb7	0.31564113
227	0xbf4aabc1	-0.79168326
228	0xbdaa4d94	-0.08315578
229	0x3ca31f63	0.019912427
230	0xbedb2fb7	-0.4280984
231	0xbf0b2f0a	-0.5436865
232	0xbf84b203	-1.0366825
233	0x3eb5350b	0.3539203
234	0xbfa31409	-1.2740489
235	0xbe464cb4	-0.19365197
236	0x3eacdcd3	0.33762226
237	0xbf4cb5f7	-0.79965156
238	0x40208420	2.5080643
239	0x3e3beb95	0.18351586
240	0x3da30ae8	0.079610646
241	0xbf6a6529	-0.9156061
242	0x3e6011ce	0.21881792
243	0x3f9db396	1.232043
244	0x3edcca6c	0.43123186
245	0xbea13053	-0.3148218
246	0xbf4482d2	-0.76762116
247	0x3ccaf8a2	0.02477676
248	0x3e27e1ec	0.16394776
249	0xbe2e44c7	-0.17018424
250	0x3e4163e4	0.18885761
251	0x3f7afb8c	0.9804008
252	0xbf362599	-0.7115112
253	0xbf7ed352	-0.995412
254	0xbf251169	-0.6447969
255	0x400fc479	2.2463667

linear.bias f4 [10]
0	0x3f077fc9	0.5292936
1	0xbeb82e91	-0.35973027
2	0xbe3372fa	-0.17524329
3	0x3f127271	0.57205874
4	0x3d9020fb	0.070375405
5	0xbe936ff2	-0.28796345
6	0x3f06a563	0.5259611
7	0xbc0c560f	-0.00856544
8	0xbe04ebef	-0.12980627
9	0xbf2f04b9	-0.6836658

onnx::Conv_177 f4 [16, 3, 3, 3]
0	0x3e9ec225	0.31007496
1	0x3f4749dd	0.7784708
2	0x3eeb1fbb	0.45922646
3	0xbe8f9230	-0.2804122
4	0x3e59a2af	0.21253465
5	0x3d9f5a90	0.07780945
6	0xbefd03fa	-0.49417096
7	0xbf289835	-0.6585725
8	0xbedc2790	-0.42998934
9	0xbcf6cb64	-0.030126281
10	0x3ed1316a	0.40858012
11	0x3c56e6bd	0.013116536
12	0xbe86b3eb	-0.26309142
13	0x3e185f7f	0.14880179
14	0x3d388bdc	0.045055255
15	0xbe0b14cb	-0.1358215
16	0xbe4a221a	-0.19739571
17	0xbdad4ee5	-0.084623136
18	0xbdbac399	-0.091193385
19	0xbdbe0d87	-0.09279924
20	0xbee49582	-0.44645315
21	0xbdd971eb	-0.10617431
22	0x3df54e96	0.1197788
23	0xbdc8e0d7	-0.0980851
24	0x3eb9592a	0.3620084
25	0x3e7d8533	0.24757843
26	0x3e191c82	0.14952281
27	0xbd868b36	-0.06569521
28	0x3d65bb22	0.056086667
29	0x3dbef24a	0.09323557
30	0xbc3bda33	-0.011465597
31	0x3e8f4149	0.27979496
32	0x3e8c3414	0.27383482
33	0xbdf380f9	-0.11889834
34	0xbdb78643	-0.08961155
35	0xbe0c981c	-0.137299
36	0xbd076e3c	-0.033064112
37	0x3cc4fb9a	0.024045754
38	0x3d05b3e3	0.032642256
39	0xbc72f819	-0.014829659
40	0x3dbab1c9	0.09115941
41	0x3c695aa8	0.014242806
42	0xbd23d97c	-0.04000233
43	0xbdcf742c	-0.1012958
44	0xbe3fbaa8	-0.18723547
45	0xbc8384ac	-0.016054474
46	0x3d72e91a	0.059304334
47	0x3e006aae	0.12540695
48	0xbdaed255	-0.085362114
49	0x3d46b92d	0.04851644
50	0x3dac04fb	0.083993874
51	0x3bc3e812	0.0059785927
52	0xbca194e7	-0.019724322
53	0xbe0f7df1	-0.14012887
54	0xbeced3a0	-0.40395832
55	0x3dd59316	0.10428445
56	0xbe99fb86	-0.3007471
57	0x3ed0f560	0.40812206
58	0xbf8bcdfe	-1.0922239
59	0x3e5bcb2d	0.21464224
60	0x3efe4e84	0.49669278
61	0xbd7f4037	-0.0623171
62	0x3ec28503	0.37992105
63	0xbe00daeb	-0.1258351
64	0x3ebcf803	0.36907968
65	0xbd84e6f8	-0.06489366
66	0x3f13ddf4	0.5776055
67	0xbf8d5259	-1.1040756
68	0x3ec6c9e3	0.38825902
69	0x3ea92b77	0.33040974
70	0xbeaf9527	-0.34293482
71	0x3c97c234	0.01852522
72	0xbd840e42	-0.06448032
73	0x3f1e1ebe	0.6176566
74	0x3d253d5e	0.040341727
75	0x3ea45a08	0.32099938
76	0xbf36fdef	-0.7148122
77	0x3eed9d7c	0.46409214
78	0xbe342bc8	-0.17594826
79	0xbeda5c68	-0.42648625
80	0x3e36db4a	0.1785709
81	0xbc3c0a03	-0.011476996
82	0xbdbe5b52	-0.09294762
83	0xbd558590	-0.05212933
84	0xbdd4b87e	-0.103867516
85	0xbe25a4b4	-0.1617611
86	0xbe1c06b9	-0.1523694
87	0xbdface53	-0.122463845
88	0xbe1712a5	-0.14753206
89	0xbe39374d	-0.18087502
90	0x3c37ec69	0.011225798
91	0x3c1468bd	0.009058175
92	0x3d035e44	0.03207232
93	0x3c945a8b	0.01810958
94	0x3dbb0713	0.09132209
95	0x3d352e71	0.044233743
96	0xbd337a4f	-0.043817814
97	0x3c5cf977	0.013487211
98	0xbd1a42ce	-0.037661366
99	0x3c95fdaa	0.018309433
100	0x3e1a5173	0.15070133
101	0x3d88b58f	0.066752546
102	0x3dc8cf1a	0.098051265
103	0x3e8d5512	0.27603966
104	0x3e26c9b5	0.16287883
105	0xbabaa4d3	-0.0014239795
106	0x3e101d50	0.14073682
107	0x3cdf61be	0.027268287
108	0xbcd30f9c	-0.025764279
109	0x3c3af68d	0.011411321
110	0xbd36e7b8	-0.044654578
111	0xbdb87c69	-0.09008104
112	0xbda53eba	-0.08068605
113	0xbd59da27	-0.053186562
114	0xbd3a0611	-0.04541594
115	0xbd9bff67	-0.076170735
116	0xbc4a2795	-0.012338539
117	0x3ca7c4f3	0.020479655
118	0x3d71e65a	0.05905757
119	0x3cc84f4f	0.02445188
120	0xbcd96e81	-0.02654195
121	0xbca1a30c	-0.019731067
122	0xbcf8199c	-0.030285649
123	0xbd2fae69	-0.04289094
124	0xbd000b54	-0.031260803
125	0xbd71c68a	-0.059027232
126	0x3e02b033	0.12762527
127	0x3e043d53	0.12914018
128	0x3db4a715	0.08820931
129	0x3def2335	0.11676637
130	0x3dc152e9	0.09439642
131	0x3d0286d2	0.031866856
132	0x3c35ec33	0.011103678
133	0x3d86c90b	0.06581315
134	0x3c6f0aff	0.014590024
135	0x3eab2814	0.33429015
136	0xbd36abb9	-0.04459736
137	0x3dd7ff0a	0.10546692
138	0xbe88d1da	-0.26722604
139	0xbf10a51a	-0.56501925
140	0xbe0ea53a	-0.13930216
141	0x3e1dfcab	0.15428416
142	0xbda0c4f6	-0.07850067
143	0x3ead1c62	0.33810717
144	0x3d21b8f2	0.03948302
145	0xbe55346c	-0.20820779
146	0x3d0b2a9e	0.03397619
147	0xbe2ee3e3	-0.1707912
148	0xbf076ff2	-0.5290519
149	0xbe9c9a26	-0.30586356
150	0xbcbd1a5f	-0.023083864
151	0xbe600411	-0.21876551
152	0x3e52fe8f	0.20604919
153	0x3d582521	0.052769784
154	0x3c4bb7ec	0.012433987
155	0x3e7d4396	0.24732813
156	0xbe17bd0c	-0.1481821
157	0xbe5ab6ed	-0.21358843
158	0xbd2f09b9	-0.04273388
159	0x3e07f7e4	0.13278157
160	0xbcb2c733	-0.021823501
161	0x3ec16724	0.37774003
162	0x3cb8ac97	0.022543235
163	0x3d225b97	0.039638128
164	0x3d1b4f64	0.03791751
165	0x3ce28edd	0.027656013
166	0x3d0aba20	0.03386891
167	0x3c218e9f	0.009860664
168	0x3d20a471	0.039219324
169	0x3b298701	0.0025867822
170	0x3a42098c	0.0007401935
171	0x3b81b557	0.003958385
172	0xbbb5617c	-0.0055353027
173	0xbcc8c070	-0.024505824
174	0xbcc6a5c4	-0.024248965
175	0xbd3d3cfa	-0.04620073
176	0xbd36676a	-0.044532217
177	0x3c786642	0.015161099
178	0xbcc7b046	-0.024376046
179	0xbd191c68	-0.037380606
180	0xbce30304	-0.027711399
181	0xbd4f1bee	-0.050563745
182	0xbd0aaf8d	-0.033858825
183	0xbd30b90c	-0.043145224
184	0xbd834f7c	-0.06411645
185	0xbd9e54f9	-0.07731051
186	0x3d0841e8	0.033265978
187	0x3c060c7a	0.008181686
188	0xbd43ff8f	-0.04785114
189	0x3d72b62a	0.059255756
190	0x3cfcc3ff	0.030855177
191	0xbd8a50e6	-0.067537114
192	0x3d1abdb3	0.037778568
193	0x3d854d8c	0.065089315
194	0x3d97d8dd	0.0741441
195	0x3d4ef30e	0.050524764
196	0x3d390d38	0.045178622
197	0x3d3be27d	0.045870293
198	0xbd27e34a	-0.040988244
199	0xbd60918b	-0.0548263
200	0xbc1c4c53	-0.0095396815
201	0xbe48b620	-0.19600725
202	0xbdc4f3ba	-0.096168
203	0xbdba281c	-0.090896815
204	0xbe184b03	-0.14872365
205	0xbe763284	-0.24042708
206	0xbd9e803d	-0.07739303
207	0x3e03cba2	0.12870649
208	0x3e242e67	0.16033326
209	0x3e53dcec	0.20689744
210	0xbd76fabe	-0.06029772
211	0x3cfab286	0.030602705
212	0x3e22f396	0.15913233
213	0xbe233d7b	-0.15941422
214	0xbe1978f4	-0.14987546
215	0xbdbe7948	-0.09300476
216	0xbddfc527	-0.10926276
217	0x3e03e206	0.1287919
218	0xbcb05bc2	-0.021528129
219	0xbba1f470	-0.0049424693
220	0x3e6ecd9e	0.23320624
221	0x3de2a456	0.11066501
222	0x3d9ae9e5	0.07564143
223	0x3dd75010	0.105133176
224	0xbd068b6f	-0.032847818
225	0xbe87ebae	-0.26546997
226	0xbe111291	-0.14167239
227	0xbda16009	-0.078796454
228	0x3ba282db	0.004959447
229	0x3e3183a1	0.17335369
230	0x3df7df6d	0.12103162
231	0x3ddba565	0.10724906
232	0x3dbeb864	0.093125135
233	0xbaf587bd	-0.001873247
234	0xbe481ac5	-0.19541462
235	0x3dda9007	0.10672002
236	0x3d5d5db0	0.054044425
237	0xbd5d4a32	-0.054025836
238	0x3ecb98e8	0.39765096
239	0x3dd79299	0.10526008
240	0xbe34cd8b	-0.17656533
241	0x3d527121	0.05137742
242	0xbd96cd15	-0.07363335
243	0x3da890b3	0.08230724
244	0x3e81adb0	0.25327826
245	0x3c77742c	0.015103381
246	0xbecba80f	-0.39776656
247	0xbeee2f55	-0.46520486
248	0xbdfcd9a8	-0.12346202
249	0x3eae0c39	0.339937
250	0x3e82f944	0.255808
251	0x3e0ab06d	0.13543864
252	0x3e8ddce4	0.2770759
253	0x3ea52054	0.32251227
254	0x3d8c31af	0.06845414
255	0xbebaafdc	-0.36462295

onnx::Conv_178 f4 [16]
0	0xbe60af39	-0.21941842
1	0x3f9e541d	1.2369419
2	0x3fbafe2d	1.4608818
3	0x3f29f797	0.6639342
4	0xbeac72fc	-0.33681476
5	0xbfcaaac5	-1.5833365
6	0xbd9ec323	-0.07752063
7	0xbd1a8a68	-0.03772965
8	0xbe28d668	-0.1648804
9	0x3ed89ebe	0.4230861
10	0x3d9a861e	0.07545112
11	0xbe6dba9e	-0.2321572
12	0x3f7095ff	0.93978876
13	0x3b041d00	0.0020158887
14	0x3e2b46a5	0.16726168
15	0x3f882e0b	1.0639051

onnx::Conv_180 f4 [16, 16, 3, 3]
0	0xbdfe6237	-0.12421077
1	0xba1d2614	-0.0005994749
2	0x3d4a3a8d	0.049372245
3	0xbd896e4e	-0.06710492
4	0xbde7a95a	-0.11311598
5	0x3cffede7	0.03124137
6	0xbd531d01	-0.051541332
7	0xbde7bd19	-0.113153644
8	0x3c31c8da	0.010851109
9	0x3e39ad5e	0.1813254
10	0x3e14ae2e	0.1451957
11	0x3d072cb0	0.0330016
12	0x3e2d939c	0.1695084
13	0xbd86adf3	-0.06576147
14	0xbd7fc509	-0.062443767
15	0x3b2a7b35	0.0026013379
16	0xbdf58505	-0.11988262
17	0xbd1af93d	-0.03783535
18	0xbd7928d9	-0.06082997
19	0xbdc7be6b	-0.09753116
20	0x3d665b73	0.056239557
21	0xbe7940e5	-0.24341162
22	0x3ea5b2a2	0.3236285
23	0xbd664d4d	-0.056226064
24	0x3d88d8cc	0.06681976
25	0x3d3caf6a	0.046065725
26	0xbe3b68a8	-0.18301642
27	0x3d29bd7f	0.041440483
28	0xbcd4cdd9	-0.025977062
29	0x3d275aa5	0.04085793
30	0x3ca61b47	0.020276679
31	0xbb4a2fe8	-0.0030851308
32	0x3d7bc603	0.061468136
33	0xbd1ecf2a	-0.038771786
34	0xbc734ff2	-0.014850603
35	0x3de28983	0.110613845
36	0xbc92a7ce	-0.017902281
37	0xbd471203	-0.04860116
38	0xbd89ddff	-0.067317955
39	0xbd88fbba	-0.06688638
40	0xbd20c86a	-0.03925363
41	0xbc06cf8a	-0.008228192
42	0xbd1219df	-0.035669204
43	0xbc5e1cad	-0.0135566415
44	0x3cdea13c	0.027176492
45	0xbd6b3bcc	-0.057430074
46	0xbd375002	-0.044754036
47	0xbc405f4c	-0.011741471
48	0xbdccd184	-0.100008994
49	0x3c67ee2b	0.014155905
50	0x3c6e32bd	0.014538464
51	0xbe0ddc92	-0.13853672
52	0x3cca95af	0.024729578
53	0xbd59c071	-0.053162042
54	0x3df6abdb	0.120444976
55	0x3d1c61dd	0.038179267
56	0x3da40da1	0.08010412
57	0x3d1b4916	0.037911497
58	0x3d1fd3ab	0.03902022
59	0xbaf96ece	-0.0019030215
60	0xbbf1c802	-0.007378579
61	0xbd84a950	-0.06477606
62	0xbd4fc126	-0.05072131
63	0xbcaf6e0d	-0.021414781
64	0xbad318f5	-0.001610546
65	0xbd2f853b	-0.042851668
66	0x3d6991f4	0.057023957
67	0xbc42e016	-0.011894247
68	0x3acb5cc0	0.0015515313
69	0x3d880a1e	0.06642555
70	0xbcf1d479	-0.02952026
71	0x3cd44fdd	0.025916988
72	0x3d677750	0.05651027
73	0x3d912884	0.07087806
74	0x3c03f96a	0.00805507
75	0x3c319fd0	0.010841325
76	0xbc34a023	-0.011024508
77	0xbc9f2214	-0.01942543
78	0xbd86622c	-0.065616935
79	0xbd13461e	-0.03595554
80	0xbd5d74ac	-0.054066345
81	0x3b415cb3	0.0029504716
82	0xbdaae87c	-0.08345124
83	0xbd82d2cb	-0.06387862
84	0xbe0f1850	-0.13974118
85	0xbdb9442a	-0.090462044
86	0x3d4d4779	0.05011699
87	0x3d4c205d	0.04983555
88	0xbb80c730	-0.003929995
89	0x3dc0d7a1	0.09416128
90	0xbd633bbb	-0.055476885
91	0xbd90ed8a	-0.07076557
92	0xbcc425ab	-0.023943743
93	0xbdb523c7	-0.088447146
94	0xbd29b656	-0.041433655
95	0x3d9f8bda	0.077903464
96	0xbd15531d	-0.036456216
97	0x3d28a6d5	0.04117473
98	0x3d9af4aa	0.07566197
99	0xbe0a5477	-0.13508783
100	0x3c925ab2	0.017865513
101	0x3dab498c	0.08363637
102	0xbd8ce97c	-0.06880471
103	0x3dfe3ae2	0.12413575
104	0xbdb7cd27	-0.089746766
105	0x3d0a8c0d	0.03382497
106	0xbcbbe28b	-0.022935173
107	0xbe29fcb2	-0.16600302
108	0x3cb83044	0.022483952
109	0xbe72483d	-0.23660369
110	0xbe06a9c1	-0.13150693
111	0xbea76e97	-0.3270156
112	0xbdd1d2d7	-0.10245293
113	0x3e53737c	0.20649523
114	0xbdd60bbf	-0.10451459
115	0x3e1cbe69	0.1530701
116	0xbc9f4018	-0.019439742
117	0xbd8a58be	-0.067552075
118	0x3cc53a51	0.024075659
119	0x3e248cf8	0.160694
120	0xbdad7409	-0.084693976
121	0x3bd531cb	0.00650618
122	0x3d2147e0	0.039375186
123	0x3e127f63	0.14306407
124	0x3c4d28b5	0.012521912
125	0xbe06580a	-0.13119522
126	0x3d02e195	0.031953413
127	0xbd329600	-0.043600082
128	0x3d080193	0.033204626
129	0xbda70eb6	-0.08157103
130	0xbde108e3	-0.10988023
131	0xbd3e7932	-0.0465023
132	0xbd23ab25	-0.039958138
133	0xbdd1cb43	-0.10243847
134	0xbbceb583	-0.006308259
135	0xbe6fab48	-0.23405182
136	0x3dce92a5	0.10086564
137	0x3cd50c11	0.02600673
138	0x3e181409	0.14851393
139	0x3e5e6418	0.2171787
140	0xbe290d11	-0.1650889
141	0x3e412a8a	0.18863884
142	0xbdf6ffc9	-0.12060506
143	0xbe1468c9	-0.14493097
144	0x3d558e81	0.052137855
145	0xbc41ac65	-0.011820887
146	0xbc197342	-0.0093658585
147	0x3d3fae64	0.04679717
148	0xbdaa1c3d	-0.08306167
149	0xbdc0ec92	-0.09420122
150	0x3d4257fc	0.04744719
151	0x3d214668	0.039373785
152	0xbd9e97d3	-0.07743802
153	0x3c279705	0.010228877
154	0xbc8c835f	-0.017152486
155	0xbc053e16	-0.008132478
156	0xb9bca3ed	-0.00035980289
157	0x3d174a49	0.03693608
158	0xbbbd8f9a	-0.005784941
159	0xb9d0425c	-0.00039722293
160	0x3d3677e6	0.044547938
161	0xbc2aabec	-0.010416966
162	0xbc84ad7c	-0.016196005
163	0x3dd625dc	0.1045644
164	0xbdab0c7f	-0.08351993
165	0x3b068172	0.0020523933
166	0x3c508f1a	0.012729431
167	0xbded2a25	-0.11580304
168	0x3dad0926	0.084490106
169	0xbd9cdecc	-0.07659683
170	0xbd8cabdc	-0.06868717
171	0xbd6e329d	-0.058153737
172	0xbc398dbc	-0.011325296
173	0x3d9067c9	0.070510454
174	0xbda76b56	-0.081747696
175	0xba38023b	-0.00070193753
176	0x3dc4f881	0.09617711
177	0xbda75548	-0.08170563
178	0xbcf2975c	-0.02961319
179	0x3d12f3e4	0.035877123
180	0xbc8038eb	-0.01565214
181	0xbbe19fbe	-0.006885498
182	0xbcea86e6	-0.028628778
183	0xbcc62614	-0.024188079
184	0x3bfc0408	0.0076909102
185	0x3ca164be	0.019701358
186	0x3ce0129f	0.02735263
187	0x3bddf7fe	0.0067739477
188	0x3d066aaa	0.032816567
189	0x39354846	0.00017288429
190	0x3be0a6eb	0.0068558357
191	0x3c46c4e1	0.0121319005
192	0x3c962974	0.018330313
193	0xbc0e5faf	-0.008689805
194	0xbda6bdba	-0.08141656
195	0xb87ea04d	-6.070761e-05
196	0x3a49c870	0.0007697409
197	0xbc6715a9	-0.014104285
198	0x3d7820c1	0.06057811
199	0xbb7d82cd	-0.00386827
200	0xbb9deb8e	-0.00481934
201	0x3d1c7341	0.038195852
202	0x3cc87c16	0.024473231
203	0x3c1fe034	0.009758044
204	0x3d1bb57e	0.03801488
205	0x3cf3cb9d	0.029760176
206	0xbc966f85	-0.018363724
207	0xbc291d96	-0.010321995
208	0xbbbeb381	-0.0058197384
209	0x3b5b7762	0.0033487906
210	0x3ce989ad	0.028508032
211	0x3d1e6e81	0.038679603
212	0x3bccb2bb	0.0062468923
213	0xbc5ed82d	-0.013601345
214	0xbc7a9e6c	-0.01529656
215	0x3c9a5416	0.018838923
216	0x3c75062d	0.014955086
217	0x3cda325c	0.026635341
218	0xbcbc753c	-0.02300512
219	0x3ca6032d	0.020265186
220	0xbc7e2a21	-0.015512974
221	0x3b0e177c	0.0021681478
222	0x3b84d714	0.0040539596
223	0xbc0887c9	-0.008333155
224	0xbcb0dbf2	-0.021589253
225	0xbc246c9e	-0.010035662
226	0x3c931b7e	0.017957445
227	0xbc75422d	-0.014969391
228	0x3d2e8094	0.04260309
229	0xbd4137a5	-0.047172207
230	0xbca89ba6	-0.020582031
231	0x3daf9b09	0.085744925
232	0xbd10818b	-0.03527979
233	0xbc4345f1	-0.011918531
234	0x3d1b314e	0.037888817
235	0xbb543589	-0.0032380542
236	0xbd05a997	-0.032632437
237	0x3c8890a1	0.016670527
238	0x3d5e597f	0.05428457
239	0x3c5216d7	0.012822828
240	0x3d720c92	0.05909402
241	0x3ae3b739	0.001737333
242	0xb7c6c764	-2.3696288e-05
243	0x3c971d2d	0.01844653
244	0x3d23fa16	0.040033422
245	0x3d7321e8	0.059358507
246	0x3d42f0bc	0.047592863
247	0x3c98ddc0	0.018660426
248	0xbc618565	-0.013764714
249	0xbd066dc3	-0.03281952
250	0xbd8b6347	-0.06806045
251	0x3b8023f8	0.003910538
252	0xbe21300e	-0.15740988
253	0xbcb7e820	-0.022449553
254	0xbdba12d7	-0.09085625
255	0xbd5a3a4e	-0.05327826

onnx::Conv_181 f4 [16]
0	0x3ecc79eb	0.39936766
1	0x3ffe998d	1.989061
2	0x40205288	2.5050373
3	0x3ebe4268	0.3716004
4	0xbffd6e8b	-1.979936
5	0xbf6cf151	-0.9255572
6	0x40100c82	2.2507634
7	0xbe696598	-0.22792661
8	0x3e23313a	0.15936747
9	0x3f4f3a21	0.8094807
10	0x400ed8ca	2.2319818
11	0x3fcc08c4	1.5940175
12	0xbfc5f09d	-1.5464054
13	0x3ecd87d6	0.40142697
14	0xbea499cd	-0.3214859
15	0x3f565864	0.83728623

onnx::Conv_183 f4 [16, 16, 3, 3]
0	0xbd063409	-0.03276447
1	0xbe0fd881	-0.14047433
2	0x3e0b9754	0.13631946
3	0x3e5d2668	0.21596682
4	0x3ee5028e	0.44728512
5	0x3ecb64b0	0.39725256
6	0x3eb5b7a7	0.35491678
7	0x3f00eb62	0.50359166
8	0x3e90eb6d	0.28304616
9	0xbd8ba988	-0.06819445
10	0xbda21ff9	-0.079162546
11	0xbe308d98	-0.17241514
12	0xbdcd093d	-0.10011528
13	0xbea43bf1	-0.32076982
14	0xbe82f35a	-0.25576288
15	0xbe5fabd4	-0.21842891
16	0xbefd6240	-0.4948902
17	0xbd1b46f8	-0.037909478
18	0xbe273358	-0.1632818
19	0xbe5ed2cd	-0.21760102
20	0xbe90726a	-0.2821229
21	0xbe156b37	-0.1459168
22	0xbe75403c	-0.23950285
23	0xbd9ada5f	-0.07561182
24	0xbe5ae078	-0.2137469
25	0xbc7fb68d	-0.015607488
26	0x3bcba2c5	0.006214472
27	0x3e7cdcd3	0.24693613
28	0x3c6fee0e	0.014644159
29	0x3d1962a8	0.0374476
30	0xbd069ab1	-0.03286237
31	0xbd465333	-0.04841919
32	0xbe33ffdb	-0.1757807
33	0xbdb6f542	-0.08933498
34	0xbe58df0d	-0.21178837
35	0xbdf6d087	-0.12051492
36	0xbebf9cdb	-0.3742436
37	0xbdfdbf4b	-0.12390002
38	0xbe800e8a	-0.25011092
39	0xbe417420	-0.18891954
40	0xbea1b3c0	-0.3158245
41	0xbebc43f1	-0.36770585
42	0xbeddcb57	-0.43319198
43	0xbf040f4b	-0.51585835
44	0xbec23a82	-0.37935263
45	0x3e57c693	0.21071844
46	0x3dc8709a	0.09787102
47	0x3d574f7f	0.052566048
48	0x3e894d54	0.2681681
49	0x3dfc1d4c	0.123102754
50	0xbd8cc1c7	-0.068728976
51	0x3dd58353	0.10425439
52	0x3e8092b0	0.25111914
53	0xbd60218a	-0.054719485
54	0x3e5c88a9	0.21536507
55	0xbded12d7	-0.11575859
56	0xbe91d5a7	-0.28483316
57	0xbdf32df8	-0.11874002
58	0xbe2ce52e	-0.168843
59	0x3d0e6de5	0.034772772
60	0x3df3d5fb	0.11906048
61	0x3e6a4cb9	0.2288083
62	0x3d308aa3	0.043100964
63	0x3ed34ce1	0.4126959
64	0x3e454cbe	0.19267556
65	0x3e1f42ee	0.15552875
66	0x3e813fe0	0.25244045
67	0x3e93b119	0.28846052
68	0x3e13eab3	0.14445
69	0x3ddc1c10	0.1074754
70	0x3e9c8d87	0.30576727
71	0x3e599fca	0.21252361
72	0x3e30c743	0.17263512
73	0xbe0fe4d7	-0.14052139
74	0xbc8ccd73	-0.01718781
75	0x3da489b5	0.08034078
76	0x3e6df0d4	0.232364
77	0x3e0c39fe	0.13693997
78	0x3e616bfd	0.2201385
79	0x3d1e9905	0.03872015
80	0xbd445a65	-0.04793777
81	0x3eb35f94	0.35033858
82	0x3dcb1074	0.099152476
83	0xbceecfca	-0.029151816
84	0x3d9ad9a1	0.07561041
85	0xbbf0ca4d	-0.007348335
86	0xbe0aeb42	-0.13566306
87	0xbd8a134d	-0.067419626
88	0x3e08a413	0.1334384
89	0x3ea7d47d	0.32779303
90	0x3dfacc1a	0.122459605
91	0xbe411973	-0.18857364
92	0xbea4d951	-0.3219705
93	0xbe0bd5a2	-0.13655713
94	0xbed405c1	-0.4141064
95	0xbe974ebe	-0.29552263
96	0xbe10c1c6	-0.14136419
97	0xbe38e0ad	-0.18054457
98	0xbde40eea	-0.11135657
99	0xbec01b68	-0.3752091
100	0x3cfa0a0a	0.030522365
101	0x3e82e2af	0.2556357
102	0xbd4885e3	-0.04895581
103	0xbe1c0479	-0.15236081
104	0xbbc6227c	-0.0060465913
105	0xbe729faf	-0.23693727
106	0xbe58d5e4	-0.21175343
107	0xbe9e3d33	-0.30906066
108	0x3ce1e8e4	0.027576871
109	0xbeada1a8	-0.33912396
110	0xbe4b0ece	-0.19829866
111	0xbe10881c	-0.14114422
112	0xbdd82e2f	-0.10555684
113	0xbede2ea5	-0.43394962
114	0x3de9d5b6	0.11417715
115	0x3d3adafb	0.045618992
116	0x3e9235e6	0.28556746
117	0x3e1c8438	0.15284812
118	0xbd6fb6a2	-0.05852378
119	0xbee346ee	-0.44390053
120	0xbc31450b	-0.010819684
121	0x3e156441	0.14589025
122	0xbe2e4b05	-0.17020805
123	0xbf098c1a	-0.53729403
124	0xbe4810d6	-0.19537672
125	0x3e9caeca	0.30602103
126	0xbe05ff02	-0.13085559
127	0x3cda6ce2	0.026663247
128	0xbe6f78fb	-0.23385994
129	0xbdf4d7b8	-0.119552076
130	0xbecb23cb	-0.39675745
131	0xbe98d2bd	-0.2984828
132	0x3f1bb4f5	0.60822994
133	0x3e43d305	0.19123466
134	0xbeb9b36b	-0.36269698
135	0x3ee231e9	0.44178703
136	0x3f0713b0	0.52764416
137	0x3f0086a8	0.5020547
138	0xbc7a2264	-0.015266988
139	0x3e500e62	0.20317987
140	0x3e7831fe	0.2423782
141	0x3e4a2773	0.19741611
142	0x3e788235	0.2426842
143	0x3db5cb0e	0.0887662
144	0x3ecd7265	0.4012634
145	0xbdeb9db8	-0.11504692
146	0xbef27db2	-0.47361523
147	0xbe924cf4	-0.28574336
148	0xbef7df5d	-0.484126
149	0xbf4dac32	-0.80340874
150	0x3e703d36	0.2346085
151	0x3eabcc60	0.33554363
152	0xbe5eb34e	-0.21748087
153	0x3ef884d0	0.48538828
154	0xbeab7f84	-0.33495724
155	0xbf011f48	-0.50438356
156	0xbe200ff9	-0.15631093
157	0xbe84395f	-0.2582502
158	0x3e5e51e7	0.21710931
159	0x3e1113c6	0.14167699
160	0x3ea73a7e	0.32661813
161	0x3e762cca	0.24040523
162	0xbc4f5b90	-0.012656108
163	0xbaca00f0	-0.0015411656
164	0x3e03f4d3	0.12886362
165	0xbe3c59d8	-0.18393648
166	0xbb8d5e0d	-0.0043141902
167	0x3e93452f	0.2876372
168	0x3d88999d	0.066699244
169	0x3e464274	0.19361287
170	0x3f52727f	0.8220596
171	0x3e51978e	0.2046797
172	0xbdd4519d	-0.10367129
173	0x3d1e5997	0.03865966
174	0x3e7ab65c	0.24483627
175	0x3e2f9bb2	0.17149237
176	0xbdb0594f	-0.08610784
177	0xbe798db5	-0.24370463
178	0xbe9301d0	-0.2871232
179	0xbf5c7a20	-0.8612385
180	0xbc6af0e2	-0.0143396575
181	0x3df5a628	0.119945824
182	0x3ead9894	0.3390547
183	0xbc3d2b67	-0.011545992
184	0x3e88e9ee	0.26740974
185	0x3d00075e	0.031257026
186	0xbe8e3b40	-0.2777958
187	0xbe30eec3	-0.1727858
188	0xbdc19a85	-0.094533004
189	0x3eb4cd6c	0.35312974
190	0xbe4e5dca	-0.20152965
191	0xbe21f4cb	-0.15816037
192	0x3dbaadd8	0.09115189
193	0xbe95a8c8	-0.29230332
194	0xbed47cc4	-0.4150144
195	0xbee1446a	-0.43997508
196	0xbf704e0a	-0.9386908
197	0xbf80ecf5	-1.0072314
198	0xbeb5046d	-0.3535494
199	0x3d553566	0.052052878
200	0x3e886ccc	0.26645505
201	0xbe9dfad2	-0.30855423
202	0x3ee1d140	0.44104958
203	0x3ec25d69	0.3796189
204	0x3eab05fe	0.3340301
205	0xbf241ffd	-0.6411131
206	0xbf2803d4	-0.6563084
207	0xbdefd34e	-0.11710225
208	0xbe510208	-0.20410931
209	0x3e8daab9	0.27669314
210	0xbeab34ff	-0.3343887
211	0xbec57d00	-0.3857193
212	0xbe05a3d2	-0.13050774
213	0xbeb824c8	-0.35965562
214	0xbdbc4b1b	-0.09194013
215	0xbd61f3f6	-0.0551643
216	0xbe578e8b	-0.2105047
217	0xbeb5563b	-0.3541735
218	0x3ea33a68	0.31880498
219	0xbe918385	-0.28420654
220	0x3e2ba758	0.16763055
221	0x3ecfa3bd	0.4055461
222	0x3eae2f0b	0.34020266
223	0x3d93481f	0.071914904
224	0x3e97ab3f	0.29622838
225	0x3f974f2f	1.182104
226	0x3e5c6008	0.21521008
227	0xbf18fd5d	-0.597616
228	0xbb969cb3	-0.0045963167
229	0xbf8b63b6	-1.0889804
230	0xbf6acc3c	-0.91717887
231	0xbe76ff5c	-0.2412085
232	0xbe733f54	-0.23754627
233	0xbf1c4d46	-0.6105541
234	0x3e4bf9e3	0.19919543
235	0x3f0155f0	0.50521755
236	0x3e1478b5	0.14499171
237	0x3bd1e5a0	0.0064055473
238	0xbdde9733	-0.10868683
239	0x3cfc6217	0.030808492
240	0xbef90672	-0.4863773
241	0xbf451228	-0.7698083
242	0xbf02228e	-0.50833976
243	0x3e458a9f	0.19291161
244	0x3f4100d9	0.7539192
245	0x3f4a8aa0	0.79117775
246	0x3ebef1fe	0.37294
247	0x3b9e1980	0.004824817
248	0x3e1e1c26	0.15440425
249	0xbe9e10d1	-0.30872205
250	0xbf3ba107	-0.73292583
251	0xbf931a1e	-1.1492345
252	0xbe87f7fd	-0.26556388
253	0xbe8c0964	-0.27350914
254	0x3e0030d1	0.12518622
255	0xbe5b5ff2	-0.21423319

onnx::Conv_184 f4 [16]
0	0x3fa7c76f	1.3107737
1	0x3f670f2f	0.90257543
2	0x3ef3ef2c	0.4764341
3	0x3fa5347e	1.2906644
4	0xbf0dcebe	-0.5539359
5	0xbf7b1bd9	-0.9808937
6	0xbfa7ad27	-1.3099717
7	0x3fcbfb87	1.5936135
8	0xbf536601	-0.8257752
9	0x3e8efde4	0.27928078
10	0xbedeebf2	-0.43539387
11	0x3f78806c	0.97070956
12	0x3f84d285	1.0376745
13	0xbf885e96	-1.0653865
14	0xbdfb83a0	-0.12280965
15	0x3f59431c	0.84868026

onnx::Conv_186 f4 [16, 16, 3, 3]
0	0x3c9f2223	0.019425457
1	0x3d443670	0.04790348
2	0x3d36c027	0.044616845
3	0xbcc47234	-0.023980238
4	0x3cefed82	0.029288057
5	0x3ce2065c	0.027590923
6	0xbd8b9680	-0.06815815
7	0x3d5aafac	0.05339019
8	0x3d26bf83	0.040709984
9	0x3b9e24b4	0.0048261527
10	0x3c4144eb	0.0117962165
11	0xbcbfc300	-0.023408413
12	0x3c844e8d	0.016150737
13	0x3cf57b32	0.02996597
14	0xbd1e8666	-0.03870239
15	0x3c571f07	0.013129956
16	0x3c757070	0.0149804205
17	0xbc824d94	-0.015906133
18	0x3ce2bc1b	0.027677586
19	0xbc364c04	-0.011126522
20	0x3c188664	0.009309385
21	0x3cf132b6	0.029443126
22	0x3c404b42	0.011736693
23	0x3d0c977d	0.034324158
24	0x3cd61ea3	0.026137656
25	0x3c974918	0.018467471
26	0x3d16fb25	0.036860604
27	0x3cdc6147	0.026901854
28	0x3cc81ffa	0.02442931
29	0xbc0c90ad	-0.008579415
30	0x3d2a49af	0.041574176
31	0x3d4157a4	0.04720272
32	0xbd277030	-0.040878475
33	0x3d1915e5	0.037374396
34	0x3d88dedb	0.06683131
35	0xbc9f6e86	-0.019461881
36	0x3d0b8670	0.034063756
37	0x3d5e38bb	0.05425332
38	0xbc503552	-0.012708025
39	0x3d8eba7e	0.06969164
40	0x3da475c8	0.080302775
41	0x3d30b084	0.04313709
42	0x3ce86502	0.028368477
43	0x3cf46b8a	0.029836435
44	0x3d30699a	0.04306946
45	0x3c15b5b3	0.009137559
46	0xbb15b3f0	-0.0022842847
47	0xbd798466	-0.06091728
48	0x3c5bed05	0.013423209
49	0x3bb008fc	0.005372165
50	0xbd015eaf	-0.031584438
51	0xbc696285	-0.01424468
52	0xbc216776	-0.009851327
53	0xbcf9b233	-0.03048048
54	0x3c2ed78c	0.010671508
55	0xbc948d2d	-0.018133724
56	0xbcec6ddd	-0.02886098
57	0xbb4f154d	-0.003159839
58	0x3d305cff	0.043057438
59	0x3cc41ded	0.023940051
60	0xbb934ccc	-0.004495239
61	0xbbe66265	-0.0070307725
62	0x3d220279	0.03955314
63	0x3b7d813a	0.0038681761
64	0x3c1c491a	0.009538913
65	0xbcda6115	-0.02665762
66	0x3ce40144	0.027832635
67	0xbcdb9c80	-0.026808023
68	0xbd903290	-0.07040894
69	0x3d784636	0.060613833
70	0xbcf9a128	-0.030472353
71	0xbcc50a33	-0.024052715
72	0x3baf6544	0.005352648
73	0x34fafea3	4.67514e-07
74	0xbc8b997b	-0.017040959
75	0x3ce390f3	0.027779078
76	0x3c2812ad	0.010258359
77	0xbc51d5fc	-0.0128073655
78	0xbcaf477f	-0.021396397
79	0xbd23701c	-0.039901838
80	0xbbcb2368	-0.006199289
81	0x3ba2c8cb	0.004967784
82	0xbc6c30a8	-0.014415897
83	0xbc47e95f	-0.012201636
84	0x3c2bfba8	0.010497011
85	0x3bd602be	0.0065310886
86	0x3cbf227b	0.023331871
87	0xbc2f42e7	-0.010697103
88	0xbca597da	-0.02021401
89	0xbc5881a2	-0.013214501
90	0xbbb7c59d	-0.005608274
91	0xbcb9314d	-0.022606516
92	0xbbe1aa1c	-0.0068867337
93	0xbc29601f	-0.010337858
94	0xbd135c3c	-0.035976633
95	0xbcb4e119	-0.022079991
96	0xbcc0a498	-0.023515984
97	0xbcc93fce	-0.024566557
98	0xbd298367	-0.04138508
99	0xbceab5c3	-0.028651124
100	0xbd6ab796	-0.057303987
101	0x3d2af8fe	0.041741364
102	0xbcad9695	-0.021189967
103	0x3c075842	0.008260788
104	0x3d923b6f	0.07140242
105	0x3950fa9b	0.00019929784
106	0x3c830d7a	0.015997637
107	0x3d334776	0.043769322
108	0x3d2ef148	0.042710572
109	0xbd0e498d	-0.034738112
110	0xbddd0f64	-0.10793951
111	0xbc1939ff	-0.009352206
112	0xbd4a6d8d	-0.049420882
113	0xbdba3cc5	-0.09093622
114	0xbcf38a64	-0.029729076
115	0xbd9ddc6e	-0.07708059
116	0xbd2c690a	-0.04209236
117	0xbd2580c7	-0.040406015
118	0xbd1c9a01	-0.038232807
119	0xbd5b4952	-0.05353672
120	0xbd55327f	-0.05205011
121	0xbcee5f2a	-0.029098112
122	0xbc396716	-0.0113160815
123	0xbca67cfd	-0.020323271
124	0xbd583c88	-0.052792102
125	0xbd53be74	-0.051695302
126	0xbccf942e	-0.025339212
127	0xbc43c465	-0.01194868
128	0x3d8a1955	0.06743113
129	0xbcea8c51	-0.028631361
130	0xbd380abd	-0.044932116
131	0x3cb39464	0.021921344
132	0x3c353c17	0.01106169
133	0x3cd23805	0.025661478
134	0x3d742f1c	0.05961524
135	0x3c3e4f23	0.011615547
136	0x3d5d8ccb	0.05408935
137	0x3c8e723c	0.017388456
138	0xbd08ca98	-0.033396333
139	0x3d1fb80d	0.038993884
140	0x3d41be88	0.047300845
141	0xbd81db89	-0.06340701
142	0xbd0d78f8	-0.034539193
143	0xbca322d8	-0.019914076
144	0xbc733ab7	-0.014845542
145	0xbccce53c	-0.025011651
146	0xbcee8364	-0.029115386
147	0xbc96ebbf	-0.01842296
148	0xbd393733	-0.045218658
149	0x3c2329fd	0.009958741
150	0xbd249eff	-0.040190693
151	0x3a80ef69	0.0009836975
152	0xbc04daee	-0.0081088375
153	0xbdb4aafe	-0.08821677
154	0xbdc077d0	-0.093978524
155	0xbd06a691	-0.032873694
156	0xbd85b63d	-0.065289
157	0xb87c3810	-6.0133694e-05
158	0xbbe98f91	-0.00712771
159	0x3c656a82	0.014002444
160	0x3b155931	0.0022788758
161	0xbd050b75	-0.03248163
162	0x3d38855c	0.045049056
163	0xbd5a5e94	-0.053312853
164	0xbcd6b055	-0.026207129
165	0xbc86d099	-0.016456889
166	0xbc207b4e	-0.009795023
167	0xbd48723c	-0.048937067
168	0xbd264a14	-0.04059799
169	0xbcd43c24	-0.025907584
170	0x3dda11ec	0.106479496
171	0xbc41b116	-0.011822006
172	0x3c2870e9	0.010280826
173	0x3d925a60	0.07146144
174	0x3a94675e	0.001132231
175	0xbc23debf	-0.010001837
176	0x3cf1c041	0.02951062
177	0xbd44b2ff	-0.048022266
178	0xbd4dd4e1	-0.050251845
179	0x3de32194	0.11090389
180	0xbdba2dd0	-0.09090769
181	0xbd3c61ee	-0.04599183
182	0xbcf8db19	-0.030377911
183	0xbadde6fa	-0.0016929798
184	0xbc3e9af9	-0.011633628
185	0xbc52d40d	-0.01286794
186	0x3a4a6f09	0.0007722234
187	0xbd84b242	-0.064793125
188	0xbbec6909	-0.0072146696
189	0x3d5378e3	0.05162896
190	0xbbb61682	-0.0055568824
191	0xbd083992	-0.03325803
192	0x3d65693c	0.056008562
193	0x3d61c827	0.05512252
194	0xbd5914ae	-0.052998237
195	0x3d8c16e9	0.06840307
196	0x3c2445a9	0.010026374
197	0xbde62e2c	-0.11239275
198	0xbcf352dd	-0.029702598
199	0xbd3f4500	-0.046696663
200	0xbd57384f	-0.052543934
201	0xbd9625b1	-0.07331408
202	0xbd84104f	-0.06448423
203	0x3c670a85	0.014101629
204	0xbd60416e	-0.0547499
205	0xbdbfc593	-0.09363856
206	0xbe038e5a	-0.12847272
207	0x3c58a329	0.013222494
208	0x398c8877	0.00026804555
209	0x3d80b668	0.06284791
210	0xbc619bcd	-0.013770056
211	0xbda94492	-0.08265032
212	0x3d6fbd51	0.058530156
213	0xbd91e788	-0.07124239
214	0xbda65265	-0.08121184
215	0xbd28e6e7	-0.04123583
216	0xbd1b907c	-0.037979588
217	0xbd69c8aa	-0.057076134
218	0x3d0154a4	0.03157486
219	0xbd810c82	-0.06301214
220	0x3b3e612a	0.0029049614
221	0xbc3528c0	-0.011057079
222	0xbc7b587b	-0.01534092
223	0xbd2cfc44	-0.042232767
224	0xbc85defd	-0.01634168
225	0xbcfb33e9	-0.030664401
226	0xbc81d18a	-0.015846986
227	0xbc125c11	-0.008933083
228	0xbb4ddbc3	-0.0031411506
229	0xbce4cfc1	-0.027931096
230	0x3dab8c5b	0.0837638
231	0xbd0577b8	-0.032584876
232	0xbd988b81	-0.07448483
233	0xbb91dbe3	-0.0044512614
234	0x3d4201e5	0.047365088
235	0x3cde095f	0.027104078
236	0x3e08f26a	0.13373724
237	0x3c8d4e2e	0.017249193
238	0x3d6e84b0	0.05823201
239	0x3d15692a	0.036477245
240	0x3cd061a8	0.025437191
241	0x3c7b33d7	0.015332184
242	0x3d135157	0.035966244
243	0xbd8ac433	-0.06775703
244	0xbd35674d	-0.04428797
245	0xbd642c88	-0.05570653
246	0xbbb9289e	-0.005650594
247	0xbd71ae5f	-0.059004184
248	0xbd658c77	-0.05604216
249	0xbd3f4c95	-0.046703894
250	0xbca72f59	-0.02040832
251	0xbbbd3486	-0.0057740835
252	0xbde7993f	-0.11308526
253	0x3dacd704	0.084394485
254	0x3ca53505	0.020166883
255	0xbd0f280c	-0.0349503

onnx::Conv_187 f4 [16]
0	0x3e607b70	0.21922088
1	0x3f84e937	1.0383672
2	0x3eb0ab91	0.34505895
3	0xbe85b387	-0.2611353
4	0xbda9d700	-0.08292961
5	0x3f3b8efc	0.7326505
6	0xbde1e56c	-0.11030087
7	0x3ee5a574	0.44852793
8	0x3e199892	0.14999607
9	0xbbef4de0	-0.0073029846
10	0x3f84669b	1.0343813
11	0x3cecd1d0	0.02890864
12	0x3fdf55f3	1.7448105
13	0xbf6d7274	-0.92752767
14	0xbe31339d	-0.17304845
15	0xbf45e4b6	-0.7730211
