dnn-models/cifar10_resnet10-single.onnx (onnx, 67096 bytes, 32 tensors)

layers.0.0.decision_head.channel_gates f4 [5, 8]
0	0x3eeb7f8f	0.45995757
1	0x3ef8e2ce	0.48610538
2	0x3ef6c09e	0.4819383
3	0x3ef7c714	0.48394072
4	0x3ee14a5b	0.4400204
5	0x3fa030af	1.2514857
6	0x3ed8834b	0.4228767
7	0x3eedf18b	0.46473345
8	0x3ed1efcc	0.41003263
9	0x3ed6a716	0.4192435
10	0x3efb9161	0.49134353
11	0x3eecad16	0.46225804
12	0x3eeb23c8	0.45925736
13	0x3f9bd530	1.2174435
14	0x3eeb73d2	0.459868
15	0x3efbe28d	0.49196282
16	0x3ed0c2f5	0.4077374
17	0x3eec4be0	0.46151638
18	0x3ee89d5e	0.45432562
19	0x3ef7943b	0.48355278
20	0x3ee4b490	0.44669008
21	0x3f9d7f52	1.230448
22	0x3ef39a97	0.4757888
23	0x3efa6ff1	0.4891353
24	0x3ef5a8c8	0.47980332
25	0x3ef339be	0.4750499
26	0x3eec54c6	0.46158427
27	0x3eee5cd0	0.46555185
28	0x3ed70305	0.4199449
29	0x3f90b295	1.1304499
30	0x3ef473ac	0.477445
31	0x3edd84d7	0.4326541
32	0x3ea47f36	0.32128304
33	0x3ef9a8f9	0.48761728
34	0x3ef634ef	0.4808726
35	0x3ee62df6	0.4495694
36	0x3eed2994	0.46320784
37	0x3f92012d	1.1406609
38	0x3eeb2ae3	0.45931157
39	0x3efdbfc0	0.49560356

layers.0.1.decision_head.channel_gates f4 [5, 8]
0	0x3ee22485	0.44168487
1	0x3ee1aa9c	0.44075477
2	0x3ef279cb	0.47358546
3	0x3f651ed9	0.89500195
4	0x3ef2a365	0.47390285
5	0x3ef5e7b4	0.48028338
6	0x3ef28745	0.47368827
7	0x3edbfc82	0.42966086
8	0x3eefa05a	0.46802026
9	0x3eed9ecb	0.46410212
10	0x3ef984b6	0.48734063
11	0x3f52779b	0.82213753
12	0x3ef522ed	0.4787821
13	0x3ee81871	0.45331147
14	0x3ef035fa	0.4691618
15	0x3efd9f7a	0.49535733
16	0x3ef4e7b3	0.47833022
17	0x3eee15bb	0.46500954
18	0x3efd132f	0.49428698
19	0x3f790256	0.9726919
20	0x3ee7f537	0.45304272
21	0x3ef533d7	0.47891113
22	0x3ef0f603	0.47062692
23	0x3ec8cabf	0.39217183
24	0x3ed11ef6	0.40843934
25	0x3eadd614	0.3395239
26	0x3ef56c84	0.47934353
27	0x3f5ce131	0.86281115
28	0x3efce497	0.4939315
29	0x3ebb15c6	0.3654005
30	0x3eee7152	0.46570832
31	0x3efbbe98	0.4916885
32	0x3ef6568f	0.48112914
33	0x3eda0d0b	0.42588076
34	0x3ef9da55	0.48799387
35	0x3ed2568a	0.4108165
36	0x3ed54c77	0.416599
37	0x3ee9f211	0.45692495
38	0x3efc210e	0.4924397
39	0x3efd9a83	0.49531946

layers.1.0.decision_head.channel_gates f4 [5, 16]
0	0x3ee2b53f	0.44278905
1	0x3edeede8	0.43540883
2	0x3ee31093	0.44348583
3	0x3edcf262	0.43153673
4	0x3efb5338	0.49086928
5	0x3ef0582f	0.4694228
6	0x3ee3a061	0.44458297
7	0x3ef358b7	0.47528622
8	0x3edea7bd	0.4348735
9	0x3efeb254	0.4974543
10	0x3ee9c7c6	0.45660228
11	0x3ed82c77	0.42221424
12	0x3efb1f16	0.49047154
13	0x3eea62db	0.45778546
14	0x3ed224fb	0.4104384
15	0x3ecfa6fc	0.40557086
16	0x3ef4d944	0.4782201
17	0x3eec39c8	0.46137834
18	0x3ec51e24	0.38499558
19	0x3ee3afdd	0.4447011
20	0x3eca0bf1	0.39462236
21	0x3e84d29d	0.25941935
22	0x3ee0dc72	0.43918186
23	0x3ecb1e0b	0.39671358
24	0x3eed8d52	0.4639688
25	0x3ed29da6	0.411359
26	0x3ee6f6ba	0.45110112
27	0x40751aeb	3.829768
28	0x3ecb2319	0.39675215
29	0x3ef36e24	0.47544968
30	0x3ef801e3	0.4843894
31	0x3eea9634	0.4581772
32	0x3fb10878	1.383071
33	0x3e7965fe	0.24355313
34	0x3e96799b	0.29389653
35	0x3fe92567	1.8214539
36	0x3edae734	0.4275452
37	0x3ef05f75	0.46947828
38	0x3ee534be	0.44766802
39	0x3f2673bf	0.65020365
40	0x3f72006a	0.9453188
41	0x3efc3475	0.49258772
42	0x3f13fe36	0.5780977
43	0x3ffbb47f	1.9664458
44	0x3f51f94d	0.8202103
45	0x3ecbaabc	0.39778697
46	0x3ed5b289	0.41737774
47	0x3ee58716	0.44829625
48	0x3ec2dd96	0.38059682
49	0x3ed99d96	0.4250304
50	0x3eed8b0c	0.46395147
51	0x3fce12ac	1.6099448
52	0x3ecc4c32	0.39901882
53	0x3ed33610	0.41252184
54	0x3ef37049	0.47546604
55	0x3f97f3e0	1.18713
56	0x3fb65f0f	1.424776
57	0x3eb2e243	0.3493825
58	0x3e8709b9	0.26374605
59	0x3fe1b68f	1.7633837
60	0x3f4998f9	0.7874904
61	0x3f4861a3	0.7827398
62	0x3edb6212	0.4284826
63	0x3eeeede6	0.46665877
64	0x3f83d0ed	1.0298134
65	0x3ef7e58e	0.48417324
66	0x3ed70c93	0.4200178
67	0x3fc58392	1.5430777
68	0x3ef63c7e	0.48093027
69	0x3eeae557	0.45878097
70	0x3edc7087	0.43054602
71	0x3ff4a4d1	1.9112798
72	0x3f258bd9	0.64666516
73	0x3ec84274	0.391132
74	0x3f8c2f35	1.0951906
75	0x400aab08	2.166689
76	0x3eed0a2e	0.4629683
77	0x3fa92a0e	1.3215959
78	0x3ec71e71	0.38890412
79	0x3fa4ba5d	1.2869374

layers.1.1.decision_head.channel_gates f4 [5, 16]
0	0x3f96048d	1.1720139
1	0x3efc9ea1	0.49339774
2	0x3f8da943	1.106728
3	0x3f401982	0.7503892
4	0x3eeabaad	0.45845547
5	0x3ef99080	0.48743057
6	0x3f80c8a3	1.006123
7	0x3f543182	0.8288804
8	0x3efcbf22	0.49364573
9	0x3f993e2c	1.1972098
10	0x3efe3232	0.4964767
11	0x3f7944d2	0.97370636
12	0x3ef5bc16	0.4799506
13	0x3efb8f40	0.4913273
14	0x3efbc920	0.49176884
15	0x3f32e3ec	0.6987903
16	0x3fa25dcf	1.2684878
17	0x3ef88940	0.48542213
18	0x3f8baa6e	1.0911386
19	0x3f74a714	0.9556744
20	0x3eea2f04	0.45738995
21	0x3ef3591c	0.47528923
22	0x3f89b11e	1.0757177
23	0x3f75d3f9	0.9602657
24	0x3ef8d6eb	0.4860147
25	0x3f9267e4	1.1437955
26	0x3ef228da	0.47296792
27	0x3f9055ef	1.1276225
28	0x3ef8b211	0.48573354
29	0x3efab7cb	0.48968348
30	0x3efc8cfe	0.49326319
31	0x3f436657	0.76328033
32	0x3f785b98	0.9701476
33	0x3ef7122e	0.48256058
34	0x3f63f843	0.8905069
35	0x3f2fe599	0.68709713
36	0x3ef3294f	0.47492453
37	0x3ef87787	0.48528692
38	0x3f465e82	0.7748796
39	0x3f5011e5	0.81277305
40	0x3eef1f0c	0.46703374
41	0x3f947609	1.1598521
42	0x3eeeaf8e	0.46618313
43	0x3f28c1fa	0.65920985
44	0x3eee491f	0.46540162
45	0x3eee2c92	0.4651838
46	0x3eedb3df	0.46426293
47	0x3ee962e4	0.4558326
48	0x3faedbbb	1.3660806
49	0x3efb196f	0.49042842
50	0x3ef8c9dc	0.48591506
51	0x3ed630b1	0.41834024
52	0x3ef6634f	0.4812264
53	0x3ee5447c	0.44778812
54	0x3faaba1d	1.3338047
55	0x3ee9ead7	0.4568698
56	0x3efca6f0	0.49346113
57	0x3ee7d7a8	0.4528172
58	0x3eeae412	0.4587713
59	0x3ef1e602	0.47245795
60	0x3efabbbe	0.4897136
61	0x3ef26f05	0.47350326
62	0x3f70818c	0.9394767
63	0x3ef5bfbc	0.47997844
64	0x3f9d6fa5	1.2299696
65	0x3efb89ee	0.4912867
66	0x3f88e6f5	1.0695482
67	0x3f63fc9d	0.8905733
68	0x3ef6289e	0.48077863
69	0x3edfa48a	0.4368022
70	0x3f86c05c	1.0527453
71	0x3f610017	0.8789076
72	0x3ed05244	0.40687764
73	0x3f992d58	1.1966963
74	0x3ef67d06	0.4814226
75	0x3f896b2d	1.0735832
76	0x3ef09cf4	0.46994746
77	0x3ef4ad93	0.47788677
78	0x3ef8e850	0.4861474
79	0x3f411515	0.75422794

linear.weight f4 [10, 16]
0	0xbf3b6dbf	-0.73214334
1	0xbf5ae026	-0.85498273
2	0x3dd71931	0.10502852
3	0x406442ff	3.566589
4	0xbf1cb092	-0.61206925
5	0xbf9facc6	-1.2474601
6	0xbf9cc196	-1.2246578
7	0xbf15b422	-0.58477986
8	0xbe57efb2	-0.2108753
9	0x3e7cb481	0.24678232
10	0x3fe0ff5a	1.7577927
11	0xbe73cabf	-0.2380781
12	0x3f05f389	0.5232473
13	0x3ef1f5ee	0.47257942
14	0xbf276057	-0.6538138
15	0xbf63ad82	-0.88936627
16	0xbfccde09	-1.600526
17	0x3dcf7c21	0.101310976
18	0x3f674cb7	0.9035143
19	0x3ef6f35e	0.4823255
20	0x407c4b00	3.9420776
21	0xbec51d35	-0.38498846
22	0xbf469a05	-0.77578765
23	0xbf314d13	-0.6925823
24	0xbfc9df79	-1.5771323
25	0xbf4be62d	-0.79648095
26	0xbf8e7d4a	-1.1131985
27	0x3f645692	0.89194596
28	0xbdba35be	-0.09092282
29	0xbfcf873e	-1.6213148
30	0xbf4e0d8b	-0.80489415
31	0x4034b033	2.8232543
32	0xbf4774e9	-0.77912766
33	0xbf481d2a	-0.781695
34	0xc0271a1e	-2.610969
35	0x3f2f79e5	0.6854537
36	0xbe9b1b42	-0.30294234
37	0x3fa6ca0f	1.3030413
38	0x3fc8286e	1.5637338
39	0x3d468dd0	0.048475087
40	0x404f6b11	3.2409098
41	0x40372db9	2.8621657
42	0x3e87b00c	0.265015
43	0xbf9ed41c	-1.2408481
44	0x3fe28b2b	1.7698721
45	0xbf95c573	-1.1700882
46	0xbdf51930	-0.11967695
47	0xbfc2916f	-1.5200633
48	0x3e701153	0.23444109
49	0xbd259e55	-0.0404342
50	0x3ecea556	0.40360516
51	0xbf6e0c5d	-0.92987615
52	0xbf3e51d5	-0.74343616
53	0x401bed51	2.4363596
54	0xbbd2ff4e	-0.006439126
55	0xbfb6b1f4	-1.4273057
56	0xbef78593	-0.48344097
57	0xbf269bff	-0.6508178
58	0xbfe16fcd	-1.7612244
59	0xbe38a049	-0.18029894
60	0x3fd16632	1.6359313
61	0x3e7b29ee	0.24527714
62	0x3ff6fc8b	1.929582
63	0xbf30ea79	-0.69107777
64	0x407288a9	3.789591
65	0x3f22b4f2	0.6355735
66	0xbf4d5f56	-0.80223596
67	0xbed7e945	-0.42170158
68	0xbe4951d2	-0.19660118
69	0x3f8cc34e	1.0997102
70	0x4014d65d	2.3255837
71	0xbf8ea6fa	-1.1144707
72	0x3e9a642a	0.30154544
73	0xbfc1e75c	-1.514873
74	0x3fb724a8	1.4308062
75	0xbf5f4fd3	-0.8723118
76	0xbfbf59d7	-1.4949292
77	0xbf99c792	-1.2014029
78	0xbfc114df	-1.5084494
79	0xbf209597	-0.62728256
80	0x3fb9b82f	1.4509333
81	0x3dd1c894	0.10243335
82	0x3f479251	0.77957636
83	0xbfbaf5b6	-1.4606235
84	0xbdca3c17	-0.098747425
85	0xbfa65004	-1.2993169
86	0x3fbe95e2	1.4889491
87	0x3f46b122	0.77614033
88	0xbf35fd86	-0.7108997
89	0xbedb60d8	-0.42847323
90	0xbfb51d07	-1.4149483
91	0xbf990c0e	-1.1956804
92	0x3f2f1778	0.68395185
93	0xbf147ef1	-0.580062
94	0x4050f907	3.2651994
95	0xbe2091ec	-0.15680665
96	0x3cfbe8a0	0.030750573
97	0xbeddc49b	-0.4331406
98	0x40043d40	2.0662384
99	0xbfb7cfd7	-1.4360303
100	0x3ef753dc	0.48306167
101	0x3faf4974	1.3694291
102	0xbfac93d6	-1.3482616
103	0x4079f557	3.9055994
104	0x3f14e5fe	0.5816344
105	0xbf884a3c	-1.0647655
106	0x3d44ab18	0.04801473
107	0xbec37046	-0.38171595
108	0x3efe5c15	0.49679628
109	0xbf8e4dfd	-1.111755
110	0xbf6580d8	-0.89649725
111	0xbfba12ba	-1.4536965
112	0x3f895db1	1.0731717
113	0x4088f4eb	4.279897
114	0x3d85095a	0.06495924
115	0x3d871acf	0.0659691
116	0xbfdbcdf6	-1.7172229
117	0xbfc88237	-1.5664738
118	0x3d1aeb99	0.03782234
119	0xbf901ff9	-1.1259757
120	0xbef3d2db	-0.47621807
121	0x3fc8d0b0	1.5688686
122	0xbf0c299b	-0.54750985
123	0xbde07174	-0.109591395
124	0xbf8d6b1f	-1.1048316
125	0x3eaf35ef	0.34220836
126	0xbef063de	-0.46951193
127	0xbf45568d	-0.7708519
128	0xbff2e7fe	-1.8977048
129	0xbfc7f580	-1.5621796
130	0xc027cd7b	-2.6219165
131	0xbf8e88d1	-1.1135503
132	0x3ec1a56a	0.37821513
133	0xbf5ce897	-0.86292404
134	0xbf63d8bc	-0.89002585
135	0x3e32218b	0.17395608
136	0xbf76c395	-0.96392184
137	0xbf824f7e	-1.0180509
138	0x40200ac0	2.5006561
139	0x407bc714	3.9340258
140	0xbf7ab65a	-0.97934496
141	0x3fdb6afd	1.7142025
142	0x3ecdbc7f	0.40182874
143	0xbf0d0d56	-0.55098474
144	0xbfc83cc5	-1.5643545
145	0xbfbaaf16	-1.4584682
146	0x3fdd4d34	1.7289186
147	0x3f0854dc	0.53254485
148	0xbf913c0f	-1.1346453
149	0xbf5413be	-0.82842624
150	0xbf98b02c	-1.1928763
151	0x3ce8f2f1	0.028436156
152	0x3e9b53ea	0.3033746
153	0x3f46dddb	0.77682275
154	0xbf95f85d	-1.171642
155	0xbf17a5e3	-0.592375
156	0xbfb41a8f	-1.4070605
157	0x403a0c5e	2.9070048
158	0xbf91a506	-1.1378486
159	0x407562d0	3.834156

linear.bias f4 [10]
0	0x3d13610c	0.035981223
1	0xbf3f6f4d	-0.74779207
2	0x3e759e76	0.2398623
3	0x3f6cc1a7	0.9248299
4	0x3efc78c0	0.49310875
5	0xbe7fab0d	-0.24967594
6	0x3f1730eb	0.5905902
7	0x3e673c47	0.22581588
8	0xbb121e57	-0.0022295916
9	0xbfbe2076	-1.4853656

onnx::Conv_185 f4 [16, 3, 3, 3]
0	0x3e900b64	0.2813369
1	0x3e2a9a50	0.16660428
2	0x3dcdce4e	0.10049115
3	0xbde97b6c	-0.11400494
4	0xbe7fbeb8	-0.24975097
5	0xbe7c3e17	-0.2463306
6	0xbe3ea5eb	-0.1861798
7	0xbeb8c366	-0.36086577
8	0xbeb842c9	-0.35988453
9	0x3e17866f	0.14797376
10	0x3c4fe4ee	0.012688858
11	0xbd466c3a	-0.048443057
12	0xbe6be464	-0.23036343
13	0xbe0b438b	-0.13599984
14	0xbe161c8b	-0.14659326
15	0xbe8e08d8	-0.27741122
16	0xbe45bbe1	-0.19309951
17	0xbe796750	-0.24355817
18	0xbe155466	-0.14582977
19	0xbe368d95	-0.17827447
20	0xbe94ec7f	-0.29086682
21	0x3da31fe8	0.0796507
22	0x3f05370a	0.5203711
23	0x3ed4a4a2	0.41531855
24	0x3ed53940	0.4164524
25	0x3f40dedd	0.7534006
26	0x3f1d4cbf	0.6144523
27	0x3eb600e0	0.35547543
28	0x3daeed6d	0.08541379
29	0xbf317d54	-0.6933186
30	0x3e9a42a6	0.30128974
31	0xbea1000a	-0.31445342
32	0x3edac908	0.427315
33	0x3e78a380	0.2428112
34	0x3cb4e60e	0.022082355
35	0xbf1715a5	-0.590174
36	0xbe5a7b01	-0.21335985
37	0xbdde4a3b	-0.10854002
38	0xbe53bd71	-0.20677735
39	0x3ce163d3	0.02751342
40	0x3c78b5c7	0.015180058
41	0x3fb6f3dd	1.4293171
42	0xbd86612d	-0.065615036
43	0xbdc6497c	-0.09681985
44	0xbf021c5b	-0.50824517
45	0xbdcc579d	-0.099776484
46	0x3d87d4d4	0.066323906
47	0xbf0e6d87	-0.55635875
48	0x3d07c84c	0.033150002
49	0xbd219d2a	-0.039456524
50	0x3f429d50	0.7602129
51	0x3c2fd2b6	0.01073139
52	0x3c1f618f	0.00972785
53	0xbda5eb7e	-0.08101557
54	0x3e203162	0.15643838
55	0xbd39fc70	-0.04540676
56	0x3ece4d8f	0.40293548
57	0xbeefd447	-0.46841642
58	0x3f6120e1	0.87940794
59	0xbf5d560b	-0.86459416
60	0xbee9c3e0	-0.45657253
61	0x3e57259c	0.2101044
62	0xbd82b45e	-0.063820586
63	0x3c31ce3a	0.010852391
64	0xbd0ab230	-0.03386134
65	0x3de461c9	0.111514635
66	0xbecc03f9	-0.3984678
67	0x3fa440b0	1.2832241
68	0xbf6f8eb7	-0.9357714
69	0xbec11e93	-0.3771864
70	0x3ece77a2	0.40325648
71	0xbdda554d	-0.10660801
72	0x3d043ba3	0.032283437
73	0xbeaed55d	-0.34147158
74	0x3dce7c58	0.100823104
75	0xbec8cbfc	-0.39218128
76	0x3f2eb0ea	0.682387
77	0xbe9a8ba0	-0.3018465
78	0xbd92a9f9	-0.07161326
79	0x3ec33aee	0.38130897
80	0xbd2a3efa	-0.041563965
81	0xbd71b4c4	-0.059010282
82	0xbe913675	-0.2836186
83	0xbe2f8ae5	-0.17142828
84	0xbe31a1e9	-0.1734692
85	0xbe8e7b73	-0.2782856
86	0xbd633df1	-0.055478994
87	0x3e493ad5	0.19651349
88	0x3ed67789	0.41888073
89	0x3e8a3f09	0.27001217
90	0xbb164634	-0.0022930028
91	0xbdc2d9ea	-0.0951422
92	0xbd167144	-0.036729112
93	0xbe039352	-0.12849167
94	0xbe065b96	-0.13120875
95	0x3bec2b7c	0.007207332
96	0x3db56f9f	0.08859181
97	0x3ea2b1b8	0.31776214
98	0x3d9f79fc	0.077869385
99	0xbbf999e0	-0.0076172203
100	0xbe3a502c	-0.18194646
101	0xbbe9bd3e	-0.007133155
102	0xbdee76bd	-0.11643741
103	0xbe52e234	-0.20594102
104	0x3d4d39db	0.050104003
105	0x3dc96e2d	0.098354675
106	0x3e476e92	0.19475773
107	0x3e1629cb	0.1466438
108	0xbd446a57	-0.047952976
109	0xbf0b3803	-0.5438234
110	0xbd3fa7e4	-0.046790972
111	0x3cbaa768	0.022784904
112	0xbda2afd1	-0.079436906
113	0x3d08fe86	0.033445857
114	0x3c78b9af	0.015180989
115	0xbce157c9	-0.02750768
116	0xbc927556	-0.017878216
117	0x3da33e73	0.079708956
118	0xbef517fe	-0.47869867
119	0x3dbbaf6f	0.09164321
120	0x3d3e5478	0.046467274
121	0xbde47384	-0.11154845
122	0x3d85aba0	0.065268755
123	0x3d3152f9	0.04329202
124	0xbd0e610c	-0.03476052
125	0x3dc8ba4c	0.09801158
126	0x3c52215f	0.012825339
127	0xbf022d53	-0.5085041
128	0xbbc0102b	-0.0058613024
129	0x3cea9c4f	0.028638987
130	0xbdf5433f	-0.11975717
131	0x3cdab00e	0.026695278
132	0x3c2ab77e	0.0104197245
133	0xbdae01ac	-0.08496413
134	0x3d106045	0.03524806
135	0xbdb2ab1c	-0.08724043
136	0xbd29bfec	-0.041442797
137	0x3e524703	0.20534901
138	0xbe7c4b34	-0.24638063
139	0xbe89f6f3	-0.2694622
140	0x3f0bcdcd	0.546109
141	0xbca96dd1	-0.020682247
142	0xbe084b80	-0.13310051
143	0x3db65b48	0.08904129
144	0xbd23b305	-0.03996565
145	0xbe7dc294	-0.24781257
146	0x3dd4ca3c	0.10390136
147	0xbe4ae611	-0.19814326
148	0xbec7f8a3	-0.39056882
149	0x3f1a74ec	0.6033466
150	0x3e183890	0.14865327
151	0xbe6d27c8	-0.23159707
152	0x3e400bd2	0.18754509
153	0x3dc869d8	0.09785813
154	0xbd3f79fe	-0.0467472
155	0x3b2b0446	0.0026095076
156	0xbe54c710	-0.20779061
157	0xbe82fdf0	-0.25584364
158	0x3eb94afc	0.3619002
159	0x3de90062	0.11377026
160	0xbdb0ee22	-0.0863917
161	0x3cb5cd76	0.022192698
162	0xbc6577f5	-0.014005651
163	0xbc97509b	-0.018471053
164	0xbdd29bab	-0.102835976
165	0xbd634d15	-0.055493433
166	0xbd9952fb	-0.074865304
167	0xbe1814eb	-0.1485173
168	0x3da82d1c	0.08211729
169	0xbd84d1dd	-0.06485341
170	0xbda794e8	-0.081826985
171	0xbcec26f1	-0.028827162
172	0x3d387ce1	0.04504097
173	0xbd6c301f	-0.05766308
174	0xbd14678a	-0.036231555
175	0x3d8d657c	0.06904122
176	0xbc27d079	-0.010242575
177	0x3c5f9d63	0.013648364
178	0xbcac3d8b	-0.02102544
179	0xbd0629c4	-0.032754675
180	0x3cae14ec	0.02125021
181	0x3e22c113	0.15893964
182	0x3dee93e0	0.11649299
183	0x3cffcc56	0.031225365
184	0x3e4d4702	0.20046619
185	0x3e30eba7	0.17277394
186	0xbd0fc175	-0.035096604
187	0x3ca309f9	0.019902216
188	0x3d6e919c	0.058244333
189	0xbd76fd82	-0.060300358
190	0xbe047559	-0.1293539
191	0xbda71279	-0.0815782
192	0xbe2c9a8b	-0.16855828
193	0xbe181c9b	-0.14854662
194	0xbe380421	-0.17970325
195	0xbdaba43a	-0.08380933
196	0xbe03bb63	-0.12864451
197	0xbdf455db	-0.11930438
198	0x3e21c737	0.1579865
199	0x3e995a19	0.29951552
200	0x3e657221	0.22406818
201	0x3e12c644	0.14333445
202	0x3ee4b05c	0.44665802
203	0x3e9d6bea	0.30746394
204	0x3e124967	0.14285813
205	0x3e7b9d14	0.2457164
206	0x3e19e9a2	0.1503053
207	0x3d631e90	0.05544907
208	0xbe5ed297	-0.21760021
209	0xbe15a0c6	-0.14612111
210	0xbe2fbb0b	-0.17161195
211	0xbe962a4a	-0.2932914
212	0xbe682248	-0.22669327
213	0xbcf3abf8	-0.029745087
214	0xbe07cf90	-0.13262773
215	0xbd2b43b4	-0.041812614
216	0xbe86030b	-0.26174197
217	0xbd9a7600	-0.07542038
218	0xbe161741	-0.14657308
219	0x3d9098dd	0.07060406
220	0x3f5550c1	0.83326346
221	0x3f15ee40	0.58566666
222	0xbe92f9ea	-0.28706294
223	0x3ef726aa	0.48271686
224	0x3df25118	0.11831874
225	0x3d9b8b57	0.07594936
226	0x3e140c77	0.1445788
227	0xbdc0afb0	-0.0940851
228	0xbeb4058b	-0.3516048
229	0xbf08881e	-0.533327
230	0xbf55821f	-0.83401674
231	0xbec68801	-0.38775638
232	0xbdca9b81	-0.09892941
233	0xbee47511	-0.44620565
234	0x3dd4c5f5	0.1038932
235	0x3ea2f6b1	0.31828836
236	0x3e800381	0.25002673
237	0x3e1b25b0	0.15151095
238	0x3d7a5ed9	0.06112561
239	0xbe6a342c	-0.22871464
240	0x3cb13147	0.021629943
241	0x3ec4b16f	0.3841662
242	0x3cacf08c	0.021110795
243	0xbddd0236	-0.10791437
244	0xbd69b98e	-0.057061724
245	0x3dd783bd	0.10523174
246	0x3e6e9021	0.23297168
247	0x3e3500f0	0.17676139
248	0xbe7bb498	-0.2458061
249	0xbde9dc28	-0.114189446
250	0xbc9027ff	-0.017597197
251	0x3b3f4d86	0.0029190495
252	0x3dbf075c	0.093275756
253	0xbdc73fb4	-0.09728947
254	0x3ca48505	0.02008296
255	0x3eddc639	0.43315294

onnx::Conv_186 f4 [16]
0	0xbf64ad52	-0.89326966
1	0x3f821f6b	1.0165838
2	0x3f89f8ad	1.0779015
3	0x3eb6dcd2	0.35715348
4	0xc041ca39	-3.0279677
5	0xbd27b4f1	-0.040944044
6	0x3e8738c1	0.26410487
7	0x3cc5b268	0.024132922
8	0xbfa548f0	-1.2912884
9	0xbc19b0c8	-0.009380527
10	0xbe201078	-0.15631282
11	0xbd8050a1	-0.06265379
12	0xbf920115	-1.140658
13	0x3f02c9ae	0.5108899
14	0x3f140d5e	0.57832897
15	0x3f0c93e6	0.54913175

onnx::Conv_188 f4 [8, 16, 3, 3]
0	0x3b99be78	0.004691895
1	0xbd324573	-0.043523263
2	0xbd645d75	-0.05575319
3	0x3e50c330	0.20386958
4	0xbcbc06fe	-0.022952553
5	0xbe0bd342	-0.13654807
6	0x3e180fea	0.1484982
7	0x3d020051	0.031738583
8	0x3e349c35	0.17637713
9	0xbe599da3	-0.2125154
10	0x3dbb4dec	0.09145722
11	0xbd8831d9	-0.06650133
12	0x3e81776d	0.25286427
13	0xbed55a03	-0.41670236
14	0x3e66d529	0.22542252
15	0x3cd068a7	0.025440527
16	0x3dcd2e10	0.10018551
17	0xbd10d554	-0.035359696
18	0x3d34dd8f	0.044156607
19	0xbe078387	-0.13233767
20	0xbe580408	-0.21095288
21	0xbe868c69	-0.26279
22	0x3f0a44c0	0.54011154
23	0xbee81ad7	-0.45332977
24	0x3d95b497	0.073098354
25	0xbd89045f	-0.06690287
26	0xbd43ef24	-0.047835484
27	0x3d7fcb9a	0.06245003
28	0x3d11ae59	0.03556666
29	0xbd8a85c4	-0.06763795
30	0x3dc86443	0.097847484
31	0xbd8b8aa6	-0.068135545
32	0xbdcff9e7	-0.10155087
33	0x3d26dd9a	0.04073868
34	0x3dfdedde	0.12398885
35	0xbbbd46df	-0.0057762708
36	0x3bd9d734	0.0066479687
37	0x3d5aa201	0.053377155
38	0xbd1af0f6	-0.037827455
39	0xbd923e56	-0.07140796
40	0xbe00f149	-0.12592043
41	0xbd9f19fc	-0.07768628
42	0xbe89ed8b	-0.26939043
43	0xbde0762e	-0.10960041
44	0x3e0eee7d	0.13958164
45	0xbe4fe717	-0.20302998
46	0xbde1ba72	-0.1102189
47	0xbdd0ebbd	-0.102012135
48	0xbe15096c	-0.14554375
49	0xbd56ad8e	-0.05241161
50	0x3dc13c77	0.09435361
51	0xbc70ece8	-0.01470492
52	0x3c3fd7ac	0.011709135
53	0x3c9466e7	0.018115474
54	0x3c8e74d1	0.017389687
55	0xba53d205	-0.00080803066
56	0x3de43167	0.11142235
57	0x3d3e4742	0.046454675
58	0x3a69e37c	0.00089221424
59	0xbdb16136	-0.0866112
60	0x3d6a927c	0.057268605
61	0x3b08ccbb	0.0020873982
62	0xbdb5437f	-0.088507645
63	0x3deac0cd	0.11462555
64	0x3d71aba5	0.059001584
65	0xbd9211e1	-0.071323164
66	0x3e356456	0.17714056
67	0x3e1605ca	0.14650646
68	0xbe8e1a4f	-0.27754447
69	0x3dd03298	0.101659
70	0x3d0e0384	0.03467132
71	0xbe02d5cc	-0.1277687
72	0xbd3475f3	-0.044057798
73	0x3c469719	0.012120985
74	0x3dbe0353	0.09277978
75	0x3dba7e1e	0.09106086
76	0xbda619ed	-0.08110414
77	0xbe837103	-0.2567216
78	0x3d3381f7	0.043825116
79	0x3daef66f	0.08543097
80	0xbccfce4d	-0.025366927
81	0x3c936550	0.017992646
82	0xbda26536	-0.07929461
83	0xbdee85e1	-0.11646629
84	0x3d5581e9	0.052125845
85	0x3e60c69e	0.21950766
86	0x3cd8329f	0.026391326
87	0x3d79cd32	0.060986705
88	0xbe5d9c5c	-0.21641678
89	0xbdaae937	-0.083452635
90	0x3d82d7dd	0.06388829
91	0xbc9a5baf	-0.018842546
92	0xbdfad2b5	-0.122472204
93	0xbdb4bf10	-0.08825505
94	0xbca5d621	-0.020243706
95	0x3b67e050	0.0035381503
96	0xbc171ead	-0.009223622
97	0x3d9e8a53	0.07741227
98	0xbd972135	-0.073793806
99	0x3d9de303	0.07709315
100	0x3ce41308	0.027841106
101	0x3d999d02	0.0750065
102	0x3e4482f0	0.19190574
103	0xbe1867d2	-0.14883354
104	0xbe20b08c	-0.15692347
105	0xbd5ed2e8	-0.054400355
106	0x3dc858fe	0.09782599
107	0x3cce2923	0.0251661
108	0x3db15865	0.08659438
109	0xbda83061	-0.082123525
110	0x3d8d0165	0.068850316
111	0xbea5b28a	-0.32362777
112	0xbc92e4b3	-0.017931318
113	0xbdc31fe2	-0.095275655
114	0x3d38c3d0	0.045108616
115	0x3e37cad9	0.17948474
116	0x3ca35a25	0.019940445
117	0x3b2d288e	0.0026421878
118	0x3db0fa48	0.08641487
119	0x3c96c54d	0.018404627
120	0x3d9e4221	0.07727457
121	0xbd80c240	-0.0628705
122	0xbe31d7c0	-0.17367458
123	0x3e0a2cae	0.13493606
124	0x3c2ce6c8	0.010553069
125	0xbe51bbd3	-0.20481806
126	0x3dade9db	0.0849187
127	0xbac70568	-0.0015184106
128	0xbd80ab95	-0.06282727
129	0xbd69cd98	-0.057080835
130	0x3db3abc9	0.08773
131	0x3ccc63a6	0.02494986
132	0xbe0bef8e	-0.13665602
133	0xbcb6ff03	-0.022338396
134	0x3d1d6c50	0.038433373
135	0x3d1b57d0	0.03792554
136	0x3c8edcf7	0.017439349
137	0x3dd7278f	0.10505592
138	0x3d71a140	0.05899167
139	0xbe24bd9b	-0.16087954
140	0xbd91f76f	-0.07127272
141	0x3d026d30	0.03184241
142	0xbe0e46fe	-0.13894269
143	0xbdc69b04	-0.09697536
144	0xbd917cae	-0.07103859
145	0x3d2e2f34	0.042525485
146	0x3e20b8bf	0.15695475
147	0xbe1f1937	-0.15536962
148	0xbdb744eb	-0.08948692
149	0x3c4bd19c	0.0124401115
150	0xbd945f0e	-0.07244693
151	0xbd5415cd	-0.051778603
152	0xbc97780b	-0.018489858
153	0xbd0672ea	-0.032824434
154	0xbdbd9aaa	-0.092580155
155	0x3c81528a	0.015786428
156	0x3d789dff	0.06069755
157	0x3dbaaaf5	0.09114639
158	0xbde0d591	-0.109782346
159	0x3e292d4f	0.1652119
160	0x3de3a89d	0.11116145
161	0xbdb0e88a	-0.08638103
162	0xbe616c70	-0.22014022
163	0xbe81dce4	-0.2536384
164	0x3e43c411	0.19117762
165	0x3ee46aeb	0.44612822
166	0xbe7a75a0	-0.24458933
167	0x3e3c144e	0.1836712
168	0x3e0a8e8f	0.13530944
169	0xbde869b2	-0.11348285
170	0xbd83a65d	-0.06428216
171	0x3c1b8f35	0.009494592
172	0xbe2fbda4	-0.17162186
173	0xbe2c7906	-0.16843042
174	0x3d5174fb	0.051136952
175	0xbdfcc4fb	-0.123422585
176	0xbe1f28af	-0.15542863
177	0x3dffe3a9	0.124945946
178	0xbdb27d4a	-0.08715303
179	0xbe4a0ea9	-0.19732155
180	0xbe3fad31	-0.18718411
181	0xbe345dc6	-0.17613897
182	0x3d4982d9	0.04919705
183	0x3c5e6d9a	0.013575936
184	0xbc8d632a	-0.0172592
185	0xbc847ab8	-0.016171798
186	0x3e400b8f	0.18754409
187	0x3e12a185	0.14319427
188	0x3d63558c	0.055501506
189	0xbdafe593	-0.0858871
190	0x3dbe7ca6	0.093011186
191	0xbd8329c4	-0.064044505
192	0xbdbb0095	-0.091309704
193	0x3dd90c97	0.105981044
194	0x3d7f8f08	0.062392265
195	0x3d6c3076	0.057663403
196	0x3c28d4f5	0.010304679
197	0x3d510fe7	0.051040556
198	0x3e111fbb	0.1417226
199	0x3df2b1b1	0.11850298
200	0xbe80a15a	-0.251231
201	0x3de7754b	0.11301669
202	0xbd2f47c9	-0.04279307
203	0xbe51e2dd	-0.20496698
204	0x3dd12af9	0.102132745
205	0xbdf4b6d7	-0.119489364
206	0xbe13b05a	-0.14422742
207	0xbe0c30eb	-0.13690536
208	0x3d936e48	0.07198769
209	0x3ec37988	0.38178658
210	0xbe0fad62	-0.14030984
211	0xbe03d3f0	-0.12873816
212	0x3d04c5c5	0.03241517
213	0x3d621936	0.055199824
214	0xbd96d783	-0.07365324
215	0xbdf458c3	-0.119309925
216	0xbdc296f7	-0.095014505
217	0x3c545a51	0.012960986
218	0x3d54f356	0.051989876
219	0x3d7e3023	0.062057626
220	0x3c4ecb37	0.012621692
221	0xbe06f6e9	-0.13180126
222	0x3e155757	0.14584099
223	0x3db0f13c	0.08639762
224	0xbe533c40	-0.20628452
225	0xbe5c056c	-0.21486443
226	0xbe7f8aee	-0.24955341
227	0x3d3066ab	0.04306666
228	0xbce76d43	-0.028250342
229	0xbd87942f	-0.06620061
230	0xbd6c0f28	-0.05763164
231	0x3d85688e	0.06514083
232	0x3e42a9b3	0.19010048
233	0xbdef12bc	-0.11673495
234	0x3e2a6be2	0.16642717
235	0xbcb06800	-0.021533966
236	0xbebcff5c	-0.36913574
237	0x3be7a36d	0.0070690424
238	0xbd925ef7	-0.07147019
239	0xbe863c9e	-0.26218122
240	0xbd873eb2	-0.06603755
241	0xbd9f24c6	-0.07770686
242	0xbe409b18	-0.18809164
243	0xbdac8dbe	-0.08425473
244	0x3e940cdf	0.2891607
245	0x3ac8af01	0.0015310944
246	0xbe9767be	-0.29571337
247	0x3df73092	0.12069811
248	0x3e6bc5bf	0.23024653
249	0xbedaed89	-0.4275935
250	0xbe21273c	-0.15737623
251	0x3dbfbb88	0.093619406
252	0xbdc28af9	-0.09499163
253	0xbe1aee52	-0.15129974
254	0x3c81e623	0.015856808
255	0x3e51bc93	0.20482092

onnx::Conv_189 f4 [8]
0	0x40047d26	2.0701385
1	0x3ecb23cc	0.39675748
2	0xbf4acdd5	-0.79220325
3	0x3f49c4b1	0.7881575
4	0x3e3a5d24	0.18199593
5	0x3edd0e2f	0.43174884
6	0x3fbeda2e	1.4910333
7	0x3da04008	0.07824713

onnx::Conv_191 f4 [8, 8, 3, 3]
0	0x3f24a064	0.64307237
1	0x3e38f178	0.18060863
2	0x3d8db6bc	0.069196194
3	0x3e91eca0	0.28500843
4	0x3deb9126	0.11502294
5	0xbe91de01	-0.28489688
6	0xbf32fdd0	-0.6991854
7	0xbe0fc273	-0.1403902
8	0x3e132e9f	0.14373253
9	0x3e6f8e46	0.23394117
10	0x3eb22565	0.34794155
11	0x3e4c06c8	0.19924462
12	0x3f0bd09d	0.54615194
13	0xbd4ab380	-0.04948759
14	0x3ec8821e	0.39161772
15	0xbce5b9b2	-0.028042648
16	0xbea66ba2	-0.32503992
17	0xbea75e36	-0.32689065
18	0xbdc9b87b	-0.0984964
19	0xbec6c717	-0.38823768
20	0xbe7f4e8e	-0.2493231
21	0xbe81ea6f	-0.2537417
22	0xbf012c84	-0.5045855
23	0xbee0f3df	-0.4393606
24	0x3e9b579d	0.3034028
25	0x3e029d8b	0.1275541
26	0x3d8caff9	0.068695016
27	0xbeead56d	-0.45865956
28	0xbce5a5b3	-0.028033113
29	0xbec056d4	-0.37566245
30	0x3dc7d704	0.09757808
31	0x3e211899	0.1573204
32	0xbd885a15	-0.06657807
33	0x3eac5c57	0.336642
34	0x3d400260	0.046877265
35	0xbd69f5db	-0.05711923
36	0x3ea95db0	0.3307929
37	0x3e47654f	0.1947224
38	0xbefe9ae1	-0.49727538
39	0x3e49a169	0.1969048
40	0x3e68e667	0.22744142
41	0xbe43e260	-0.19129324
42	0x3e883f66	0.2661087
43	0xbe84ce43	-0.25938615
44	0xbe9fb40b	-0.3119205
45	0x3d38a6d7	0.045080986
46	0xbd70b271	-0.058763925
47	0xbf17eebe	-0.59348667
48	0x3e4d754a	0.20064273
49	0xbf7226a7	-0.9459023
50	0xbe4fbd08	-0.20286953
51	0x3d04d6d9	0.032431457
52	0xbe8ed103	-0.27893838
53	0x3e2fd978	0.17172801
54	0x3dcbd782	0.09953214
55	0x3ebef8cd	0.37299195
56	0x3ef567d6	0.47930783
57	0x3b798490	0.0038073398
58	0xbf8a5de5	-1.0809904
59	0xbe7d90f0	-0.2476232
60	0xbd448796	-0.047980867
61	0x3dd8972e	0.1057571
62	0x3cad4fc8	0.021156207
63	0xbee58ccf	-0.4483399
64	0x3b9255a1	0.004465774
65	0xba906b68	-0.0011018338
66	0x3e83edc8	0.2576735
67	0x3f073b35	0.5282472
68	0x3e259d27	0.1617323
69	0x3ebf85f2	0.3740688
70	0x3f11b8c3	0.5692255
71	0x3da8e5cb	0.082469545
72	0xbe56b0b5	-0.20965846
73	0xbdd10a2b	-0.102070175
74	0xbd33b068	-0.043869406
75	0xbdfd0e73	-0.123562716
76	0x39d8af87	0.00041329509
77	0x3e248863	0.16067652
78	0x3e118bc0	0.14213467
79	0x3ea4fc64	0.3222381
80	0x3d56d254	0.05244668
81	0xbdb3cb7f	-0.08779048
82	0x3d93286a	0.07185443
83	0xbd5b8582	-0.05359412
84	0xbe81c04c	-0.25342023
85	0xbb75c24b	-0.003749984
86	0x3d7b71c9	0.06138781
87	0xbdb4a2b0	-0.08820093
88	0xbe17d240	-0.14826298
89	0xbe6d36f3	-0.23165493
90	0x3d2e8e24	0.042616025
91	0xbbe85ebd	-0.007091372
92	0xbb361c46	-0.0027787848
93	0xbd2c790e	-0.042107634
94	0xbdbc4373	-0.091925524
95	0xbdb033dd	-0.08603642
96	0xba949f8b	-0.0011339051
97	0xbd260fab	-0.040542286
98	0xbdb37f43	-0.087645076
99	0x3df2e750	0.118605256
100	0x3e47d383	0.19514279
101	0xbe38695d	-0.18008943
102	0xbe51f8bd	-0.20505042
103	0x3de43c8b	0.1114436
104	0x3da1be7f	0.07897662
105	0xbd71ff99	-0.059081648
106	0xbd87779f	-0.06614613
107	0x3e348017	0.17626987
108	0xbdee8617	-0.11646669
109	0xbe091fb2	-0.13390997
110	0xbe0ece09	-0.13945784
111	0x3a6ecf88	0.0009109904
112	0xbe632e55	-0.22185643
113	0xbdff9080	-0.12478733
114	0xbd7ad37c	-0.061236843
115	0xbd47efee	-0.0488128
116	0xbcb0f5eb	-0.021601638
117	0xbd7f9a68	-0.062403113
118	0x3d02bc7d	0.031918038
119	0x3d12c9b3	0.035836887
120	0xbe0ddc94	-0.13853675
121	0xbd5767af	-0.052589115
122	0xbadb7d10	-0.0016745646
123	0xbcac7999	-0.021054076
124	0xbdff5433	-0.124672316
125	0xbe142789	-0.14468206
126	0x3e04db59	0.129743
127	0x3d8d815a	0.069094375
128	0xbe210c3f	-0.15727328
129	0x3c9f2ade	0.01942962
130	0xbd82cb57	-0.0638644
131	0xbcede9b7	-0.029042108
132	0x3e04a6c9	0.12954248
133	0x3ded4bed	0.11586747
134	0xbd2a65fc	-0.041601166
135	0x3dc68f78	0.09695333
136	0xbd541565	-0.051778216
137	0xbd999dee	-0.07500826
138	0xbda4ea7a	-0.08052535
139	0xbe0b70bf	-0.13617228
140	0x3cb9ff50	0.02270475
141	0xbe832fcd	-0.25622407
142	0xbeb3f296	-0.35146016
143	0xbdad8d15	-0.08474175
144	0xbd83a72f	-0.06428372
145	0x3d95fbfd	0.073234536
146	0x3dfed850	0.12443602
147	0xbe8c0a6b	-0.27351698
148	0x3e12594b	0.14291875
149	0x3df8441e	0.12122367
150	0xbd814c23	-0.0631335
151	0xbe6fb82f	-0.23410104
152	0x3e2344e2	0.15944245
153	0x3d75ad0b	0.05997948
154	0xbcfde307	-0.030992044
155	0x3d7c08f4	0.061531976
156	0x3e3cb1e8	0.18427241
157	0x3e67c5c8	0.22634041
158	0x3e914a4f	0.28377005
159	0x3c98a299	0.01863222
160	0x3d510fad	0.05104034
161	0xbcb7a1f2	-0.022416089
162	0xbbce6688	-0.006298844
163	0xbcf36531	-0.029711338
164	0xbdc4c294	-0.09607425
165	0x3da3d3ac	0.079993576
166	0x3d59b7df	0.05315387
167	0x3daa81f4	0.08325568
168	0x3d7fa125	0.06240954
169	0x3d0a3ad7	0.03374752
170	0x3d676625	0.056493897
171	0xbe69989c	-0.22812122
172	0xbca11e58	-0.01966779
173	0xbe4b93b2	-0.1988056
174	0xbd82fd2b	-0.06395944
175	0x3dae0b34	0.084982306
176	0x3d0dcacd	0.034617234
177	0xbce5ca33	-0.028050518
178	0x3e65b7a3	0.22433333
179	0x3e4174cf	0.18892215
180	0x3dbe2118	0.09283656
181	0xbc89cfa3	-0.016822642
182	0xbe4a4517	-0.19752918
183	0x3e7d38a5	0.2472864
184	0xbdef4079	-0.11682219
185	0xbda063ec	-0.078315586
186	0x3ea0456e	0.3130297
187	0xbc8a987b	-0.016918411
188	0xbd75cc7a	-0.060009457
189	0xbd55e0e6	-0.052216433
190	0xbe6c2239	-0.2305993
191	0xbe3624d5	-0.17787488
192	0x3d5c27dd	0.053748954
193	0xbb7f0fda	-0.003891936
194	0x3d8be2e1	0.06830383
195	0x3d6faa38	0.058511943
196	0x3e72e539	0.23720254
197	0x3eacade6	0.33726424
198	0x3e0b1d65	0.13585432
199	0x3dc259cf	0.09489786
200	0xbe98a959	-0.29816702
201	0x3e829145	0.25501457
202	0x3e4a4565	0.19753034
203	0xbef7728c	-0.4832958
204	0x3d0e8ea0	0.034803987
205	0xbc131f25	-0.008979593
206	0xbd35ba48	-0.044367105
207	0xbe9f9525	-0.31168476
208	0xbe755940	-0.23959827
209	0xbe7cb5b2	-0.24678686
210	0xbe0da452	-0.13832214
211	0x3d007b7e	0.03136777
212	0xbe645290	-0.2229712
213	0xbc23ea38	-0.010004573
214	0x3d9c043c	0.07617995
215	0xbe5f2479	-0.21791257
216	0xbd1b6f34	-0.03794785
217	0xbd782cc1	-0.060589556
218	0xbd6d99a7	-0.058007862
219	0x3d6d3130	0.057908237
220	0x3e21b7da	0.1579279
221	0x3e4a42bc	0.1975202
222	0xbc98a192	-0.01863173
223	0xbe2a81e8	-0.16651118
224	0xbd4a5c2a	-0.0494043
225	0x3d9f6752	0.07783379
226	0x3d4f178e	0.050559573
227	0x3cdd86b1	0.027041765
228	0xbdfc327f	-0.12314319
229	0xbd88f687	-0.06687646
230	0xbd8d49de	-0.06898855
231	0xbd61c6cb	-0.055121224
232	0xbb689e02	-0.003549457
233	0xbd16b010	-0.036789
234	0x3e614f7f	0.22002982
235	0x3e081ccd	0.13292237
236	0x3e257039	0.16156091
237	0x3e23e096	0.16003641
238	0x3dab4949	0.083635874
239	0x3e244845	0.16043194
240	0x3c8076d8	0.01568167
241	0xbd39635c	-0.045260772
242	0x3d670053	0.056396794
243	0x3e1be015	0.152222
244	0xbd6b1ba6	-0.057399414
245	0xbd8360dd	-0.064149596
246	0x3da77769	0.081770726
247	0x3e00c8cb	0.12576596
248	0xbd8cf9a4	-0.06883553
249	0xbdf70872	-0.12062158
250	0x3d824711	0.06361211
251	0x3e38bffd	0.18041988
252	0xbc681651	-0.014165477
253	0x3c500472	0.012696372
254	0x3c1a5313	0.0094192205
255	0x3bd84c5f	0.006600901

onnx::Conv_192 f4 [8]
0	0x3f8b096b	1.0862249
1	0x3f89c71c	1.0763888
2	0x3f1f6569	0.62264115
3	0xbeab01c9	-0.333998
4	0x3f92d5ad	1.1471459
5	0x3edb6046	0.42846888
6	0xbe8e5675	-0.27800336
7	0x3fa097f8	1.2546377

onnx::Conv_194 f4 [8, 16, 1, 1]
0	0x3f0abbf7	0.5419306
1	0xbd1218db	-0.035668235
2	0x3ec0cb28	0.37654996
3	0x3e5ec3f3	0.21754436
4	0x3e976d6d	0.29575673
5	0x3edfd5bc	0.43717754
6	0xbf85c440	-1.0450516
7	0x3f3f7e64	0.7480223
8	0x3e6b464d	0.22976036
9	0x3f2cb627	0.6746544
10	0x3c63e72b	0.013910095
11	0xbeb80ce7	-0.35947344
12	0x3ca3f01e	0.020011958
13	0xbe1794cd	-0.14802857
14	0xbf886d13	-1.0658287
15	0x3f06d7f5	0.52673274
16	0x3f39059e	0.72274196
17	0x3d98bb12	0.07457556
18	0x3d90abc4	0.07064012
19	0x3e5dcbb4	0.21659738
20	0x3ebb736f	0.36611506
21	0xbf4c724f	-0.7986192
22	0xbf6174ea	-0.8806902
23	0x3e7a67a3	0.24453597
24	0xbe8e78ab	-0.27826437
25	0xbf1ca93a	-0.6119572
26	0xbf9bce47	-1.2172326
27	0xbf2f0de4	-0.6838057
28	0xbf1add1a	-0.60493624
29	0xbf6e3648	-0.93051577
30	0xbeabbe8d	-0.33543816
31	0xbea209a5	-0.31647983
32	0xbc886844	-0.01665128
33	0x3decab47	0.11556106
34	0xbe07c10c	-0.13257235
35	0xbcf0d4fe	-0.029398438
36	0xbec8ff0f	-0.39257094
37	0xbf321bc5	-0.6957362
38	0xbe785b8e	-0.24253675
39	0x3f317d57	0.6933188
40	0x3d4395c5	0.047750253
41	0xbf77c6d6	-0.96787775
42	0x3c01ebd1	0.007929758
43	0x3eebf290	0.46083498
44	0x3e03aeda	0.1285967
45	0x3f14f7a5	0.58190376
46	0xbe9093ff	-0.28237912
47	0xbd3b9160	-0.045792937
48	0x3cb7fd4f	0.022459654
49	0x3f172cc2	0.5905267
50	0x3f7d391b	0.9891526
51	0xbeadcf1d	-0.33947077
52	0x41017c98	8.092918
53	0xbef33720	-0.47502995
54	0x3db98a06	0.09059529
55	0xbe28e7e5	-0.1649471
56	0x3e73a95d	0.23795076
57	0xbee1f67e	-0.4413337
58	0xbd80ab0f	-0.06282627
59	0x3ee46a46	0.4461233
60	0x40352519	2.8303893
61	0x3eec3b16	0.4613883
62	0xbe24049a	-0.1601738
63	0x3f6ca4fe	0.9243926
64	0xbc8ff264	-0.017571636
65	0x3ef09ede	0.46996206
66	0xbfb9826e	-1.4492929
67	0x3f002b9c	0.5006654
68	0xbeab67f5	-0.3347775
69	0x3d8df1a8	0.06930858
70	0xbe2a2db9	-0.16619004
71	0xbec94f77	-0.3931844
72	0xbe8b7cd0	-0.27243662
73	0xbf07a383	-0.52983874
74	0xbe96c235	-0.29445043
75	0x3d917b37	0.071035795
76	0xbd9343a7	-0.07190638
77	0xbf326f9f	-0.6970157
78	0xbeab8775	-0.33501783
79	0xbf061c85	-0.5238727
80	0xbee24bb8	-0.44198394
81	0x3e4dd684	0.20101362
82	0xbe9708d6	-0.2949893
83	0xbf3be848	-0.7340131
84	0xbc4e6cd5	-0.01259919
85	0x3f942beb	1.1575903
86	0xbf6a68cf	-0.91566175
87	0xbf9b522c	-1.2134452
88	0xbfb23dc2	-1.3925097
89	0x3f61fc9c	0.88276076
90	0xbe1144ee	-0.14186451
91	0x3f4af57d	0.79280835
92	0x3f482895	0.78186923
93	0xbec64a67	-0.3872864
94	0xbf4e3d90	-0.80562687
95	0xbf897815	-1.0739771
96	0x3e07490d	0.1321146
97	0xbdcc9fe1	-0.09991432
98	0xbd87a9ca	-0.066241816
99	0x3f149c22	0.5805074
100	0xbd8f8f3b	-0.07009741
101	0x3d80bb4f	0.06285726
102	0x3dbf50e3	0.093416
103	0xbe897dc3	-0.2685376
104	0xbde3e07e	-0.11126803
105	0xbe6a0fe2	-0.22857621
106	0xbd291aba	-0.041285254
107	0x3dd64c70	0.10463798
108	0xbe508ab9	-0.20365418
109	0xbe368fb3	-0.17828254
110	0x3ebdc5da	0.3706501
111	0xbe2b5c5e	-0.16734454
112	0xbd4ea372	-0.050448842
113	0xbe812666	-0.25224608
114	0x3e0d1ac0	0.13779736
115	0xbf88cfd3	-1.0688423
116	0xbebe441c	-0.37161338
117	0x3e79ab3c	0.24381727
118	0x3d0faec0	0.035078764
119	0xbded9b18	-0.116018474
120	0xbe58e270	-0.21180129
121	0xbf106939	-0.5641056
122	0x3dac7718	0.08421153
123	0x3dc44a78	0.09584516
124	0xbec050d0	-0.37561655
125	0x3e95096d	0.29108754
126	0xbdca1cc6	-0.09868769
127	0xbe1ed1fc	-0.1550979

onnx::Conv_195 f4 [8]
0	0x3c2a3b20	0.010390073
1	0x40479cff	3.1189573
2	0x3f948f77	1.1606282
3	0xc078726c	-3.8819838
4	0x4055c9ec	3.3404493
5	0x4003ae13	2.0574996
6	0x3e8ca2fa	0.2746809
7	0x3fa7bb02	1.3103945

onnx::Conv_197 f4 [8, 8, 3, 3]
0	0x3c93cf7b	0.01804327
1	0xbe0278d0	-0.12741399
2	0x3d5d6fa3	0.054061543
3	0x3e11799b	0.14206545
4	0xbe3c26bf	-0.18374155
5	0x3dcf68e0	0.10127425
6	0xbca78786	-0.020450365
7	0xbd1f6a32	-0.038919635
8	0x3de66907	0.11250501
9	0x3e14de5a	0.14537945
10	0xbd1fe09e	-0.03903257
11	0x3ce38c9f	0.027777014
12	0x3d8b818f	0.06811821
13	0x3cd9ee34	0.026602842
14	0xbd9618bb	-0.07328936
15	0xbcce919f	-0.025215922
16	0x3af97ea0	0.001903493
17	0xbda1e1e3	-0.079044126
18	0xbe0b1b83	-0.13584714
19	0x3e1b6496	0.15175089
20	0xbc68834f	-0.014191463
21	0xbe5b7a0c	-0.21433276
22	0x3de3787b	0.11106964
23	0xbcc03f2a	-0.023467619
24	0xbdb94cb8	-0.09047836
25	0xbc876f53	-0.016532576
26	0x3c9858bf	0.018597005
27	0x3ca9e6cd	0.020739937
28	0xbd1499bb	-0.03627942
29	0xbd97f45f	-0.07419657
30	0x3d6bebea	0.057598032
31	0x3dc49009	0.09597785
32	0x3c7bb8d2	0.015363889
33	0x3e0a5ba1	0.13511516
34	0x3e15fc47	0.14647017
35	0x3ceb7a74	0.028744914
36	0xbd448e24	-0.04798712
37	0x3e008ac6	0.12552938
38	0xbe123b9e	-0.14280555
39	0xbe755014	-0.23956329
40	0x3eedd02c	0.46447885
41	0xbef0b235	-0.4701096
42	0xbe094659	-0.13405742
43	0x3e91f6fb	0.28508744
44	0xbe033469	-0.12812962
45	0xbb84c234	-0.004051471
46	0xbd886661	-0.06660152
47	0xbe073886	-0.13205156
48	0x3d1a544a	0.03767804
49	0x3d961f11	0.07330144
50	0xbd8d66c4	-0.069043666
51	0x3e0dc66a	0.1384522
52	0x3da74f3a	0.08169408
53	0xbdb99b19	-0.09062786
54	0xbd814436	-0.06311838
55	0x3ceffd04	0.029295452
56	0xbcc4a27d	-0.024003262
57	0xbdbb48eb	-0.091447674
58	0x3d70c04d	0.058777142
59	0xbde53228	-0.11191207
60	0xbd4862c4	-0.048922315
61	0x3cd5086d	0.026004994
62	0xbd5f0ea8	-0.054457337
63	0x3d742afa	0.0596113
64	0xbe5ebd8f	-0.21751998
65	0x3d1e60a9	0.0386664
66	0x3dd860e2	0.10565354
67	0xbde05951	-0.10954536
68	0x3dd54355	0.10413233
69	0xbdcff85f	-0.10154795
70	0xbd8af85d	-0.06785653
71	0xbd969f7a	-0.073546365
72	0xbd03cc03	-0.032176983
73	0xbe11da0f	-0.14243339
74	0x3c98a18d	0.01863172
75	0xbe8c7b06	-0.2743761
76	0xbca48584	-0.020083196
77	0x3e3b26af	0.18276475
78	0x3df70e0b	0.12063225
79	0xbd8b1eb3	-0.06792965
80	0x3da08ca1	0.07839323
81	0x3d4187e4	0.047248736
82	0x3e846e4c	0.258654
83	0xbdbe56cb	-0.09293898
84	0x3d84bae7	0.06480961
85	0xbe992920	-0.29914188
86	0x3df87096	0.12130849
87	0xbcfa904c	-0.030586384
88	0xbda714dc	-0.081582755
89	0x3d83e05a	0.06439276
90	0x3e60a8fc	0.21939462
91	0xbd8d114c	-0.06888065
92	0xbdc55e0f	-0.09637081
93	0x3dc54c7c	0.09633729
94	0x3d716cc5	0.05894162
95	0xbe24f2cb	-0.16108243
96	0xbe7d491e	-0.24734923
97	0xbc8a454e	-0.01687875
98	0x3e07709c	0.13226551
99	0xbd36d319	-0.044634912
100	0x3c2c83a6	0.010529434
101	0xbbfee20d	-0.007778412
102	0xbdf509e5	-0.11964778
103	0xbd00322d	-0.03129785
104	0x3d2401b2	0.04004068
105	0xbe201184	-0.15631682
106	0x3c7b1f19	0.0153272385
107	0xbe2c9272	-0.1685274
108	0x3e1441c9	0.1447822
109	0xbe5127a8	-0.20425284
110	0xbc620e4a	-0.013797352
111	0x3e02ee8f	0.12786315
112	0xbeead597	-0.4586608
113	0x3df88bb0	0.12136018
114	0xbecf146d	-0.4044527
115	0x3f28b1b2	0.6589614
116	0x3d0933cf	0.033496674
117	0xbda312f8	-0.079626024
118	0xbd707174	-0.058701947
119	0x3d2fbd7e	0.042905323
120	0x3ccd2d4d	0.025046015
121	0xbc5cc710	-0.013475195
122	0xbc53ada8	-0.012919821
123	0x3d93d035	0.07217447
124	0xbe105173	-0.1409357
125	0xbdaa8422	-0.083259836
126	0x3d879211	0.06619657
127	0xbddd89c2	-0.10817291
128	0x3dd8f0fe	0.105928406
129	0xbe885f58	-0.26635242
130	0xbd64dd56	-0.055875145
131	0x3eb447f7	0.35211155
132	0x3df41394	0.11917797
133	0x3eda3a2e	0.42622513
134	0xbeadf55f	-0.33976266
135	0xbe050ebd	-0.12993903
136	0x3e14e857	0.14541756
137	0xbe552355	-0.2081426
138	0x3e0efb6f	0.13963102
139	0x3cda5484	0.026651628
140	0xbd0e57b2	-0.0347516
141	0x3dbc4af1	0.091939814
142	0x3dbbc6a5	0.09168748
143	0x3e9bd1c6	0.30433482
144	0xbe614422	-0.21998647
145	0x3ecaffdc	0.3964833
146	0x3bd9c5f4	0.0066459123
147	0xbee6d65d	-0.4508542
148	0xbea57f43	-0.32323655
149	0x3e44eb99	0.19230498
150	0x3e87f965	0.2655746
151	0xbe739dfd	-0.23790736
152	0xbd486e8e	-0.04893356
153	0xbe513388	-0.20429814
154	0x3e154c90	0.14579988
155	0x3ef4d163	0.47816
156	0xbd9bbf0e	-0.076048
157	0xbe98a6c7	-0.2981474
158	0x3de7c28a	0.11316402
159	0x3b824467	0.0039754394
160	0x3e1b2e57	0.15154396
161	0xbe2af578	-0.16695201
162	0x3e85013f	0.25977513
163	0xbd84a869	-0.06477434
164	0x3d088f7d	0.033339966
165	0xbe7d82cb	-0.24756925
166	0x3e73a049	0.23791613
167	0xbe0c9d59	-0.13731898
168	0xbc88df08	-0.016707912
169	0x3d33bf5f	0.043883678
170	0x3b866424	0.004101293
171	0xbe53fee7	-0.20702706
172	0x3c9dee9e	0.01927882
173	0x3dcdb93a	0.10045095
174	0xbe2b2299	-0.16712417
175	0xbe1a998b	-0.15097634
176	0xbd871581	-0.065958984
177	0x3dc2a179	0.09503455
178	0x3db69677	0.08915418
179	0xbcf90623	-0.030398434
180	0xbbd06ece	-0.006360865
181	0xbeffabcd	-0.4993576
182	0xbd423dc6	-0.047422193
183	0x3f14daeb	0.5814654
184	0x3e8f1114	0.27942717
185	0xbdb2a44b	-0.08722743
186	0xbf1ee1bb	-0.6206319
187	0x3dfd3284	0.12363151
188	0x3d22e3b8	0.03976795
189	0xbdf5e3bf	-0.1200633
190	0x3daeab89	0.085288115
191	0xbdd77ec5	-0.10522226
192	0xbd0fc479	-0.03509948
193	0xbe614240	-0.21997929
194	0x3e8ada2f	0.27119586
195	0x3d5200a1	0.05127013
196	0x3d5ecbbc	0.054393515
197	0xbc2f8c64	-0.010714624
198	0xbe876478	-0.2644384
199	0x3c8d0cef	0.017218081
200	0xbcc6034f	-0.0241715
201	0x3d3d98c4	0.046288267
202	0xbec4a607	-0.3840792
203	0x3d5e35ad	0.054250408
204	0x3ea7f743	0.32805833
205	0x3dc5b28b	0.09653195
206	0xbea35cbd	-0.3190669
207	0x3c594e61	0.013263316
208	0x3d54ddc8	0.05196932
209	0xbe70184e	-0.23446772
210	0x3df1d9f5	0.1180915
211	0x3e4fb9ec	0.20285767
212	0x3e782031	0.2423103
213	0x3cddc696	0.027072232
214	0x3d694574	0.056951
215	0xbd2cea5f	-0.0422157
216	0xbdcc2e47	-0.09969764
217	0xbc587bd5	-0.013213118
218	0xbca58024	-0.020202704
219	0x3decb4d2	0.11557926
220	0xbccca3a5	-0.024980376
221	0xbd4ba1b5	-0.049714763
222	0x3e26f408	0.16304028
223	0xbdb73c4a	-0.08947046
224	0xbd930d45	-0.07180265
225	0xbdaf44a3	-0.08558013
226	0x3e3880dd	0.18017907
227	0xbc2e322b	-0.010632078
228	0xbdd3f1a9	-0.103488274
229	0x3d67cdf5	0.0565929
230	0xbd5f4ccd	-0.054516602
231	0x3d327fe8	0.043579012
232	0xba0b6adf	-0.0005318354
233	0xbc83f726	-0.01610906
234	0x3d115f21	0.035491113
235	0xbd420df7	-0.0473766
236	0x3e28afbf	0.16473292
237	0x3e32377a	0.17403975
238	0xbe9723bd	-0.29519454
239	0xbcbd934b	-0.023141524
240	0x3daac352	0.08338036
241	0xbd8ea897	-0.0696575
242	0x3cc26aaa	0.023732502
243	0xbdb6ea09	-0.089313574
244	0x3cd09dd8	0.02546589
245	0xbe33a003	-0.17541508
246	0xbd17a45d	-0.037021983
247	0x3c226ecc	0.009914111
248	0xbe373798	-0.17892301
249	0x3da3d29f	0.07999157
250	0x3d877afe	0.06615256
251	0xbd8e96e2	-0.06962372
252	0xbc9334cf	-0.017969517
253	0xbddc8c69	-0.107689686
254	0x3d9e440f	0.07727825
255	0x3ece2c42	0.4026814

onnx::Conv_198 f4 [8]
0	0x3f5b07d7	0.8555884
1	0xbead3864	-0.33832085
2	0x3e1c6238	0.15271842
3	0x3eb40c04	0.35165417
4	0xbf2ac99f	-0.667139
5	0xc02b7067	-2.6787355
6	0x3f00a07e	0.5024489
7	0x405351c1	3.3018649

onnx::Conv_200 f4 [8, 8, 3, 3]
0	0xbec8b708	-0.39202142
1	0xbede2003	-0.43383798
2	0xbf091905	-0.535538
3	0xbf1d40be	-0.61426914
4	0xbf113c0a	-0.5673224
5	0xbf0705a8	-0.52743006
6	0xbe26bded	-0.16283388
7	0xbe8d1c8c	-0.27560842
8	0xbdcc55fe	-0.09977339
9	0xbe0fc66f	-0.1404054
10	0xbe1114bb	-0.14168064
11	0xbe955c0f	-0.29171798
12	0xbd240e15	-0.040052492
13	0xbdced84f	-0.10099851
14	0xbe8feedd	-0.28111926
15	0x3e41eed2	0.18938759
16	0xbd0e31c2	-0.03471542
17	0xbe7879d9	-0.24265231
18	0x3e84f807	0.2597048
19	0x3ef29409	0.47378567
20	0x3ea8a583	0.32938775
21	0xbc62e39e	-0.0138482135
22	0x3e845709	0.25847653
23	0x3eb44ce8	0.35214925
24	0xbe62f904	-0.22165304
25	0xbd814aea	-0.06313117
26	0x3e897d6d	0.26853505
27	0xbd5751c8	-0.052568227
28	0xbf03f9b9	-0.5155292
29	0xbf1de272	-0.61673653
30	0xbe7998d8	-0.24374712
31	0xbeabdbcd	-0.33566132
32	0x3d2d4808	0.042305022
33	0xbce63959	-0.028103517
34	0x3eedf5dc	0.46476638
35	0x3eadc19f	0.33936784
36	0xbd014b81	-0.031566147
37	0xbe3e52f9	-0.18586339
38	0x3e57f202	0.21088412
39	0xbc961741	-0.018321635
40	0x3e8a7d4f	0.27048728
41	0x3e279a01	0.16367342
42	0x3de3aac0	0.11116552
43	0x3d2dab61	0.042399768
44	0x3dc29849	0.09501702
45	0x3edeb31a	0.4349602
46	0x3e89ec23	0.2693797
47	0xbbc7e1de	-0.0060999235
48	0xbc68ff99	-0.0142210955
49	0x3d8e03f8	0.06934351
50	0xbe1c3432	-0.15254286
51	0x3dc58621	0.09644724
52	0x3dcb3256	0.0992171
53	0x3c7c478f	0.01539792
54	0x3f19ca4e	0.6007432
55	0xbe0c0e5a	-0.1367735
56	0xbe5588e1	-0.20852996
57	0x3ee997e8	0.45623708
58	0x3c9488f0	0.018131703
59	0xbf0440c1	-0.51661307
60	0x3d33449f	0.043766614
61	0x3e0b07db	0.13577215
62	0x3ec078c3	0.37592134
63	0x3ecb0cf8	0.39658332
64	0x3edf5e06	0.43626422
65	0x3dfa8af4	0.122335345
66	0x3eacc848	0.33746552
67	0x3e824c6c	0.2544893
68	0x3c1c783d	0.009550151
69	0x3e05be08	0.13060772
70	0x3e930911	0.28717855
71	0x3ee8c379	0.45461634
72	0x3ac27cc6	0.0014838211
73	0xbe6a40b3	-0.22876243
74	0x3d73d2a4	0.059527054
75	0xbe279aae	-0.163676
76	0xbe3c8686	-0.18410692
77	0x3c0113ba	0.007878238
78	0xbe9b3904	-0.30316937
79	0xbd400e91	-0.04688889
80	0xbd725a40	-0.0591681
81	0x3eeb1d43	0.45920762
82	0x3e530ae0	0.20609617
83	0xbe02f6f2	-0.12789515
84	0x3df0f7cc	0.117660135
85	0x3b899c5f	0.004199549
86	0xbe7d0294	-0.24708015
87	0xbe01cc76	-0.12675652
88	0xbd5fa494	-0.054600313
89	0x3bff9d15	0.007800708
90	0xbe2c2281	-0.16810037
91	0xbe25d3b6	-0.16194043
92	0x3db911f3	0.09036627
93	0x3e3ab513	0.18233137
94	0x3dd4e703	0.103956245
95	0x3da616ae	0.081097946
96	0x3db3e9e9	0.08784849
97	0x3d92fcbd	0.07177112
98	0xbda4e97d	-0.08052347
99	0xbdda6100	-0.106630325
100	0xbd58ef35	-0.0529625
101	0x3da2d1e7	0.07950192
102	0xbe273949	-0.16330446
103	0xbec12190	-0.3772092
104	0xbdb274eb	-0.087137066
105	0xbe8c9554	-0.27457678
106	0xbed32b03	-0.41243753
107	0xbeaea227	-0.34108087
108	0x3e604229	0.21900238
109	0x3e07cca0	0.13261652
110	0x3dd4d779	0.10392661
111	0x3e19bfd3	0.15014581
112	0x3d06b723	0.032889497
113	0x3d76b127	0.06022754
114	0xbd65ea0e	-0.056131415
115	0xbe062f78	-0.13104045
116	0xbd629a80	-0.055323124
117	0xbe8bc0d2	-0.27295548
118	0xbe5643ef	-0.20924352
119	0x3cc01e3e	0.02345192
120	0xbf0588f5	-0.52162105
121	0xbeb445c6	-0.35209483
122	0xbe944e87	-0.28966162
123	0xbee1f3fd	-0.4413146
124	0xbedff65f	-0.43742654
125	0xbeb6b00e	-0.35681194
126	0xbec19a24	-0.37812912
127	0xbe4fa842	-0.20279029
128	0x3dc117ed	0.094283916
129	0xbeb7edcf	-0.3592362
130	0x3dcdc2e9	0.10046942
131	0x3efb0089	0.49023846
132	0xbea37c2f	-0.31930682
133	0xbd9ab5cd	-0.07554207
134	0xbcea46e9	-0.028598266
135	0xbe7bdcc2	-0.24595931
136	0x3de1f4a2	0.11032988
137	0xbe44b8e8	-0.19211161
138	0xbe2cca3b	-0.1687402
139	0x3c58c3bb	0.0132302595
140	0xbe44b186	-0.19208345
141	0xbec0fe30	-0.3769393
142	0xbe031746	-0.12801847
143	0xbe5c2a20	-0.21500444
144	0xbe1dca87	-0.1540929
145	0x3f061a6f	0.52384084
146	0x3e4a1b8e	0.19737074
147	0x3ea43fa0	0.32079792
148	0x3f2359e5	0.63809043
149	0x3f0fbcf7	0.5614771
150	0x3e19b0c7	0.15008841
151	0x3e5f74ee	0.21821949
152	0x3eb936df	0.36174676
153	0xbedf208a	-0.43579513
154	0xbec79bd2	-0.3898607
155	0x3c86ede1	0.016470851
156	0xbe3de708	-0.18545163
157	0xbd5d8b7e	-0.05408811
158	0x3e663ecf	0.22484897
159	0xbe046ae0	-0.12931395
160	0x3e8955b6	0.26823205
161	0x3e8ae113	0.27124843
162	0x3e69aafa	0.22819129
163	0x3dc3343e	0.09531449
164	0x3dee49ab	0.11635145
165	0x3f08f945	0.53505355
166	0x3e861ec0	0.26195335
167	0x3e804ed8	0.25060153
168	0x3ef8d456	0.485995
169	0x3e4efbed	0.2021329
170	0x3cfc0d97	0.030768199
171	0x3d9b77f2	0.07591237
172	0x3dc7df2f	0.09759366
173	0xbcdec4da	-0.027193476
174	0x3f0370e3	0.51344126
175	0x3f0eca0e	0.5577706
176	0x3e5f7eb1	0.21825673
177	0x3e5421fa	0.20716086
178	0x3eecad4a	0.4622596
179	0x3eb816e4	0.35954964
180	0xbe06f64c	-0.13179892
181	0xbea27c27	-0.31735346
182	0xbe9812b4	-0.2970177
183	0xbe9531d8	-0.2913959
184	0xbe6acba3	-0.22929244
185	0xbdf95976	-0.121752664
186	0xbdd4eccb	-0.10396727
187	0x3e40e2af	0.18836473
188	0x3ef6f1dc	0.482314
189	0x3dc3e533	0.09565201
190	0xbd4d1970	-0.050073087
191	0xbd2889d9	-0.041147087
192	0x3cd7c0ad	0.026336992
193	0x3d35c40c	0.044376418
194	0x3e0503fc	0.12989801
195	0xbdc31870	-0.095261455
196	0xbe408618	-0.18801153
197	0x3d58c4e5	0.05292215
198	0xbe773473	-0.24141102
199	0x3d5a1ba7	0.053249028
200	0xbe1301cd	-0.14356156
201	0xbdfa2f65	-0.12216071
202	0x3e6f0561	0.23341896
203	0x3d19ac82	0.037518032
204	0x3ea06f9b	0.31335148
205	0x3e191254	0.14948398
206	0xbf14602d	-0.5795925
207	0xbe584b87	-0.21122561
208	0xbbd14bc4	-0.006387206
209	0xbea057ff	-0.31317136
210	0x3e236cb8	0.15959442
211	0x3cb5108f	0.022102622
212	0xbe6bdf00	-0.23034286
213	0x3ea506e7	0.3223183
214	0x3ce0ab55	0.027425447
215	0xbf097f02	-0.53709424
216	0xbd259802	-0.04042817
217	0xbe856e69	-0.260608
218	0xbc09e82c	-0.0084171705
219	0xbe95f14c	-0.29285657
220	0xbe512704	-0.2042504
221	0x3e2c8a9f	0.16849755
222	0xbd249c26	-0.040187977
223	0x3d4eee7a	0.050520398
224	0xbdeb9c71	-0.11504448
225	0xbe0f04e0	-0.13966703
226	0xbe213039	-0.15741052
227	0x3e55a21f	0.20862626
228	0xbe60c57e	-0.21950337
229	0xbe2ad08e	-0.1668112
230	0x3c5f603d	0.013633785
231	0xbe9be950	-0.3045144
232	0xbe073327	-0.13203107
233	0xbd6c43d7	-0.057681885
234	0x3f01ca7f	0.5069961
235	0x3f6a7f0a	0.91600096
236	0x3e921b7c	0.28536594
237	0x3f38a503	0.7212679
238	0x3f175ae8	0.59123087
239	0x3f35d91e	0.7103442
240	0x3ead9614	0.33903563
241	0x3f18c48d	0.5967491
242	0x3edf5ce6	0.43625563
243	0xbf7906ac	-0.97275805
244	0xbf5df4bf	-0.8670158
245	0xbf21e0d6	-0.632337
246	0xbe904644	-0.28178608
247	0xbe98c0f7	-0.2983472
248	0xbe76d49e	-0.24104545
249	0xbe9a54b0	-0.30142736
250	0xbe8aea3e	-0.27131838
251	0xbe6bbac8	-0.2302047
252	0x3e01f348	0.1269046
253	0xbdc7e10f	-0.097597234
254	0xbd6c59a4	-0.057702675
255	0xbe7a1fdd	-0.24426217

onnx::Conv_201 f4 [8]
0	0x3f38048f	0.71881956
1	0x3fc10cb4	1.5082002
2	0x3f005ed2	0.50144684
3	0x3fcc8d32	1.5980589
4	0xbff8dc99	-1.9442321
5	0x3f93026a	1.1485112
6	0x3f95af52	1.1694129
7	0xbf2ea01a	-0.68213046
