dnn-models/cifar_resnet10-batched.onnx (onnx, 220634 bytes, 30 tensors)

layers.0.0.decision_head.channel_gates f4 [40, 16]
00000000: acaa f93e a2d5 ec3e bd8b df3e 6181 fc3e
00000010: f9ab e73e ec6f dd3e 5a45 f83e 9570 dc3e
00000020: 6158 ef3e 8cf3 d93e 04f7 f13e fd73 ea3e
00000030: dc90 f73e 1490 a73f 0631 f53e f6f8 5f3f
00000040: ac40 f53e d519 f03e 9584 fc3e ade1 f53e
00000050: 80a5 ee3e 9ac1 f53e 5af7 ee3e f1dc fb3e
00000060: 3c52 dd3e 4540 3e3f c890 fd3e 1daf ba3f
00000070: 2cde fe3e c2ee f43e 9fa4 f93e d9f6 e73e
00000080: 6040 db3e 6005 e83e c7f8 db3e 1a36 e83e
00000090: 48f5 d23e 79e2 f83e e743 d43e 8da4 f73e
000000a0: 7b2b ee3e 5971 c83e fec9 e83e 6a91 f23e
000000b0: 86f8 f63e 5906 c63f c117 f93e ed54 ee3e
000000c0: 0271 f23e af11 e33e fcea f03e 3e88 da3e
000000d0: afdb f23e c345 de3e c8d2 853f 2993 fa3e
000000e0: 4aa8 ce3e ffd5 383f ab6d 113f c827 873f
000000f0: 2627 eb3e 5434 ce3e f90e fa3e 7648 f13e
00000100: 330e 943e 03ce e13e 844b dd3e 26f7 f23e
00000110: 668d 223f b6f5 ac3e 909c da3e 76b9 f63e
00000120: ac5e f03e 464a 553f 18d2 e03e c52d f53e
00000130: 0fa7 fc3e 765d 7f3f 830a e73e 77e4 f93e
00000140: 488b ee3e 2ade 993f 5fd3 f43e f051 d53e
00000150: 895a ea3e 0f4c df3e f1c5 f63e d5fc e23e
00000160: d028 f33e c7b5 e23e bf0f fb3e ed61 1f3f
00000170: bc4b c53e 2668 5d3f a662 fd3e 4dea fc3e
00000180: 41e9 ec3e d54c e33e a42e d63e 1596 ef3e
00000190: 8b04 243f ef44 ed3e 1f9a e83e 5e84 ef3e
000001a0: 89c9 df3e 4a65 6b3f e2e1 ec3e 18ff 0d3f
000001b0: 1603 d03e f7a0 773f eba0 ca3e 051f ec3e
000001c0: 5606 f53e b6ab f83e 650f fe3e e7c2 f33e
000001d0: 9a4b ed3e b344 f33e 91b4 f63e a263 db3e
000001e0: ac82 f93e ad41 f43e 6091 f63e 3658 f93e
000001f0: 3793 dd3e 8405 8a3f 2107 fc3e a86c 723f
00000200: c831 ed3e 6e8d df3e 9a49 f53e fdc6 fd3e
00000210: 01b2 e93e 304e e33e 46aa f73e b750 ef3e
00000220: 44f5 fe3e 1a42 f73e 69fe f53e 1a38 d73e
00000230: 68e0 fb3e f745 a53f a2fc ee3e bfc3 ef3e
00000240: e61e 4f3f 02a8 df3e 045f f63e b944 f63e
00000250: 10da ca3e 6339 f93e 71cb f13e 9b7c 343f
00000260: 9155 ff3e e77d ed3e 290c fd3e 8aa4 ea3e
00000270: 006a f83e ee38 ff3e fc33 ee3e 6fa6 f93e
00000280: 4db4 4f3f bdda f23e 121e f33e a85f db3e
00000290: a4c9 553f ffc6 f53e b835 f63e bea4 f23e
000002a0: 5d5d e93e 0ed4 793f 536d f43e 5be5 4f3f
000002b0: 59b8 093f 32cf 1a3f e5f6 f93e 3769 ee3e
000002c0: 8a83 ed3e 7af4 f93e 9eb3 fa3e 1b64 fb3e
000002d0: a2fa ec3e 4239 e73e 2f37 f43e f170 fd3e
000002e0: 7b35 ec3e da49 593f add2 f63e 9c4c b03f
000002f0: 40a5 ee3e 3af8 f43e bcb7 f53e a74e db3e
00000300: 4df1 203f 0a57 f53e 279b f23e fb15 f63e
00000310: ef1a f43e ccfb 5e3f 2de6 fd3e 910e 713f
00000320: 31d6 f13e 1895 ed3e 6d13 863f 3b57 ec3e
00000330: c3ab e73e 985b dd3e 8401 fd3e 9d71 fc3e
00000340: 8dbb f83e 02da ed3e 32bf fc3e 505a fd3e
00000350: 10ce d63e 5c26 2e3f f78a f53e 41fb 4a3f
00000360: acdd f53e e602 ed3e 630c f43e 8127 ee3e
00000370: 975c f53e 06a8 f33e 85ad ec3e 890a fb3e
00000380: 50c6 e13e c382 f63e caae f33e 94e9 ec3e
00000390: afbe e93e ebd5 f83e eaeb fb3e 1e0c fb3e
000003a0: 836a f93e 99f8 eb3e f27e 513f 0a72 da3e
000003b0: 5492 da3e f61e 243f 18d3 f93e fe80 f83e
000003c0: 6f2b e53e e38c ef3e 88cf fd3e 1c53 e73e
000003d0: 0b74 e63e 0d8f ea3e c2e5 ae3e 2298 f63e
000003e0: 61bc 583f 968b 573f c752 fb3e cf05 f73e
000003f0: d00e bb3e a8ea 843f 0634 fe3e ae48 e73e
0.48763025 0.4625674 0.436613 0.49317458 0.45248392 0.43249452 0.4849041 0.43054643
0.46747115 0.42568624 0.4725877 0.45791617 0.48352706 1.3090844 0.47888964 0.8748926
0.47900903 0.46894708 0.49319902 0.4802374 0.4661064 0.4799927 0.4667309 0.49192002
0.43226802 0.7431682 0.49524522 1.458469 0.4977888 0.47838408 0.48758408 0.45305517
0.42822552 0.453166 0.4296324 0.45353776 0.4120276 0.48610285 0.41458055 0.4836773
0.46517548 0.39148977 0.45466608 0.47376567 0.48236483 1.5470687 0.48650935 0.46549168
0.47351843 0.4434943 0.4705428 0.4268207 0.4743323 0.434126 1.045495 0.489404
0.4036277 0.7220153 0.56807965 1.0559015 0.45928305 0.40274298 0.48839548 0.47125596
0.28917083 0.44102487 0.43221676 0.47454184 0.63497007 0.33781213 0.42697573 0.4818837
0.4694723 0.8331646 0.4391029 0.47886482 0.49346206 0.99751985 0.45125207 0.48807117
0.46590638 1.2020924 0.47817513 0.41664076 0.45772198 0.43612716 0.48197892 0.4433352
0.47492075 0.4427931 0.4903545 0.622588 0.38534343 0.8648704 0.49489325 0.49397507
0.4627171 0.44394556 0.4183246 0.4679419 0.6406943 0.46341655 0.45430085 0.46780676
0.43708447 0.9195143 0.46266085 0.5546737 0.40627354 0.9672999 0.39575896 0.46117416
0.47856396 0.48568505 0.4962112 0.47609636 0.46346742 0.4751335 0.48184636 0.4284945
0.48732507 0.47706357 0.48157787 0.48700112 0.4327638 1.0782933 0.4922419 0.94697046
0.46327043 0.4366259 0.47907716 0.4956588 0.4564362 0.4439559 0.48372096 0.46741268
0.49796498 0.4829262 0.48045662 0.4203499 0.49194646 1.2911977 0.4667712 0.4682903
0.8090652 0.43682867 0.48119366 0.48099306 0.39619493 0.48676595 0.47225526 0.7050263
0.4986997 0.46385118 0.4942334 0.45828658 0.48518372 0.4984812 0.46524036 0.4875979
0.8113449 0.4743251 0.4748388 0.42846417 0.83510804 0.48003384 0.4808786 0.47391313
0.45579043 0.97589195 0.47739658 0.81209344 0.5379692 0.60472405 0.48821178 0.46564648
0.4638942 0.48819333 0.48965162 0.49099812 0.46284968 0.45160872 0.47698352 0.4950023
0.46134552 0.84878314 0.48207608 1.3773379 0.4661045 0.47845632 0.4799174 0.42833444
0.62868196 0.47917968 0.47383997 0.48063645 0.476768 0.8710296 0.49589673 0.9416285
0.47233728 0.46402812 1.0474678 0.46160302 0.4524823 0.43233943 0.4941522 0.4930543
0.4858059 0.4645539 0.4936462 0.49482965 0.41954088 0.6802728 0.47957584 0.79289633
0.48020685 0.46291274 0.476657 0.46514514 0.47922203 0.4758913 0.46226135 0.49031475
0.44096613 0.48146638 0.4759429 0.46271956 0.45653293 0.48600706 0.49203426 0.49032682
0.48714074 0.46088102 0.8183433 0.4266513 0.42689764 0.6410974 0.48793864 0.48535913
0.447597 0.46787176 0.49572396 0.45180595 0.4501041 0.45812264 0.34159666 0.48162943
0.84662443 0.84197366 0.49086592 0.4824662 0.3653474 1.0384111 0.49649066 0.45172638

layers.0.1.decision_head.channel_gates f4 [40, 16]
00000000: 02ec 6e3f e30f 633f 10bd ca3e 7d46 5e3f
00000010: f7c1 933f 2f73 833f 4291 7c3f 9191 3f3f
00000020: de44 1b3f b194 fb3e 1721 3c3f a2ec f93e
00000030: b50e c03e 632f f03e 6610 773f 0b36 883f
00000040: 3942 343f 9514 453f a5ef 563f 4d84 813f
00000050: be16 993f 50a5 8f3f 0125 823f 3bbb a63f
00000060: 79da 9e3f e2b3 723f c4df 203f 00be f43e
00000070: c37e 573f 2308 f83e 94ee a03f a63e 233f
00000080: 78cc b93e 1d4d e83e 56c3 ec3e 1ae8 d63e
00000090: 1713 943f 22b8 ed3e f8aa bd3e d01a 6d3f
000000a0: 7f4e 7e3f e03f e93e 66cb d83f 05e4 133f
000000b0: 1b32 e43e ddd8 113f 4c23 b93e c98c a43e
000000c0: 4f4b ef3e 69c5 813f 4406 563f e50a 753f
000000d0: a004 233f 7287 883f 66cc 553f 5144 523f
000000e0: 947b 1c3f 792d 403f 2f5d 383f 9da4 9f3e
000000f0: fc86 e73e d7ed f23e 513d 523f e841 713f
00000100: 7443 773f 002f 433f 0972 793f 4a67 363f
00000110: 3207 413f 6832 a43f 4f16 bf3e c227 3e3f
00000120: 4e5d 413f eac0 573f e0d6 e23e 729e dd3e
00000130: 859c e33e f578 b73f 7e24 673f 9d7b 653f
00000140: 90b6 e03e 85fe 463f 0885 b43f bec3 843f
00000150: 35dc 9e3f d875 763f 9ed3 603f d0dc 6e3f
00000160: 6cdf f83e 4289 fc3e 2a23 1d3f 5184 fe3e
00000170: c1d0 8e3f b803 e03e 084b 253f f9c5 823f
00000180: e18a 503f 16dc 8d3f 6df7 4d3f 7db1 de3e
00000190: 2bc1 6a3f 09c1 a43f d8fb b53e faee 753f
000001a0: bc9f 693f 8d49 253f 2191 fb3e 6aae fc3e
000001b0: d161 bf3e b7cc f33e 8d68 5e3f e4cd c73e
000001c0: fc17 e63e 4852 ac3f 6cbf df3e da42 d93f
000001d0: 43b2 2f3f 8654 603f 9dd4 fb3e ac14 1b3f
000001e0: 7de9 e13e bfd5 d03e 8f70 3c3f 2eea f43e
000001f0: 9ca9 f83e fa06 db3e bfaa df3e 0fae ee3e
00000200: ad72 be3e 17c2 843f 1925 8b3f e424 8d3f
00000210: e305 503f ec6d f83e 22e0 0b3f 2001 983f
00000220: 2205 673f 7352 873e b2a3 9b3f 9f75 5b3f
00000230: 7b4a be3e 600d 153e e07d fb3e 8d67 ff3e
00000240: d679 943f e989 503f 449f 0c3f 11b6 813f
00000250: 74cd 473f a104 763f 7d28 513f c775 6d3f
00000260: 908b 4b3f 69aa 3d3f 3a65 fd3e 9285 cb3e
00000270: 8c6e fc3e 41ba 173f 48fd 853f 68c5 0f3f
00000280: d9af 0a3f 8b30 2b3f 943f 4c3f 5932 583f
00000290: d090 1a3f 5331 193f 0379 ab3f eaa6 503f
000002a0: 3d0f 523f 91d1 133f 06ab 7f3f 2021 813f
000002b0: 9dd9 fd3e 7e23 4a3f 1b3c 723f fe8f 9c3f
000002c0: 898e 533f 376f 2b3f 2ac0 823f 5227 8e3f
000002d0: eda3 623f 3b36 453f f5b9 5f3f a448 323f
000002e0: 51f9 2b3f 5a88 853f d9ae 913f 36d6 ff3e
000002f0: 47cc ec3e b240 843f 43d7 263f 2a3e 963f
00000300: 2983 7f3f 4487 403f 0f26 4a3f ccb0 893f
00000310: 2a5c 4d3f a905 603f f0bb 493f afc1 823f
00000320: 5c42 7f3f c94b 243f f957 943f b8dc 503f
00000330: f0a1 473f eb83 0b3f 8e34 9c3f dedb bc3e
00000340: 1c52 d73e baaa d03e c1bd dc3e 8816 e43e
00000350: 72ec 303f 4f62 f53e ffb6 263f 93a5 243f
00000360: a416 d83e 683b de3e d6d5 453f cc03 e43e
00000370: a90c c93e bbbf e83e b678 1f3f c059 d03e
00000380: 27b6 d63e 8d10 9b3f 48b3 493f 9a34 9f3f
00000390: 0d68 023f ab02 753f b7e4 2f3f 00df 863f
000003a0: f36c 813f 0d5d 573f 22a2 e53e 5c51 dc3e
000003b0: 5aa1 113f 3b6c 793f ed78 c23f bbcf 683f
000003c0: 8532 813f ed1c 8e3f cf29 ea3e 48f9 813f
000003d0: 9815 503f a1e5 ad3f ed7a 9f3e af87 313f
000003e0: ad11 fd3e 15bd b43e d00b ff3e 7cb4 3b3f
000003f0: 00ab 9d3f 009a e53e a306 343f 045b 8f3f
0.9332887 0.88696116 0.39597368 0.86826307 1.1543568 1.0269526 0.98659146 0.7483149
0.6065196 0.4913688 0.7348799 0.4881335 0.3751122 0.46911153 0.965094 1.0641493
0.7041355 0.7698453 0.8395942 1.01185 1.1960065 1.1222324 1.0167543 1.3025888
1.2410423 0.9480573 0.6284144 0.47801208 0.841778 0.48443708 1.2572808 0.6376747
0.3628881 0.45371333 0.4624278 0.41973954 1.1568326 0.46429545 0.370445 0.9261904
0.99338526 0.45556545 1.6937072 0.57769805 0.44569477 0.5697153 0.36159742 0.3213866
0.46737143 1.013837 0.8360331 0.9571975 0.6367893 1.0666335 0.8351501 0.8213549
0.61126065 0.75069386 0.72017187 0.31180277 0.45220172 0.47447082 0.8212481 0.9424119
0.965873 0.7624359 0.9743963 0.71251357 0.75401604 1.2827883 0.37321708 0.74279416
0.75532997 0.8427874 0.44304562 0.43284947 0.44455352 1.4333788 0.9029006 0.89641744
0.43889284 0.77732116 1.4103098 1.0372236 1.2410952 0.96273565 0.878229 0.93305683
0.48607957 0.4932347 0.6138178 0.49710324 1.1157457 0.43752837 0.64567614 1.0216666
0.8146191 1.108279 0.80455667 0.43494788 0.91701 1.287141 0.35543704 0.96067774
0.9125936 0.64565355 0.49134162 0.49351817 0.37379315 0.47617123 0.8687828 0.3902427
0.44940174 1.346261 0.4370073 1.6973526 0.6863138 0.8762897 0.4918565 0.6057842
0.4412345 0.40788075 0.7360925 0.47834915 0.48566902 0.4277876 0.43684956 0.4661717
0.37196866 1.0371732 1.0870696 1.1026883 0.8125898 0.48521364 0.54638875 1.1875343
0.9024221 0.2643009 1.2159331 0.8572635 0.371662 0.14555883 0.49119473 0.4988369
1.1599681 0.81460434 0.5493052 1.0133687 0.7804787 0.96100813 0.81702405 0.9275784
0.7950983 0.7408815 0.49491292 0.39750344 0.4930309 0.59268576 1.046792 0.56160593
0.5417457 0.66870946 0.7978451 0.84451824 0.60377216 0.5984089 1.3396305 0.8150469
0.820545 0.5774165 0.99870336 1.0088234 0.49580088 0.78960407 0.94622964 1.2231443
0.82639366 0.66966575 1.0214894 1.110575 0.8853138 0.77035874 0.8739312 0.6964209
0.671773 1.0432236 1.1381484 0.49968117 0.462496 1.0332243 0.65172213 1.1737721
0.9980951 0.752064 0.7896432 1.0757079 0.80218756 0.87508637 0.78802395 1.0215358
0.9971063 0.6417814 1.1589347 0.8158679 0.7798147 0.54498166 1.2203538 0.36886495
0.42054832 0.40755254 0.4311352 0.4454844 0.69110787 0.47926566 0.6512298 0.64315146
0.42204773 0.43404698 0.7727941 0.44534147 0.3926747 0.4545878 0.62293565 0.40693474
0.41935846 1.2114426 0.78789186 1.2437928 0.5094002 0.95707196 0.68708366 1.0536804
1.0111374 0.8412636 0.4485026 0.43030822 0.5688683 0.9743077 1.5193154 0.9094197
1.0093542 1.1102577 0.45735022 1.01542 0.8128295 1.3585702 0.31148472 0.6934766
0.49427548 0.35300508 0.498137 0.7332227 1.231781 0.44844055 0.70322627 1.1199651

layers.1.0.decision_head.channel_gates f4 [40, 32]
00000000: 5654 ed3e fb71 d13e d655 f73e e0f0 d53e
00000010: fe17 eb3e 7f56 cc3e 75f8 f53e 50ad d73e
00000020: ea31 df3e 5936 e83e ccaf f33e e60a e53e
00000030: 2765 f63e f06f df3e 1d7a f23e fbcb dd3e
00000040: 775e e03e 3aea ec3e e5fc f43e 0f7e f23e
00000050: 91b2 da3e cba5 793f 692d e83e beb5 403f
00000060: 5d6e cc3e eb8b e73e 1e5e e93e 8631 ed3e
00000070: 5417 d83e b66f e53e 905a ed3e 5019 d33e
00000080: 1ebf 723f f522 cd3e 13cf 8d3f a66e 213f
00000090: 6c05 993f 3983 d53e b7b9 fd3e a60b 4c3f
000000a0: 8bf2 823f f317 8b3f ff5c 443f fa87 573f
000000b0: 96ab 1d3f 3b19 fd3e 41a6 383f bb12 883f
000000c0: c4d1 f73e 5abc f03e 27e1 ef3e 5b45 ff3e
000000d0: 3e1d 593f d7ad 743f 2a0a be3e 867b f83e
000000e0: fa67 863f 6745 723f d1ec f53e b6a9 703f
000000f0: 0b27 d33e dd07 993f 44e7 393f 772c c53e
00000100: f49c 7d3f e0e3 ee3e e1cb 263f b091 df3e
00000110: 4e6a 673f 2806 fc3e 264c 123f a0a9 733f
00000120: f51e 063f d080 723f a72b 8a3f 1ff7 2b3f
00000130: be40 5b3f 5fc5 8f3f 6d54 a43f f835 bc3f
00000140: edbf e13e db1e c03e 12be 1c3f 7ecf d53e
00000150: ea0a 983f d204 733f 241d 1e3f 8848 e73e
00000160: 717b 633f c76f fe3e 8590 f63e 25d8 6a3f
00000170: aeb1 d63e cd70 b03f b545 593f e45f 413f
00000180: 1411 603f 1a7f ef3e 1f6a ff3e 4148 8e3f
00000190: 989a 8c3f 7a91 c03e 405d 453f 988f d73e
000001a0: db1e de3e 5bdb 8e3f c015 3e3f a22c fb3e
000001b0: 3bd6 4c3f 38a7 4a3f f2d4 8e3f fde5 673f
000001c0: 456b e63e 8fc2 f63e ba20 5d3f d158 d83e
000001d0: dc8c 823f 6903 f43e 9ec5 263f 8b0d ec3e
000001e0: 2c18 6b3f e4e5 8e3f fc9a ec3e 4341 393f
000001f0: e3fb f53e 4fd4 4e3f 759a f33e a7d2 173f
00000200: 7456 6a3f 09c6 c53e 7748 fa3e 5229 c93e
00000210: fc17 6b3f ac2d 303f e197 f33e ad91 4f3f
00000220: 8d8e 323f 9d31 d83e bea6 413f 6772 813f
00000230: 5bfe 9d3f f5a7 ff3e 4c78 f33e fa3a 8b3f
00000240: bca8 e43e d91b f63e 8095 f23e a6dc c23e
00000250: 0c5f fa3e 377d 003f 301c 7f3f 7f63 383f
00000260: b6fd eb3e 59e9 473f 6f18 2c3f 42fb a13f
00000270: 9205 f73e 9b13 a13f ed1a 353f a3f2 eb3e
00000280: ad4f cf3e 3bbf 293f b8e8 d73e d9cd bb3f
00000290: 4437 ba3f ced1 093f 3fd6 853e d64d 5d3f
000002a0: e87b 1d3f 553f 9a3f 6e60 173f 4e6c f83e
000002b0: 86ca 3d3f cc21 d53e b6e2 5c3f ddd2 9d3f
000002c0: d04d 3c3f 3233 bf3e d12c bb3e 643d 843e
000002d0: 2abe 9c3f 7cac 9b3f 951a 143f 216a f73e
000002e0: 8001 553f bda3 3a3f 01d0 333f ad91 883f
000002f0: 4da5 5e3f b498 9b3f 38c9 683f 47a9 f73e
00000300: 988c 133f 7176 fc3e 0728 1b3f 3aac f93e
00000310: 0ade 283f 5cc0 553f c75e fa3e c8f6 743f
00000320: 4714 623f 36ae 613f d226 863f 7139 f33e
00000330: 50a8 963f be2d 7f3f c82a 3e3f 07ed 673f
00000340: c1ca bd3e 428f 0c3f 82a7 853f 1e88 da3e
00000350: d35e 853f b2b6 a83f 8fd8 303f 57e9 fc3e
00000360: 5479 ef3e 3db7 0c3f a6f6 f73e 417b 2b3f
00000370: 3728 783f 5674 093f 07fc 5b3f bf59 5f3f
00000380: 4230 f93e 915d 693f 7384 fc3e 81db 6a3f
00000390: 6323 a53f 42c8 f33e c55b 563f ff61 cd3e
000003a0: 3b97 3a3f 7529 873f 46a1 fa3e 32c4 843f
000003b0: c5fc 8c3f 80e0 fd3e 8227 f43e 4a92 a63f
000003c0: 3b8b 983e 1510 da3e 8a2b d63e 5d60 f93e
000003d0: ef40 c23f 05ce 443f c768 f73e 686f 633f
000003e0: 5966 123f f2fe 5b3f 5650 7e3f 069b 9c3f
000003f0: 1f06 3c3f 0ff7 8f3f 8637 253f dd17 503f
0.46353406 0.40907273 0.48307675 0.41785336 0.45916742 0.3990974 0.4804112 0.42124414
0.4359277 0.45353964 0.4759506 0.44734877 0.48124048 0.4364009 0.4735879 0.43319687
0.4382207 0.4627245 0.47849193 0.473618 0.4271436 0.97518605 0.45347145 0.75277317
0.3992795 0.45223936 0.45579618 0.46326846 0.42205298 0.4481179 0.46358156 0.4123025
0.9482287 0.40065733 1.1078819 0.6305946 1.195478 0.41701677 0.49555752 0.79705274
1.0230268 1.0866684 0.767044 0.8419186 0.61589944 0.49433312 0.72128683 1.0630716
0.48402226 0.470187 0.46851465 0.49857602 0.84810245 0.9557776 0.3711713 0.4853174
1.0500481 0.9463715 0.4803224 0.9400896 0.41240725 1.1955525 0.7261851 0.38510486
0.99067616 0.4665823 0.65154845 0.43665838 0.90396583 0.49223447 0.57147443 0.951807
0.52390987 0.947278 1.0794572 0.6717395 0.85645664 1.1232108 1.2838265 1.470397
0.4409174 0.3752354 0.61227524 0.41759866 1.1878331 0.9492923 0.61763215 0.45172524
0.8886023 0.49694654 0.48157135 0.9173606 0.41932434 1.3784424 0.8487199 0.7553694
0.8752606 0.46776658 0.4988565 1.11158 1.0984678 0.3761099 0.77095413 0.4210174
0.43382916 1.1160692 0.7425194 0.4905749 0.8001439 0.79161406 1.1158736 0.9058531
0.45003715 0.4819531 0.8637806 0.42255262 1.0199237 0.47658852 0.6514529 0.46104082
0.9183376 1.1163907 0.46211994 0.72365206 0.48043737 0.8079271 0.4757878 0.59305805
0.91538167 0.3862765 0.4888341 0.39289337 0.9183347 0.6881969 0.47576812 0.8108166
0.69748765 0.42225352 0.75645053 1.0113038 1.2343248 0.4993283 0.47552717 1.0877373
0.44659984 0.4806812 0.47379684 0.38058966 0.4890064 0.5019106 0.99652386 0.7202682
0.46092004 0.78090435 0.6722478 1.2654803 0.48246437 1.2584108 0.7074421 0.46083555
0.40490475 0.6630742 0.42169738 1.4672195 1.4548116 0.5383576 0.2614002 0.86446893
0.6151719 1.2050577 0.59131515 0.4852013 0.7413715 0.41627347 0.86283433 1.2329975
0.7355623 0.37343746 0.3655763 0.25828087 1.2245533 1.2162013 0.5785306 0.48323157
0.83205414 0.72906095 0.70239264 1.0669457 0.8697098 1.2155976 0.90932035 0.48371336
0.57636404 0.49309114 0.6060795 0.4876421 0.65963805 0.8349664 0.48900434 0.9568906
0.8831219 0.8815645 1.0480597 0.47504762 1.1770115 0.9967917 0.7428403 0.9059605
0.3706875 0.54906094 1.0441744 0.42681974 1.0419563 1.3180754 0.6908044 0.49396774
0.46772254 0.549671 0.48430365 0.66984946 0.96936363 0.5369314 0.8593144 0.87246317
0.4866963 0.91158396 0.493198 0.91741186 1.2901424 0.47613722 0.8373378 0.40113828
0.7288701 1.0559527 0.48951167 1.0372374 1.1014639 0.49585342 0.47686392 1.3013394
0.29793724 0.42590395 0.41830093 0.48706332 1.5176066 0.7687686 0.48322126 0.8884187
0.5718742 0.8593589 0.9934133 1.2234809 0.7344684 1.1247271 0.6453785 0.8128641

layers.1.1.decision_head.channel_gates f4 [40, 32]
00000000: 094f ee3e 10f1 e53e 20e4 ea3e a6a9 ed3e
00000010: 915f f73e df93 563f 442e f33e d5ac 253f
00000020: dc3e ed3e c17d 4b3f f7b8 f43e 8e53 483f
00000030: 058d dd3e 6315 613f 0d8f 683f 79d3 f83e
00000040: 0845 6b3f 33d0 493f d997 e23e 36d9 f03e
00000050: 16cc ee3e f890 573f 1683 593f 18cd f13e
00000060: d339 ed3e 78ec d93e 0efd 413f d592 f83e
00000070: 04f8 f03e ca86 fc3e 6390 f33e 86f2 763f
00000080: 670d fd3e ee19 f43e 094c 3f3f e592 353f
00000090: 2d97 ec3e e05e eb3e c033 f63e 5f51 323f
000000a0: c732 c83e 4f97 763f 8540 ff3e 68d1 f53e
000000b0: 9c99 f43e 06ae 2d3f 8692 453f a83b 393f
000000c0: 6958 4c3f 4477 573f a098 fe3e 07aa e83e
000000d0: 1054 f93e 3a68 5e3f 2b46 5f3f 2784 113f
000000e0: f0f3 5d3f 4e79 fc3e 9189 643f 9909 363f
000000f0: 25f4 163f b0a0 6e3f 951a f73e 2045 4d3f
00000100: 4335 4a3f 093b f33e ace9 8c3f 58a7 533f
00000110: 5a9e f63e 0e9e fc3e d222 fa3e 5e96 fb3e
00000120: b3a4 fc3e 96e1 e63e ca8d 813f 9bc9 fa3e
00000130: 1d0b 963f 47c1 fe3e a408 5d3f a8f9 6e3f
00000140: ad7a fa3e 4eca 543f 33f0 ed3e 18c6 a33f
00000150: 60c3 f33e 374d 8c3f 890a 6a3f af3d 353f
00000160: 498c 8d3f 6c31 543f 83c1 883f e54b 353f
00000170: ed13 663f a44c f53e fdc1 e93e f99c e53e
00000180: eb47 323f 5acf f43e 7c10 2b3f bc12 f03e
00000190: 8d99 ed3e a2f0 f53e 2eb7 f33e 19c5 d83e
000001a0: 5778 fd3e 910a 243f 8bf2 843f 1810 5b3f
000001b0: cfab f83e 5107 2e3f 6d24 e93e 20ed 413f
000001c0: c1ca 523f 5162 633f fbee e63e 68b3 7e3f
000001d0: 42d6 843f 2936 da3e 4f34 613f b240 fa3e
000001e0: 8d8e d23e 6f24 e93e 77c7 223f 1766 5f3f
000001f0: 3d9b 4b3f 5057 fb3e 2346 463f cf1a 8a3f
00000200: 7679 f43e f1fc f73e 8745 243f 37af fb3e
00000210: 519a f83e 2412 f43e 803b 353f f431 863f
00000220: 06e0 f13e 1164 443f 4b99 f53e 3992 233f
00000230: ea4c f33e e869 4c3f 6dd9 303f bd2b ec3e
00000240: 0207 2c3f b25b 853f c7df f53e 477f e33e
00000250: 8b64 f73e 3e03 473f d176 fb3e f222 f03e
00000260: 87db 4e3f d74a 673f ada7 ed3e d118 e73e
00000270: c85b f73e 9988 203f 1fe5 fd3e e2cf 6f3f
00000280: 8a0e f93e bf7b ec3e 385e 383f bbf4 763f
00000290: c58e f63e 361d f53e dcd8 e83e 093b 473f
000002a0: ea88 ea3e fed0 193f 9a60 123f 60d4 493f
000002b0: 548e fd3e 9d89 543f 4a7e 273f 084e fa3e
000002c0: 32c1 5e3f 2102 513f cdb2 f93e cc84 f93e
000002d0: 5a30 f73e 63a4 603f b4c1 2f3f 7e9d 433f
000002e0: 7542 793f bf4f 243f 15fc 053f 0710 fa3e
000002f0: f673 f63e 1acc f83e ddeb ec3e f6be 713f
00000300: 1bc1 ef3e c846 fd3e 87a5 513f 66f8 523f
00000310: 901f 3c3f 8044 ef3e 2d76 e63e b706 5d3f
00000320: bf60 f23e 26cd 5c3f b839 fb3e a7b5 373f
00000330: 14d1 fb3e 8f0c 4e3f 04d5 4e3f 49c2 553f
00000340: 7d89 3a3f 6ef5 523f 713f fb3e 0a90 fd3e
00000350: bd77 ef3e f0ce 4b3f 0d29 353f 6f6c 0d3f
00000360: fdc7 653f 1906 f93e 57db e13e 5caf f03e
00000370: b579 293f 21ae eb3e 55e1 f83e 3fea 6d3f
00000380: 11b5 e03e 4e1d 4a3f 5d8c 523f 57e4 1f3f
00000390: c112 f43e 2290 e43e 36d1 e93e f5aa f53e
000003a0: 3925 eb3e 7ff4 273f 4dba 773f 87df 5c3f
000003b0: f993 fb3e 065a ed3e f028 fd3e 6195 373f
000003c0: f233 4a3f 38f0 633f 59d8 fd3e 851a 723f
000003d0: 79c7 7c3f 6120 543f d811 4e3f ff41 623f
000003e0: a286 d13e 1eb4 2f3f 98f6 5a3f 6dc8 0c3f
000003f0: 783d 693f afea f03e 8775 463f e4e9 7b3f
0.46544674 0.4491048 0.4587717 0.46418494 0.483151 0.83819383 0.47496235 0.64716846
0.4633702 0.7948876 0.47797367 0.78252494 0.43271652 0.8792326 0.9084328 0.4859884
0.9190221 0.7883331 0.44256476 0.4704072 0.4664008 0.8420558 0.84965646 0.47226787
0.4633318 0.42563224 0.75776756 0.48549524 0.4706422 0.49321586 0.47571096 0.9646381
0.49424288 0.47676033 0.74725395 0.7092727 0.46209088 0.4597082 0.48086357 0.6965541
0.3910124 0.9632463 0.49853912 0.48011327 0.47773445 0.67843664 0.771767 0.72356653
0.79822403 0.8416636 0.4972582 0.4544222 0.48696947 0.8687779 0.8721644 0.56842273
0.86700344 0.49311298 0.8927241 0.71108395 0.58966285 0.9321394 0.48262468 0.801836
0.7898752 0.47505978 1.1008811 0.8267722 0.48167688 0.49339336 0.4885469 0.4913816
0.49344406 0.45093983 1.0121396 0.48981938 1.1722142 0.49756834 0.8634131 0.93349695
0.4892172 0.8312119 0.4647232 1.2794828 0.47609997 1.0961064 0.91422325 0.70797247
1.1058437 0.8288791 1.0684055 0.7081893 0.89874154 0.47910035 0.45655814 0.44846323
0.6964099 0.47814447 0.6682203 0.46889293 0.46406212 0.4803515 0.47600693 0.42337874
0.49505875 0.64078623 1.0386518 0.8557143 0.4856858 0.67979914 0.45535603 0.7575245
0.8234063 0.88821894 0.45104203 0.994925 1.0377886 0.42619446 0.8797044 0.48877484
0.41124383 0.4553561 0.6358561 0.8726515 0.7953375 0.49090052 0.7745077 1.0789431
0.47748917 0.48435166 0.6416859 0.49157116 0.48555234 0.4767009 0.70793915 1.0483994
0.4724123 0.7671519 0.47968516 0.63894993 0.47519618 0.798491 0.69081765 0.4612712
0.67198193 1.0418608 0.4802229 0.44433042 0.48318896 0.7773932 0.49114087 0.4690166
0.8080372 0.9034857 0.4641699 0.4513612 0.4831221 0.6270843 0.49588868 0.9367658
0.48643905 0.4618816 0.72018766 0.9646718 0.481558 0.4787385 0.4547795 0.77824455
0.45807582 0.6008452 0.5717865 0.78839684 0.4952265 0.8302248 0.65427077 0.48887658
0.8701354 0.81643873 0.48769227 0.48734128 0.48279077 0.87750834 0.6865494 0.7641219
0.9736703 0.6418418 0.5233777 0.48840353 0.48135346 0.48593217 0.462737 0.9443201
0.46827015 0.49468064 0.818932 0.82410276 0.7348566 0.4673195 0.45012036 0.8633837
0.47339436 0.8625053 0.49067473 0.71761554 0.4918295 0.8048791 0.80793786 0.8349958
0.7286604 0.82405746 0.4907184 0.49523956 0.4677104 0.79612637 0.70765764 0.5524358
0.8975828 0.48637465 0.44112656 0.4700879 0.66201335 0.46031287 0.48609415 0.92935556
0.43888143 0.78950965 0.8224543 0.62457794 0.47670558 0.44641215 0.45667428 0.47981992
0.45926836 0.65607446 0.9676865 0.86278576 0.49136332 0.46357745 0.49445295 0.7171231
0.7898551 0.8903842 0.49579123 0.94571716 0.9874187 0.82861906 0.8049598 0.8838195
0.4092303 0.6863421 0.8553252 0.54993325 0.9110942 0.4705405 0.7752308 0.98403764

linear.weight f4 [10, 32]
00000000: fa71 493e ff50 18bf dd7f 80bf f9f4 133f
00000010: 3372 99bf 6061 993e 9343 313f dca7 d2bd
00000020: 1773 723f 4390 f7be 2866 45be 963d 3b3f
00000030: 9abc 82bf 575e 923f f7a8 8abf b76e 3ebd
00000040: 1c5f 07bf 7a6b aebf 2f7c 1cbe 3ed4 1ebf
00000050: 5341 3a3e 5501 693e 0b00 47bf 66fa 413d
00000060: 32fc 863f 9988 8abe a008 af3e 684d 973f
00000070: 16f0 bf3f 026f 79be c7e0 0c3e 5932 6b3e
00000080: bc89 22bf 9338 94bf 8cab 1940 4e73 9abe
00000090: 87cf 5fbf c75c ea3d a934 9ebf a93a 47be
000000a0: fa5e 27bf b210 21bf 9449 1e3f 4e94 32bf
000000b0: 64e4 c53d 38cf b23f 6fde b7be 2982 263f
000000c0: e0b1 69bf 022a 0f40 bcdc dabe 0a1b 11be
000000d0: 03ac 60bf a048 033f 39e4 243f 614a ef3e
000000e0: bc46 d7be 54b3 7bbf 2d27 d4be 39f3 ce3f
000000f0: f208 12be 3e83 5f3e 0146 4c3e 7c43 e1be
00000100: 98f8 113f 7a19 b43f 6083 273f e53a c33f
00000110: dbfe a43f 9dff 31bf 2ef2 7c3d 76db f13e
00000120: 5d43 953f a7e5 b4bd ba9e f9bf 6269 c63e
00000130: e6a6 c83f db89 a4be 4186 583d 7563 37bf
00000140: 2dec 04bf a10e a7be 0069 69be b670 a3bf
00000150: d904 173f ac33 2ebf c86e ffbe 310d 1a3f
00000160: 1b91 0dbf 1b02 62bf 895b cdbe 0cd6 46be
00000170: 3712 3b3f 0814 60bd ee7d a53e 0197 80bf
00000180: 9f5e 273e 5150 263f d97e 81bf 0094 71bf
00000190: 38fb 0a3f e907 8e3f 43ee 72be b2e8 67bf
000001a0: ceda 873e 1c5f a53f f6d5 8d3d eaa0 953f
000001b0: 2a8e 7c3d 53a1 8f3d 43cd e63f da76 81be
000001c0: f7b7 953d cccd d8bd e08b 81be 8df4 ccbe
000001d0: 800c 22be 1321 ddbe 4ba6 62bf 3693 01be
000001e0: a136 17be 6887 02be fad3 a0be c9bf 203d
000001f0: 88c2 6ebf ffe3 513e acb6 143f a63b 833f
00000200: dce2 3bbf a268 d6bf 7707 173d 0198 6c3d
00000210: 40c5 0d3f 80f9 80be 61ea 853f b46e 17bf
00000220: a8e6 3abf 2afb 22bf 5755 a2be 4d8e 77bf
00000230: 1a05 b73f b2f0 c5bf ace8 c23f 7490 21bf
00000240: dbcd 703f f87b 94be 5d77 88be 92ee 893f
00000250: 79a9 4f3f 437c 1a3f d2ba 66bf 3802 c23e
00000260: 9c17 efbd 841d 353f 13f2 773f 5f5c 12bf
00000270: 237d af3f 5d1e 03bf 7fa6 9dbf 2e4f 41bf
00000280: b38c 54bf 2a2b d23e a46c 283f e481 82be
00000290: 0a3c aa3f 93de 653f aa11 6f3e 6d10 823f
000002a0: bda1 03bf ce12 d53f 3bb5 4b3e 727e 80bd
000002b0: b4bc 843e d777 54bf 3fb1 633e 5605 1dbf
000002c0: c6f0 50be e9ee 54bf 3135 0c3f d255 ac3e
000002d0: f8c4 0ebe 7dc8 83bf 3dfa acbd c47c b53d
000002e0: d7eb 51bf 8abd 5bbd a4ba 1f3f ef40 88be
000002f0: dfdb 00bf 89a4 4b3f d985 4cbf 1f91 343f
00000300: a22e 0740 15ba 13bf 05c9 bcbe 9057 73bf
00000310: eb0f 9ebd 308e e73e 44e9 4e3e 031b c53f
00000320: ec21 a13e fe5d 42be 91fc 8c3f ea22 01bf
00000330: 64fe 193f 2a4c 35bf d911 033f 8eaf bdbe
00000340: 94b8 0b3f 9806 d2bd 7b77 de3d 2ed8 3c3f
00000350: e8f3 66bf b0d1 75be f34c b83f 043f 7fbf
00000360: 0775 2fbf 3bf6 afbf 2c31 3ebf 3920 c7be
00000370: 721e 64bf 3cec a2be 4eec f2be 7a50 c8be
00000380: 8d1c 24bf e144 a03f e373 92bf ae6d 073e
00000390: 18f6 e63c b6a0 153e f839 5bbf 38af d2be
000003a0: 3d91 01bf e9d0 93be 4ea3 c8be 0653 10bf
000003b0: b091 3bbf 3b90 54be c9bf 37bf 9623 ea3d
000003c0: dc2b ff3f f8be f2be 75a4 e13f 22e6 163f
000003d0: 2f4a 9ebd ae6b 2ebf 8aae 7fbf 34c9 cf3f
000003e0: 65b3 0d3f fe9d c73e 821e 823f 4883 853e
000003f0: c69b 7c3e 4588 81bf 1887 9f3d 9ecb c1be
0.19672385 -0.5949859 -1.0039021 0.57795674 -1.1987976 0.29957104 0.69243735 -0.10285923
0.94706863 -0.4835225 -0.19277251 0.7314085 -1.0213807 1.143504 -1.0832814 -0.046492305
-0.528795 -1.3626549 -0.15281747 -0.62042606 0.18188982 0.22754414 -0.7773444 0.04735794
1.0545714 -0.2705734 0.34186268 1.1820498 1.4995143 -0.24358752 0.13757621 0.22968425
-0.63491416 -1.1579765 2.4010954 -0.30166095 -0.87426037 0.11443477 -1.2359821 -0.19455971
-0.653793 -0.629161 0.6183102 -0.69757545 0.09662703 1.3969488 -0.3591189 0.6504236
-0.9128704 2.236939 -0.42746532 -0.14170471 -0.8776247 0.5128269 0.6441074 0.46736434
-0.42046154 -0.9832051 -0.4143614 1.6167976 -0.14261225 0.21827409 0.1994858 -0.439968
0.5701995 1.4070275 0.6543484 1.5252348 1.2890276 -0.6953066 0.061754398 0.47237748
1.1661183 -0.08832865 -1.9501565 0.38752276 1.5675933 -0.32136425 0.05286241 -0.71636134
-0.51922876 -0.32628348 -0.2279396 -1.2768772 0.5899177 -0.68047595 -0.49889207 0.6017638
-0.5529954 -0.8828446 -0.40108898 -0.1941759 0.7307467 -0.054706603 0.3232264 -1.0046083
0.16344689 0.64966303 -1.0116836 -0.94366455 0.5428958 1.1096164 -0.23723702 -0.9058944
0.26534122 1.291965 0.069255754 1.1689732 0.061659016 0.07013192 1.8031391 -0.2528599
0.07310479 -0.10586128 -0.2530203 -0.40030327 -0.15825081 -0.43189296 -0.8853499 -0.12653813
-0.14766933 -0.12746966 -0.31411725 0.0392454 -0.9326558 0.2049713 0.58091235 1.0252578
-0.73393035 -1.6750681 0.036872353 0.05776215 0.55379105 -0.25190353 1.0462152 -0.59153295
-0.73008204 -0.63664496 -0.31705734 -0.9670151 1.4298432 -1.5464079 1.5227256 -0.6311104
0.9406411 -0.2900083 -0.26653567 1.0775931 0.8111797 0.6034586 -0.90128815 0.37892318
-0.11674425 0.7074816 0.9685375 -0.571722 1.3710064 -0.51218206 -1.2316436 -0.75511444
-0.8302719 0.41048557 0.6579077 -0.25489724 1.3299572 0.89792746 0.23346582 1.0161263
-0.5141867 1.6646364 0.19893353 -0.062741175 0.2592522 -0.8299536 0.22235583 -0.61336267
-0.20404348 -0.8317705 0.54768664 0.33659226 -0.13942325 -1.0295559 -0.08446167 0.08861688
-0.8200049 -0.053647555 0.62394166 -0.2661204 -0.50335497 0.79547936 -0.79891735 0.7053394
2.1122212 -0.57705814 -0.36872116 -0.95055485 -0.0771788 0.45225668 0.20206171 1.5398868
0.31471193 -0.18981168 1.1014577 -0.504439 0.60153794 -0.7081934 0.5119911 -0.37048
0.5457852 -0.10255164 0.10862633 0.73767364 -0.9021592 -0.2400577 1.4398483 -0.9970553
-0.68537945 -1.3747019 -0.7429378 -0.3889177 -0.89108956 -0.31820858 -0.4744591 -0.391239
-0.64106065 1.252102 -1.1441616 0.13225433 0.028193519 0.14612088 -0.8563533 -0.41149306
-0.5061224 -0.28870323 -0.39187092 -0.56376684 -0.73269176 -0.20758145 -0.71777016 0.11432569
1.993526 -0.47411323 1.7628313 0.58944905 -0.07728993 -0.68133056 -0.998757 1.6233277
0.5535186 0.38987726 1.016556 0.26076722 0.24668798 -1.0119711 0.07789439 -0.3785066

linear.bias f4 [10]
00000000: c98e c43e 12a8 05bf b08b f93d 795b d23e
00000010: 3292 113f 5bb9 f5be 5a4d cd3e 59b0 8e3e
00000020: 53a4 09be 6ec1 3ebf
0.38390186 -0.5220958 0.121848464 0.41085413 0.568637 -0.47992977 0.40098077 0.27868918
-0.13441591 -0.745139

onnx::Conv_215 f4 [16, 3, 3, 3]
00000000: 3f67 94be 23b8 cfbe 964b 17be f473 88be
00000010: c6e4 23be d27e 5abe 3aa2 933e 2d6c 2b3f
00000020: d446 903e b419 d83d 6248 87bd 679d 563e
00000030: b6fd e7bd 25a6 babc ece8 26be 2cb1 4f3d
00000040: 0180 003f 035e ed3d 916b a73d f617 17be
00000050: 898c e73d b339 70be a0b1 e2bd ea62 73be
00000060: 3912 87bd 0efd 243e deb7 0fbe fd45 01bc
00000070: 6627 97bd 3ea2 3dbe 4354 04be 667c 3ebe
00000080: 8d47 46be 2e06 debd d641 4dbe 04fc adbd
00000090: 6da3 6a3e 4611 763e c4f0 8e3d 26ea 8abc
000000a0: f3e0 90bc 94e4 a6bd f786 5f3c 006f b4bc
000000b0: f509 90bd 3b76 d03d fcac 4f3e 1b26 c93a
000000c0: 8994 c23c 26f3 1d3d 2714 babd 5d1f ce3d
000000d0: 8bd2 d83d 0bbd 8b3b 91c1 22bc c770 a3bc
000000e0: 1a6d f1bd fd1d a43d 80f4 b93d 9954 7d3c
000000f0: 8e4e 633d 7041 433e 9f01 7b3e 9b80 43bc
00000100: bd13 02be 6276 65be 3ae9 dd3c a38c 14be
00000110: aaf2 a2be 1960 80bd f1a5 c1bd f5b2 4dbe
00000120: ad1b 4f3e 379f 9c3d a8ab a6bd a43f 8b3e
00000130: 8510 d73d 16a3 0dbe d28f d03d 3f8c 3c3e
00000140: eb45 9bbd 4b5f 88be f282 69be f053 5abe
00000150: 595d 4e3e c119 a63e 854a ef3d c073 3abd
00000160: f034 92bb 0871 61bd ed05 d8bd 34b6 1ebe
00000170: d2f6 3cbe bf5b 1e3e e147 973e cd0d 813d
00000180: 4ff2 e6bd 34e4 59bd c273 adbd 903a 6abe
00000190: 6641 cfbd 17f9 36be 578d 573e 9473 b43e
000001a0: 7f26 f33d 7fd9 56bd 9dbd 9ebd 34c9 f8bc
000001b0: b805 8abb 0367 85bd 13f9 8cbd a3d8 aebd
000001c0: ebb4 74be 2d73 5abe d976 47be 271e 83be
000001d0: 6f69 a8be aa15 433d 1d00 ea3b a2a2 50bd
000001e0: 9a18 a13c eab5 ce3d 245c 123d 115a a4bd
000001f0: 9c7c 153c 339d 78bd 0090 413d d0ec 493e
00000200: 6a47 3cbc 7663 483e f3fb db3e 3047 833e
00000210: cb8f 613d e69e 8a3e 56c0 463e 4dc3 1e3e
00000220: 57c9 293e ca35 953d d12a 4fbd 98c8 8c3c
00000230: 44ec 7d3e b91a c4bd 83e5 52bd b419 483e
00000240: 20f6 8fbd 9ff9 edbd 7c2e a23b cd69 95be
00000250: 7814 79be aef1 4bbd fe78 49be 52e9 8dbe
00000260: 2464 633c a085 c93d 17ed 3bbc c100 cbbd
00000270: 16c9 583d f358 3ebd e87d 8cbc 2360 753d
00000280: b9c0 85bd 2307 b5bd 4560 8abe 7fa5 6ebe
00000290: ed46 f5bd c466 8abe aa3f a6be 39fc 81be
000002a0: 1bfe 8cbe d24d 4cbe ef39 25be bc81 d33e
000002b0: 1b88 093f 1403 d03e 1cef f73e dc01 123f
000002c0: 5137 8f3e c9fa b03e 6447 ee3e 7afa a33e
000002d0: 2adf 0dbe 97f4 9abe 91f2 26be 9325 44be
000002e0: 3dd1 e6be ba71 b3be eedf efbd 46af 2fbe
000002f0: 3a10 10bd 27df 02bf 586c 5fbf b002 373e
00000300: 83e2 25bf 559d 9d3f 46f6 eebe ff40 9d3e
00000310: 1c14 adbd 4ee0 343f 671b 9e3e 341e 863e
00000320: fae8 bc3d f31c d0be 2053 d73f cf90 6abf
00000330: 3eec b0bd d600 20bf 69ef 98be 66f4 203e
00000340: 8d2f 86be c13b d43e f120 37be 0a82 943f
00000350: b501 d8be 1ffa 2dbe fa76 07bf dcd7 63be
00000360: 0cb6 283d 4b10 3c3d 5045 d0bb 1c19 f83c
00000370: 3b18 5b3d 5fcf 2c3d d135 193d 2146 bd3c
00000380: e5ff 55bc 4dc5 edbb d68c bd3c 5b89 36bc
00000390: 5b19 d93c 99df 753d 4995 493d c598 573d
000003a0: c620 3c3d 809c 4d3d 85f2 a5bd 0030 72bb
000003b0: f6c9 ddbd 70fc e1bd 99d7 ce3d a562 903d
000003c0: 6e4c 67bd c980 183d bc0b 833d cb23 573d
000003d0: ac3d 633e 0ffd 1e3e 3889 8f3e aa6d 5bbc
000003e0: f95e 0ebe 38d5 c33c 973f 7bbe 8406 6bbe
000003f0: 3d30 b1bb 01bd f2bd 1ae8 edbd 8c24 b53e
-0.2898502 -0.40570173 -0.14774927 -0.26650965 -0.16005239 -0.2133744 0.28834707 0.6696194
0.28179038 0.105517775 -0.06605603 0.20958482 -0.113276884 -0.022784302 -0.1629979 0.050706074
0.5019532 0.11590197 0.081748135 -0.14755234 0.11306102 -0.2345951 -0.110690355 -0.23768201
-0.065952726 0.16112158 -0.14034984 -0.007890222 -0.073805615 -0.18518922 -0.12922768 -0.18602142
-0.19363232 -0.108410224 -0.20044646 -0.08495334 0.22913904 0.24030027 0.06979516 -0.016957354
-0.01768539 -0.081490666 0.013643018 -0.022025585 -0.07033149 0.10178801 0.20280832 0.0015346439
0.023752468 0.038561963 -0.09085875 0.10064576 0.10587033 0.004264479 -0.009933845 -0.019951237
-0.117883876 0.08013532 0.09079838 0.015462064 0.055494837 0.19067931 0.24512337 -0.011932517
-0.12702842 -0.2240844 0.02708875 -0.14506774 -0.31825763 -0.06268329 -0.09455479 -0.20087798
0.20225401 0.07647555 -0.081382096 0.2719699 0.10501198 -0.13831744 0.101836815 0.18412875
-0.07581695 -0.26635203 -0.22803858 -0.21321082 0.20152797 0.32441524 0.11684135 -0.045520544
-0.004461877 -0.055039436 -0.10548005 -0.15499192 -0.1845353 0.15464686 0.29547027 0.063014604
-0.112766854 -0.053196147 -0.08469345 -0.22873902 -0.10119896 -0.17868458 0.2105001 0.3524443
0.11872577 -0.052453514 -0.077510096 -0.030369379 -0.0042121075 -0.065137886 -0.06883445 -0.08537414
-0.2389714 -0.21332999 -0.1947893 -0.25608942 -0.3289294 0.047628082 0.007141127 -0.05093635
0.019665051 0.10093291 0.035732403 -0.08024991 0.0091239475 -0.06069679 0.04725647 0.19719243
-0.011491636 0.19569191 0.4296566 0.2564025 0.055068772 0.27074355 0.19409308 0.15504189
0.16580711 0.0728565 -0.050577942 0.017185494 0.2479716 -0.095754094 -0.05148841 0.19541055
-0.070293665 -0.11619877 0.004949389 -0.29182282 -0.24324214 -0.04979103 -0.19675061 -0.27717072
0.013878856 0.0983994 -0.011470101 -0.09912253 0.052926145 -0.046471547 -0.01714988 0.059906136
-0.065308996 -0.08839252 -0.27026573 -0.23305319 -0.11976419 -0.2703153 -0.32470447 -0.25387743
-0.27537617 -0.19951561 -0.16135381 0.41309917 0.53723305 0.40627348 0.48424613 0.5703409
0.2797189 0.34566334 0.46538842 0.32027036 -0.13854662 -0.30264732 -0.16303469 -0.19154958
-0.4508151 -0.35047704 -0.11712633 -0.17156705 -0.035171725 -0.51121753 -0.87274694 0.17872119
-0.64798754 1.2313639 -0.46672267 0.3071365 -0.08451101 0.7065476 0.3088028 0.26194918
0.09224124 -0.40647087 1.6822243 -0.9162721 -0.086388096 -0.62501276 -0.29870155 0.1571823
-0.26208153 0.4145184 -0.1788366 1.1602185 -0.42188802 -0.16989945 -0.5291592 -0.22250313
0.04118924 0.045913976 -0.006355919 0.03028541 0.053489905 0.042189952 0.03740484 0.02310473
-0.013061498 -0.007256186 0.023138445 -0.0111411465 0.026501348 0.060027692 0.049214635 0.052635927
0.045929693 0.05019808 -0.081028976 -0.003695488 -0.108295366 -0.11034477 0.10099716 0.07050065
-0.056469373 0.037232194 0.063987225 0.05252437 0.22191495 0.15526222 0.28034377 -0.013392845
-0.13903417 0.023905382 -0.24535976 -0.22951704 -0.005407362 -0.11852456 -0.116165355 0.35379446

onnx::Conv_216 f4 [16]
00000000: 01e3 323f 9792 aabe deb7 d53e d7cf 06bf
00000010: 6e04 263f 9159 a5be 3f27 3b3e 6082 4740
00000020: 74e9 983e 13c6 5d3f c47a 3d3f ce5c 05bf
00000030: 73de 893f 1459 d2bf 7351 843f 5a05 ff3e
0.6987763 -0.33314964 0.41741842 -0.5266089 0.6485051 -0.32294896 0.1827669 3.1173325
0.2986561 0.8663036 0.7401545 -0.52094734 1.0771011 -1.6433434 1.0337356 0.4980877

onnx::Conv_218 f4 [16, 16, 3, 3]
00000000: f3f7 2cbe d807 debd 8992 04be e4f1 d53c
00000010: 4fc9 5c3d 8031 e6bc 30e8 8b3c d10c 653d
00000020: da1e 85bd c4a5 81bd 73f0 34bd 3b05 c2bd
00000030: 710d 4f3a 55a0 a73d bd93 913d 7cfc 62bb
00000040: 278c 7e3c 75bb c5bc 653f 3abd e04a e0bb
00000050: b87f 75bb 848e f43c 33e7 24bb 24a9 913d
00000060: 459e b03c b2a4 773c a986 c53d eec4 983d
00000070: 4bfe d53d 7bdf 6d3d 787f b3bd c558 14bd
00000080: 6bbb 72bd c644 983c 3d64 e63c e223 40bd
00000090: 3f61 f3ba 4e00 9c3d f4dd 193d 31ae 9cbd
000000a0: d877 d63c b3db 76bd 93d4 edbc 119f 83bd
000000b0: eb63 3dbd 1913 8abd 393d adbd c343 e1bd
000000c0: f3d5 99bc 11ec 71bd d903 02bd 1a05 6f39
000000d0: 09cd 263d 5511 423c 70c8 a03b 6b61 4c3d
000000e0: 5bcf 9abd b01b 853d bd82 1f3d 8243 b8bd
000000f0: c982 093e 5b98 933d 14c0 7cbd 1fd8 07be
00000100: dd69 2d3d 0789 e8bd dca3 62be 2b30 9d3b
00000110: 74a6 4cbe fc0b 133e adcb 343e c5ec c83d
00000120: 3581 86bd c9c3 5dbd 7b30 313b f6b1 77bc
00000130: 79e0 80bc 5ce1 6c3c e9ed 47bd 6213 693c
00000140: 0850 973c 85f3 b8bd fb48 06bc abf7 17bd
00000150: ffaa 21bd 3585 88bc be7f 02be f516 3f3d
00000160: 246f cc3c 50a6 adbd d054 a8bd b031 48bc
00000170: 97e8 c6bc 3571 b8bd 8cba a23d 0740 373d
00000180: 0c99 f33c 9a54 9b3d 825a a63d f6bd 75bd
00000190: 1263 33bd 032d c5bb 504d e6bb 61ad f73c
000001a0: 7551 333c 4aa1 a23c d226 243c 9fd4 ed3c
000001b0: b605 973d e92a b43d 3ae3 393d 8652 d4bc
000001c0: 3cb1 4e3d 39cd 9fbb ce86 25bd 3c90 3dbd
000001d0: f185 64bb c0e7 55bd f152 27bd 0941 e4ba
000001e0: eb0e d8bc 144c d5bc f37a bbbc 7049 11bd
000001f0: 2dc6 34bd 48a0 693d 269b e9bd 3f80 8bbd
00000200: eabc 37bd cf03 92bd 095b 123d 2f72 223d
00000210: b65f b0bd ffa2 a0bc 9afa 04bd afe6 22be
00000220: 30d6 10be e214 1cbe e1fe 69bd 1faf ccba
00000230: 02e9 afbd e6e6 4bbd a620 93bd fd28 ffbd
00000240: e334 5bbe f6a5 2ebe 5882 edbd 0f24 07bd
00000250: 0775 aabc f8f2 a8bd ddb7 1a3e 1bb4 7ebc
00000260: 4878 6ebd 6c61 953b 8d5b bfbd 12d1 353d
00000270: de38 3dbd 4f0c 52bd 2cd5 a23d 51db bc3c
00000280: 6fe9 18bd 669e 043d a2a4 99bd fa98 25bd
00000290: 9347 68bd e3e8 103d aa54 b13b 3c60 55bc
000002a0: 6e2d 2cbd d237 11bd 885a 753d 432e d6bd
000002b0: 1b20 08bc 833f c3bc 037e 93bd a707 97bd
000002c0: d0e9 23bc 4632 873d fc4a 9439 f71d 38bd
000002d0: 6668 923c f37b 9e3c 40c9 743d f783 eebd
000002e0: d6cb 27be d80e a7bd f027 97bc cc0f 9abd
000002f0: b44c adbc 450e 0e3d 6153 483d 51c4 bbbd
00000300: bb22 7dbd e978 183d 2658 b03d c27f 02be
00000310: 22a8 a3bd 6b0d 50bd 2310 55be ba42 babd
00000320: 140b 32bd f266 ebbc 6c2d f73b ebee 65bd
00000330: eb65 d93d b9ec ed3d 95ce 283e 45ee 15bd
00000340: b53c 98bd d021 d63c 216c aabe 4012 6c3e
00000350: 0c1f a33d 6b6d f0bc 4b10 4d3d 5016 8bbc
00000360: fbef 09bd 7301 97bc b1e5 43bc d980 85bd
00000370: cd9b 7c3c 37dd 46bd 7480 27bd a0b7 773d
00000380: 0c87 4bbd 87db acbc e24b 15bd e5ec 82bd
00000390: 47d3 703d 916c 813d 333a dd3d 8311 593d
000003a0: 8ff5 773d db10 2b3e 2232 7a3b 0d9a 1e3e
000003b0: 13c9 22bd 821d 043d ae63 2a3e ca23 713d
000003c0: c0b1 d5bc 225d cfbb 3207 5e3d 6c14 94bd
000003d0: b3d7 70bb ef2d 1b3d e97b 8fbd e3f7 8fbd
000003e0: a5da 8ebd c965 5a3c 0cfc 0a3d dd56 79bc
000003f0: a27e a13d 7122 c63d b599 b2bd 9ad5 05bd
-0.1689146 -0.1084134 -0.12946524 0.026116319 0.05390292 -0.028099775 0.017078489 0.055920426
-0.06500025 -0.063304454 -0.044174623 -0.09473654 0.0007898426 0.08184878 0.07108257 -0.0034635356
0.015536345 -0.024137238 -0.045470614 -0.0068448633 -0.003746016 0.029853113 -0.002516222 0.07112339
0.021559844 0.01511495 0.09644825 0.07459436 0.10448893 0.058074456 -0.08764547 -0.03621747
-0.059260767 0.018587481 0.02812397 -0.04690922 -0.001856841 0.076172456 0.037565187 -0.07650412
0.026180193 -0.060268115 -0.029032027 -0.06426824 -0.046237867 -0.06741924 -0.08458943 -0.10999253
-0.018778777 -0.05906302 -0.03174195 0.00022794717 0.04072288 0.011844953 0.0049067065 0.049897593
-0.07559081 0.064994216 0.03894304 -0.08997251 0.13428797 0.07206794 -0.061706617 -0.13266037
0.042337287 -0.11354261 -0.2213282 0.004797002 -0.19985372 0.1436004 0.17655821 0.09810785
-0.06567613 -0.054141793 0.0027036953 -0.015118113 -0.015732037 0.014458027 -0.048810873 0.014225813
0.018470779 -0.09030823 -0.008196111 -0.03710143 -0.039469715 -0.01666508 -0.12744042 0.046652753
0.02495534 -0.08478987 -0.08219302 -0.012218878 -0.02428083 -0.090059675 0.07945737 0.044738796
0.029736064 0.07584496 0.08122732 -0.059995614 -0.043795653 -0.0060173287 -0.0070282593 0.03023404
0.010944714 0.0198523 0.010019021 0.02903205 0.07374136 0.08797247 0.045382716 -0.025918256
0.050461993 -0.0048767594 -0.040411763 -0.04628013 -0.0034869874 -0.052222967 -0.040850583 -0.0017414402
-0.026374301 -0.026037253 -0.022885775 -0.035470426 -0.044134308 0.05703762 -0.11406545 -0.068115704
-0.044857897 -0.07129633 0.03573135 0.039659675 -0.086120054 -0.019608973 -0.032465555 -0.15908311
-0.14144206 -0.15242341 -0.057127837 -0.0015616155 -0.085893646 -0.04978075 -0.071839616 -0.1245899
-0.21406893 -0.17055497 -0.11597127 -0.032993373 -0.020807756 -0.082494676 0.15109201 -0.01554587
-0.058220178 0.0045587327 -0.09343634 0.044388838 -0.04619681 -0.05128127 0.079508156 0.023053797
-0.037331995 0.032377623 -0.07502104 -0.040429093 -0.056708883 0.035378348 0.005411704 -0.013023432
-0.042035513 -0.035453625 0.05990079 -0.104580425 -0.008308436 -0.023833996 -0.07201769 -0.073745064
-0.010004476 0.06601386 0.00028284627 -0.04495045 0.017872047 0.019346213 0.05976224 -0.11646264
-0.16386351 -0.08157128 -0.01845166 -0.07522544 -0.021154739 0.034681577 0.04890764 -0.09168304
-0.0618007 0.037224684 0.08610563 -0.12744048 -0.07991053 -0.050794046 -0.20806937 -0.09094758
-0.043467596 -0.028735612 0.0075432565 -0.056136053 0.106151424 0.11617417 0.16485055 -0.036604185
-0.07433454 0.02613917 -0.3328562 0.23053837 0.07964906 -0.02934905 0.050064366 -0.016978413
-0.03367613 -0.018433308 -0.011956618 -0.06518716 0.015418005 -0.04855081 -0.040893987 0.060477853
-0.049689338 -0.021100773 -0.03644932 -0.0639284 0.05879524 0.063195355 0.10802116 0.052995216
0.060536917 0.16705649 0.0038176854 0.15488453 -0.03974254 0.032254703 0.16639587 0.05887202
-0.026085734 -0.006328241 0.05420608 -0.07230458 -0.003674966 0.037885603 -0.07006056 -0.070297025
-0.06975297 0.013329932 0.033931777 -0.015218464 0.078854814 0.09674538 -0.087207235 -0.03267441

onnx::Conv_219 f4 [16]
00000000: f406 0240 b558 a53f 2de1 1540 4997 28c0
00000010: 2635 d93f f379 b4bf b35f 0540 3c1b ec3e
00000020: 19e3 1040 4c71 183e dc7f d03f d2bc af3f
00000030: d054 cebe 4e5a d33f 553b 1740 0536 893f
2.0316744 1.2917696 2.3418686 -2.6342337 1.6969345 -1.4099716 2.083966 0.46114528
2.263861 0.1488697 1.628902 1.3729498 -0.40299082 1.6511934 2.3629963 1.071961

onnx::Conv_221 f4 [16, 16, 3, 3]
00000000: f7cf ef3d 3688 613d 0f4b eb3e 9602 acbd
00000010: f9d1 2dbe 0585 173e 1a5e 51be 34c4 ebbd
00000020: e4b1 7dbd 8081 51be 9db5 b8bd 9860 9b3e
00000030: 4f76 f6bd a55e 02be 370f 6f3d c8d6 50be
00000040: 18b3 3cbe 30ca 58be f6f7 11be a27b a63c
00000050: ee10 00bc ae84 7abd 755e e3bd bbf1 68be
00000060: 7a89 ed3d 2877 033d 104a 9b3e 400d a9be
00000070: a2cd 0cbe 8a55 2bbe 7a63 16be ed60 feba
00000080: 5029 01be 1491 61bd 7e6f 283e 9ef4 b73b
00000090: e3f7 c1bd 64bb 29be 7c49 04be 82c8 a73d
000000a0: c409 633e 6fee 713e 594c cd3d 6430 64bd
000000b0: 1d00 733d d546 ffbd 2741 1dbe 56f9 c5bc
000000c0: 3fb4 08be 16c9 f13d 58a3 f33c c93a 89bd
000000d0: 404d 023c 9182 81be 1414 d03d 7368 fdbc
000000e0: 56de 9ebd 9ea4 753b a7fc c63d d68c 3d3d
000000f0: d5b5 c43d 54f8 393d 305f b93c c795 b83e
00000100: 2245 0ebf 4218 48be dd3e fabe 4ab3 313d
00000110: bf98 023e 2e12 8f3d bfd0 cfbe 7eb7 5f3d
00000120: da27 bb3c dae0 fa3c 2260 d63d 149e c33e
00000130: 1eb9 963e 49d2 533e 8eb4 523e 6de9 af3e
00000140: 67dd c43e 546d 99bd 10a4 363d a3fe 213e
00000150: cece 0c3c 4f49 5e3d bff6 07bd 00ae 0ebe
00000160: 5074 04be abc0 5a3d 1c23 cc3d 0b75 383e
00000170: 0b7a cd3c bfa2 813e 4403 c23e fb7a 283e
00000180: 2a38 503d 9875 fabb 9603 41be 93d8 bfbd
00000190: 80c2 d3bd 49ed 5f3e 8c00 febd dd0d fbbd
000001a0: 54ff d6bd 7d32 693e a18f 09bd 62b4 85bd
000001b0: dbff 013d 0116 48bd 908a 573c 99c8 26be
000001c0: e4fb 6abe af45 cfbe c859 0e3d 2afa 23be
000001d0: fe45 94be 6362 4ebe 9649 23bf 6358 5a3c
000001e0: 32ba 3c3c 50cc 593d 311b 293e ecff fabd
000001f0: 9cc7 cc3d c06a 023d e72f f13c 4e21 fd3d
00000200: f029 4d3d 29be 3c3d 5aaf d63a 4983 493d
00000210: f36b d5bd df8c 83be d563 25be d6c0 ecbe
00000220: 7dca 43be 1238 763d 06e1 7e3c e5b3 1a3e
00000230: e09d 873e 2e27 413c c5d0 24bd 1a89 cfbd
00000240: 9214 933e 7b95 4f3e 522a 4b3e f919 083d
00000250: 2805 363c 7ba8 87be d1bc e7bd feb8 90be
00000260: 2168 cfbe 1ad8 5cbe 65d8 bc3c 7d5b af3c
00000270: 4f8c 2fbe 6019 19bd 667c 603c ae28 113e
00000280: fcd7 933e b050 de3e a218 233d 7437 973e
00000290: 746c 043e 3a3b 4abd 8b7d 603d 87ab 2b3d
000002a0: 4d98 843c 49af f23a 0aa1 8c3c d86f 54bd
000002b0: a588 4abd 0256 b4bc 530a f2bc b94b dcbd
000002c0: cfd8 85bd e4cf 8abd c437 b0bd 60df 77be
000002d0: 6537 0bbf 3a0c 89be 63f0 8d3e c6ec b33a
000002e0: b145 3fbb e6c2 ca3e f8bd 57bd f1da ae3e
000002f0: 89fc 503e 0e9e ad3d bed6 b3bd a2e4 53bb
00000300: 167f 853e 905d 6a3e cd72 d73d 9f48 aabd
00000310: d894 133c 9912 53bc e5f5 ecbd a180 23be
00000320: d076 debe 3979 89bd afe1 92be f924 a3be
00000330: 49af d43d 8cff 0fbe 7c5e 7cbe 6ceb c83b
00000340: 2acf 843e 1ef4 6e3e 2dcb ac3d c86f aa3d
00000350: 4a01 13be 1cbb 8fbc 69c1 c4bd 55a5 85be
00000360: 5747 d03d 75be be3d e5cd 32bc 8cc1 f5bd
00000370: 7317 93bd 2e84 e43c 9100 49be 3c47 74be
00000380: 85a8 0bbe dfbd efbd 6894 af3c 457a 363e
00000390: 9bec 433d 1e28 2c3e 1010 3b3e fb6e 6b3e
000003a0: 0d79 fe3d 2f11 893d fd91 af3d c4a8 71bd
000003b0: 9cf3 df3d 023d 423d 4c56 f43c 8d91 303d
000003c0: 3428 63be d787 5cbd da19 a43d 8636 aebe
000003d0: f184 34be 5960 c53d 1b48 7bbd 89e9 1d3d
000003e0: 659c f53d f0fe f83d c1ec 863e 2e5c 143f
000003f0: c863 0dbf 2954 8fbe ac6d a8be f011 3a3e
0.11709588 0.05506154 0.45955703 -0.08398931 -0.1697463 0.14796837 -0.20446053 -0.11512032
-0.061937228 -0.20459557 -0.09019015 0.30347133 -0.12034284 -0.12731417 0.05836412 -0.20394433
-0.18427694 -0.21170878 -0.14254746 0.020322625 -0.007816536 -0.06116169 -0.111020006 -0.22748463
0.11598487 0.032096058 0.30329943 -0.3301792 -0.13750318 -0.1673185 -0.14686385 -0.0019407548
-0.12613416 -0.055069998 0.16448781 0.0056138774 -0.09471109 -0.1657539 -0.12918657 0.08192541
0.22171694 0.23626111 0.10024328 -0.05571021 0.05932628 -0.12464682 -0.15356885 -0.024166744
-0.13350008 0.11805932 0.029740974 -0.067006655 0.007952988 -0.25294927 0.101600796 -0.030933594
-0.07757251 0.0037482153 0.09716158 0.04627689 0.09604994 0.04540284 0.022628397 0.3605177
-0.5557424 -0.19540504 -0.48876086 0.043383874 0.1275358 0.069858894 -0.40588948 0.05461835
0.022846151 0.030624796 0.10467555 0.38206542 0.29438108 0.20685686 0.20576689 0.34357777
0.38450167 -0.07491556 0.044590056 0.15819792 0.008594228 0.05426913 -0.0331943 -0.13933563
-0.12934995 0.0534064 0.09967634 0.18013398 0.025082609 0.25319478 0.37893116 0.16453163
0.050834812 -0.007643413 -0.18849024 -0.0936748 -0.10339832 0.21867861 -0.12402448 -0.122585036
-0.10497919 0.22773166 -0.03358424 -0.06528546 0.031738143 -0.04884911 0.0131555945 -0.1628746
-0.22947651 -0.40482852 0.03475359 -0.16013399 -0.2895965 -0.20154719 -0.6378416 0.013326737
0.011519002 0.053173363 0.16514279 -0.122558445 0.0999901 0.031840086 0.029441787 0.12359868
0.050088823 0.04607979 0.0016379163 0.04919747 -0.1042098 -0.25693414 -0.16151364 -0.46240872
-0.19120212 0.060112067 0.015556579 0.15107687 0.26487637 0.011789126 -0.04023816 -0.10133572
0.2872663 0.20271866 0.19840363 0.033227894 0.011109628 -0.26495728 -0.11315311 -0.28266138
-0.40509132 -0.21566811 0.023052404 0.02140593 -0.17143367 -0.037377715 0.013701534 0.14175674
0.2887572 0.43420935 0.039818414 0.29534495 0.12931997 -0.04937289 0.054807227 0.041911628
0.016185904 0.0018515374 0.017166633 -0.051864475 -0.04944672 -0.022013668 -0.029545939 -0.107566305
-0.065354936 -0.06777933 -0.086043864 -0.24206305 -0.543814 -0.2676714 0.27722463 0.001372718
-0.0029185826 0.3960182 -0.052671403 0.34151414 0.20408835 0.08477412 -0.08781193 -0.003233232
0.2607352 0.22887254 0.105199434 -0.083146326 0.009007655 -0.012882852 -0.11570338 -0.15967037
-0.43450022 -0.067125745 -0.28687808 -0.31864145 0.103849955 -0.14062327 -0.24645418 0.00613158
0.25939304 0.23335311 0.0843719 0.08322102 -0.1435596 -0.017545275 -0.096072026 -0.261027
0.10169857 0.093136705 -0.010913347 -0.11999807 -0.07182207 0.02789506 -0.19629122 -0.23855299
-0.13638504 -0.11706137 0.02143307 0.1782008 0.047833066 0.16812178 0.18267846 0.22991554
0.12425432 0.06692731 0.08572767 -0.058998838 0.10935137 0.047421463 0.029826306 0.043107558
-0.22183305 -0.053840484 0.08012743 -0.34025973 -0.17628838 0.096375175 -0.061348062 0.038552795
0.119927205 0.121580005 0.26352504 0.57953155 -0.5523038 -0.27993897 -0.32896173 0.18170905

onnx::Conv_222 f4 [16]
00000000: b892 6d3f 0c6d 22bd bcd6 60bf e4f6 2b3f
00000010: 2169 6e3e b886 9c3f 3566 a03f b9c3 0d3f
00000020: 1a42 8d3f 4b19 0d3f 55ce 823f 1dfe b43e
00000030: f4c7 ec3f bae6 87be 4a79 a23e 8679 ce3e
0.92802 -0.039654776 -0.8782766 0.671736 0.23282291 1.2228613 1.2531191 0.55376774
1.1035798 0.5511672 1.0219218 0.35350123 1.8498521 -0.26543218 0.3173316 0.4032709
