dnn-models/cifar10-cnn.onnx (onnx, 360808 bytes, 10 tensors)

sequential/dense_1/MatMul/ReadVariableOp:0 f4 [32, 10]
0.101640835 0.25303808 0.2420298 -0.04065517 -0.11390488 0.3157841 -0.013396536 -0.01635903
0.21764645 -0.25476998 -0.23818557 -0.06652675 0.20551676 -0.14818993 0.2903928 0.11395782
0.32122013 0.20949596 -0.32553554 0.17543046 0.30401367 -0.029786848 -0.2055536 0.1412391
-0.30649635 0.30545458 0.06347768 -0.08616853 0.032413203 0.10196355 -0.3495826 -0.6141033
0.2808458 0.092155464 0.23929438 -0.12169588 0.077872746 0.012206474 -0.45616156 0.07940851
-0.25862604 -0.23278216 -0.23506522 -0.031817555 -0.17878087 0.18970953 0.11470096 0.20151052
-0.17314713 -0.11961059 0.20267569 0.05939441 0.1602165 -0.26817182 0.092012875 -0.01250348
0.2100215 0.12568231 0.06266266 0.20876056 -0.22871095 0.059902847 -0.05604015 0.19356212
-0.23581968 0.4425542 -0.20224573 -0.31834227 0.029320275 -0.23820749 0.022835234 -0.091512226
0.18602136 0.09148976 -0.30597314 0.33127898 0.07069007 -0.09314197 -0.0010708199 0.15390012
0.10970689 -0.14264321 -0.32979047 0.03035842 -0.21308506 -0.2830354 -0.2457273 -0.33918563
-0.0059569855 -0.01904215 0.13348517 -0.18784586 -0.4930382 0.27462357 0.015409875 -0.19019218
-0.3137414 -0.16263554 0.2200147 0.07833506 -0.10100195 -0.05118042 -0.19411542 0.1170877
0.15711375 0.14663827 0.1439306 -0.2814602 -0.39965093 -0.34564063 0.097199984 -0.25939825
-0.10988903 -0.30019942 0.33822304 0.3792231 -0.38609606 -0.09915789 0.09872325 -0.27361277
0.1764274 -0.13253002 -0.09192576 -0.34252402 0.21752104 -0.27763736 -0.22976585 0.25035936
-0.24249764 -0.15629375 -0.40203393 0.2153409 -0.26152357 -0.3188074 0.20674568 -0.07169144
0.16182815 0.08187953 -0.21749516 -0.22221498 0.36913115 -0.0011886812 0.19007292 0.046307374
-0.35179552 -0.163167 -0.08870075 0.4680158 0.265521 -0.2974 -0.18756497 0.25145093
0.068709135 0.14217763 -0.014510202 0.13916962 0.21370685 -0.16410139 -0.11271685 0.32937586
-0.2588553 0.22122149 -0.25531957 -0.07730244 0.11691693 -0.29741508 0.058005553 0.17123562
-0.24955206 -0.32497054 0.24772082 0.107480876 -0.32427213 -0.34812823 -0.36978126 -0.12795246
0.19849226 -0.60641795 -0.28702772 0.18341622 0.030587042 -0.6352301 0.18008639 0.20312017
0.30207348 0.40960974 0.2898667 0.20118116 -0.41663998 -0.58225656 0.17266479 0.4400885
-0.21827297 -0.19840705 0.2826137 -0.3374644 -0.21399114 -0.05238263 -0.34336725 -0.19807522
-0.07170091 -0.2092407 -0.05193693 -0.028672744 0.31122315 -0.23634155 -0.2817943 0.15944481
-0.16790597 -0.20676287 0.17323238 0.267463 0.10384054 -0.28775796 -0.016321445 -0.046393763
-0.27101168 -0.1486955 -0.33114365 -0.0930027 -0.19607244 -0.41381693 -0.3109003 -0.03148786
0.26903462 0.13055526 -0.40143028 0.41738376 0.13102081 -0.28557467 0.28761154 -0.16260833
0.08273534 -0.2650589 -0.3286853 -0.22987746 -0.07527688 -0.4116302 0.45132312 0.16670817
-0.6879323 0.13694231 -0.20041357 -0.06747595 -0.2518196 -0.31308192 0.41834834 -0.26562336
-0.011883822 -0.239743 -0.28875023 0.20579046 -0.33084226 -0.2301439 -0.22400177 0.11697407
00000000: 1229 d03d 358e 813e a9d6 773e 0986 26bd
00000010: f646 e9bd 74ae a13e 257d 5bbc 5f03 86bc
00000020: b6de 5e3e 3671 82be ebe6 73be 2d3f 88bd
00000030: fc72 523e 1abf 17be 5dae 943e b862 e93d
00000040: f776 a43e 1c86 563e 98ac a6be 0ba4 333e
00000050: aea7 9b3e 8c03 f4bc a57c 52be fca0 103e
00000060: 17ed 9cbe 8b64 9c3e 9600 823d 2079 b0bd
00000070: b5c3 043d 44d2 d03d 7efc b2be e035 1dbf
00000080: 05cb 8f3e 01bc bc3d 9609 753e b13b f9bd
00000090: bf7b 9f3d aafd 473c 028e e9be eea0 a23d
000000a0: a26a 84be 725e 6ebe f0b4 70be 2053 02bd
000000b0: 5512 37be 3743 423e 56e8 ea3d c658 4e3e
000000c0: 7b4d 31be 66f6 f4bd 378a 4f3e 8e47 733d
000000d0: cb0f 243e d14d 89be 3f71 bc3d 65db 4cbc
000000e0: e00f 573e ddb2 003e 4855 803d 54c5 553e
000000f0: 3433 6abe b05c 753d 5b8a 65bd 2635 463e
00000100: b77a 71be 7796 e23e 8119 4fbe c2fd a2be
00000110: 1331 f03c aaec 73be f510 bb3c c36a bbbd
00000120: 627c 3e3e fc5e bb3d 83a8 9cbe 669d a93e
00000130: f5c5 903d 38c1 bebd c15a 8cba fe97 1d3e
00000140: 02ae e03d 1011 12be 4cda a8be 39b2 f83c
00000150: f832 5abe 04ea 90be f09f 7bbe bda9 adbe
00000160: d132 c3bb 48fe 9bbc 56b0 083e aa5a 40be
00000170: 816f fcbe 769b 8c3e b379 7c3c bdc1 42be
00000180: b6a2 a0be ee89 26be 894b 613e 226e a03d
00000190: 1cda cebd 8fa2 51bd 31c6 46be adcb ef3d
000001a0: 6de2 203e 5828 163e 8b62 133e 8d1b 90be
000001b0: 0c9f ccbe cff7 b0be c910 c73d d9cf 84be
000001c0: 800d e1bd bdb3 99be 922b ad3e 8829 c23e
000001d0: 62ae c5be 4b13 cbbd 6a2f ca3d f916 8cbe
000001e0: 62a9 343e f3b5 07be 9343 bcbd 4f5f afbe
000001f0: d6bd 5e3e 7c26 8ebe bd47 6bbe 1a2f 803e
00000200: 4d51 78be 780b 20be 64d7 cdbe 5382 5c3e
00000210: 6be6 85be b93a a3be 24b5 533e f6d2 92bd
00000220: 47b6 253e 74b0 a73d 0db7 5ebe 538c 63be
00000230: c2fe bc3e 86cd 9bba 7aa2 423e cdac 3d3d
00000240: 8b1e b4be 4015 27be bda8 b5bd c49f ef3e
00000250: 5ef2 873e d044 98be 0811 40be 2dbe 803e
00000260: 60b7 8c3d 0397 113e 33bc 6dbc 7b82 0e3e
00000270: f8d5 5a3e 320a 28be 18d8 e6bd f4a3 a83e
00000280: af88 84be e387 623e 3fb9 82be be50 9ebd
00000290: 2572 ef3d ca46 98be 3b97 6d3d 6458 2f3e
000002a0: 938a 7fbe 8a62 a6be 87aa 7d3e ef1e dc3d
000002b0: ff06 a6be dd3d b2be f853 bdbe f805 03be
000002c0: 8e41 4b3e 353e 1bbf 4cf5 92be 76d1 3b3e
000002d0: ad91 fa3c 719e 22bf 9168 383e bcfe 4f3e
000002e0: 60a9 9a3e 5eb8 d13e 6869 943e 6f02 4e3e
000002f0: d651 d5be c40e 15bf 0acf 303e 4853 e13e
00000300: f382 5fbe 382b 4bbe beb2 903e 22c8 acbe
00000310: 7e20 5bbe 2b8f 56bd d5cd afbe 3bd4 4abe
00000320: edd7 92bd 3243 56be d1bb 54bd 1ae3 eabc
00000330: a458 9f3e 8503 72be 5847 90be 8045 233e
00000340: 8bef 2bbe a5b9 53be d463 313e e9f0 883e
00000350: 59aa d43d 0355 93be 8db4 85bc 6307 3ebd
00000360: 0bc2 8abe a243 18be a98b a9be 3378 bebd
00000370: 37c7 48be d0df d3be 532e 9fbe 6af9 00bd
00000380: e8be 893e 47b0 053e 4588 cdbe 53b3 d53e
00000390: 522a 063e d836 92be d241 933e cc82 26be
000003a0: 2571 a93d cdb5 87be 7149 a8be ff64 6bbe
000003b0: c42a 9abd 32c1 d2be d313 e73e 8cb5 2a3e
000003c0: 551c 30bf 9b3a 0c3e 3739 4dbe d530 8abd
000003d0: 80ee 80be 464c a0be c131 d63e c9ff 87be
000003e0: 5db4 42bc 307f 75be 12d7 93be bcba 523e
000003f0: 2864 a9be d8aa 6bbe b860 65be 1a90 ef3d

sequential/dense_1/BiasAdd/ReadVariableOp:0 f4 [10]
-0.22715706 -0.17738417 -0.20649835 0.06830004 0.3917702 -0.051481277 0.02799783 -0.18668643
0.2529629 0.09663493
00000000: dc9b 68be 32a4 35be 4e74 53be e4e0 8b3d
00000010: 1b96 c83e 08de 52bd b55b e53c ba2a 3fbe
00000020: 5a84 813e 89e8 c53d

sequential/dense/MatMul/ReadVariableOp:0 f4 [1024, 32]
-0.05034688 -0.07192149 -0.05879763 0.047023013 -0.025660722 0.005657618 0.11630397 0.024519525
0.015604279 0.06507215 0.04654508 0.011315871 0.06910087 0.019679302 -0.08901168 -0.04352724
0.018606089 0.013205227 -0.053898647 -0.011279969 -0.07883504 -0.0642277 0.0069562136 -0.011037609
0.055482727 0.10760376 0.10272561 0.030916678 -0.001393961 0.055540893 -0.039134614 -0.030786581
-0.025718655 0.046540216 -0.021920133 -0.01275894 0.03239148 0.01936461 0.0499271 0.058362827
0.05030921 -0.056895703 0.026248798 -0.02449622 0.0014732331 -0.071749486 0.034797378 0.06931771
0.003157191 0.01981061 0.029841512 0.023871869 -0.015474699 -0.004149452 -0.050746955 0.021621197
0.013290301 0.013559714 -0.048231006 0.028436504 -0.022919815 0.06061299 -0.021404352 0.010330223
-0.0022183529 0.06415889 -0.04649633 -0.024565913 -0.029173637 0.01069578 -0.032456048 -0.07281041
-0.044227164 -0.042939793 -0.053380694 0.050404962 0.035485357 -0.058832034 -0.062036093 0.037074693
0.031233804 -0.033365153 -0.052271083 -0.036417656 0.016754901 -0.006186668 -0.030306602 -0.0001878542
-0.062345833 0.0057372293 0.063638665 -0.050193746 0.0055871727 -0.00079303136 -0.044042088 -0.072395526
-0.05174895 0.01188575 0.028535903 0.015335765 -0.033774287 0.050839376 0.048252158 0.010911252
-0.028452136 0.04584551 0.058535844 0.00967712 0.0279992 0.020597752 0.02679381 0.008935168
0.011284878 0.033052698 -0.051702574 -0.0501562 -0.070701376 0.05920651 -0.051273122 0.061619174
0.027870752 -0.025903532 -0.0077591846 0.06302116 0.043357614 0.04140011 0.048305042 0.053770207
-0.057414144 -0.07858366 0.013998162 -0.057111688 -0.05748757 0.032995503 0.05191355 -0.03729502
-0.064136155 -0.24467522 0.044116125 0.018826507 0.0037250603 -0.0431133 0.25547898 -0.03939318
0.0012074834 -0.13603802 0.07805595 -0.03300733 -0.065072075 -0.058534976 -0.16893488 -0.005405698
0.14292581 0.2477085 0.2535801 0.027990688 0.061095025 -0.029769816 0.03749437 -0.040156066
-0.030251818 -0.049433175 0.042688623 -0.255107 -0.24059866 0.048380755 -0.046508662 -0.0013339913
-0.065349996 -0.01472949 -0.09217207 0.015596255 0.03655049 -0.072177164 0.21033087 0.05902443
0.020142838 0.24722323 -0.012370804 -0.069725595 0.015211693 0.011331604 0.032875985 0.33296335
0.35008842 -0.21396708 -0.1088738 -0.06105994 -0.022694116 0.118478626 -0.040628415 -0.029825592
-0.031572375 -0.012516688 -0.04033177 0.018218612 -0.053424656 0.06454866 -0.011837804 0.008589607
-0.0057476736 -0.01474596 -0.020051744 -0.011606763 -0.061877 -0.1440428 0.14840542 -0.036209326
0.020400075 0.102443 -0.1338247 0.047740653 -0.08869999 0.020727735 -0.20795868 -0.05840218
0.24521817 0.06648768 0.20420443 -0.020571932 0.0140636545 0.007366083 0.024216661 -0.09675382
-0.0753019 0.020807207 -0.08933871 0.096937805 -0.08551069 -0.072680235 0.10604979 -0.08202131
0.01574025 -0.36744395 0.06806094 0.019541707 -0.06893637 0.031903543 -0.08951683 -0.058652632
-0.034625657 0.16731633 0.28160337 -0.04721962 0.01609511 0.03766712 -0.04247519 -0.20839618
0.2557408 -0.15149185 0.1260275 -0.011193362 0.011667751 -0.05897763 -0.087808415 -0.06452156
00000000: 8838 4ebd 934b 93bd c9d5 70bd 349b 403d
00000010: 6f36 d2bc 8a63 b93b c730 ee3d 2cdd c83c
00000020: 17a9 7f3c 8c44 853d 0ea6 3e3d 3466 393c
00000030: c284 8d3d 7d36 a13c c14b b6bd 9f49 32bd
00000040: cc6b 983c bd5a 583c d4c4 5cbd 9ecf 38bc
00000050: 4474 a1bd d089 83bd f3f0 e33b 16d7 34bc
00000060: db41 633d 5c5f dc3d ce61 d23d f944 fd3c
00000070: 92b5 b6ba d97e 633d 9e4b 20bd 2434 fcbc
00000080: eeaf d2bc f4a0 3e3d da91 b3bc e00a 51bc
00000090: eeac 043d 88a2 9e3c 5c80 4c3d dc0d 6f3d
000000a0: 0811 4e3d 780b 69bd b807 d73c 4cac c8bc
000000b0: 8019 c13a 65f1 92bd b287 0e3d 72f6 8d3d
000000c0: e0e8 4e3b dc49 a23c 3076 f43c f08e c33c
000000d0: 9889 7dbc 20f8 87bb 0adc 4fbd f01e b13c
000000e0: 90bf 593c 9029 5e3c e08d 45bd acf3 e83c
000000f0: 56c2 bbbc 5445 783d 2e58 afbc 1840 293c
00000100: c961 11bb bc65 833d f072 3ebd 743e c9bc
00000110: 8dfd eebc 5a3d 2f3c a2f0 04bd a01d 95bd
00000120: 8b27 35bd a3e1 2fbd b7a5 5abd 6f75 4e3d
00000130: 1859 113d dcf9 70bd 8f19 7ebd a2db 173d
00000140: 09de ff3c e6a9 08bd 341a 56bd ae2a 15bd
00000150: 9341 893c 88b9 cabb 8d45 f8bc bafa 44b9
00000160: 585e 7fbd 5eff bb3b fd54 823d f597 4dbd
00000170: 9a14 b73b 6fe3 4fba 7a65 34bd 1b44 94bd
00000180: b5f6 53bd 73bc 423c 20c4 e93c dc42 7b3c
00000190: e856 0abd f33c 503d 0ea4 453d 1cc5 323c
000001a0: 7414 e9bc 80c8 3b3d 48c3 6f3d c88c 1e3c
000001b0: 945e e53c 9ebc a83c b17e db3c d064 123c
000001c0: 35e4 383c 4462 073d 14c6 53bd 9670 4dbd
000001d0: e2cb 90bd 8782 723d c403 52bd 6364 7c3d
000001e0: 3451 e43c a533 d4bc c240 febb 3d11 813d
000001f0: c197 313d 2993 293d 82db 453d 263e 5c3d
00000200: 182b 6bbd 78f0 a0bd 8c58 653c f2ed 69bd
00000210: 1678 6bbd 4b26 073d 4da3 543d aac2 18bd
00000220: d159 83bd 248c 7abe 1cb3 343d 0c3a 9a3c
00000230: 2420 743b 9297 30bd 24ce 823e be5a 21bd
00000240: 6b44 9e3a 8d4d 0bbe ccdb 9f3d b232 07bd
00000250: 8244 85bd 5fc2 6fbd 44fd 2cbe 4822 b1bb
00000260: 255b 123e 4ca7 7d3e 40d5 813e ba4c e53c
00000270: c73e 7a3d d4df f3bc b293 193d b07a 24bd
00000280: a9d2 f7bc 717a 4abd 44da 2e3d 629d 82be
00000290: 7f5f 76be e62a 463d de7f 3ebd 52d9 aeba
000002a0: 38d6 85bd f553 71bc b6c4 bcbd 6f87 7f3c
000002b0: f7b5 153d 9fd1 93bd fa60 573e 9ac3 713d
000002c0: 9802 a53c 1628 7d3e eaae 4abc 4bcc 8ebd
000002d0: 773a 793c 31a8 393c f8a8 063d 2c7a aa3e
000002e0: ca3e b33e 301a 5bbe 3af9 debd fd19 7abd
000002f0: 03e9 b9bc eca4 f23d fb69 26bd cd54 f4bc
00000300: 0952 01bd cb12 4dbc ed32 25bd 333f 953c
00000310: d0d3 5abd 1632 843d 59f3 41bc 6cbb 0c3c
00000320: fb56 bcbb 0a99 71bc 8e43 a4bc 4b2a 3ebc
00000330: bd72 7dbd f57f 13be 97f7 173e 3b50 14bd
00000340: 0f1e a73c a3cd d13d 5809 09be b48b 433d
00000350: 57a8 b5bd 36cd a93c 1ff3 54be 2037 6fbd
00000360: 791a 7b3e b12a 883d f71a 513e 7886 a8bc
00000370: 3e6b 663c 2f5f f13b 0562 c63c de26 c6bd
00000380: e237 9abd e073 aa3c 37f7 b6bd 5487 c63d
00000390: 3b20 afbd 60d9 94bd a230 d93d cafa a7bd
000003a0: b2f1 803c 9d21 bcbe 8963 8b3d ee15 a03c
000003b0: 832e 8dbd 4aad 023d 9a54 b7bd be3d 70bd
000003c0: a2d3 0dbd f954 2b3e 512e 903e 5c69 41bd
000003d0: e4d9 833c d748 1a3d 77fa 2dbd cf65 55be
000003e0: 75f0 823e ae20 1bbe 5a0d 013e 5d64 37bc
000003f0: 182a 3f3c 8792 71bd e6d4 b3bd e123 84bd

sequential/dense/BiasAdd/ReadVariableOp:0 f4 [32]
-0.04079203 -0.0100712245 -0.022350062 0.1736636 -0.016078103 -0.015285363 0.006661969 -0.018340373
-0.025036152 0.20184556 -0.02104469 -0.02308291 -0.008281952 -0.069390066 -0.13594061 -0.020891344
-0.026769022 0.024029275 0.14465262 0.060026962 -0.007989336 -0.012140948 0.045975674 -0.01817269
0.059258554 -0.020458134 -0.0355721 -0.03131265 -0.018043112 0.0131028285 -0.01233332 -0.03773234
00000000: 8b15 27bd c701 25bc 7a17 b7bc dfd4 313e
00000010: 3ab6 83bc 766f 7abc a54c da3b 8d3e 96bc
00000020: 9e18 cdbc 9ab0 4e3e ea65 acbc 5f18 bdbc
00000030: 06b1 07bc 611c 8ebd 0434 0bbe 5324 abbc
00000040: b54a dbbc 0bd9 c43c d11f 143e d5de 753d
00000050: b4e5 02bc d4ea 46bc fd50 3c3d e5de 94bc
00000060: 19b9 723d d197 a7bc 0db4 11bd b141 00bd
00000070: 26cf 93bc 3fad 563c b211 4abc 3a8d 1abd

sequential/conv2d_2/Conv2D/ReadVariableOp:0 f4 [64, 64, 3, 3]
-0.080820076 0.039184228 -0.056645744 -0.032255847 -0.07227862 -0.07384509 -0.084907845 -0.020625168
0.04391547 0.0855859 0.02918382 0.14097306 -0.0003689749 -0.029460207 -0.013382008 -0.01931536
-0.04532471 0.057635497 -0.016022913 -0.096472494 0.027399754 0.016711067 -0.06674269 0.005669217
-0.045326952 -0.05882517 -0.04059849 -0.03592508 0.0016457388 0.059275407 -0.105373785 0.008212518
-0.028825486 0.006705738 0.0040730652 -0.0015808538 0.025334937 -0.02637263 -0.098290004 -0.042723197
-0.09389161 -0.10534859 -0.083248615 -0.07329002 0.008055332 -0.04006135 0.014404681 -0.10571783
-0.03827822 -0.11762075 -0.081718236 -0.043050237 -0.124909334 -0.061989337 -0.0062733786 -0.00813645
-0.07920073 -0.017352559 -0.086665526 -0.047460347 -0.015274225 -0.020956343 0.02883569 -0.15836017
-0.0024183055 0.029490761 -0.020139914 -0.115192644 0.0020139033 0.018844614 -0.12422986 -0.023585329
0.030505182 0.0075886166 -0.01994004 0.053706426 -0.052207094 0.059732966 0.017714104 -0.052648317
0.054070543 -0.033628058 -0.0031506983 -0.028284987 -0.0068257065 -0.038622122 0.02516842 0.0122464895
-0.0022953427 -0.07747978 0.02831353 -0.035380956 0.052493628 -0.027537102 0.0055271555 -0.010348973
0.020496933 -0.04552544 -0.010915224 0.0395463 -0.090559974 -0.00067636935 -0.06397687 -0.13601875
-0.0536052 -0.04229226 -0.16973415 -0.10624796 -0.07454468 -0.03673943 -0.023882924 -0.057964116
-0.12161377 -0.13241668 -0.075282864 -0.104959555 -0.09321555 -0.06623707 0.05412033 -0.07479237
0.012717463 -0.071479686 0.020216493 -0.039232694 -0.06511026 0.052062925 -0.10581761 -0.06012363
-0.033579353 -0.060222756 -0.101583295 -0.09004486 -0.08454363 -0.092408024 -0.059892096 -0.07210903
-0.036432263 -0.039692033 -0.0017023192 -0.077952355 -0.043620706 -0.07282862 -0.08905112 -0.019090932
0.0019668457 -0.012135345 -0.08742935 -0.0042544836 -0.12409432 -0.026544984 -0.02585423 -0.12815435
-0.07181192 0.030989263 -0.096208096 -0.04969909 -0.066934325 -0.04087238 -0.11127134 0.060478956
0.03710443 0.025305841 -0.04966599 -0.027846983 -0.028855518 -0.07409706 -0.067705855 0.0079670185
-0.05235024 -0.088832684 -0.02656372 -0.11480077 0.0072988844 -0.0778008 -0.073266916 -0.047965225
-0.035901666 -0.05230123 -0.06605947 -0.13093805 -0.067333646 0.0445787 -0.0021587177 -0.044741303
0.060730364 0.017390285 -0.13635142 -0.023377448 -0.093989275 -0.03331392 -0.05567055 -0.02816379
-0.012409943 -0.017270649 -0.057800815 0.03904261 -0.080928884 -0.11203455 -0.016043257 -0.1020067
0.047051538 -0.10805023 -0.08502778 -0.09865908 -0.1458571 -0.019222384 -0.06808543 -0.061277665
-0.079976 -0.04038715 0.009722639 -0.06001076 -0.10750473 0.0014380193 -0.12860525 -0.08437906
-0.08761841 -0.11652774 -0.091099344 -0.028131861 -0.04753236 -0.09949126 -0.033721652 -0.033550724
0.020804888 -0.032747433 0.015311649 -0.034305863 -0.069852 0.0038400844 -0.049515832 -0.019703377
-0.015127175 -0.012979714 -0.06786345 -0.031063128 -0.054473296 -0.01474986 -0.011556462 -0.09512615
0.0026869483 -0.118400104 -0.016887251 0.06523342 -0.07460458 0.013752749 -0.030456671 -0.04222532
0.02914823 0.05124315 0.06253935 -0.0028815046 -0.08636306 -0.019281954 -0.06515865 -0.05936266
00000000: ff84 a5bd a47f 203d 5e05 68bd b51e 04bd
00000010: d006 94bd 183c 97bd 2ae4 adbd 1df6 a8bc
00000020: b5e0 333d a947 af3d e812 ef3c 3e5b 103e
00000030: f972 c1b9 8856 f1bc 3640 5bbc 3f3b 9ebc
00000040: 67a6 39bd 3313 6c3d 7c42 83bc 5f93 c5bd
00000050: 7375 e03c a6e5 883c 64b0 88bd d7c4 b93b
00000060: c1a8 39bd a9f2 70bd 9a4a 26bd 2d26 13bd
00000070: d5b5 d73a c5ca 723d 36ce d7bd cc8d 063c
00000080: 6d23 ecbc cfbb db3b 5977 853b a734 cfba
00000090: 378b cf3c 6a0b d8bc 454c c9bd 85fe 2ebd
000000a0: 3f4a c0bd 00c1 d7bd 407e aabd 1419 96bd
000000b0: 83fa 033c 5f17 24bd 9c01 6c3c 9782 d8bd
000000c0: 9fc9 1cbd 26e3 f0bd e45b a7bd 7255 30bd
000000d0: 77d0 ffbd 88e8 7dbd ea90 cdbb bf4e 05bc
000000e0: fe33 a2bd f426 8ebc b27d b1bd c865 42bd
000000f0: be40 7abc a3ac abbc d338 ec3c 2b29 22be
00000100: 6f7c 1ebb 9c96 f13c 76fc a4bc 1fea ebbd
00000110: b1fb 033b 0560 9a3c 3a6c febd 0536 c1bc
00000120: 01e6 f93c eea9 f83b 4b59 a3bc 45fb 5b3d
00000130: 1bd7 55bd 8eaa 743d 2b1d 913c c3a5 57bd
00000140: 1379 5d3d 93bd 09bd f27b 4ebb ebb5 e7bc
00000150: 2daa dfbb 3b32 1ebd 012e ce3c 80a5 483c
00000160: 766d 16bb b8ad 9ebd c7f1 e73c 9feb 10bd
00000170: 8f03 573d 7d95 e1bc 241d b53b bd8e 29bc
00000180: 2fe9 a73c e278 3abd c5d5 32bc 4dfb 213d
00000190: 8277 b9bd 614e 31ba 4e06 83bd 8048 0bbe
000001a0: 2091 5bbd a63a 2dbd cace 2dbe 8898 d9bd
000001b0: e2aa 98bd 167c 16bd 1fa6 c3bc c86b 6dbd
000001c0: a410 f9bd 3d98 07be e72d 9abd 09f5 d6bd
000001d0: cbe7 bebd 4da7 87bd 47ad 5d3d be2c 99bd
000001e0: e85c 503c f163 92bd 0f9d a53c 76b2 20bd
000001f0: 8758 85bd ef3f 553d e7b6 d8bd 3244 76bd
00000200: 818a 09bd 23ac 76bd e70a d0bd 7169 b8bd
00000210: 3625 adbd 6b40 bdbd 6a51 75bd e6ad 93bd
00000220: ff39 15bd 1d94 22bd 5b20 dfba 7ca5 9fbd
00000230: a0ab 32bd 2c27 95bd 6f60 b6bd 9664 9cbc
00000240: 32e6 003b 53d3 46bc 290e b3bd 3269 8bbb
00000250: 2a25 febd de74 d9bc 40cc d3bc e53a 03be
00000260: 2112 93bd 32dd fd3c c008 c5bd 4691 4bbd
00000270: dd14 89bd cc69 27bd 3ae2 e3bd c8b8 773d
00000280: d1fa 173d 324e cf3c 916e 4bbd 5b1f e4bc
00000290: 6862 ecbc 33c0 97bd 5ea9 8abd 1988 023c
000002a0: 356d 56bd e9ed b5bd 299c d9bc ab1c ebbd
000002b0: 7b2b ef3b 0756 9fbd f70c 96bd 2f77 44bd
000002c0: a00d 13bd d139 56bd 304a 87bd a014 06be
000002d0: 39e6 89bd 2898 363d 4679 0dbb a842 37bd
000002e0: 67c0 783d 1276 8e3c b59f 0bbe 1082 bfbc
000002f0: 737d c0bd 2d74 08bd cd06 64bd c0b7 e6bc
00000300: 1353 4bbc 2d7b 8dbc 8cc0 6cbd 25eb 1f3d
00000310: 0bbe a5bd 5f72 e5bd 266d 83bc e4e8 d0bd
00000320: 1db9 403d 7049 ddbd 0b23 aebd c60d cabd
00000330: 905b 15be 4378 9dbc 6070 8bbd 4afe 7abd
00000340: 75ca a3bd ff6c 25bd b44b 1f3c d8cd 75bd
00000350: 712b dcbd ec7b bc3a 18b1 03be eece acbd
00000360: 4871 b3bd 19a6 eebd 4b92 babd ca74 e6bc
00000370: 4bb1 42bd 13c2 cbbd b71f 0abd 7c6c 09bd
00000380: 036f aa3c 2c22 06bd b6dd 7a3c 4e84 0cbd
00000390: 910e 8fbd eda9 7b3b 1dd1 4abd fa68 a1bc
000003a0: f8d7 77bc dea8 54bc fefb 8abd 1a78 febc
000003b0: 641f 5fbd 66a9 71bc 5157 3dbc 80d1 c2bd
000003c0: 8317 303b c17b f2bd 2257 8abc 1999 853d
000003d0: 49ca 98bd 3653 613c 4580 f9bc 75f4 2cbd
000003e0: 45c8 ee3c 56e4 513d a114 803d a0d7 3cbb
000003f0: 1edf b0bd 30f5 9dbc e671 85bd 4326 73bd

sequential/conv2d_2/BiasAdd/ReadVariableOp:0 f4 [64]
-0.07587851 -0.051632546 -0.04994486 -0.019765513 -0.0966616 0.2567702 0.24570051 0.25962391
-0.031856082 0.22460513 -0.07095022 0.22344388 0.00672863 0.08102309 0.28472322 0.06246073
0.2744557 -0.101142585 0.3901583 0.11371566 0.18882896 -0.009434237 -0.0073716496 0.06629779
-0.047240064 0.22567822 0.2562879 -0.11596272 -0.047750894 0.10591801 -0.032881435 -0.043701272
-0.02887034 -0.03768438 -0.1014066 -0.0021070011 0.23391208 0.0022804327 -0.02804388 -0.016252613
-0.03315442 0.07797788 0.022169294 -0.016378913 0.13373558 0.17490207 -0.06230487 -0.061021782
0.16182633 -0.07152714 -0.049568053 -0.047795724 0.070643075 -0.004295158 -0.055389453 -0.02639837
0.18002649 -0.033217486 0.16243362 -0.01857209 -0.044192787 0.046231616 -0.10603254 0.16103731
00000000: 3166 9bbd a67c 53bd fb92 4cbd 49eb a1bc
00000010: 84f6 c5bd 6277 833e ea98 7b3e 6ded 843e
00000020: 867b 02bd e3fe 653e 594e 91bd 79ce 643e
00000030: d77b dc3b 6fef a53d 3ec7 913e d3d6 7f3d
00000040: 7585 8c3e d823 cfbd d4c2 c73e c2e3 e83d
00000050: 615c 413e 0f92 1abc e18d f1bb 23c7 873d
00000060: cc7e 41bd 3118 673e 2b38 833e dd7d edbd
00000070: 7196 43bd 8beb d83d afae 06bd 1b00 33bd
00000080: 7e81 ecbc f05a 1abd 43ae cfbd 9d15 0abb
00000090: a686 6f3e 5073 153b 47bc e5bc 3324 85bc
000000a0: eecc 07bd deb2 9f3d 619c b53c 122d 86bc
000000b0: fbf1 083e 8719 333e 6433 7fbd faf1 79bd
000000c0: cdb5 253e d27c 92bd df07 4bbd 73c5 43bd
000000d0: 51ad 903d 66be 8cbb 0de0 62bd 6541 d8bc
000000e0: dd58 383e 0f0f 08bd 0055 263e 7f24 98bc
000000f0: 7f03 35bd 5d5d 3d3d 9727 d9bd f7e6 243e

sequential/conv2d_1/Conv2D/ReadVariableOp:0 f4 [64, 32, 3, 3]
-0.13769667 -0.3918091 -0.07760273 0.010487385 -0.08346457 -0.11752598 -0.091514245 -0.020179622
-0.11201335 -0.04688781 -0.044678457 0.012432647 0.036521804 0.041947305 0.06442594 -0.01905804
0.03387034 0.0858636 -0.10726213 0.07061669 0.10001669 0.06846872 0.050527073 0.058415074
-0.12532966 -0.053474996 -0.03349322 -0.116952054 -0.11981346 -0.21930929 0.19302742 -0.03458981
-0.15925986 0.13833892 -0.03624928 -0.049822547 0.04235339 0.12003741 -0.23928091 -0.19876283
0.13923152 0.03296917 -0.24894617 0.15285455 0.2200227 -0.11887845 -0.19117102 0.12776631
0.039895367 -0.18206738 -0.047863297 0.049750224 0.021283142 0.059495743 -0.2876062 -0.07264538
0.15731 -0.31066853 -0.20137154 0.06383666 0.010102182 0.049589515 0.034809712 0.32196566
0.11283304 -0.15950303 0.13120474 0.32357475 0.06996482 0.0034852203 0.19267188 0.2957277
0.07091409 -0.047017757 -0.22972605 0.012447698 0.08721317 -0.07457591 -0.05768631 0.1266124
-0.060808238 0.11614643 0.066185206 -0.05691538 -0.0024831502 0.043891117 0.14239307 0.024904255
-0.09274686 0.09169268 0.06699313 0.0708421 -0.13743402 0.008171863 0.12948959 0.10687327
-0.12557915 -0.16041161 -0.0067610117 -0.38670808 -0.11016078 0.036229905 -0.2259767 -0.15629837
-0.041053586 -0.2007834 -0.058318626 0.0034159531 -0.21834154 -0.15367667 -0.06288679 -0.07210411
-0.08745968 0.14111996 0.26001054 0.075360656 -0.061914757 -0.035023734 0.003620209 -0.06457214
-0.027705677 -0.00027331896 0.042616792 0.010096247 -0.04549114 0.039753474 -0.0074336263 0.1328673
0.17607787 0.0912034 -0.062911645 0.11172667 0.01961278 0.061492026 -0.07728168 -0.0693281
-0.16736352 -0.084480435 0.042701874 -0.12565526 -0.11489808 0.10383578 0.009438407 -0.12605168
0.08897423 0.013317823 -0.08338648 0.06011056 0.019439265 -0.1722644 -0.11103328 0.20889135
0.11914226 -0.110864624 0.10952178 0.081412 -0.16882057 0.07754603 0.1808669 -0.15638565
-0.05586564 0.14500664 -0.040307805 0.16523361 0.3216165 -0.06203178 -0.27840358 0.29393783
-0.0248239 -0.022660283 -0.09190431 -0.105133705 -0.15065053 -0.386443 -0.103272706 -0.007298677
-0.16679038 -0.061946683 -0.2934674 -0.12375561 -0.0033983574 0.0019667745 -0.04195569 -0.05095919
0.006973541 -0.0144643355 -0.03436914 -0.05493179 -0.0930583 -0.004660947 0.08731432 0.15528129
0.06391063 -0.2024253 0.08851161 0.12340926 0.012927374 -0.22229443 -0.44729754 -0.16134231
0.030584162 -0.24980472 -0.37399563 -0.03118485 -0.06538997 -0.2743919 -0.078947216 0.30075797
-0.23737675 -0.46123666 0.4173444 0.18034235 -0.22745234 0.2238555 0.18428348 -0.025359891
-0.18376009 -0.16421361 0.0006553024 -0.12092848 -0.06253067 -0.039282344 -0.07361312 0.16301063
-0.21664163 -0.16850339 0.06779231 0.08376273 -0.026110476 -0.41628233 0.08704098 0.118806764
-0.019532163 -0.030129397 -0.34771734 -0.6698184 0.011523715 0.09460128 -0.3468419 -0.73564225
0.16267581 -0.029920537 -0.12963457 0.01878761 0.22883183 -0.1813769 -0.08194996 0.13826211
0.086832136 -0.046061035 -0.1210995 0.116073065 -0.0074594286 -0.03492059 0.16606808 0.16726059
00000000: 5b00 0dbe 349b c8be 2eee 9ebd 48d3 2b3c
00000010: 79ef aabd 76b1 f0bd d26b bbbd bc4f a5bc
00000020: 4167 e5bd 6f0d 40bd c200 37bd 4db2 4b3c
00000030: e397 153d f0d0 2b3d bff1 833d 9b1f 9cbc
00000040: a0bb 0a3d 41d9 af3d 3fac dbbd 7c9f 903d
00000050: 8dd5 cc3d 5439 8c3d 7af5 4e3d a544 6f3d
00000060: 6b56 00be 9908 5bbd 3030 09bd 8f84 efbd
00000070: c260 f5bd 9d92 60be fba8 453e 0bae 0dbd
00000080: 0415 23be b8a8 0d3e 207a 14bd ba12 4cbd
00000090: c07a 2d3d 2cd6 f53d 0e06 75be 7c88 4bbe
000000a0: b592 0e3e ae0a 073d bfeb 7ebe e785 1c3e
000000b0: a14d 613e 8b76 f3bd 56c2 43be 2cd5 023e
000000c0: 5369 233d df6f 3abe 4e0c 44bd e4c6 4b3d
000000d0: fc59 ae3c cfb1 733d 1f41 93be 1ac7 94bd
000000e0: df15 213e f20f 9fbe 5734 4ebe cbbc 823d
000000f0: 9f83 253c 601e 4b3d a194 0e3d afd8 a43e
00000100: 0215 e73d c354 23be 895a 063e 97ab a53e
00000110: b749 8f3d 4b68 643b c74b 453e 9f69 973e
00000120: 683b 913d b195 40bd 4e3d 6bbe 6ef1 4b3c
00000130: d29c b23d 41bb 98bd 7b48 6cbd aea6 013e
00000140: 0f12 79bd 2ede ed3d 1c8c 873d 1a20 69bd
00000150: 59bc 22bb 2cc7 333d 7dcf 113e 0204 cc3c
00000160: 11f2 bdbd 5fc9 bb3d b233 893d aa15 913d
00000170: 81bb 0cbe 47e3 053c eb98 043e 5fe0 da3d
00000180: d297 00be f142 24be 7a8b ddbb 9afe c5be
00000190: fa9b e1bd cf65 143d 7066 67be ae0c 20be
000001a0: ce27 28bd 2a9a 4dbe 83df 6ebd 2fde 5f3b
000001b0: ed94 5fbe 6b5d 1dbe caca 80bd 52ab 93bd
000001c0: 101e b3bd c081 103e 1a20 853e b056 9a3d
000001d0: 549a 7dbd 0c75 0fbd 0741 6d3b 663e 84bd
000001e0: 04f7 e2bc 404c 8fb9 f28e 2e3d bb6a 253c
000001f0: eb54 3abd 8ad4 223d c795 f3bb 5e0e 083e
00000200: c24d 343e d9c8 ba3d d2d7 80bd f4d0 e43d
00000210: fbaa a03c 10df 7b3d dc45 9ebd e4fb 8dbd
00000220: 5861 2bbe 1404 adbd 29e8 2e3d c6ab 00be
00000230: af4f ebbd daa7 d43d 8ca3 1a3c b113 01be
00000240: 1f38 b63d 0033 5a3c 88c6 aabd 7e36 763d
00000250: 183f 9f3c 1466 30be 6b65 e3bd 9de7 553e
00000260: db00 f43d fe0c e3bd f44c e03d 56bb a63d
00000270: 4ddf 2cbe 74d0 9e3d 2c35 393e 8f23 20be
00000280: 5fd3 64bd 9f7c 143e cc19 25bd 0033 293e
00000290: ebaa a43e 0915 7ebd ea8a 8ebe 057f 963e
000002a0: 7e5b cbbc 0fa2 b9bc 5438 bcbd 5750 d7bd
000002b0: 2244 1abe dbdb c5be a480 d3bd be29 efbb
000002c0: 19cb 2abe cebb 7dbd 5c41 96be 9573 fdbd
000002d0: fab6 5ebb 00e5 003b bbd9 2bbd 95ba 50bd
000002e0: 4d82 e43b d2fb 6cbc a8c6 0cbd 2800 61bd
000002f0: 5a95 bebd dbba 98bb dad1 b23d 0f02 1f3e
00000300: 94e3 823d 9448 4fbe 9345 b53d febd fc3d
00000310: 56cd 533c 27a1 63be 2f04 e5be eb36 25be
00000320: a38b fa3c cfcc 7fbe 5b7c bfbe 5f77 ffbc
00000330: 2deb 85bd 187d 8cbe 14af a1bd f3fc 993e
00000340: e412 73be 3627 ecbe 2aae d53e aaab 383e
00000350: 44e9 68be 603a 653e cfb4 3c3e 8cbf cfbc
00000360: 9b2b 3cbe 9d27 28be 9ac8 2b3a 5aa9 f7bd
00000370: 1410 80bd 86e6 20bd 7ac2 96bd 42ec 263e
00000380: 4ed7 5dbe 278c 2cbe b2d6 8a3d cb8b ab3d
00000390: a3e5 d5bc f522 d5be 8b42 b23d f650 f33d
000003a0: ea01 a0bc edd1 f6bc 0208 b2be 3879 2bbf
000003b0: f7cd 3c3c 51be c13d 4395 b1be 0d53 3cbf
000003c0: 7d94 263e ea1b f5bc edbe 04be 79e8 993c
000003d0: e452 6a3e deba 39be 61d5 a7bd 9594 0d3e
000003e0: 0cd5 b13d 7faa 3cbd 0403 f8bd b7b7 ed3d
000003f0: 396e f4bb e508 0fbd c00d 2a3e 5c46 2b3e

sequential/conv2d_1/BiasAdd/ReadVariableOp:0 f4 [64]
-0.046377108 0.18839994 0.108051114 0.03195169 -0.02608244 0.29921192 -0.069661684 0.017235253
-0.039026283 -0.11037981 0.036221176 0.027342826 0.13071834 -0.04041304 0.13042906 0.06775594
0.064892314 -0.012267456 0.0005289791 -0.12043642 0.0482303 -0.11408972 0.15781496 0.052603647
-0.06515572 -0.02153908 -0.055694565 0.12290093 -0.08931102 -0.04406643 0.117802724 -0.05747897
0.059679262 0.021808933 0.041131135 0.07282873 -0.03739193 -0.14471336 0.22443965 0.21631625
-0.06518951 -0.07730336 0.11581296 0.024554243 -0.09154948 -0.0351203 -0.16412438 -0.020443354
0.18469974 -0.046061583 -0.023853056 -0.029215083 0.06414335 -0.049931232 0.011829618 0.012025238
0.2651882 0.021293817 -0.045823976 -0.030957794 0.06365725 -0.046209667 -0.063385 -0.092840455
00000000: ecf5 3dbd eaeb 403e e749 dd3d c6df 023d
00000010: d7aa d5bc 4e32 993e c9aa 8ebd f230 8d3c
00000020: 06da 1fbd cf0e e2bd a85c 143d 10fe df3c
00000030: 07db 053e 2588 25bd 328f 053e a0c3 8a3d
00000040: 43e6 843d 71fd 48bc 30ab 0a3a 5fa7 f6bd
00000050: 238d 453d dfa7 e9bd 3f9a 213e ec76 573d
00000060: 5d70 85bd ba72 b0bc fc1f 64bd 7cb3 fb3d
00000070: b2e8 b6bd 007f 34bd 8e42 f13d 126f 6bbd
00000080: 3e72 743d a6a8 b23c 1f79 283d 3b27 953d
00000090: 4828 19bd bd2f 14be 82d3 653e 0282 5d3e
000000a0: 1482 85bd 3951 9ebd 582f ed3d fb25 c93c
000000b0: 4b7e bbbd 4eda 0fbd 3910 28be d278 a7bc
000000c0: ee21 3d3e 12ab 3cbd 7c67 c3bc 7854 efbc
000000d0: 975d 833d b184 4cbd 04d1 413c 8105 453c
000000e0: bfc6 873e 5f70 ae3c ecb1 3bbd 339b fdbc
000000f0: bb5e 823d 5946 3dbd ffcf 81bd 2323 bebd

sequential/conv2d/Conv2D/ReadVariableOp:0 f4 [32, 3, 3, 3]
-0.05605893 0.0048619327 0.26707736 0.19547531 0.01846043 -0.110031046 0.05705468 -0.15058595
-0.3179858 -0.22175138 0.09704144 0.26023683 0.14961393 0.062087033 0.031157993 0.12903212
-0.16287175 -0.21679518 -0.25211313 -0.123804145 0.01890709 -0.029674394 0.20671375 0.054342262
0.1578791 0.079397656 -0.20561661 -0.057908062 -0.052763242 0.018749868 -0.10118078 0.022677701
-0.16457936 -0.109203994 -0.17102356 0.024254574 -0.027367555 0.035923585 -0.018525068 -0.16174869
0.027995447 -0.03670117 0.019049533 -0.059054285 -0.042047203 -0.12431264 0.028193936 -0.13631915
-0.05801973 0.042679686 -0.018432021 0.044999592 -0.09214488 0.026330648 0.14902657 -0.021244584
-0.15961438 -0.19507475 -0.095236465 -0.17044073 0.08951021 0.14514153 0.19195445 0.08902195
0.028329277 -0.19522119 -0.18803988 -0.14863746 -0.012768776 0.1456139 0.20818233 0.1819153
0.22576258 0.1917297 -0.051330235 -0.23930794 -0.15344603 -0.13897225 -0.03707298 -0.004784043
0.19000925 0.006054542 0.22170943 0.10796068 0.070335574 -0.005136367 0.20006216 -0.18424699
-0.119736835 0.06971538 -0.14762239 -0.090757236 -0.1926068 -0.25257534 0.016581055 -0.046927966
-0.15963992 -0.25366974 -0.22045802 -0.066561826 -0.20788689 -0.044641767 -0.112145446 -0.13410345
-0.22748835 0.02201783 -0.20927559 -0.2877682 0.13904916 -0.14680016 -0.018339103 -0.20784758
-0.28641814 0.18491454 -0.059860043 0.19039102 0.29059646 0.009143679 -0.08844263 -0.041792687
-0.1920573 -0.16493756 0.22556329 -0.3071514 0.06268967 0.3298988 -0.027282294 0.0219855
0.048752125 -0.10724239 -0.2722935 0.16907263 -0.25682515 0.13721068 0.33794644 0.1259645
-0.21169338 0.06702924 0.23288642 -0.21197732 -0.06613124 0.1296734 0.14275858 -0.11534514
0.0018523231 0.030984696 0.033239562 0.108292595 -0.11477877 -0.08335403 0.12748897 0.03919001
0.016362732 -0.0811555 -0.2159832 0.07564625 0.13664055 -0.23162887 0.016726531 0.14121033
-0.0435257 0.009747993 -0.030116523 0.04205631 -0.15749407 0.2128832 -0.14732847 -0.103737146
0.19118273 -0.0976432 0.029831512 0.12501103 -0.17030194 -0.14111127 0.15776922 -0.0367163
-0.0792348 -0.036139607 -0.021456953 0.015043375 0.119912654 -0.1578829 -0.14619815 0.22027636
0.08900766 -0.034514565 0.17267439 -0.057770807 -0.066115156 0.0245614 0.1976582 0.26427492
-0.20787546 -0.2293551 0.094731666 0.17269322 -0.04903254 -0.09364622 -0.2149239 -0.0033171643
0.23456176 -0.12091849 -0.21933162 0.18759586 0.008133079 -0.2073458 -0.09865119 -0.15352738
0.23471591 0.13089366 -0.15800563 -0.20699897 0.32658684 -0.05701741 -0.031182572 0.02771813
-0.025826152 -0.062021844 0.10037885 0.012974002 0.050843373 0.11779257 -0.099134505 0.12764515
-0.05868622 0.14849764 -0.0043585673 0.10602957 0.02799748 -0.10790484 0.10325845 -0.14964871
0.2332172 0.18481128 -0.1149553 0.0051757037 -0.1619627 -0.25787684 -0.057525415 0.039280687
-0.2845631 0.14368828 -0.06859388 -0.09355732 0.16668582 0.03691792 -0.112722985 -0.0058583715
0.14164458 0.0343567 -0.24881443 -0.14724927 0.10633813 0.1441163 0.1416915 0.045036346
00000000: 0c9e 65bd d950 9f3b 5dbe 883e ae2a 483e
00000010: 543a 973c f557 e1bd 2bb2 693d 3433 1abe
00000020: 09cf a2be cb12 63be aabd c63d c33d 853e
00000030: 6534 193e f94e 7e3d 0c3f ff3c ff20 043e
00000040: dac7 26be 8eff 5dbe f914 81be 078d fdbd
00000050: 0be3 9a3c b717 f3bc c5ac 533e fe95 5e3d
00000060: 0fab 213e 3d9b a23d 298d 52be 0131 6dbd
00000070: 451e 58bd 5399 993c de37 cfbd 96c6 b93c
00000080: 7e87 28be 58a6 dfbd cd20 2fbe 87b1 c63c
00000090: ec31 e0bc 9c24 133d e2c1 97bc 73a1 25be
000000a0: b556 e53c f753 16bd c40d 9c3c e8e2 71bd
000000b0: b039 2cbd a097 febd f8f6 e63c 3f97 0bbe
000000c0: 19a6 6dbd e5d0 2e3d c0fe 96bc 7e51 383d
000000d0: 74b6 bcbd 5fb3 d73c 6c9a 183e 1f09 aebc
000000e0: f471 23be adc1 47be 560b c3bd 0488 2ebe
000000f0: 2151 b73d fb9f 143e b58f 443e 2451 b63d
00000100: cd12 e83c 10e8 47be 878d 40be 6b34 18be
00000110: 2134 51bc cf1b 153e c02d 553e 0148 3a3e
00000120: 4e2e 673e ca54 443e a73f 52bd 240d 75be
00000130: f520 1dbe be4e 0ebe d6d9 17bd 76c3 9cbb
00000140: c991 423e 2e65 c63b cc07 633e 7d1a dd3d
00000150: 190c 903d f84e a8bb 18dd 4c3e 3eab 3cbe
00000160: 9638 f5bd f0c6 8e3d 532a 17be eede b9bd
00000170: b83a 45be 8e51 81be fed4 873c 8a37 40bd
00000180: a678 23be 00e1 81be bfbf 61be 9151 88bd
00000190: 4de0 54be 49da 36bd 83ac e5bd 6a52 09be
000001a0: b5f2 68be bc5e b43c 574c 56be 5a56 93be
000001b0: e762 0e3e c852 16be e33b 96bc ffd5 54be
000001c0: 66a5 92be 3d5a 3d3e ce2f 75bd ddf5 423e
000001d0: 0fc9 943e 5fcf 153c 6921 b5bd cf2e 2bbd
000001e0: abaa 44be 64e5 28be 10fa 663e f342 9dbe
000001f0: 7163 803d 7fe8 a83e 1e7f dfbc ef1a b43c
00000200: 4fb0 473d e6a1 dbbd 0e6a 8bbe 6021 2d3e
00000210: 967e 83be f580 0c3e 5107 ad3e d6fc 003e
00000220: 26c6 58be a046 893d c779 6e3e 9510 59be
00000230: d16f 87bd 1bc9 043e 4e2f 123e 133a ecbd
00000240: a6c9 f23a 9ed3 fd3c 3526 083d 82c8 dd3d
00000250: 2211 ebbd 85b5 aabd 788c 023e b485 203d
00000260: 230b 863c db34 a6bd b32a 5dbe 6cec 9a3d
00000270: 80eb 0b3e 1e30 6dbe 1406 893c 7199 103e
00000280: 0148 32bd 0cb6 1f3c edb6 f6bc 3d43 2c3d
00000290: 2046 21be 0efe 593e 46dd 16be 2474 d4bd
000002a0: 68c5 433e 28f9 c7bd 3761 f43c e402 003e
000002b0: a263 2ebe 797f 10be 418e 213e d563 16bd
000002c0: db45 a2bd 2007 14bd 7ec6 afbc 7d78 763c
000002d0: c494 f53d 0eac 21be f8b4 15be 2090 613e
000002e0: a649 b63d 255f 0dbd 8ed1 303e 15a1 6cbd
000002f0: 6267 87bd fd34 c93c e966 4a3e 0b4f 873e
00000300: 4edd 54be 10dc 6abe ad02 c23d 7ed6 303e
00000310: 58d6 48bd 97c9 bfbd 0315 5cbe c864 59bb
00000320: f530 703e 1da4 f7bd 7898 60be 2119 403e
00000330: 9b40 053c 7552 54be a309 cabd 4836 1dbe
00000340: 5e59 703e fd08 063e 3acc 21be 8af7 53be
00000350: 6436 a73e 168b 69bd 9872 ffbc 2211 e33c
00000360: 5e91 d3bc 9e0a 7ebd 6d93 cd3d e990 543c
00000370: 2441 503d 3b3d f13d 0807 cbbd 69b5 023e
00000380: f660 70bd c40f 183e 50d2 8ebb 0826 d93d
00000390: f95a e53c 36fd dcbd 2b79 d33d 833d 19be
000003a0: 7dd0 6e3e 2b3f 3d3e af6d ebbd f398 a93b
000003b0: 8dd9 25be 6f08 84be c59f 6bbd c9e4 203d
000003c0: 41b2 91be 0523 133e f37a 8cbd fb9a bfbd
000003d0: b0af 2a3e 3f37 173d 4fdb e6bd 95f7 bfbb
000003e0: 470b 113e 9cb9 0c3d 36c9 7ebe 83c8 16be
000003f0: cec7 d93d 3993 133e 9417 113e 0878 383d

sequential/conv2d/BiasAdd/ReadVariableOp:0 f4 [32]
0.025268557 -0.04519618 0.019917129 0.050719153 -0.0010293452 -0.0040724585 0.017652133 0.027164439
-0.034883175 -0.21398734 -0.0050134235 -0.0008560134 0.0219946 -0.048404187 0.028021676 0.033203896
-0.03215441 -0.1220339 -0.1554122 0.053324096 -0.008035574 0.058596052 0.030563109 0.012134616
-0.14799216 0.07031696 0.092683814 -0.031772062 -0.060695596 0.063672215 -0.25564253 -0.026445951
00000000: 0100 cf3c a11f 39bd 3f29 a33c e3be 4f3d
00000010: 18eb 86ba 4272 85bb 359b 903c f587 de3c
00000020: a9e1 0ebd 7f1f 5bbe a547 a4bb 1666 60ba
00000030: 052e b43c 7843 46bd b78d e53c cf00 083d
00000040: 58b4 03bd e9ec f9bd 6024 1fbe 5e6a 5a3d
00000050: a4a7 03bc 6a02 703d 7c5f fa3c 45d0 463c
00000060: 428b 17be 5702 903d 03d1 bd3d 6c23 02bd
00000070: f29b 78bd 9466 823d 94e3 82be 2ea5 d8bc
