dnn-models/cifar10-cnn-cp.onnx (onnx, 63624 bytes, 32 tensors)

sequential/dense_1/BiasAdd/ReadVariableOp:0 f4 [10]
0	0x3d511c78	0.05105254
1	0xbee44d41	-0.4459019
2	0x3e4f4254	0.20240146
3	0x3eed7cd7	0.46384308
4	0x3eb255a5	0.34830967
5	0xbe2af2c9	-0.16694178
6	0xbd8b825b	-0.06811973
7	0xbea9cc78	-0.3316381
8	0xbede9035	-0.43469396
9	0x3cc65493	0.02421025

sequential/dense/BiasAdd/ReadVariableOp:0 f4 [64]
0	0xbf828b1e	-1.0198705
1	0xbf6c1aff	-0.9222869
2	0xbf6db18a	-0.9284903
3	0xbec4a3a8	-0.3840611
4	0xbf4e04dd	-0.8047617
5	0xbf072aa4	-0.5279944
6	0xbe919ed6	-0.28441495
7	0xbd24c8db	-0.040230613
8	0x3ea876fd	0.3290328
9	0xbf8b24c5	-1.0870596
10	0xbf2ba232	-0.67044365
11	0xbed09ae6	-0.40743178
12	0xbf114e2b	-0.567599
13	0xbf55e1e9	-0.83547837
14	0xbe92bb2e	-0.28658432
15	0x3e27c5b8	0.16384017
16	0x3c93e29d	0.018052394
17	0x3e8bd814	0.27313292
18	0x3deb00a5	0.11474732
19	0xbf6c315c	-0.92262816
20	0xbca5c57f	-0.020235775
21	0xbef57601	-0.47941592
22	0xbe525ea1	-0.2054391
23	0xbef5e2fc	-0.48024738
24	0xbe3d5d3c	-0.18492597
25	0xbfa1ed30	-1.2650509
26	0x3e7fd813	0.2498477
27	0x3d8fbd27	0.070185
28	0xbf6516f0	-0.89488125
29	0x3eefdbb3	0.46847305
30	0xbf3033ee	-0.6882924
31	0xbe31d170	-0.1736505
32	0xbf1e7f5c	-0.61913085
33	0x3dfb7d38	0.12279743
34	0xbe90044a	-0.28128272
35	0xbf0120da	-0.5044075
36	0xbf70881a	-0.93957675
37	0x3d9c06df	0.07618498
38	0x3f15c782	0.5850755
39	0xbf349287	-0.70536083
40	0x3e34cc21	0.17655994
41	0xbe1dfb18	-0.15427816
42	0xbf594018	-0.84863424
43	0x3e9b86bd	0.30376235
44	0xbf47284d	-0.7779587
45	0xbf6ab4a0	-0.9168186
46	0xbf882468	-1.063611
47	0xbe80fce4	-0.2519294
48	0xbeeaf121	-0.45887092
49	0x3d9cc185	0.076540984
50	0x3e97ddc4	0.2966138
51	0xbeda57d1	-0.42645124
52	0xbf91d1b4	-1.1392121
53	0x3e7c2d9f	0.24626778
54	0xbf853d5f	-1.0409354
55	0xbf3b7f2b	-0.7324092
56	0xbe9863d3	-0.2976366
57	0xbe9c1d6d	-0.304912
58	0xbf62d412	-0.88604844
59	0xbee54d75	-0.44785658
60	0xbf90c189	-1.1309062
61	0xbed00cda	-0.40634805
62	0xbf4e33e6	-0.8054794
63	0xbf3415a6	-0.7034553

sequential/conv2d_2/BiasAdd/ReadVariableOp:0 f4 [64]
0	0x3eb5ead8	0.35530734
1	0x3e8c2653	0.2737299
2	0xbe02a464	-0.12758023
3	0x3e125096	0.14288554
4	0xbddcd45d	-0.107826926
5	0x3e6a9750	0.22909284
6	0xbe5f409a	-0.21801987
7	0x3ea1cdc2	0.31602293
8	0x3e9ba102	0.30396277
9	0x3e939160	0.2882185
10	0xbce1c50b	-0.027559778
11	0x3ef12731	0.47100213
12	0x3e277f1e	0.16357085
13	0xbe8858a7	-0.26630136
14	0xbef46bf6	-0.47738618
15	0xbe017312	-0.12641552
16	0xbe97cd8c	-0.29649007
17	0x3d10f178	0.035386533
18	0xbd3f0f5a	-0.0466455
19	0xbdcf6384	-0.10126403
20	0xbe49dd4d	-0.19713326
21	0xbe120b04	-0.14262015
22	0x3c4ddae2	0.012564393
23	0x3dc361d3	0.09540143
24	0xbe7a96f0	-0.2447164
25	0xbd9e9dc2	-0.07744934
26	0xbe826363	-0.2546645
27	0x3f156adc	0.5836618
28	0x3db7a096	0.08966176
29	0x3e4ad55e	0.19807956
30	0xbd91b019	-0.07113666
31	0xbe140d38	-0.14458168
32	0x3eb6192c	0.3556608
33	0x3f24c498	0.6436248
34	0x3d541347	0.051776197
35	0x3e40b899	0.18820418
36	0xbdd1c2e8	-0.102422535
37	0x3ed261b2	0.4109016
38	0x3f0e17ec	0.5550525
39	0xba657e24	-0.0008754453
40	0xbe8e5653	-0.27800235
41	0xbe579646	-0.21053419
42	0x3f084789	0.53234154
43	0x3d5ae033	0.05343647
44	0xbb256463	-0.0025236837
45	0x3f29fa00	0.66397095
46	0x3d33af20	0.043868184
47	0xbe1541c7	-0.14575873
48	0xbd31eeb0	-0.04344052
49	0xbe271046	-0.16314802
50	0x3db1048f	0.086434476
51	0xbe91c6cc	-0.28471982
52	0x3e99ff2c	0.30077493
53	0xbe1c1123	-0.15240912
54	0xbd0e5cd7	-0.034756508
55	0x3ecd6d09	0.4012225
56	0xbe623d53	-0.22093706
57	0xbd21f50f	-0.039540347
58	0x3c88b1fb	0.01668643
59	0xbdf2db6d	-0.118582584
60	0x3d0b4161	0.033997897
61	0x3cee34b5	0.029077867
62	0x3ddac04a	0.106812075
63	0xbe90bfa4	-0.2827121

sequential/conv2d_1/BiasAdd/ReadVariableOp:0 f4 [64]
0	0xbe573e11	-0.2101977
1	0xbec72c99	-0.38901213
2	0x3e10060a	0.14064804
3	0xbf14ff6f	-0.5820226
4	0x3f4937e5	0.78600913
5	0x3c80f174	0.015740134
6	0x3e3f90b3	0.18707542
7	0x3e970a27	0.29499933
8	0xbd240dd3	-0.040052246
9	0xbf1d960e	-0.6155709
10	0xbeaa550b	-0.33268008
11	0xbdaaec2d	-0.08345828
12	0xbf2a5d92	-0.66549027
13	0xbe8456c3	-0.25847444
14	0xbe8d0995	-0.27546373
15	0xbec08683	-0.37602624
16	0x3e1d1023	0.15338187
17	0xbcbc353c	-0.022974603
18	0x3e13abe4	0.1442104
19	0x3ecc0266	0.3984558
20	0xbddf7571	-0.10911072
21	0x3f372411	0.7153941
22	0x3ddd51d7	0.10806625
23	0xbe4298f4	-0.1900366
24	0xbdd48825	-0.1037753
25	0xbe1d9382	-0.15388301
26	0xbefb980b	-0.49139437
27	0xbea357c8	-0.3190291
28	0x3d58a085	0.05288746
29	0xbf0216f6	-0.50816286
30	0xbd9dc8c5	-0.077043094
31	0xbe9fd533	-0.31217346
32	0xbe404def	-0.1877973
33	0xbe8af64e	-0.2714104
34	0x3d03b71c	0.03215705
35	0xbf314235	-0.6924165
36	0x3e3b5153	0.18292741
37	0x3e013221	0.12616779
38	0xbdaddd05	-0.08489422
39	0xbd2372c0	-0.039904356
40	0xbeb6a19b	-0.3567017
41	0x3ecc2ffd	0.39880362
42	0x3dfa6b26	0.12227468
43	0x3d22e5fe	0.03977012
44	0xbd763d30	-0.060116947
45	0x3f746f3e	0.9548224
46	0x3eea22bc	0.45729625
47	0x3dae2eee	0.08505045
48	0x3dc6bc69	0.09703905
49	0xbe9f29c6	-0.31086558
50	0x3e232b25	0.15934427
51	0x3dcf2e0d	0.10116205
52	0xbcba6016	-0.022750895
53	0x3e29208f	0.16516326
54	0xbe1038cc	-0.14084166
55	0xbe73d0c1	-0.23810102
56	0x39db656c	0.000418465
57	0xbe64c9c4	-0.22342592
58	0x3eb13a72	0.34614903
59	0xbeccab03	-0.39974222
60	0xbe2f43a3	-0.17115645
61	0x3d0c9edb	0.034331184
62	0x3e98ef88	0.29870248
63	0xbdaf782b	-0.08567842

sequential/conv2d/BiasAdd/ReadVariableOp:0 f4 [32]
0	0x3d665d4d	0.056241322
1	0xbd13c667	-0.036077883
2	0xbf064184	-0.5244372
3	0x3cbcdff7	0.023056014
4	0x3e6c5cbf	0.23082255
5	0xbf1bb6cc	-0.608258
6	0xbf42ce8a	-0.76096404
7	0xbd930269	-0.07178194
8	0x3cd8e113	0.026474511
9	0xbf0940b8	-0.5361438
10	0x3e2f0101	0.17090227
11	0xbef86c73	-0.4852024
12	0x3da92da7	0.082606606
13	0xbf3200c4	-0.6953242
14	0x3cbfa20c	0.0233927
15	0xbdeabf9d	-0.114623286
16	0x3e872999	0.26398924
17	0x3e3113ac	0.1729266
18	0x3e01cdfb	0.12676232
19	0x3d38806a	0.04504434
20	0xbe371b52	-0.17881516
21	0xbbfc51ea	-0.0077001946
22	0x3ed312aa	0.41225177
23	0x3c84daf2	0.016217683
24	0xbe6e7537	-0.23286901
25	0xbdf92ac6	-0.121663615
26	0xbcb7e5fd	-0.022448534
27	0x3dff6f46	0.124723956
28	0xbdb7712d	-0.089571334
29	0x3c7208fa	0.014772648
30	0xbcb6424a	-0.022248406
31	0xbe723678	-0.2365359

Zero_0 f4 [6]
0	0xbe32882e	-0.17434761
1	0x3c809d06	0.015699875
2	0x3e516edc	0.20452446
3	0x3e0a3284	0.13495833
4	0x3dc0f360	0.0942142
5	0x3dc24aa6	0.09486894

sequential/dense/MatMul/ReadVariableOp:0_cp0 f4 [1024, 6]
0	0xbd1a2a4b	-0.03763799
1	0x3e8bb654	0.27287543
2	0xbefa84ba	-0.48929387
3	0x3dd3fa27	0.10350447
4	0xbe23ccf0	-0.15996146
5	0xbd40b4de	-0.04704749
6	0x3e23ccf0	0.15996146
7	0xbe53fa27	-0.20700894
8	0x3c1a2a4b	0.0094094975
9	0x3d673f70	0.056456983
10	0x3edd9ccc	0.4328369
11	0x3dad6f94	0.084685475
12	0xbe371239	-0.17878045
13	0x3d1a2a4b	0.03763799
14	0x3ce73f70	0.028228492
15	0xbecf28d5	-0.4046084
16	0xbe371239	-0.17878045
17	0x00000000	0.0
18	0xbe40b4de	-0.18818995
19	0x3e86e502	0.26346594
20	0xbe8213af	-0.25405642
21	0xbc1a2a4b	-0.0094094975
22	0xbec58630	-0.3857894
23	0xbe86e502	-0.26346594
24	0x3e40b4de	0.18818995
25	0xbdd3fa27	-0.10350447
26	0x3d9a2a4b	0.07527598
27	0x3e1087a6	0.14114246
28	0x3e40b4de	0.18818995
29	0xbd9a2a4b	-0.07527598
30	0xbeec10c3	-0.46106538
31	0x3de73f70	0.112913966
32	0xbd673f70	-0.056456983
33	0xbc1a2a4b	-0.0094094975
34	0xbe1a2a4b	-0.15055196
35	0x3d1a2a4b	0.03763799
36	0x3e8213af	0.25405642
37	0xbd673f70	-0.056456983
38	0xbec0b4de	-0.3763799
39	0x3e1087a6	0.14114246
40	0xbe371239	-0.17878045
41	0xbc9a2a4b	-0.018818995
42	0xbedd9ccc	-0.4328369
43	0xbdd3fa27	-0.10350447
44	0xbedd9ccc	-0.4328369
45	0x3ea89e42	0.3293324
46	0xbe9087a6	-0.28228492
47	0x3e9558f9	0.29169443
48	0x3e06e502	0.13173297
49	0x3e06e502	0.13173297
50	0xbe8213af	-0.25405642
51	0xbdc0b4de	-0.09409498
52	0x3e7a84ba	0.24464694
53	0x3ebbe38b	0.3669704
54	0x3e40b4de	0.18818995
55	0x3d1a2a4b	0.03763799
56	0xbc9a2a4b	-0.018818995
57	0xbd86e502	-0.065866485
58	0xbdd3fa27	-0.10350447
59	0xbdad6f94	-0.084685475
60	0x3d673f70	0.056456983
61	0xbe673f70	-0.22582793
62	0x3e06e502	0.13173297
63	0xbe1a2a4b	-0.15055196
64	0x3f1558f9	0.58338886
65	0x3e8213af	0.25405642
66	0x3e8213af	0.25405642
67	0xbce73f70	-0.028228492
68	0x3dad6f94	0.084685475
69	0xbf626e1e	-0.88449275
70	0xbe9efb9d	-0.3105134
71	0xbebbe38b	-0.3669704
72	0xbdc0b4de	-0.09409498
73	0x3dfa84ba	0.12232347
74	0xbe23ccf0	-0.15996146
75	0x3ee73f70	0.45165586
76	0xbea3ccf0	-0.31992292
77	0xbd673f70	-0.056456983
78	0x3d1a2a4b	0.03763799
79	0xbdc0b4de	-0.09409498
80	0x3ea89e42	0.3293324
81	0xbde73f70	-0.112913966
82	0x3e371239	0.17878045
83	0x3de73f70	0.112913966
84	0xbe06e502	-0.13173297
85	0xbe40b4de	-0.18818995
86	0x3ead6f94	0.3387419
87	0xbe53fa27	-0.20700894
88	0x3e673f70	0.22582793
89	0xbd1a2a4b	-0.03763799
90	0x3c1a2a4b	0.0094094975
91	0x3e371239	0.17878045
92	0xbe70e215	-0.23523743
93	0x3c9a2a4b	0.018818995
94	0x3dfa84ba	0.12232347
95	0xbe53fa27	-0.20700894
96	0x3e53fa27	0.20700894
97	0xbd673f70	-0.056456983
98	0xbe1a2a4b	-0.15055196
99	0xbe1a2a4b	-0.15055196
100	0x3d673f70	0.056456983
101	0x3dd3fa27	0.10350447
102	0xbe673f70	-0.22582793
103	0x3e86e502	0.26346594
104	0x3dd3fa27	0.10350447
105	0xbe4a5782	-0.19759944
106	0xbf12f04f	-0.5739793
107	0xbdfa84ba	-0.12232347
108	0xbe8bb654	-0.27287543
109	0x3d673f70	0.056456983
110	0x3e2d6f94	0.16937095
111	0x3d9a2a4b	0.07527598
112	0x3e9558f9	0.29169443
113	0xbe1a2a4b	-0.15055196
114	0xbe9efb9d	-0.3105134
115	0x3dc0b4de	0.09409498
116	0xbc1a2a4b	-0.0094094975
117	0xbebbe38b	-0.3669704
118	0xbd1a2a4b	-0.03763799
119	0xbee73f70	-0.45165586
120	0xbf23ccf0	-0.63984585
121	0x3d1a2a4b	0.03763799
122	0x3ead6f94	0.3387419
123	0xbee26e1e	-0.44224638
124	0x3ea89e42	0.3293324
125	0x3e1a2a4b	0.15055196
126	0xbe371239	-0.17878045
127	0xbe53fa27	-0.20700894
128	0xbef5b368	-0.4798844
129	0x3ecf28d5	0.4046084
130	0xbec0b4de	-0.3763799
131	0x3dc0b4de	0.09409498
132	0x3e9a2a4b	0.30110392
133	0xbe1a2a4b	-0.15055196
134	0x3ce73f70	0.028228492
135	0xbee73f70	-0.45165586
136	0xbce73f70	-0.028228492
137	0xbe86e502	-0.26346594
138	0x3d673f70	0.056456983
139	0xbef0e215	-0.47047487
140	0x3e06e502	0.13173297
141	0xbf047c58	-0.51752234
142	0x3f1558f9	0.58338886
143	0x3e2d6f94	0.16937095
144	0x3e23ccf0	0.15996146
145	0x3d86e502	0.065866485
146	0xbde73f70	-0.112913966
147	0xbc1a2a4b	-0.0094094975
148	0xbd9a2a4b	-0.07527598
149	0x3dd3fa27	0.10350447
150	0x3d40b4de	0.04704749
151	0xbe4a5782	-0.19759944
152	0xbd673f70	-0.056456983
153	0x3e70e215	0.23523743
154	0x3d86e502	0.065866485
155	0x3dd3fa27	0.10350447
156	0x3e371239	0.17878045
157	0x3e53fa27	0.20700894
158	0xbdfa84ba	-0.12232347
159	0x3ce73f70	0.028228492
160	0xbe06e502	-0.13173297
161	0x3e7a84ba	0.24464694
162	0xbeb71239	-0.3575609
163	0xbe5d9ccc	-0.21641845
164	0xbec0b4de	-0.3763799
165	0x3eff560c	0.49870336
166	0x3f289e42	0.6586648
167	0x3e70e215	0.23523743
168	0xbdc0b4de	-0.09409498
169	0xbdad6f94	-0.084685475
170	0x3dd3fa27	0.10350447
171	0x3dfa84ba	0.12232347
172	0xbc9a2a4b	-0.018818995
173	0xbe23ccf0	-0.15996146
174	0xbd9a2a4b	-0.07527598
175	0xbe86e502	-0.26346594
176	0x3d1a2a4b	0.03763799
177	0xbd86e502	-0.065866485
178	0xbea3ccf0	-0.31992292
179	0xbe9efb9d	-0.3105134
180	0x3d9a2a4b	0.07527598
181	0x3d1a2a4b	0.03763799
182	0x3e70e215	0.23523743
183	0xbe673f70	-0.22582793
184	0xbd1a2a4b	-0.03763799
185	0xbe06e502	-0.13173297
186	0x3e1087a6	0.14114246
187	0xbdad6f94	-0.084685475
188	0x3ec58630	0.3857894
189	0xbe23ccf0	-0.15996146
190	0xbd9a2a4b	-0.07527598
191	0x3ed8cb79	0.42342737
192	0x3e2d6f94	0.16937095
193	0xbe5d9ccc	-0.21641845
194	0xbdd3fa27	-0.10350447
195	0xbe23ccf0	-0.15996146
196	0x3c1a2a4b	0.0094094975
197	0x3dad6f94	0.084685475
198	0xbe70e215	-0.23523743
199	0x3e40b4de	0.18818995
200	0x3e5d9ccc	0.21641845
201	0x3e8bb654	0.27287543
202	0x3e5d9ccc	0.21641845
203	0x3dad6f94	0.084685475
204	0xbec0b4de	-0.3763799
205	0x3e9a2a4b	0.30110392
206	0xbce73f70	-0.028228492
207	0xbd86e502	-0.065866485
208	0xbdc0b4de	-0.09409498
209	0x3de73f70	0.112913966
210	0x3f1a2a4b	0.60220784
211	0x3e06e502	0.13173297
212	0x3e673f70	0.22582793
213	0xbe2d6f94	-0.16937095
214	0xbea3ccf0	-0.31992292
215	0xbd673f70	-0.056456983
216	0xbe2d6f94	-0.16937095
217	0xbdd3fa27	-0.10350447
218	0x3ce73f70	0.028228492
219	0xbe1a2a4b	-0.15055196
220	0xbc9a2a4b	-0.018818995
221	0x3d673f70	0.056456983
222	0x3e8213af	0.25405642
223	0xbec0b4de	-0.3763799
224	0x3de73f70	0.112913966
225	0x3e1087a6	0.14114246
226	0xbea3ccf0	-0.31992292
227	0x3e9087a6	0.28228492
228	0xbdad6f94	-0.084685475
229	0x3e9087a6	0.28228492
230	0x3e8213af	0.25405642
231	0xbce73f70	-0.028228492
232	0xbe9a2a4b	-0.30110392
233	0xbec58630	-0.3857894
234	0xbead6f94	-0.3387419
235	0x3e371239	0.17878045
236	0xbd9a2a4b	-0.07527598
237	0x3e7a84ba	0.24464694
238	0xbe9558f9	-0.29169443
239	0xbd1a2a4b	-0.03763799
240	0x3e06e502	0.13173297
241	0x3e9efb9d	0.3105134
242	0xbdfa84ba	-0.12232347
243	0xbdfa84ba	-0.12232347
244	0x3e7a84ba	0.24464694
245	0xbe1a2a4b	-0.15055196
246	0x3d86e502	0.065866485
247	0x3e53fa27	0.20700894
248	0xbd9a2a4b	-0.07527598
249	0xbe2d6f94	-0.16937095
250	0xbc9a2a4b	-0.018818995
251	0x3d40b4de	0.04704749
252	0xbead6f94	-0.3387419
253	0xbd9a2a4b	-0.07527598
254	0xbe1a2a4b	-0.15055196
255	0x3e53fa27	0.20700894

sequential/dense/MatMul/ReadVariableOp:0_cp1 f4 [6, 64]
0	0xbd71747b	-0.058948975
1	0x00000000	0.0
2	0xbb89f96b	-0.004210641
3	0x3b09f96b	0.0021053206
4	0xbb09f96b	-0.0021053206
5	0xbd2c77c6	-0.042106412
6	0xbd129902	-0.03579045
7	0xbd46568a	-0.048422374
8	0xbe21b049	-0.15789904
9	0x3c2c77c6	0.010526603
10	0x3b09f96b	0.0021053206
11	0xbc89f96b	-0.016842565
12	0x3d85a9a0	0.06526494
13	0xbb09f96b	-0.0021053206
14	0x3b09f96b	0.0021053206
15	0x3b89f96b	0.004210641
16	0x3db5175c	0.08842346
17	0xbccef620	-0.025263846
18	0x3d68d4e5	0.056843657
19	0x3b89f96b	0.004210641
20	0xbb09f96b	-0.0021053206
21	0x3e16e8cd	0.14737244
22	0xbdb0c791	-0.08631814
23	0xbc09f96b	-0.008421282
24	0x3e07d185	0.13263519
25	0xbc09f96b	-0.008421282
26	0x3ded24b0	0.11579263
27	0x3dc206be	0.09473942
28	0x3b89f96b	0.004210641
29	0xbc09f96b	-0.008421282
30	0x00000000	0.0
31	0x3c4ef620	0.012631923
32	0x00000000	0.0
33	0x3b89f96b	0.004210641
34	0xbd5795b7	-0.052633014
35	0xbbcef620	-0.0063159615
36	0x00000000	0.0
37	0x3d71747b	0.058948975
38	0x3c71747b	0.014737244
39	0x3d1b3898	0.03789577
40	0xbd96e8cd	-0.07368622
41	0x3dfa1412	0.12210859
42	0x3b09f96b	0.0021053206
43	0xbdb0c791	-0.08631814
44	0x3b09f96b	0.0021053206
45	0xbd4ef620	-0.05052769
46	0xbb09f96b	-0.0021053206
47	0x3e32ef77	0.17474161
48	0x3bcef620	0.0063159615
49	0xbe32ef77	-0.17474161
50	0xbdfa1412	-0.12210859
51	0x3d96e8cd	0.07368622
52	0x3b09f96b	0.0021053206
53	0xbd8e4936	-0.06947558
54	0xbb09f96b	-0.0021053206
55	0x00000000	0.0
56	0x3d4ef620	0.05052769
57	0xbd46568a	-0.048422374
58	0x3c4ef620	0.012631923
59	0xbbcef620	-0.0063159615
60	0x3b09f96b	0.0021053206
61	0x3d4ef620	0.05052769
62	0x3b09f96b	0.0021053206
63	0xbccef620	-0.025263846
64	0x3d85a9a0	0.06526494
65	0xbb09f96b	-0.0021053206
66	0x3b89f96b	0.004210641
67	0x00000000	0.0
68	0x3b09f96b	0.0021053206
69	0xbb09f96b	-0.0021053206
70	0xbcac77c6	-0.021053206
71	0xbd23d82f	-0.04000109
72	0x3db0c791	0.08631814
73	0x3c4ef620	0.012631923
74	0x3b09f96b	0.0021053206
75	0x3ccef620	0.025263846
76	0x3d71747b	0.058948975
77	0x3b09f96b	0.0021053206
78	0x3db5175c	0.08842346
79	0xbc09f96b	-0.008421282
80	0x3d929902	0.0715809
81	0x3e511e06	0.2042161
82	0xbd60354e	-0.054738335
83	0xbe0381ba	-0.12842456
84	0x3c9b3898	0.018947884
85	0x3b89f96b	0.004210641
86	0x3cf1747b	0.029474488
87	0x00000000	0.0
88	0xbd35175c	-0.04421173
89	0xbce0354e	-0.027369168
90	0x3d1b3898	0.03789577
91	0x3cac77c6	0.021053206
92	0x3bcef620	0.0063159615
93	0xbd8e4936	-0.06947558
94	0x00000000	0.0
95	0x3d0159d4	0.031579807
96	0xbb09f96b	-0.0021053206
97	0xbe3fded9	-0.18737353
98	0x3d9f8864	0.07789686
99	0x3db5175c	0.08842346
100	0x00000000	0.0
101	0x3d4ef620	0.05052769
102	0xbddbe583	-0.10737135
103	0x3d129902	0.03579045
104	0xbcbdb6f3	-0.023158526
105	0xbdcaa655	-0.098950066
106	0x3c71747b	0.014737244
107	0x3c4ef620	0.012631923
108	0x3b89f96b	0.004210641
109	0x3d68d4e5	0.056843657
110	0xbb09f96b	-0.0021053206
111	0x3c2c77c6	0.010526603
112	0x3b89f96b	0.004210641
113	0xbd929902	-0.0715809
114	0x3d7a1412	0.061054297
115	0x3da3d82f	0.08000218
116	0x3b89f96b	0.004210641
117	0xbdbdb6f3	-0.092634104
118	0x3bcef620	0.0063159615
119	0x00000000	0.0
120	0xbcbdb6f3	-0.023158526
121	0xbdac77c6	-0.084212825
122	0xbccef620	-0.025263846
123	0x3d0159d4	0.031579807
124	0xbb09f96b	-0.0021053206
125	0x00000000	0.0
126	0x3b89f96b	0.004210641
127	0x3d2c77c6	0.042106412
128	0xbc89f96b	-0.016842565
129	0xbb09f96b	-0.0021053206
130	0xbb89f96b	-0.004210641
131	0x00000000	0.0
132	0xbb89f96b	-0.004210641
133	0xbd929902	-0.0715809
134	0xbc9b3898	-0.018947884
135	0x3cf1747b	0.029474488
136	0x3d0159d4	0.031579807
137	0x3c71747b	0.014737244
138	0x3b89f96b	0.004210641
139	0xbc4ef620	-0.012631923
140	0x00000000	0.0
141	0xbb09f96b	-0.0021053206
142	0xbd1b3898	-0.03789577
143	0x3e3db6f3	0.18526821
144	0xbdd795b7	-0.10526603
145	0x3c9b3898	0.018947884
146	0x3d8e4936	0.06947558
147	0x3c9b3898	0.018947884
148	0x3c4ef620	0.012631923
149	0xbb89f96b	-0.004210641
150	0x3cbdb6f3	0.023158526
151	0x3c09f96b	0.008421282
152	0xbde0354e	-0.10947667
153	0xbd71747b	-0.058948975
154	0x3da827fa	0.0821075
155	0x3e511e06	0.2042161
156	0xbc09f96b	-0.008421282
157	0xbd09f96b	-0.03368513
158	0x00000000	0.0
159	0xbccef620	-0.025263846
160	0x00000000	0.0
161	0x3c9b3898	0.018947884
162	0xbd9b3898	-0.07579154
163	0x3d68d4e5	0.056843657
164	0xbb09f96b	-0.0021053206
165	0x3d85a9a0	0.06526494
166	0x3d35175c	0.04421173
167	0xbbcef620	-0.0063159615
168	0x3d8159d4	0.063159615
169	0x3d929902	0.0715809
170	0x3bcef620	0.0063159615
171	0xbe442ea4	-0.19158417
172	0xbb89f96b	-0.004210641
173	0x3bcef620	0.0063159615
174	0xbc09f96b	-0.008421282
175	0xbd9b3898	-0.07579154
176	0xbc71747b	-0.014737244
177	0xbdf5c447	-0.120003276
178	0x3da827fa	0.0821075
179	0xbe16e8cd	-0.14737244
180	0x00000000	0.0
181	0x3c4ef620	0.012631923
182	0xbb89f96b	-0.004210641
183	0xbb09f96b	-0.0021053206
184	0xbc2c77c6	-0.010526603
185	0xbde0354e	-0.10947667
186	0x3d129902	0.03579045
187	0xbcf1747b	-0.029474488
188	0xbb89f96b	-0.004210641
189	0xbe16e8cd	-0.14737244
190	0xbbcef620	-0.0063159615
191	0xbd8159d4	-0.063159615
192	0x3ccef620	0.025263846
193	0x3b09f96b	0.0021053206
194	0x3c9b3898	0.018947884
195	0x3b09f96b	0.0021053206
196	0x3b09f96b	0.0021053206
197	0x3c9b3898	0.018947884
198	0xbcbdb6f3	-0.023158526
199	0x3c2c77c6	0.010526603
200	0xbd9b3898	-0.07579154
201	0x3bcef620	0.0063159615
202	0x3b89f96b	0.004210641
203	0xbd1b3898	-0.03789577
204	0x3c2c77c6	0.010526603
205	0x3b89f96b	0.004210641
206	0x3e0e4936	0.13895115
207	0x3de0354e	0.10947667
208	0xbe6afcca	-0.22947994
209	0x3d96e8cd	0.07368622
210	0x3c2c77c6	0.010526603
211	0x3d0159d4	0.031579807
212	0x3d09f96b	0.03368513
213	0x00000000	0.0
214	0xbcac77c6	-0.021053206
215	0x3cbdb6f3	0.023158526
216	0x3ddbe583	0.10737135
217	0xbc4ef620	-0.012631923
218	0x3ddbe583	0.10737135
219	0xbdcaa655	-0.098950066
220	0x3ccef620	0.025263846
221	0x3e260015	0.16210969
222	0x3b89f96b	0.004210641
223	0xbd4ef620	-0.05052769
224	0x00000000	0.0
225	0xbde0354e	-0.10947667
226	0xbdb0c791	-0.08631814
227	0xbb09f96b	-0.0021053206
228	0x3c2c77c6	0.010526603
229	0xbd96e8cd	-0.07368622
230	0x3ddbe583	0.10737135
231	0xbd2c77c6	-0.042106412
232	0xbd1b3898	-0.03789577
233	0x3bcef620	0.0063159615
234	0x3cbdb6f3	0.023158526
235	0x3e09f96b	0.13474052
236	0x3c09f96b	0.008421282
237	0x3b89f96b	0.004210641
238	0x3bcef620	0.0063159615
239	0x3e10711c	0.14105648
240	0x3cac77c6	0.021053206
241	0x3c4ef620	0.012631923
242	0x3e14c0e7	0.14526711
243	0x3e1910b3	0.14947776
244	0x3c4ef620	0.012631923
245	0x3ccef620	0.025263846
246	0x3bcef620	0.0063159615
247	0x3b09f96b	0.0021053206
248	0xbb89f96b	-0.004210641
249	0xbd129902	-0.03579045
250	0x3d1b3898	0.03789577
251	0x3bcef620	0.0063159615
252	0x3b89f96b	0.004210641
253	0x3d2c77c6	0.042106412
254	0x3c09f96b	0.008421282
255	0x3dc206be	0.09473942

Zero_1 f4 [26]
0	0x3d558a72	0.052133985
1	0xbcc24a34	-0.023717023
2	0x3e42fd90	0.19042039
3	0x3e092522	0.13393071
4	0x3d915c62	0.07097699
5	0x3d2e6b9d	0.042583097
6	0x3d8a3a4b	0.067494
7	0x3e801319	0.2501457
8	0x3e443503	0.19160847
9	0xbea8a9a3	-0.32941923
10	0xbd94f656	-0.07273547
11	0x3e3fd53b	0.18733685
12	0x3e54c658	0.20778787
13	0xbcc999d5	-0.024609486
14	0xbb38703d	-0.002814307
15	0xbda5605f	-0.08075022
16	0x3cb856c4	0.02250231
17	0x3e4b2717	0.1983913
18	0xbcf653b7	-0.030069215
19	0x3dd209c4	0.10255769
20	0xbc8395a5	-0.016062567
21	0xbdab8f2f	-0.083769195
22	0x3daab88e	0.08335982
23	0x3ea359c0	0.3190441
24	0x3c9cdaef	0.019147364
25	0xbda9cb10	-0.08290684

sequential/conv2d_2/Conv2D/ReadVariableOp:0_cp0 f4 [26, 64, 1, 1]
0	0xbf96dc33	-1.178595
1	0x3da2b9be	0.07945584
2	0x3e879ac9	0.2648528
3	0xbeed4ee0	-0.4634924
4	0x3e879ac9	0.2648528
5	0xbe152a44	-0.14566904
6	0xbe152a44	-0.14566904
7	0xbf00d30c	-0.5032203
8	0x3f079ac9	0.5297056
9	0xbdbdd8b3	-0.09269848
10	0xbf1bf201	-0.60916144
11	0xbea2b9be	-0.31782335
12	0xbecb682e	-0.3972792
13	0xbd58f7a8	-0.05297056
14	0x3cd8f7a8	0.02648528
15	0xbdd8f7a8	-0.10594112
16	0x3e8e6286	0.27809542
17	0x3f11c665	0.5694335
18	0x3da2b9be	0.07945584
19	0x3f11c665	0.5694335
20	0xbe9bf201	-0.30458072
21	0x3e879ac9	0.2648528
22	0xbe879ac9	-0.2648528
23	0x3cd8f7a8	0.02648528
24	0xbe8e6286	-0.27809542
25	0x3f2ce55a	0.6753746
26	0xbe9bf201	-0.30458072
27	0xbf1f55df	-0.62240404
28	0xbd879ac9	-0.0662132
29	0xbed8f7a8	-0.42376447
30	0x3e80d30c	0.25161016
31	0x3ec4a070	0.38403654
32	0x3e668722	0.22512487
33	0x00000000	0.0
34	0x3df4169d	0.11918376
35	0x3e879ac9	0.2648528
36	0xbebdd8b3	-0.3707939
37	0x3ec4a070	0.38403654
38	0xbed8f7a8	-0.42376447
39	0xbe22b9be	-0.15891168
40	0xbd879ac9	-0.0662132
41	0xbd879ac9	-0.0662132
42	0x3c58f7a8	0.01324264
43	0x3d22b9be	0.03972792
44	0x3e079ac9	0.1324264
45	0xbda2b9be	-0.07945584
46	0x3ecb682e	0.3972792
47	0xbe74169d	-0.23836751
48	0x3e3dd8b3	0.18539695
49	0xbd879ac9	-0.0662132
50	0xbf0e6286	-0.55619085
51	0xbef4169d	-0.47673503
52	0x3ea2b9be	0.31782335
53	0xbea9817b	-0.33106598
54	0xbc58f7a8	-0.01324264
55	0x3e152a44	0.14566904
56	0x3df4169d	0.11918376
57	0x3d879ac9	0.0662132
58	0x3c58f7a8	0.01324264
59	0xbee68722	-0.45024973
60	0x3d58f7a8	0.05297056
61	0xbcd8f7a8	-0.02648528
62	0xbea9817b	-0.33106598
63	0x3ee68722	0.45024973
64	0xbf00d30c	-0.5032203
65	0x3e80d30c	0.25161016
66	0xbeb04938	-0.3443086
67	0x3f0e6286	0.55619085
68	0x3d22b9be	0.03972792
69	0xbe079ac9	-0.1324264
70	0x3e58f7a8	0.21188223
71	0xbc58f7a8	-0.01324264
72	0x3f0436ea	0.5164629
73	0x3df4169d	0.11918376
74	0x3e079ac9	0.1324264
75	0x3e3dd8b3	0.18539695
76	0x3e879ac9	0.2648528
77	0xbd58f7a8	-0.05297056
78	0x3f0afea8	0.54294825
79	0x3df4169d	0.11918376
80	0x3eb710f6	0.35755128
81	0x3ea9817b	0.33106598
82	0xbe668722	-0.22512487
83	0x3e74169d	0.23836751
84	0xbdf4169d	-0.11918376
85	0x3e952a44	0.2913381
86	0x3e952a44	0.2913381
87	0xbe74169d	-0.23836751
88	0xbe58f7a8	-0.21188223
89	0x3ed22feb	0.41052184
90	0xbda2b9be	-0.07945584
91	0x3dbdd8b3	0.09269848
92	0xbe9bf201	-0.30458072
93	0x3dbdd8b3	0.09269848
94	0xbcd8f7a8	-0.02648528
95	0x3e952a44	0.2913381
96	0x3f33ad17	0.7018599
97	0x3d879ac9	0.0662132
98	0xbdbdd8b3	-0.09269848
99	0x3c58f7a8	0.01324264
100	0x3d58f7a8	0.05297056
101	0x3f1bf201	0.60916144
102	0xbe879ac9	-0.2648528
103	0xbe8e6286	-0.27809542
104	0xbe079ac9	-0.1324264
105	0xbda2b9be	-0.07945584
106	0x3f11c665	0.5694335
107	0x3dd8f7a8	0.10594112
108	0x3e22b9be	0.15891168
109	0xbe079ac9	-0.1324264
110	0x3df4169d	0.11918376
111	0xbf3a74d4	-0.72834516
112	0xbec4a070	-0.38403654
113	0xbe879ac9	-0.2648528
114	0x00000000	0.0
115	0xbf3dd8b3	-0.7415878
116	0x3cd8f7a8	0.02648528
117	0x3f413c92	0.7548305
118	0xbe3dd8b3	-0.18539695
119	0xbe4b682e	-0.1986396
120	0xbecb682e	-0.3972792
121	0xbd22b9be	-0.03972792
122	0x3e74169d	0.23836751
123	0xbf0436ea	-0.5164629
124	0x3e079ac9	0.1324264
125	0xbeb710f6	-0.35755128
126	0x3e879ac9	0.2648528
127	0xbda2b9be	-0.07945584
128	0x3f29817b	0.66213197
129	0x3dbdd8b3	0.09269848
130	0xbe58f7a8	-0.21188223
131	0x00000000	0.0
132	0xbf7e4239	-0.993198
133	0x3e9bf201	0.30458072
134	0xbf4b682e	-0.7945584
135	0xbdbdd8b3	-0.09269848
136	0xbea9817b	-0.33106598
137	0x3f58f7a8	0.84752893
138	0x3e152a44	0.14566904
139	0x3f668722	0.90049946
140	0x3ef4169d	0.47673503
141	0x3e22b9be	0.15891168
142	0x3dbdd8b3	0.09269848
143	0x3e879ac9	0.2648528
144	0x3e9bf201	0.30458072
145	0xbf304938	-0.6886172
146	0xbf413c92	-0.7548305
147	0x3dbdd8b3	0.09269848
148	0x3e58f7a8	0.21188223
149	0xbebdd8b3	-0.3707939
150	0xbf1f55df	-0.62240404
151	0xbdbdd8b3	-0.09269848
152	0xbe152a44	-0.14566904
153	0xbe952a44	-0.2913381
154	0x3e152a44	0.14566904
155	0xbdbdd8b3	-0.09269848
156	0xbefade5a	-0.48997766
157	0xbdd8f7a8	-0.10594112
158	0x3da2b9be	0.07945584
159	0xbf668722	-0.90049946
160	0xbd58f7a8	-0.05297056
161	0xbe879ac9	-0.2648528
162	0xbe58f7a8	-0.21188223
163	0x3e952a44	0.2913381
164	0x3df4169d	0.11918376
165	0xbe74169d	-0.23836751
166	0xbef4169d	-0.47673503
167	0xbc58f7a8	-0.01324264
168	0x3f188e22	0.5959188
169	0xbe152a44	-0.14566904
170	0x3ea2b9be	0.31782335
171	0xbe80d30c	-0.25161016
172	0xbf1bf201	-0.60916144
173	0xbe74169d	-0.23836751
174	0xbf70b2be	-0.9402274
175	0x3d879ac9	0.0662132
176	0x3dd8f7a8	0.10594112
177	0xbe879ac9	-0.2648528
178	0xbc58f7a8	-0.01324264
179	0xbec4a070	-0.38403654
180	0xbe80d30c	-0.25161016
181	0x3f522feb	0.82104367
182	0x3d58f7a8	0.05297056
183	0x3cd8f7a8	0.02648528
184	0x00000000	0.0
185	0x3d58f7a8	0.05297056
186	0x3e079ac9	0.1324264
187	0x3e8e6286	0.27809542
188	0xbd879ac9	-0.0662132
189	0x3d879ac9	0.0662132
190	0xbe22b9be	-0.15891168
191	0xbf937854	-1.1521096
192	0xbe152a44	-0.14566904
193	0xbea9817b	-0.33106598
194	0x3e304938	0.1721543
195	0x3da2b9be	0.07945584
196	0xbf4ecc0c	-0.807801
197	0xbf152a44	-0.5826762
198	0xbf1f55df	-0.62240404
199	0x3d879ac9	0.0662132
200	0x3e22b9be	0.15891168
201	0xbf0e6286	-0.55619085
202	0xbc58f7a8	-0.01324264
203	0x3c58f7a8	0.01324264
204	0xbecb682e	-0.3972792
205	0xbcd8f7a8	-0.02648528
206	0xbe3dd8b3	-0.18539695
207	0xbf0436ea	-0.5164629
208	0x3d879ac9	0.0662132
209	0x3da2b9be	0.07945584
210	0x3c58f7a8	0.01324264
211	0x3e58f7a8	0.21188223
212	0x3eed4ee0	0.4634924
213	0xbe079ac9	-0.1324264
214	0x3e58f7a8	0.21188223
215	0xbdf4169d	-0.11918376
216	0xbd58f7a8	-0.05297056
217	0x3d879ac9	0.0662132
218	0xbeb710f6	-0.35755128
219	0x3d58f7a8	0.05297056
220	0x3e8e6286	0.27809542
221	0x3d58f7a8	0.05297056
222	0xbcd8f7a8	-0.02648528
223	0xbc58f7a8	-0.01324264
224	0xbdd8f7a8	-0.10594112
225	0xbd22b9be	-0.03972792
226	0xbe879ac9	-0.2648528
227	0x3d879ac9	0.0662132
228	0x3e9bf201	0.30458072
229	0xbd879ac9	-0.0662132
230	0xbea2b9be	-0.31782335
231	0xbc58f7a8	-0.01324264
232	0x3e22b9be	0.15891168
233	0x3da2b9be	0.07945584
234	0x00000000	0.0
235	0xbeb710f6	-0.35755128
236	0x3d22b9be	0.03972792
237	0xbd879ac9	-0.0662132
238	0x3d58f7a8	0.05297056
239	0x3e3dd8b3	0.18539695
240	0x3e74169d	0.23836751
241	0xbea2b9be	-0.31782335
242	0xbe74169d	-0.23836751
243	0xbf079ac9	-0.5297056
244	0x3d22b9be	0.03972792
245	0xbe8e6286	-0.27809542
246	0xbdbdd8b3	-0.09269848
247	0xbc58f7a8	-0.01324264
248	0xbe152a44	-0.14566904
249	0xbd22b9be	-0.03972792
250	0xbcd8f7a8	-0.02648528
251	0xbc58f7a8	-0.01324264
252	0x3d58f7a8	0.05297056
253	0xbdf4169d	-0.11918376
254	0xbe152a44	-0.14566904
255	0x3e668722	0.22512487

Zero_2 f4 [26]
0	0xbd44e807	-0.04807284
1	0xbbdd2183	-0.0067483797
2	0xbe3c61da	-0.18396702
3	0x3deaa015	0.114563145
4	0x3d994ea8	0.074857056
5	0x3d71ff70	0.059081495
6	0x3da35050	0.07974303
7	0x3e520836	0.20510945
8	0xbd1cba48	-0.03826359
9	0xbea6630f	-0.3249745
10	0xbd50de14	-0.05099304
11	0x3e4083b6	0.18800244
12	0x3e3fb355	0.18720753
13	0xbca78df8	-0.020453438
14	0x3a52940e	0.0008032926
15	0xbcb133cb	-0.021631142
16	0x3d215e6c	0.03939669
17	0x3e3f336b	0.18671958
18	0xbc8f3c3c	-0.017484777
19	0x3d682ca5	0.0566832
20	0xbb23e954	-0.00250109
21	0xbd9f9caf	-0.07793557
22	0x3d926b72	0.071494
23	0x3e99f06c	0.3006624
24	0x3c6f1c52	0.014594154
25	0xbd95fb13	-0.07323279

sequential/conv2d_2/Conv2D/ReadVariableOp:0_cp1 f4 [26, 1, 3, 1]
0	0xbe996405	-0.2995912
1	0xbeee0522	-0.4648829
2	0xbee8bb10	-0.45455217
3	0x3f0985cf	0.537198
4	0x3d29423a	0.041322924
5	0xbf58dcda	-0.8471199
6	0xbf16befc	-0.5888517
7	0xbf39206f	-0.72315115
8	0xbca9423a	-0.020661462
9	0xbf0196b4	-0.5062058
10	0x3ed392c8	0.41322923
11	0x3f70aa2a	0.9400965
12	0xbe843bbd	-0.25826827
13	0x3dbe6a81	0.09297658
14	0x3f196405	0.5991824
15	0x3e29423a	0.1652917
16	0x3dfde357	0.12396877
17	0x3e8985cf	0.268599
18	0x3f043bbd	0.51653653
19	0x3f1419f3	0.57852095
20	0x3f1eae16	0.61984384
21	0x3e29423a	0.1652917
22	0x3e7de357	0.24793755
23	0x3e843bbd	0.25826827
24	0xbf2e8c4c	-0.68182826
25	0x3ca9423a	0.020661462
26	0x3f5b81e3	0.85745066
27	0x3ec8fea5	0.39256778
28	0x3f0985cf	0.537198
29	0x3f4ba3ae	0.7954663
30	0x3f410f8a	0.75414336
31	0x3eb9206f	0.36157557
32	0x3f06e0c6	0.5268673
33	0x3f1c090d	0.6095131
34	0x3f196405	0.5991824
35	0x3f21531f	0.6301746
36	0x3ec3b493	0.38223705
37	0x3ede26ec	0.4338907
38	0x3eb3d65e	0.35124487
39	0x3e68bb10	0.22727609
40	0x3f1c090d	0.6095131
41	0x3f3e6a81	0.7438126
42	0x3f21531f	0.6301746
43	0x3f43b493	0.7644741
44	0x3f0985cf	0.537198
45	0x3f58dcda	0.8471199
46	0x3e8985cf	0.268599
47	0xbf2e8c4c	-0.68182826
48	0x3f4ba3ae	0.7954663
49	0x3dbe6a81	0.09297658
50	0xbe843bbd	-0.25826827
51	0x3da9423a	0.08264585
52	0x3f0ecfe1	0.5578595
53	0x3f5b81e3	0.85745066
54	0x3f5392c8	0.82645845
55	0x3f269d31	0.65083605
56	0x3cfde357	0.030992193
57	0xbede26ec	-0.4338907
58	0x3ca9423a	0.020661462
59	0x3f60cbf5	0.87811214
60	0x3ee370fe	0.44422144
61	0x3f1174ea	0.5681902
62	0x3eb9206f	0.36157557
63	0x3e5e26ec	0.21694535
64	0x3f1eae16	0.61984384
65	0x3f3e6a81	0.7438126
66	0xbec8fea5	-0.39256778
67	0xbdd392c8	-0.10330731
68	0x3fa7efb6	1.3120029
69	0x3f1c090d	0.6095131
70	0x3ed8dcda	0.42355996
71	0x3dbe6a81	0.09297658
72	0x3e8ecfe1	0.27892974
73	0x3f3e6a81	0.7438126
74	0x3f3e6a81	0.7438126
75	0x3f39206f	0.72315115
76	0x3eb3d65e	0.35124487
77	0x3ca9423a	0.020661462

Zero_3 f4 [26]
0	0x3d38fa33	0.045160484
1	0xbc765ee9	-0.015037277
2	0x3e3750c9	0.17901911
3	0x3de088a1	0.1096356
4	0x3d81bb83	0.06334593
5	0x3d8813c3	0.06644394
6	0x3dbf82a8	0.093510926
7	0x3e39dccf	0.18150638
8	0xbd3c3ab4	-0.04595442
9	0xbea53ac2	-0.3227139
10	0xbc9d38c9	-0.019192116
11	0x3c9151f7	0.01773928
12	0x3e29417a	0.16528884
13	0xbc61dc33	-0.01378541
14	0x3bda62b6	0.0066645993
15	0xbc14c639	-0.009080463
16	0x3d2fc18c	0.04290919
17	0x3e2f6837	0.17129599
18	0xba5e0a92	-0.0008470203
19	0x3d49c4ea	0.049260058
20	0x3c38a016	0.011268636
21	0xbd8e41de	-0.06946157
22	0x3d8cd930	0.06877363
23	0x3e93e812	0.28887993
24	0x3cb64671	0.022250386
25	0xbd86a455	-0.065743126

sequential/conv2d_2/Conv2D/ReadVariableOp:0_cp2 f4 [26, 1, 1, 3]
0	0xbf04d08d	-0.51880723
1	0xbeb7e5b0	-0.35917425
2	0xbee0c365	-0.43899074
3	0x3f7a4df6	0.9777521
4	0x3ee5df1c	0.4489678
5	0x3d2376d5	0.03990825
6	0xbe421d1d	-0.18956418
7	0xbf1423b1	-0.5786696
8	0xbf3557d4	-0.7083714
9	0x3de0c365	0.109747685
10	0x3e84d08d	0.25940362
11	0x3ed17041	0.40905955
12	0x3e84d08d	0.25940362
13	0x3e2376d5	0.159633
14	0x3e6afad2	0.22947243
15	0x3ec21d1d	0.37912837
16	0x3f44aaf8	0.7682338
17	0x3f2b2067	0.6684632
18	0x3ebd0166	0.3691513
19	0x3eff69ad	0.49885312
20	0x3f20e8fa	0.62855494
21	0x3d8f07fa	0.06983943
22	0x3e9e5b1e	0.30928892
23	0x3f3f8f42	0.7482797
24	0x3eb2c9f9	0.34919718
25	0x3ed17041	0.40905955
26	0x3f0242b2	0.5088302
27	0x3f686cf7	0.9079127
28	0x3eb7e5b0	0.35917425
29	0x3e9e5b1e	0.30928892
30	0x3eeafad2	0.45894486
31	0x3ed17041	0.40905955
32	0x3e753240	0.2394495
33	0xbef01689	-0.46892193
34	0xbd2376d5	-0.03990825
35	0x3f16b18c	0.58864665
36	0x3da376d5	0.0798165
37	0x3ebd0166	0.3691513
38	0x3f0f07fa	0.55871546
39	0x3e37e5b0	0.17958713
40	0x3f16b18c	0.58864665
41	0x3f4738d4	0.7782109
42	0x3f1e5b1e	0.61857784
43	0x3df53240	0.11972475
44	0xbda376d5	-0.0798165
45	0x3f0242b2	0.5088302
46	0x3f0f07fa	0.55871546
47	0x3f3f8f42	0.7482797
48	0x3ec21d1d	0.37912837
49	0x3f2604b0	0.648509
50	0x3f83899f	1.0276374
51	0x3f2b2067	0.6684632
52	0x3eadae42	0.3392201
53	0x3d2376d5	0.03990825
54	0x3e993f68	0.29931188
55	0x3eb7e5b0	0.35917425
56	0x3ec21d1d	0.37912837
57	0x3f09ec44	0.5387614
58	0x3f0242b2	0.5088302
59	0x3f0c7a1f	0.5487384
60	0xbe9423b1	-0.2893348
61	0x3f1bcd43	0.6086008
62	0x3f6afad2	0.9178897
63	0x3f4ee266	0.80814207
64	0x3eadae42	0.3392201
65	0x3e6afad2	0.22947243
66	0x3e753240	0.2394495
67	0x3edba7ae	0.42901367
68	0x3ecc548a	0.39908248
69	0x3f3557d4	0.7083714
70	0x3f09ec44	0.5387614
71	0x3f1e5b1e	0.61857784
72	0xbf28928c	-0.6584861
73	0xbe9e5b1e	-0.30928892
74	0x3fa0e8fa	1.2571099
75	0x3f5e358a	0.86800444
76	0x3eff69ad	0.49885312
77	0x3df53240	0.11972475

sequential/conv2d_2/Conv2D/ReadVariableOp:0_cp3 f4 [64, 26, 1, 1]
0	0xbf7e79a1	-0.9940434
1	0xbe5a1f1c	-0.2130093
2	0x3eda1f1c	0.4260186
3	0x3f5a1f1c	0.8520372
4	0x3fb5c498	1.4200621
5	0x3eb5c498	0.35501552
6	0xbe5a1f1c	-0.2130093
7	0x3efe79a1	0.4970217
8	0xbfe335be	-1.7750776
9	0x00000000	0.0
10	0xbf6c4c5f	-0.92304033
11	0xbe916a13	-0.2840124
12	0xbe916a13	-0.2840124
13	0x3eda1f1c	0.4260186
14	0xbeda1f1c	-0.4260186
15	0x3f6c4c5f	0.92304033
16	0xbf239755	-0.6390279
17	0x3d916a13	0.0710031
18	0x3fb5c498	1.4200621
19	0x00000000	0.0
20	0xbeda1f1c	-0.4260186
21	0x3d916a13	0.0710031
22	0x00000000	0.0
23	0x3f885372	1.0650465
24	0x3d916a13	0.0710031
25	0x3f7e79a1	0.9940434
26	0xbf7e79a1	-0.9940434
27	0xbf239755	-0.6390279
28	0x3f239755	0.6390279
29	0xbefe79a1	-0.4970217
30	0x3f47f1da	0.7810341
31	0x3facadf7	1.349059
32	0x3efe79a1	0.4970217
33	0x40085372	2.130093
34	0x3f47f1da	0.7810341
35	0x3e5a1f1c	0.2130093
36	0xbe916a13	-0.2840124
37	0xbf47f1da	-0.7810341
38	0xbf47f1da	-0.7810341
39	0xbe116a13	-0.1420062
40	0xbf47f1da	-0.7810341
41	0x3f239755	0.6390279
42	0x3e916a13	0.2840124
43	0x3e116a13	0.1420062
44	0xbe116a13	-0.1420062
45	0x3e116a13	0.1420062
46	0xbf116a13	-0.5680248
47	0x3e5a1f1c	0.2130093
48	0xbeda1f1c	-0.4260186
49	0x3efe79a1	0.4970217
50	0xbe5a1f1c	-0.2130093
51	0xbe5a1f1c	-0.2130093
52	0x00000000	0.0
53	0x00000000	0.0
54	0xbe5a1f1c	-0.2130093
55	0x3e916a13	0.2840124
56	0x3eda1f1c	0.4260186
57	0x3efe79a1	0.4970217
58	0xbe116a13	-0.1420062
59	0x3efe79a1	0.4970217
60	0xbe116a13	-0.1420062
61	0xbe116a13	-0.1420062
62	0xbf116a13	-0.5680248
63	0xbeda1f1c	-0.4260186
64	0x3e116a13	0.1420062
65	0xbe116a13	-0.1420062
66	0xbe116a13	-0.1420062
67	0xbe5a1f1c	-0.2130093
68	0xbe5a1f1c	-0.2130093
69	0xbe5a1f1c	-0.2130093
70	0xbe5a1f1c	-0.2130093
71	0x3f35c498	0.71003103
72	0x3d916a13	0.0710031
73	0x3e916a13	0.2840124
74	0x00000000	0.0
75	0x00000000	0.0
76	0xbeda1f1c	-0.4260186
77	0x00000000	0.0
78	0xbefe79a1	-0.4970217
79	0x00000000	0.0
80	0x3e116a13	0.1420062
81	0x3e916a13	0.2840124
82	0xc051087b	-3.2661426
83	0xbfacadf7	-1.349059
84	0xbe5a1f1c	-0.2130093
85	0x00000000	0.0
86	0xbeda1f1c	-0.4260186
87	0x3eda1f1c	0.4260186
88	0x3f47f1da	0.7810341
89	0x3e916a13	0.2840124
90	0x3fa39755	1.2780558
91	0xbefe79a1	-0.4970217
92	0xbd916a13	-0.0710031
93	0x3efe79a1	0.4970217
94	0xbe5a1f1c	-0.2130093
95	0x3d916a13	0.0710031
96	0x3d916a13	0.0710031
97	0x3f35c498	0.71003103
98	0x3eb5c498	0.35501552
99	0xbe5a1f1c	-0.2130093
100	0x3d916a13	0.0710031
101	0x3efe79a1	0.4970217
102	0x00000000	0.0
103	0x3e116a13	0.1420062
104	0x4043668a	3.0531335
105	0xbd916a13	-0.0710031
106	0x3eda1f1c	0.4260186
107	0x3eb5c498	0.35501552
108	0x405a1f1c	3.4081488
109	0x3ffe79a1	1.9880868
110	0x3d916a13	0.0710031
111	0xbfb5c498	-1.4200621
112	0x3e916a13	0.2840124
113	0xbefe79a1	-0.4970217
114	0xbd916a13	-0.0710031
115	0x3e916a13	0.2840124
116	0xbf47f1da	-0.7810341
117	0xbe916a13	-0.2840124
118	0x3f47f1da	0.7810341
119	0xbe116a13	-0.1420062
120	0x00000000	0.0
121	0x00000000	0.0
122	0xbf9a80b4	-1.2070527
123	0x3e116a13	0.1420062
124	0xbf5a1f1c	-0.8520372
125	0xbefe79a1	-0.4970217
126	0x3f239755	0.6390279
127	0xbeb5c498	-0.35501552
128	0xbe116a13	-0.1420062
129	0xbeda1f1c	-0.4260186
130	0x3d916a13	0.0710031
131	0x00000000	0.0
132	0xbe116a13	-0.1420062
133	0x3f7e79a1	0.9940434
134	0xc0bedb39	-5.9642606
135	0x3efe79a1	0.4970217
136	0xbe5a1f1c	-0.2130093
137	0x4003c821	2.05909
138	0xbf47f1da	-0.7810341
139	0xbe5a1f1c	-0.2130093
140	0x3d916a13	0.0710031
141	0xbf885372	-1.0650465
142	0x3f116a13	0.5680248
143	0xbf7e79a1	-0.9940434
144	0xbfacadf7	-1.349059
145	0xbe5a1f1c	-0.2130093
146	0xbe5a1f1c	-0.2130093
147	0x3f885372	1.0650465
148	0xbe116a13	-0.1420062
149	0xbfacadf7	-1.349059
150	0xbeda1f1c	-0.4260186
151	0x3f6c4c5f	0.92304033
152	0xbefe79a1	-0.4970217
153	0xbe5a1f1c	-0.2130093
154	0x3f116a13	0.5680248
155	0x3f7e79a1	0.9940434
156	0x00000000	0.0
157	0x3e5a1f1c	0.2130093
158	0x3f239755	0.6390279
159	0x3eda1f1c	0.4260186
160	0x3f116a13	0.5680248
161	0x3f239755	0.6390279
162	0xbe116a13	-0.1420062
163	0x3e916a13	0.2840124
164	0x3e116a13	0.1420062
165	0xbe116a13	-0.1420062
166	0xbefe79a1	-0.4970217
167	0x3e5a1f1c	0.2130093
168	0xbe116a13	-0.1420062
169	0x3e116a13	0.1420062
170	0xbd916a13	-0.0710031
171	0xbd916a13	-0.0710031
172	0xbd916a13	-0.0710031
173	0x00000000	0.0
174	0x3e116a13	0.1420062
175	0xbe916a13	-0.2840124
176	0xbeb5c498	-0.35501552
177	0x00000000	0.0
178	0x3eb5c498	0.35501552
179	0x00000000	0.0
180	0x00000000	0.0
181	0xbe916a13	-0.2840124
182	0x3e5a1f1c	0.2130093
183	0xbd916a13	-0.0710031
184	0xbd916a13	-0.0710031
185	0x3eda1f1c	0.4260186
186	0x401f0c05	2.4851086
187	0x3f885372	1.0650465
188	0x3e116a13	0.1420062
189	0x3e116a13	0.1420062
190	0x3e916a13	0.2840124
191	0xbf916a13	-1.1360496
192	0xbe116a13	-0.1420062
193	0xbe916a13	-0.2840124
194	0x3e5a1f1c	0.2130093
195	0x3eda1f1c	0.4260186
196	0xbeb5c498	-0.35501552
197	0xbeb5c498	-0.35501552
198	0x3d916a13	0.0710031
199	0x3e5a1f1c	0.2130093
200	0xbf239755	-0.6390279
201	0x00000000	0.0
202	0x3f116a13	0.5680248
203	0xbf239755	-0.6390279
204	0x3eda1f1c	0.4260186
205	0x3e5a1f1c	0.2130093
206	0x3e116a13	0.1420062
207	0x3efe79a1	0.4970217
208	0xbe116a13	-0.1420062
209	0xbf5a1f1c	-0.8520372
210	0x3eda1f1c	0.4260186
211	0x3fc7f1da	1.5620682
212	0xc067c10e	-3.6211581
213	0xc0116a13	-2.2720993
214	0xbf239755	-0.6390279
215	0xbeda1f1c	-0.4260186
216	0xbeb5c498	-0.35501552
217	0xbe5a1f1c	-0.2130093
218	0x3e116a13	0.1420062
219	0xbf116a13	-0.5680248
220	0x3f35c498	0.71003103
221	0xbe916a13	-0.2840124
222	0xbe916a13	-0.2840124
223	0xbe916a13	-0.2840124
224	0xbd916a13	-0.0710031
225	0x3eb5c498	0.35501552
226	0x3f9a80b4	1.2070527
227	0xbeb5c498	-0.35501552
228	0xbeb5c498	-0.35501552
229	0x3e116a13	0.1420062
230	0x3fbedb39	1.4910651
231	0xbd916a13	-0.0710031
232	0x3e116a13	0.1420062
233	0x3eb5c498	0.35501552
234	0xbe116a13	-0.1420062
235	0x3e5a1f1c	0.2130093
236	0x00000000	0.0
237	0x3f5a1f1c	0.8520372
238	0xc110473f	-9.017394
239	0xbeda1f1c	-0.4260186
240	0xbf239755	-0.6390279
241	0xbe5a1f1c	-0.2130093
242	0x3e5a1f1c	0.2130093
243	0xbf116a13	-0.5680248
244	0x3efe79a1	0.4970217
245	0xbd916a13	-0.0710031
246	0x3e916a13	0.2840124
247	0xbefe79a1	-0.4970217
248	0xbf6c4c5f	-0.92304033
249	0x3e5a1f1c	0.2130093
250	0xbe5a1f1c	-0.2130093
251	0x3f7e79a1	0.9940434
252	0x3f47f1da	0.7810341
253	0x3f116a13	0.5680248
254	0xbd916a13	-0.0710031
255	0x3f239755	0.6390279

Zero_4 f4 [16]
0	0xbdb2e91d	-0.08735869
1	0xbd1a7f7f	-0.037719246
2	0x3d847b4e	0.06468831
3	0x3d08624e	0.033296876
4	0xbdc81334	-0.09769288
5	0x3ce40767	0.027835561
6	0xbda5459d	-0.08069918
7	0x3c3521bd	0.011055407
8	0xbcd25bff	-0.025678633
9	0xbb6cf6c4	-0.0036157826
10	0x3ccd7a89	0.025082843
11	0x3dca0d1f	0.09865784
12	0x3de28491	0.11060441
13	0xbe2cb97e	-0.16867635
14	0xbd6340fd	-0.0554819
15	0xbd966031	-0.07342566

sequential/conv2d_1/Conv2D/ReadVariableOp:0_cp0 f4 [16, 32, 1, 1]
0	0x3e117e4a	0.14208332
1	0xbe917e4a	-0.28416663
2	0x3d864d30	0.06557691
3	0xbd064d30	-0.032788455
4	0xbe9716d7	-0.29509613
5	0x3e331196	0.17487177
6	0x3e1caf63	0.1530128
7	0xbc331196	-0.010929486
8	0x3d9caf63	0.0765064
9	0x3eb31196	0.34974355
10	0xbd9caf63	-0.0765064
11	0x3e917e4a	0.28416663
12	0x3ebe42af	0.3716025
13	0x3e917e4a	0.28416663
14	0xbe864d30	-0.26230764
15	0x3d9caf63	0.0765064
16	0x3efbd0bb	0.49182686
17	0x3d864d30	0.06557691
18	0x3d864d30	0.06557691
19	0x3ecf0c55	0.40439096
20	0x3d064d30	0.032788455
21	0xbe76382e	-0.24044868
22	0x3e9caf63	0.3060256
23	0x3e917e4a	0.28416663
24	0x3ea7e07d	0.32788458
25	0x3e5fd5fc	0.21858972
26	0x3e6b0715	0.2295192
27	0x3ead7909	0.33881405
28	0x3d864d30	0.06557691
29	0x3e9caf63	0.3060256
30	0x3e80b4a4	0.25137818
31	0x3eda3d6f	0.42624995
32	0xbe064d30	-0.13115382
33	0xbf0be5bd	-0.5464743
34	0xbd331196	-0.043717943
35	0xbdb31196	-0.087435886
36	0xbe80b4a4	-0.25137818
37	0xbd064d30	-0.032788455
38	0x3e064d30	0.13115382
39	0xbe9716d7	-0.29509613
40	0x3e864d30	0.26230764
41	0x3f9716d7	1.1803845
42	0xbeeb0715	-0.4590384
43	0x3ea7e07d	0.32788458
44	0xbe9716d7	-0.29509613
45	0x3dc973c9	0.098365374
46	0x3f43db3c	0.765064
47	0x3f3b7669	0.73227555
48	0xbe3e42af	-0.18580125
49	0x3d331196	0.043717943
50	0xbecf0c55	-0.40439096
51	0x3f0380ea	0.5136858
52	0x3d331196	0.043717943
53	0x3ead7909	0.33881405
54	0xbe117e4a	-0.14208332
55	0x3f917e4a	1.1366665
56	0xbdc973c9	-0.098365374
57	0x3eda3d6f	0.42624995
58	0xbe4973c9	-0.19673075
59	0x3e27e07d	0.16394229
60	0xbdc973c9	-0.098365374
61	0x3cb31196	0.021858972
62	0x3f064d30	0.5246153
63	0xbd9caf63	-0.0765064
64	0xbe76382e	-0.24044868
65	0xbf5fd5fc	-0.8743589
66	0xbe117e4a	-0.14208332
67	0xbf1f7baa	-0.6229807
68	0xbf2d7909	-0.6776281
69	0xbf304550	-0.6885576
70	0xbe864d30	-0.26230764
71	0x3e064d30	0.13115382
72	0xbf51d89c	-0.81971145
73	0x3c331196	0.010929486
74	0xbea7e07d	-0.32788458
75	0xbe5fd5fc	-0.21858972
76	0x3f3e42af	0.743205
77	0xbe1caf63	-0.1530128
78	0xbf2d7909	-0.6776281
79	0xbef6382e	-0.48089737
80	0x3f35dddc	0.71041656
81	0x3cb31196	0.021858972
82	0x3eda3d6f	0.42624995
83	0x3e9caf63	0.3060256
84	0xbcb31196	-0.021858972
85	0xbf51d89c	-0.81971145
86	0x3e9716d7	0.29509613
87	0x3ddfd5fc	0.10929486
88	0x3f304550	0.6885576
89	0xbd5fd5fc	-0.05464743
90	0xbe8be5bd	-0.27323714
91	0x3ead7909	0.33881405
92	0xbf0380ea	-0.5136858
93	0x3f117e4a	0.56833327
94	0xbe9caf63	-0.3060256
95	0xbddfd5fc	-0.10929486
96	0x3e80b4a4	0.25137818
97	0x3e9caf63	0.3060256
98	0x3eeb0715	0.4590384
99	0x3f0be5bd	0.5464743
100	0xbcb31196	-0.021858972
101	0x3eb31196	0.34974355
102	0x3ed4a4e2	0.41532046
103	0x3e76382e	0.24044868
104	0x3d9caf63	0.0765064
105	0xbfa51436	-1.2896793
106	0xbc331196	-0.010929486
107	0x3e117e4a	0.14208332
108	0x3d864d30	0.06557691
109	0x3f1caf63	0.6120512
110	0xbea7e07d	-0.32788458
111	0xbe917e4a	-0.28416663
112	0xbf577128	-0.8415704
113	0xbea247f0	-0.3169551
114	0x3f27e07d	0.65576917
115	0xbe54a4e2	-0.20766023
116	0x3d5fd5fc	0.05464743
117	0xbeb31196	-0.34974355
118	0x3ec973c9	0.3934615
119	0xbef09fa2	-0.4699679
120	0xbf2aacc3	-0.66669863
121	0xbdc973c9	-0.098365374
122	0xbd064d30	-0.032788455
123	0x3c331196	0.010929486
124	0xbcb31196	-0.021858972
125	0x3cb31196	0.021858972
126	0xbebe42af	-0.3716025
127	0xbd5fd5fc	-0.05464743
128	0xbdb31196	-0.087435886
129	0x3f51d89c	0.81971145
130	0xbd331196	-0.043717943
131	0x3f00b4a4	0.50275636
132	0x3f251436	0.64483964
133	0xbeb31196	-0.34974355
134	0xbe5fd5fc	-0.21858972
135	0x3ebe42af	0.3716025
136	0xbdc973c9	-0.098365374
137	0x3f821ac7	1.0164422
138	0x3eb8aa23	0.36067304
139	0xbe064d30	-0.13115382
140	0xbe8be5bd	-0.27323714
141	0xbc331196	-0.010929486
142	0x3ec973c9	0.3934615
143	0xbddfd5fc	-0.10929486
144	0xbdb31196	-0.087435886
145	0xbddfd5fc	-0.10929486
146	0x3e1caf63	0.1530128
147	0x3f00b4a4	0.50275636
148	0x00000000	0.0
149	0x3f0be5bd	0.5464743
150	0xbd864d30	-0.06557691
151	0x3e76382e	0.24044868
152	0xbe6b0715	-0.2295192
153	0xbea247f0	-0.3169551
154	0x3cb31196	0.021858972
155	0x3cb31196	0.021858972
156	0xbe6b0715	-0.2295192
157	0x3db31196	0.087435886
158	0x3f064d30	0.5246153
159	0xbe331196	-0.17487177
160	0x3d5fd5fc	0.05464743
161	0x3f304550	0.6885576
162	0x3eb8aa23	0.36067304
163	0x3f8eb204	1.1148076
164	0x3f0eb204	0.5574038
165	0x3e864d30	0.26230764
166	0x3e5fd5fc	0.21858972
167	0x3edfd5fc	0.43717945
168	0xbd864d30	-0.06557691
169	0xbf1716d7	-0.59019226
170	0x3f144a90	0.57926273
171	0x3e54a4e2	0.20766023
172	0xbf091977	-0.5355448
173	0x3ed4a4e2	0.41532046
174	0xbd064d30	-0.032788455
175	0xbedfd5fc	-0.43717945
176	0xbf7e9d01	-0.9945832
177	0xbea247f0	-0.3169551
178	0x3f4f0c55	0.8087819
179	0xbe4973c9	-0.19673075
180	0xbdc973c9	-0.098365374
181	0xbcb31196	-0.021858972
182	0x3ea247f0	0.3169551
183	0xbeb31196	-0.34974355
184	0xbebe42af	-0.3716025
185	0xbe6b0715	-0.2295192
186	0xbe3e42af	-0.18580125
187	0xbdf6382e	-0.12022434
188	0xbe331196	-0.17487177
189	0xbedfd5fc	-0.43717945
190	0xbeeb0715	-0.4590384
191	0xbecf0c55	-0.40439096
192	0x3eb31196	0.34974355
193	0x3eb8aa23	0.36067304
194	0x3e80b4a4	0.25137818
195	0xbd864d30	-0.06557691
196	0x3e064d30	0.13115382
197	0x3ead7909	0.33881405
198	0x3e9716d7	0.29509613
199	0xbecf0c55	-0.40439096
200	0x3ec3db3c	0.382532
201	0xbead7909	-0.33881405
202	0x3ea247f0	0.3169551
203	0x3e54a4e2	0.20766023
204	0xbe54a4e2	-0.20766023
205	0xbd864d30	-0.06557691
206	0x3ee56e88	0.4481089
207	0x3e6b0715	0.2295192
208	0x3db31196	0.087435886
209	0x3f5a3d6f	0.8524999
210	0xbf43db3c	-0.765064
211	0xbf2aacc3	-0.66669863
212	0xbddfd5fc	-0.10929486
213	0x3eda3d6f	0.42624995
214	0xbeda3d6f	-0.42624995
215	0xbec973c9	-0.3934615
216	0x3e54a4e2	0.20766023
217	0x3f304550	0.6885576
218	0x3f144a90	0.57926273
219	0xbd5fd5fc	-0.05464743
220	0x3f410ef6	0.75413454
221	0xbeeb0715	-0.4590384
222	0xbd864d30	-0.06557691
223	0x3ec3db3c	0.382532
224	0xbc331196	-0.010929486
225	0x3ec3db3c	0.382532
226	0x3e1caf63	0.1530128
227	0xbe3e42af	-0.18580125
228	0x3ddfd5fc	0.10929486
229	0x3e064d30	0.13115382
230	0x3db31196	0.087435886
231	0x3d331196	0.043717943
232	0x3eeb0715	0.4590384
233	0x3df6382e	0.12022434
234	0xbdb31196	-0.087435886
235	0x3e8be5bd	0.27323714
236	0xbf1f7baa	-0.6229807
237	0xbd864d30	-0.06557691
238	0x3f4973c9	0.786923
239	0x3f144a90	0.57926273
240	0xbe8be5bd	-0.27323714
241	0x3ee56e88	0.4481089
242	0xbf331196	-0.6994871
243	0xbf5a3d6f	-0.8524999
244	0xbd9caf63	-0.0765064
245	0x3f4973c9	0.786923
246	0xbe27e07d	-0.16394229
247	0xbf1716d7	-0.59019226
248	0xbe917e4a	-0.28416663
249	0x3e54a4e2	0.20766023
250	0x3ea247f0	0.3169551
251	0xbf1f7baa	-0.6229807
252	0x3eeb0715	0.4590384
253	0xbf1716d7	-0.59019226
254	0xbe8be5bd	-0.27323714
255	0x3d9caf63	0.0765064

Zero_5 f4 [16]
0	0x3d91a614	0.07111755
1	0xbd010361	-0.031497363
2	0xbd80c1c1	-0.062869556
3	0x3cf6b5aa	0.030115921
4	0xbdb394a6	-0.08768587
5	0x3cbcfbf5	0.023069361
6	0xbd9159b4	-0.07097188
7	0x3c250e00	0.010074139
8	0xbd023ddb	-0.03179727
9	0xbc1118da	-0.008856023
10	0x3cd5d3c0	0.026101947
11	0xbc9f2f09	-0.019431608
12	0x3db0d6b5	0.08634702
13	0xbe06b848	-0.13156235
14	0xbd3c34cf	-0.0459488
15	0xbc2ad49a	-0.010426665

sequential/conv2d_1/Conv2D/ReadVariableOp:0_cp1 f4 [16, 1, 3, 1]
0	0xbee95f13	-0.45580348
1	0xbf0e9da8	-0.55709314
2	0xbf01a699	-0.5064483
3	0x3f5effd4	0.8710911
4	0x3f4279e5	0.75967246
5	0x3e305336	0.17219242
6	0xbeee8eb3	-0.46593246
7	0xbf7b85c2	-0.98250973
8	0xbf47a985	-0.7799304
9	0x3f4511b5	0.76980144
10	0x3f3fe216	0.74954355
11	0x3ed9d034	0.4254166
12	0x3e4511b5	0.19245036
13	0x3f5c6804	0.86096215
14	0x3f66c743	0.901478
15	0xbc25f3f7	-0.0101289665
16	0x3f13cd48	0.5773511
17	0x3f4279e5	0.75967246
18	0x3eab2397	0.3342559
19	0x3f54a094	0.8305752
20	0x3f1b94b8	0.607738
21	0x3f642f74	0.8913491
22	0x3f288bc7	0.65838283
23	0xbe06d639	-0.13167657
24	0xbdf8edf2	-0.121547595
25	0x3f4f70f5	0.81031734
26	0x3f6bf6e3	0.92173594
27	0xbe78edf2	-0.24309519
28	0x3ecf70f5	0.40515867
29	0x3f78edf2	0.97238076
30	0x3ebfe216	0.37477177
31	0x3f4279e5	0.75967246
32	0x3f305336	0.6887697
33	0xbf043e69	-0.5165773
34	0x3ca5f3f7	0.020257933
35	0x3f32eb06	0.6988987
36	0x3ecf70f5	0.40515867
37	0x3ef8edf2	0.48619038
38	0x3de42f74	0.111418635
39	0xbe6e8eb3	-0.23296623
40	0x3e4511b5	0.19245036
41	0x3f47a985	0.7799304
42	0x3f235c27	0.6381249
43	0x3f5208c5	0.8204463
44	0x3f096e09	0.53683525
45	0xbf4279e5	-0.75967246
46	0xbec511b5	-0.38490072
47	0x3fa4a80f	1.2863787

Zero_6 f4 [16]
0	0xbd60d3e9	-0.054889593
1	0xbc68df95	-0.014213462
2	0xbc39ca3b	-0.011339719
3	0x3ce1dc4b	0.027570864
4	0xbd97966a	-0.07401736
5	0x3c89199f	0.01673585
6	0x3d0968e4	0.033547297
7	0x3c0f81b0	0.008758947
8	0xbd1f6897	-0.038918104
9	0xbc3d8b0c	-0.011568796
10	0x3d01c2ca	0.031679906
11	0xbd02578d	-0.031821776
12	0x3d80d4e4	0.06290606
13	0xbddd83ff	-0.10816192
14	0xbc9a210d	-0.018814588
15	0xbc154b47	-0.009112186

sequential/conv2d_1/Conv2D/ReadVariableOp:0_cp2 f4 [16, 1, 1, 3]
0	0xbf020763	-0.5079252
1	0xbf0b2758	-0.5435691
2	0xbeb1ef2a	-0.3475278
3	0x3f4d4f08	0.8019872
4	0xbe641eed	-0.22277422
5	0xbf641eed	-0.8910969
6	0xbf78a6d4	-0.9712956
7	0xbd367f24	-0.044554844
8	0x3f442f14	0.76634336
9	0x3eb1ef2a	0.3475278
10	0x3f442f14	0.76634336
11	0x3f343727	0.70396656
12	0x3e8d6f56	0.27624005
13	0x3f06975e	0.5257472
14	0x3f06975e	0.5257472
15	0x3ebb0f1e	0.3653497
16	0x3efaeed2	0.4901033
17	0x3e6d3ee2	0.23168519
18	0x3f28cf34	0.65941167
19	0xbe48bf0e	-0.19604132
20	0xbf5f8ef2	-0.8732749
21	0x3f11ff50	0.570302
22	0x3f6d3ee2	0.92674077
23	0x3efaeed2	0.4901033
24	0x3eff7ecc	0.49901426
25	0x3f28cf34	0.65941167
26	0x3e5afef8	0.21386325
27	0x3f243f3a	0.64158976
28	0x3f3d571c	0.73961043
29	0x3ead5f2f	0.33861682
30	0x3f3f9f19	0.7485214
31	0x3e367f24	0.17821938
32	0xbf0fb753	-0.56139106
33	0x3ebf9f19	0.3742607
34	0x3f18d748	0.59703493
35	0x3ea43f3a	0.32079488
36	0x3e9faf40	0.31188393
37	0x3ed66efe	0.41881555
38	0x3e7f7ecc	0.24950713
39	0x3e5afef8	0.21386325
40	0x3ef65ed7	0.48119232
41	0x3edf8ef2	0.43663746
42	0xbec8bf0e	-0.39208263
43	0x3ebf9f19	0.3742607
44	0x3f268737	0.6505007
45	0x3f3d571c	0.73961043
46	0x3f90db51	1.131693
47	0x3f08df5b	0.53465813
