dnn-models/cifar10-cnn-cp-fractal.onnx (onnx, 145218 bytes, 32 tensors)

sequential/dense_1/BiasAdd/ReadVariableOp:0 f4 [10]
00000000: dc99 853e 629b f9be c2ae 533d 7cbd 5c3f
00000010: ad02 2c3d 71f0 38be c115 1dbf 36bb 5cbd
00000020: cc5e dcbe 5e5d cf3d
0.26093948 -0.4875136 0.051680334 0.8622663 0.04199474 -0.18060471 -0.6136132 -0.053889476
-0.43041074 0.1012523

sequential/dense/BiasAdd/ReadVariableOp:0 f4 [64]
00000000: 3fe1 b7bd dc2a f7bd f041 0dbe df31 94be
00000010: cf7f 09be 3c10 8c3d 89ae e23c 953a ed3c
00000020: a004 9f3e 3fe0 bdbe 6627 f2bd 6f18 29be
00000030: 633e 52be d497 eabd 7d84 13be d980 f03e
00000040: 9ddb d03e 8720 a63e 9659 d43e be97 d9be
00000050: a307 9d3e b3d5 4bbe 8d54 17be dd66 6bbe
00000060: 72fa c9bd 98ef a4be f5be c43e e5f5 c83e
00000070: 99fb 1ebe 7cd0 ec3d 9f74 f23d 4a4a d5bb
00000080: df3c 89bd f7e5 ccbd 9b91 193e b2c0 d83d
00000090: bcd2 35be 8dce ac3e 0a10 fe3d 41e8 e0bd
000000a0: 6f52 b83e 001b 82be 7a07 30bd fd36 053f
000000b0: 75c1 1bbe 4b0d 5dbd 854f 1abe eafa 263d
000000c0: c225 d5bd fd51 91bd e879 f23e c379 1cbe
000000d0: 6e78 c1bd 6761 843e b15b 82be 3bde f9bd
000000e0: 1b42 83bb a161 d6bd bef1 bdbd c68e 27be
000000f0: 5f07 40be 0690 9f3c a42a 32be 6a7e 92bd
-0.08978509 -0.12068722 -0.13794684 -0.289443 -0.13427661 0.06839034 0.027671115 0.028958598
0.31058216 -0.3708515 -0.11823921 -0.16513227 -0.20531611 -0.1145474 -0.14406009 0.46973303
0.40792552 0.3244669 0.414746 -0.42498583 0.3066989 -0.19905739 -0.14778347 -0.22988458
-0.09862222 -0.32214046 0.3842694 0.39250103 -0.15525664 0.11563203 0.1183865 -0.0065091
-0.06701063 -0.100048 0.1499695 0.10583629 -0.1775617 0.33751336 0.12405403 -0.10981799
0.36000392 -0.25411224 -0.04297588 0.5203703 -0.15210517 -0.053967755 -0.15069397 0.040766634
-0.10407592 -0.07095716 0.47358632 -0.15280823 -0.09446798 0.25855562 -0.2546058 -0.1220059
-0.004005683 -0.1046784 -0.09274624 -0.16363057 -0.18752812 0.019477855 -0.17399079 -0.07153018

sequential/conv2d_2/BiasAdd/ReadVariableOp:0 f4 [64]
00000000: 571c 673e 9c28 403f 7eec 1bbe f300 173e
00000010: 10f1 8dbe 386d e4bc b5d9 e3bd a6c0 7c3e
00000020: ee63 813e c709 853e a6ce 143e 1775 133f
00000030: fb37 9cbd df50 2ebe 93ef c6be a0fa dfbe
00000040: 0d5e 1bbe c4e3 8bbd 5e9b df3e 4bed acbd
00000050: 47d1 b7bd cc66 f2bd 10ee 06be 7409 da3c
00000060: 0b93 4cbe f3e9 00be 0888 82be 3d0e d23e
00000070: d5fd 64be a293 a0bd f2f0 cebe 4db1 2ebe
00000080: e5d5 0c3e 5dfd 1f3f 026f d0bd 7833 023f
00000090: 5e5b 1ebe b3bd 33be b22b 9c3e 7d91 31bd
000000a0: a88e 55bd bfc3 40be ec19 213f 1930 d23d
000000b0: 5644 82be 70f0 1c3f dec1 e3ba 2a03 88bd
000000c0: 2529 0b3d daa6 8dbe 7993 46be 0d98 62be
000000d0: 8264 10bd e1a3 09be 0489 05be a0c1 083f
000000e0: fd6c 203d 8a0e a4be cebc 953d 360e 39be
000000f0: 5f89 993e f022 623b a6c2 063c d6c7 2abe
0.22569405 0.75061965 -0.15226933 0.14746456 -0.2772298 -0.02788411 -0.11125509 0.24682865
0.25271553 0.25984022 0.14531955 0.5760054 -0.07627865 -0.17023037 -0.38854656 -0.437459
-0.15172596 -0.06830552 0.43673223 -0.084436975 -0.08975463 -0.11836013 -0.13176751 0.026615836
-0.19977967 -0.12589245 -0.2549441 0.41026488 -0.22362454 -0.07840659 -0.40418202 -0.17059822
0.1375347 0.62495977 -0.10177423 0.50859785 -0.15464541 -0.17552833 0.30502087 -0.04335164
-0.052138 -0.18824671 0.6293018 0.1026308 -0.2544276 0.6130438 -0.0017376503 -0.066412285
0.033974785 -0.2766636 -0.19392194 -0.22128315 -0.0352521 -0.13441421 -0.13040549 0.5342045
0.03916644 -0.32042342 0.07311402 -0.18071827 0.29987618 0.0034505688 0.008225119 -0.16677794

sequential/conv2d_1/BiasAdd/ReadVariableOp:0 f4 [64]
00000000: 184f 8d3b b8f6 20be e6df 8ebd d20b 953d
00000010: 6025 d33e c91e 1abf 407c d9bc 0701 15be
00000020: 9048 88be 568e aebe 193f 31bd 1d8f ed3d
00000030: c360 84be 0091 d4bd 6213 193e 1c8c 7bbe
00000040: 95a3 243e 9323 b5bd 9cbb 073e 7119 3b3e
00000050: f105 b1bc e0c6 ee3e ecdb 71be 9857 d1be
00000060: 5796 8abd b7b4 243c 2629 eebe 6b7a 98be
00000070: 6f01 8cbe 0902 07bf 65f6 393e 8b1a 9fbe
00000080: b4d5 84be ee8f dbbd 0d00 f9bd 5b3c 17be
00000090: 27b9 66bd affa 08bd b26c 6fbe a8de 15be
000000a0: 29f0 a9bd 358c c53e 28e7 353d 768e 36bd
000000b0: a9c7 30bb c565 1d3f 9cce 13bc 9780 83be
000000c0: 9877 46be 2b99 84bd 5e5f c63d 1759 5bbc
000000d0: ce53 6f3e 3d77 803d 4b94 2cbe 9ac1 dcbd
000000e0: 8df7 0abe a0a0 05be 2314 073d 0a38 a9be
000000f0: ab1e 9dbd b05e 10be f9d7 d23e 0865 9fbd
0.004312407 -0.15719116 -0.06976299 0.07277645 0.41239452 -0.60203224 -0.026548505 -0.14551173
-0.2661786 -0.3409297 -0.043273065 0.11599562 -0.25855073 -0.10379219 0.149488 -0.24565166
0.16078027 -0.08844676 0.13255161 0.18271424 -0.021609278 0.46636105 -0.2361905 -0.4088714
-0.06766956 0.010052851 -0.4651577 -0.29780897 -0.27344844 -0.5273748 0.18160398 -0.31074938
-0.25944293 -0.10720812 -0.12158213 -0.14769118 -0.05632892 -0.033442196 -0.23381308 -0.14635718
-0.0829776 0.38583532 0.0444099 -0.044569455 -0.0026974475 0.61483413 -0.0090214275 -0.25684044
-0.19381559 -0.06474527 0.096861586 -0.01338794 0.23371813 0.06272743 -0.16853444 -0.10779114
-0.13570996 -0.13049555 0.03297819 -0.33050567 -0.07671865 -0.1409862 0.411804 -0.07782942

sequential/conv2d/BiasAdd/ReadVariableOp:0 f4 [32]
00000000: b724 c0bc 079f 913c 1721 86be 189f 7dbe
00000010: 4e48 0f3e 4b7a e2be 8eec bfbe 7e18 663c
00000020: 124e 0f3c f968 f13b d197 113d d3dc b0be
00000030: d150 033e bd1a dfbe 92d8 5dbd 683f 58bd
00000040: 2e16 b1bd 7457 823e 5473 a83d 9895 fb3d
00000050: 297b 5abe 5dde 1f3d a290 7fbd 4da5 c4bc
00000060: cc2d 72bd 521e b6bc 82ce babd 015b 873c
00000070: 328f 35bd a424 b1bc 783f 9cbc 954c 80bc
-0.023455007 0.017776025 -0.2619712 -0.2476772 0.13992426 -0.44233927 -0.37485164 0.014043925
0.008746641 0.00736725 0.035545174 -0.34543476 0.12823798 -0.43575087 -0.054161616 -0.052794844
-0.086468086 0.25457346 0.08225122 0.12284392 -0.21336044 0.03903042 -0.062393792 -0.024004603
-0.059125707 -0.022231255 -0.091214195 0.016522886 -0.044326015 -0.021623917 -0.019073233 -0.015661517

Zero_0 f4 [10]
00000000: fbbe 66bd fa52 e53b 5cc7 03be 9bf7 78be
00000010: f772 15bd 1d55 7abd 7c51 0c3e e9a6 a43d
00000020: 1cc8 22be dd8d a93c
-0.056334477 0.006998417 -0.12869018 -0.24313204 -0.036486592 -0.061116327 0.13702959 0.08039648
-0.15896648 0.020697528

sequential/conv2d_1/Conv2D/ReadVariableOp:0_cp0 f4 [10, 32, 1, 1]
00000000: 1f4d 46bc 67e0 773d 7b83 2d3e 1f4d 46bc
00000010: f1b1 523e 7b83 ad3e 1f4d 46bc 0555 083e
00000020: 1f4d 46bf a91e a13e d7b9 94bd a91e a13e
00000030: d7b9 94bd a91e 213e 67e0 f73d 0555 083e
00000040: 1f4d 463e 67e0 77bd 0555 08be a91e 213e
00000050: d7b9 943d 1f4d 46bd 1f4d 463c f72f 623f
00000060: 6e87 8e3e d7b9 143d f1b1 523e 0555 083e
00000070: d7b9 14bd 1251 273f 1f4d 46bc 67e0 773d
00000080: 887f ccbe b09c 303f d7b9 14be 2c49 653f
00000090: d13b 853f d7b9 943d 957b 6bbe a3a0 113f
000000a0: a91e a13e 0555 88be de37 243f 887f ccbe
000000b0: d7b9 943d 4de8 39be 67e0 f7be 4de8 b9be
000000c0: 4de8 b9be 0000 0000 b61a c03e 40ec 9abe
000000d0: 1f4d c6bc 887f cc3e c316 df3d 1c8e bebf
000000e0: 1251 a7be b61a c0be 1f4d c63d de37 24bf
000000f0: 957b ebbe a91e a13e a91e 213e c316 5fbe
00000100: f1b1 d23e c316 df3e 67e0 77bd d7b9 943e
00000110: 1f4d 463e b61a c0be 1f4d c6bc d7b9 143e
00000120: 7b83 adbd a3a0 113f a91e 213e a91e 21be
00000130: 1f4d 463e 0555 083e c316 df3d 7b83 adbd
00000140: 40ec 9a3e d7b9 94bd 7b83 ad3d 1251 273f
00000150: 9c22 823e a3a0 113f 67e0 f7bd 3a6e 0b3f
00000160: d7b9 94bd a91e 21be b61a c03e 6e87 8e3e
00000170: 1f4d c6bd 9c22 823e f1b1 523f 0555 083e
00000180: 0555 883e c316 df3d d7b9 14bf 887f ccbe
00000190: c316 dfbd 4de8 39be 67e0 f73d d13b 05bf
000001a0: 2c49 e5be 67e0 77be d012 fe3e d7b9 14be
000001b0: 67e0 773e f1b1 52be 67e0 f73d c316 5f3e
000001c0: c316 df3d a91e a13f 887f 4cbf 0000 0000
000001d0: 5ae4 d8be 67e0 773e d7b9 143d 1f4d 463d
000001e0: 1f4d c63c d13b 053f fead f13e 7b83 2dbe
000001f0: 887f cc3e a91e 213e c316 5f3e 67e0 773d
00000200: d7b9 143e 1f4d 463e d7b9 14be d7b9 943d
00000210: 67e0 77bd f1b1 d23e c316 dfbd 1251 a7be
00000220: 4de8 b9be 1f4d c6bd 1251 a73e d7b9 94bd
00000230: c316 5fbe 7b83 ad3e 887f cc3e 0555 083e
00000240: d7b9 943d eb33 433f 0cd3 17bf 1f4d c6be
00000250: d7b9 14bd 957b 6b3e 0555 083e 957b 6bbe
00000260: 0555 08be 1251 a73e 6e87 8e3e 6e87 0ebf
00000270: 7b83 ad3e f1b1 d2be 0555 08be d7b9 14be
00000280: 7b83 2dbe 4de8 b9be d7b9 143d 9c22 823e
00000290: f1b1 52be d13b 053f 6e87 8e3e 0555 083e
000002a0: 32c7 743f d7b9 14bd 7b83 ad3e 7b83 2d3e
000002b0: 0555 08be 2c49 e53e 1251 27bf 2c49 e53e
000002c0: 957b 6b3e 4de8 b93e 1f4d 463d 9c22 823e
000002d0: 7b83 adbe 1251 27bf b61a c03e 957b 6b3e
000002e0: c316 5f3e d012 fe3e f1b1 52be b61a c03e
000002f0: 4de8 b9be 957b 6b3e 1f4d 46bc fead f13e
00000300: 7b83 adbd 1f4d c6bd f1b1 d2be 4de8 b9be
00000310: f1b1 d23e 1f4d 463d c316 dfbd d7b9 14bd
00000320: 0914 90bf c316 5fbe c316 df3d 1f4d c6bd
00000330: d13b 05bf 5ae4 d83e 7b83 2dbe 0000 0000
00000340: d13b 05bf 0555 08be 67e0 77bd f1b1 d2be
00000350: 9c22 82be 9c22 02bf d7b9 14be 6e87 8e3e
00000360: 957b 6b3e 67e0 77be 7b83 adbe 40ec 9abe
00000370: 7b83 adbe 0555 883e 0555 88be 9c22 02bf
00000380: b09c 303f 7b83 ad3e 1f4d 463d 40ec 1a3f
00000390: 1f4d c6bc 0555 083f 1f4d 46bd d7b9 94be
000003a0: 957b 6b3e 1f4d c6bf a91e 213f c316 5fbe
000003b0: 5ae4 d83e d012 fe3e 0555 08bf 67e0 77be
000003c0: 4de8 b9be 7b83 ad3d 7b83 2d3e a3a0 11bf
000003d0: 1f4d 46bd 67e0 f7bd 7b83 adbd 1c8e bebf
000003e0: 9c22 82be 957b 6bbe 67e0 773e 67e0 f7be
000003f0: 40ec 9a3e 9c22 823e f1b1 52be f1b1 523e
-0.012103348 0.06051674 0.16944687 -0.012103348 0.20575692 0.33889374 -0.012103348 0.13313682
-0.7746143 0.31468704 -0.07262009 0.31468704 -0.07262009 0.15734352 0.12103348 0.13313682
0.19365357 -0.06051674 -0.13313682 0.15734352 0.07262009 -0.048413392 0.012103348 0.8835444
0.278377 0.036310043 0.20575692 0.13313682 -0.036310043 0.6535808 -0.012103348 0.06051674
-0.3994105 0.68989086 -0.14524017 0.89564776 1.040888 0.07262009 -0.22996362 0.5688574
0.31468704 -0.26627365 0.64147747 -0.3994105 0.07262009 -0.18155022 -0.48413393 -0.36310044
-0.36310044 0.0 0.3752038 -0.3025837 -0.024206696 0.3994105 0.10893013 -1.4887118
-0.3267904 -0.3752038 0.096826784 -0.64147747 -0.45992723 0.31468704 0.15734352 -0.21786027
0.41151384 0.43572053 -0.06051674 0.29048035 0.19365357 -0.3752038 -0.024206696 0.14524017
-0.084723435 0.5688574 0.15734352 -0.15734352 0.19365357 0.13313682 0.10893013 -0.084723435
0.3025837 -0.07262009 0.084723435 0.6535808 0.2541703 0.5688574 -0.12103348 0.5446507
-0.07262009 -0.15734352 0.3752038 0.278377 -0.096826784 0.2541703 0.8230277 0.13313682
0.26627365 0.10893013 -0.5809607 -0.3994105 -0.10893013 -0.18155022 0.12103348 -0.520444
-0.44782388 -0.24206696 0.49623728 -0.14524017 0.24206696 -0.20575692 0.12103348 0.21786027
0.10893013 1.2587482 -0.798821 0.0 -0.42361718 0.24206696 0.036310043 0.048413392
0.024206696 0.520444 0.47203058 -0.16944687 0.3994105 0.15734352 0.21786027 0.06051674
0.14524017 0.19365357 -0.14524017 0.07262009 -0.06051674 0.41151384 -0.10893013 -0.3267904
-0.36310044 -0.096826784 0.3267904 -0.07262009 -0.21786027 0.33889374 0.3994105 0.13313682
0.07262009 0.76251096 -0.59306407 -0.38730714 -0.036310043 0.22996362 0.13313682 -0.22996362
-0.13313682 0.3267904 0.278377 -0.556754 0.33889374 -0.41151384 -0.13313682 -0.14524017
-0.16944687 -0.36310044 0.036310043 0.2541703 -0.20575692 0.520444 0.278377 0.13313682
0.9561645 -0.036310043 0.33889374 0.16944687 -0.13313682 0.44782388 -0.6535808 0.44782388
0.22996362 0.36310044 0.048413392 0.2541703 -0.33889374 -0.6535808 0.3752038 0.22996362
0.21786027 0.49623728 -0.20575692 0.3752038 -0.36310044 0.22996362 -0.012103348 0.47203058
-0.084723435 -0.096826784 -0.41151384 -0.36310044 0.41151384 0.048413392 -0.10893013 -0.036310043
-1.1256114 -0.21786027 0.10893013 -0.096826784 -0.520444 0.42361718 -0.16944687 0.0
-0.520444 -0.13313682 -0.06051674 -0.41151384 -0.2541703 -0.5083406 -0.14524017 0.278377
0.22996362 -0.24206696 -0.33889374 -0.3025837 -0.33889374 0.26627365 -0.26627365 -0.5083406
0.68989086 0.33889374 0.048413392 0.6051674 -0.024206696 0.5325473 -0.048413392 -0.29048035
0.22996362 -1.5492285 0.6293741 -0.21786027 0.42361718 0.49623728 -0.5325473 -0.24206696
-0.36310044 0.084723435 0.16944687 -0.5688574 -0.048413392 -0.12103348 -0.084723435 -1.4887118
-0.2541703 -0.22996362 0.24206696 -0.48413393 0.3025837 0.2541703 -0.20575692 0.20575692

Zero_1 f4 [10]
00000000: 2a45 0c3d 96a6 e03a 8fe4 d43d 8c06 7fbe
00000010: b70e a2bc f35d 53bd 4de5 cd3d 8115 0d3d
00000020: 178e f3bd 55df ad3c
0.034245647 0.001713949 0.103951566 -0.24904841 -0.019782407 -0.05160327 0.10053501 0.034444336
-0.11892336 0.021224657

sequential/conv2d_1/Conv2D/ReadVariableOp:0_cp1 f4 [10, 1, 3, 1]
00000000: cd4e cabe c7a4 56bf 17e6 1dbc 17e6 1d3f
00000010: 3b81 3b3f 233a 853e 17e6 9dbc 8518 0fbf
00000020: a9b3 2cbf 22d9 ec3d 66c6 4c3f 48d5 a23e
00000030: 601c d9be 17e6 1d3d 3b81 3b3f 22d9 ec3e
00000040: 53c8 713f 2f2d 543f f2e9 e73e 3b81 3b3f
00000050: 22d9 ec3c 9d5f 453e daa2 b13e b607 143e
00000060: 1d90 11bf daa2 313e 4baa 9c3f fe3d cf3e
00000070: ec3f 743f 17e6 9d3e
-0.39513245 -0.8384518 -0.009637377 0.61679214 0.73244065 0.26020917 -0.019274754 -0.5589679
-0.6746164 0.11564852 0.7999023 0.31803346 -0.4240446 0.03854951 0.73244065 0.4625941
0.94446295 0.82881445 0.45295674 0.73244065 0.02891213 0.19274755 0.34694558 0.14456066
-0.56860524 0.17347279 1.2239469 0.40476984 0.9541004 0.30839607

Zero_2 f4 [10]
00000000: 2d70 44bc 6d7a ab3b b2d6 aabd 557e 37bd
00000010: a362 25bc f8c8 c6bc a260 993d 2dc5 9b3c
00000020: 900f 74bd 10d0 a93c
-0.011989635 0.0052331 -0.08341731 -0.044798214 -0.010094318 -0.024265751 0.07489134 0.01901492
-0.059585154 0.020729095

sequential/conv2d_1/Conv2D/ReadVariableOp:0_cp2 f4 [10, 1, 1, 3]
00000000: de6a 9bbe 7c1a 21bf 549a 72be bff3 353d
00000010: 7c1a 21bf 02cd 4abf fde1 00bf 2144 30bf
00000020: 0bd6 93be 6d26 0ebf cf76 883d dcdb db3e
00000030: bff3 353f d561 523f 641d c53e a20b 903e
00000040: 4735 9f3e bff3 b53d 40bb 153f 8a0e 343f
00000050: 8105 6b3e fde1 003e fb52 413f 40bb 153f
00000060: a20b 103e 8105 6b3e 1aca 263e 0bd6 933e
00000070: 1fb5 703f 8a0e 343f
-0.3035497 -0.62931037 -0.23691684 0.044421908 -0.62931037 -0.7921907 -0.5034483 -0.68853956
-0.2887424 -0.55527383 0.06663286 0.42941177 0.7107505 0.8218053 0.38498986 0.28133875
0.31095335 0.088843815 0.58488846 0.70334685 0.22951318 0.12586208 0.75517243 0.58488846
0.14066938 0.22951318 0.16288033 0.2887424 0.9402637 0.70334685

sequential/conv2d_1/Conv2D/ReadVariableOp:0_cp3 f4 [64, 10, 1, 1]
00000000: 65ea 63bf cc3c 02be ffcb 223e 9960 0a3f
00000010: 320e ec3f 9960 0abf cc3c 82bd fe31 74bf
00000020: 325b c3bd ffcb a2be 9813 b3be cc3c 82be
00000030: 325b c3bd 6537 3bbf cc3c 823e 7f72 8ebf
00000040: cc3c 023d 325b 43be 325b 433e 6684 12bf
00000050: ccef 2abf fe31 f43e 98c6 5bbf ffcb 22bf
00000060: cca2 d3be 6537 bbbf 6684 12bf cc3c 823d
00000070: 320e 6c3f cc3c 823d 325b c3bd cc3c 02be
00000080: 325b c33d cc3c 82be 9813 b33e 325b 433e
00000090: 9813 b33e cc3c 823f ffcb 22bf 65ea 633f
000000a0: cc3c 82bf cc3c 82bd 7f72 8ebf 6684 92be
000000b0: 325b c3bd 9813 b33e 6684 923e 6537 bbbf
000000c0: ccef 2abf 325b c3be 0000 0000 cc3c 023e
000000d0: cc3c 023e e543 f8bf cc3c 823e 325b c3bd
000000e0: 9960 0a3f 4bfc e73f 0000 0000 65ea 633e
000000f0: 7f72 0ec0 6684 12bf 65ea 633e 9813 b3be
00000100: cc3c 823d 9960 0abf ffcb 223e 4c96 96bf
00000110: cca2 d3be cc3c 823e 325b 43be cc3c 02bd
00000120: cc3c 02be 325b c33d cc3c 82bd cc3c 82bd
00000130: cc3c 023d 325b 43be cc3c 82bd cc3c 02bd
00000140: fe31 f4be 325b c3be cb55 7c3f fe31 743f
00000150: cc3c 82bd 9960 8a3f cc3c 823f 65ea 63bf
00000160: 7f25 b7bf 325b c33e ffcb 223e 9813 b3be
00000170: b201 afbf 325b c3bd 0000 0000 ff7e 4bbf
00000180: 6684 92be d933 00c0 f2d4 2440 9813 b3be
00000190: 320e 6cbf 325b 43be 6537 3b3f 9813 b3be
000001a0: 325b c33d ffcb 223e 65ea 633e 325b 433e
000001b0: 9813 33bf 9813 333f cc3c 823d cc3c 823d
000001c0: 325b 43be 9960 0a3f cb55 7c3f 9813 33bf
000001d0: cc3c 02bd 6684 12bf b24e 86bf 65ea 63be
000001e0: 325b c3be 6684 92be cc3c 02be 65ea 633e
000001f0: 4c49 bfbf ffcb a2be cca2 d33e 32a8 9abf
00000200: 6684 923e 65ea 633e cc3c 023d cc3c 023f
00000210: 65ea e33e 32a8 1a3f 320e 6c3f 6684 123f
00000220: fe31 f43e cc3c 823f 6684 92bf cc3c 023f
00000230: cca2 d3bf cc3c 02bf 325b c3bd cca2 d33e
00000240: 6684 923f cc3c 023f 9960 8a3f 9813 33c0
00000250: b201 2fc0 6537 3b3f 6684 923f 0000 0000
00000260: 32a8 1abf 325b 433e cc3c 823f 325b c33d
00000270: cc3c 023d 65ea e33e e5dd a6bf cc3c 023d
00000280: 325b 43be cca2 53bf cc3c 823d 325b 43bf
00000290: 9813 b33e 325b c33d 325b 433e f2d4 24c0
000002a0: 325b c3bd cc3c 82be 325b 43bf 325b c3bd
000002b0: 0000 0000 cc3c 82bf 65ea 633e 325b c33e
000002c0: fe31 743f 6537 3bc0 cc3c 02bd ffcb 22bf
000002d0: 98c6 5b3f cc3c 023d e5dd a6bf fe31 74bf
000002e0: ff7e 4bbf cc3c 82be 65ea e3be 9813 33bf
000002f0: 19ba 9e3f 7f25 b7bf 65ea 633e cc3c 823e
00000300: 325b c3bd 7f72 8ebf 65ea e3be ff7e 4bbf
00000310: cc3c 023f 9813 b3be cc3c 82be cc3c 82be
00000320: 6684 92bf cc3c 02bd 9960 8a3f 65ea e33e
00000330: 98c6 db3f 6684 923e 32a8 1a3f 6537 3b3f
00000340: 7f25 37c0 ffcb a23e 98c6 dbbf cc3c 82bd
00000350: 6684 923f 65ea e3be ffcb a23e cc3c 023d
00000360: 32a8 1a3f cc3c 023e 32a8 1ac0 32a8 1a3f
00000370: 9813 b33e cc3c 02bd cca2 d3be cca2 533f
00000380: 320e 6cbf cc3c 823d cc3c 02bd 325b c33d
00000390: cc3c 023d 325b c3bd 325b 43bf ffcb 22be
000003a0: ff7e 4b3f 32a8 1a3f ccef 2abf 9813 b3be
000003b0: cca2 d33e 9813 b3be d9e6 28c0 cc3c 023d
000003c0: cc3c 82bd cc3c 023d cc3c 023e b201 afbf
000003d0: 320e 6cbf 65ea e33e 9813 b33e 325b 433e
000003e0: 598d 14c0 cc3c 023f cc3c 82bf 32a8 9a3f
000003f0: ff7e 4b3f e5dd a6bf 6684 923e 325b c33d
-0.8902953 -0.12718505 0.15898131 0.54053646 1.8441832 -0.54053646 -0.06359252 -0.9538878
-0.095388785 -0.31796262 -0.34975886 -0.2543701 -0.095388785 -0.731314 0.2543701 -1.1128691
0.03179626 -0.19077757 0.19077757 -0.57233274 -0.6677215 0.4769439 -0.85849905 -0.63592523
-0.41335142 -1.462628 -0.57233274 0.06359252 0.9220916 0.06359252 -0.095388785 -0.12718505
0.095388785 -0.2543701 0.34975886 0.19077757 0.34975886 1.0174804 -0.63592523 0.8902953
-1.0174804 -0.06359252 -1.1128691 -0.28616637 -0.095388785 0.34975886 0.28616637 -1.462628
-0.6677215 -0.38155514 0.0 0.12718505 0.12718505 -1.939572 0.2543701 -0.095388785
0.54053646 1.8123869 0.0 0.22257383 -2.2257383 -0.57233274 0.22257383 -0.34975886
0.06359252 -0.54053646 0.15898131 -1.1764617 -0.41335142 0.2543701 -0.19077757 -0.03179626
-0.12718505 0.095388785 -0.06359252 -0.06359252 0.03179626 -0.19077757 -0.06359252 -0.03179626
-0.4769439 -0.38155514 0.9856841 0.9538878 -0.06359252 1.0810729 1.0174804 -0.8902953
-1.4308318 0.38155514 0.15898131 -0.34975886 -1.3672392 -0.095388785 0.0 -0.79490656
-0.28616637 -2.0031645 2.5754972 -0.34975886 -0.9220916 -0.19077757 0.731314 -0.34975886
0.095388785 0.15898131 0.22257383 0.19077757 -0.6995177 0.6995177 0.06359252 0.06359252
-0.19077757 0.54053646 0.9856841 -0.6995177 -0.03179626 -0.57233274 -1.0492766 -0.22257383
-0.38155514 -0.28616637 -0.12718505 0.22257383 -1.4944243 -0.31796262 0.41335142 -1.2082579
0.28616637 0.22257383 0.03179626 0.5087402 0.44514766 0.60412896 0.9220916 0.57233274
0.4769439 1.0174804 -1.1446655 0.5087402 -1.6534057 -0.5087402 -0.095388785 0.41335142
1.1446655 0.5087402 1.0810729 -2.798071 -2.7344785 0.731314 1.1446655 0.0
-0.60412896 0.19077757 1.0174804 0.095388785 0.03179626 0.44514766 -1.3036467 0.03179626
-0.19077757 -0.82670283 0.06359252 -0.7631103 0.34975886 0.095388785 0.19077757 -2.5754972
-0.095388785 -0.2543701 -0.7631103 -0.095388785 0.0 -1.0174804 0.22257383 0.38155514
0.9538878 -2.925256 -0.03179626 -0.63592523 0.85849905 0.03179626 -1.3036467 -0.9538878
-0.79490656 -0.2543701 -0.44514766 -0.6995177 1.2400542 -1.4308318 0.22257383 0.2543701
-0.095388785 -1.1128691 -0.44514766 -0.79490656 0.5087402 -0.34975886 -0.2543701 -0.2543701
-1.1446655 -0.03179626 1.0810729 0.44514766 1.7169981 0.28616637 0.60412896 0.731314
-2.8616636 0.31796262 -1.7169981 -0.06359252 1.1446655 -0.44514766 0.31796262 0.03179626
0.60412896 0.12718505 -2.4165158 0.60412896 0.34975886 -0.03179626 -0.41335142 0.82670283
-0.9220916 0.06359252 -0.03179626 0.095388785 0.03179626 -0.095388785 -0.7631103 -0.15898131
0.79490656 0.60412896 -0.6677215 -0.34975886 0.41335142 -0.34975886 -2.6390898 0.03179626
-0.06359252 0.03179626 0.12718505 -1.3672392 -0.9220916 0.44514766 0.34975886 0.19077757
-2.3211272 0.5087402 -1.0174804 1.2082579 0.79490656 -1.3036467 0.28616637 0.095388785

Zero_3 f4 [24]
00000000: 7dd9 7ebc 59ca 0d3d 29e1 a23d 5a32 36be
00000010: 5644 3f3b 654e f23d 88b5 24bc da08 d6bd
00000020: cd53 f8bd d145 243b 5af5 2c3e 6e3c 5fbd
00000030: 38cf a5be 8498 163e 285c 5c3e 4d07 3a3e
00000040: 5779 b03c 503c 5fbe 3ebd 053e 1e83 14be
00000050: 87ca 703e dfee 46bd 0940 2c3d b82b fc3d
-0.015554783 0.034616802 0.07953102 -0.17792645 0.0029185019 0.11831359 -0.010053046 -0.10450907
-0.12125359 0.0025066028 0.16890469 -0.05450099 -0.32384658 0.14706618 0.2151953 0.18166848
0.021542234 -0.21800351 0.13060471 -0.14503142 0.23514758 -0.04856765 0.042053256 0.12313026

sequential/conv2d_2/Conv2D/ReadVariableOp:0_cp0 f4 [24, 64, 1, 1]
00000000: f07f 26bf 1249 3ebe 1249 3e3e 18a7 f43d
00000010: d314 c53e d872 fb3e 101a 233e 101a 233d
00000020: 18a7 f43d 1249 be3d ae1c 12bf 94e0 cbbe
00000030: 1249 3ebe 0deb 07be 1249 3e3e 4c1f 81be
00000040: 57db ed3e 4c1f 813e 94e0 cb3e 8e82 153e
00000050: 18a7 f4be 1578 593c 1249 be3e 1578 d93d
00000060: 1578 d9bd ceb6 0e3f d643 e03e f3ae 41bf
00000070: 18a7 f4bd 1578 59bd 94e0 4bbe 101a 23be
00000080: 101a 233d 1249 bebd 1578 d9be 101a 23bd
00000090: 7117 34bf 91b1 303e ceb6 8ebe 1249 be3d
000000a0: d314 45bf 101a a3bd 1578 593d 0000 0000
000000b0: 57db ed3e 91b1 b03e d643 e03e 2fb4 1fbf
000000c0: 527d 37bf 1578 d93e 1578 d93e 1249 bebd
000000d0: 0deb 873d d872 fb3e 0000 0000 960f e7be
000000e0: 91b1 b03e 0deb 87bd 8e82 153e 960f 67be
000000f0: 91b1 b0be 1578 d9bd 101a 233d d314 c53e
00000100: 101a 233e d0e5 a9be 4c1f 013f d643 e03e
00000110: f07f 26bf 4f4e 9cbe 91b1 303f 1578 d9bc
00000120: 101a a3be 32e3 3a3f 1578 d93c 960f 67be
00000130: 8e82 153f 1578 d93c 94e0 4bbe 0deb 873e
00000140: 1578 d9bd 1578 d93d 1578 59be 101a a3bd
00000150: 1578 d9bd 1249 be3d 1578 d93c 1249 3ebe
00000160: 101a 23bd 101a 23be ceb6 0e3f d0e5 a9be
00000170: 101a 23bd 101a a33d 94e0 4bbe 0deb 07be
00000180: 91b1 b0be 1249 be3d 18a7 f43d 4c1f 01bf
00000190: 1249 bebe 101a a3bd ceb6 0e3f 0000 0000
000001a0: 2d85 043f 1578 d93c 1578 d93d ed50 0b3f
000001b0: 4f4e 9cbe 8e82 95be 1249 bebd 1578 593e
000001c0: ceb6 0ebf 1578 d93c ceb6 8e3f 101a 233f
000001d0: 0deb 07be 1578 59bd 1578 d9bc 18a7 f4bd
000001e0: 101a a3bd 0deb 87bd 8e82 95be 1578 59bc
000001f0: 1578 d93d 1578 d9bc d872 7b3f 7117 34bf
00000200: 101a a33e 1249 bebd 8e82 153e d872 fb3e
00000210: ceb6 8ebe 101a a3be 101a a33e 1578 59bd
00000220: 1249 be3d 960f 673e 91b1 b03e 101a a3bd
00000230: 1578 593d 1578 593c 8e82 95be 91b1 30be
00000240: 960f 67be 1578 d93d d314 c5be 960f 673e
00000250: 2d85 043f d0e5 293f 8e82 153e 1578 d9bc
00000260: 94e0 4b3e 4c1f 01bf 18a7 74be 1578 d93d
00000270: 4f4e 1c3f 1249 bebe 94e0 4bbe 4f4e 9cbe
00000280: 57db edbe 1578 d9bc 1578 d93d 1578 59be
00000290: 18a7 f43e 0000 0000 101a 233d 101a 23bd
000002a0: 0deb 87bd 18a7 f4bd 4c1f 01bf 54ac d23e
000002b0: 8e82 15be 91b1 30be 8e82 95be 1578 d9bd
000002c0: 0deb 07be 0000 0000 18a7 f43d 4f4e 9c3e
000002d0: 4c1f 01bf 91b1 303e 0deb 87bd 1578 59bc
000002e0: 101a 233d 101a a3bd 0deb 873d 101a 23bd
000002f0: 18a7 f43d 527d b73e 6fe8 183f 1578 d9bc
00000300: 91b1 b0be 91b1 303e 1578 d93d 1249 bebd
00000310: 94e0 4b3f 8e82 953e ed50 0b3f 1578 d9bd
00000320: 8e82 153e 6fe8 18bf 960f 67be d0e5 29bf
00000330: 1578 d93c 0000 0000 8e82 953e 0deb 87bd
00000340: 1578 59be 54ac d23e 1249 3e3e 1578 d93c
00000350: 960f 67be 4c1f 813e 18a7 f4bd 91b1 30be
00000360: ceb6 8e3e 101a a33d d643 e03e 101a 23be
00000370: 4c1f 813e d0e5 a93e 1578 d93c 8e82 153e
00000380: 94e0 4b3e 0deb 873d b37a 483f d314 c5be
00000390: 18a7 f4bd 18a7 f4bd 8e82 953e 101a a33d
000003a0: ae1c 12bf 101a a3bd 101a 233e 0deb 87bd
000003b0: 8e82 153f 1249 3e3e 527d 373f 0deb 073f
000003c0: 101a 233e 4c1f 013f 8e82 153e 7117 343f
000003d0: 18a7 74be 1249 be3d 1578 59bd 0deb 073f
000003e0: 0deb 873e 1578 59bd 1578 59be 960f e73e
000003f0: 1578 593e 527d b73e 18a7 743e 101a 233e
-0.6503897 -0.18582562 0.18582562 0.11945933 0.3849245 0.49111056 0.15927911 0.039819777
0.11945933 0.09291281 -0.5707501 -0.39819777 -0.18582562 -0.13273259 0.18582562 -0.2521919
0.46456406 0.2521919 0.39819777 0.14600584 -0.47783732 0.013273259 0.37165123 0.10618607
-0.10618607 0.5574769 0.43801755 -0.75657576 -0.11945933 -0.053093035 -0.19909889 -0.15927911
0.039819777 -0.09291281 -0.42474428 -0.039819777 -0.7034827 0.17255236 -0.27873844 0.09291281
-0.769849 -0.079639554 0.053093035 0.0 0.46456406 0.34510472 0.43801755 -0.62384313
-0.716756 0.42474428 0.42474428 -0.09291281 0.06636629 0.49111056 0.0 -0.4512908
0.34510472 -0.06636629 0.14600584 -0.2256454 -0.34510472 -0.10618607 0.039819777 0.3849245
0.15927911 -0.33183146 0.5043838 0.43801755 -0.6503897 -0.30528495 0.69020945 -0.026546517
-0.31855822 0.7300292 0.026546517 -0.2256454 0.58402336 0.026546517 -0.19909889 0.26546517
-0.10618607 0.10618607 -0.21237214 -0.079639554 -0.10618607 0.09291281 0.026546517 -0.18582562
-0.039819777 -0.15927911 0.5574769 -0.33183146 -0.039819777 0.079639554 -0.19909889 -0.13273259
-0.34510472 0.09291281 0.11945933 -0.5043838 -0.37165123 -0.079639554 0.5574769 0.0
0.5176571 0.026546517 0.10618607 0.5442036 -0.30528495 -0.29201168 -0.09291281 0.21237214
-0.5574769 0.026546517 1.1149538 0.63711643 -0.13273259 -0.053093035 -0.026546517 -0.11945933
-0.079639554 -0.06636629 -0.29201168 -0.013273259 0.10618607 -0.026546517 0.9822211 -0.7034827
0.31855822 -0.09291281 0.14600584 0.49111056 -0.27873844 -0.31855822 0.31855822 -0.053093035
0.09291281 0.2256454 0.34510472 -0.079639554 0.053093035 0.013273259 -0.29201168 -0.17255236
-0.2256454 0.10618607 -0.3849245 0.2256454 0.5176571 0.6636629 0.14600584 -0.026546517
0.19909889 -0.5043838 -0.23891866 0.10618607 0.6105699 -0.37165123 -0.19909889 -0.30528495
-0.46456406 -0.026546517 0.10618607 -0.21237214 0.47783732 0.0 0.039819777 -0.039819777
-0.06636629 -0.11945933 -0.5043838 0.411471 -0.14600584 -0.17255236 -0.29201168 -0.10618607
-0.13273259 0.0 0.11945933 0.30528495 -0.5043838 0.17255236 -0.06636629 -0.013273259
0.039819777 -0.079639554 0.06636629 -0.039819777 0.11945933 0.358378 0.59729666 -0.026546517
-0.34510472 0.17255236 0.10618607 -0.09291281 0.79639554 0.29201168 0.5442036 -0.10618607
0.14600584 -0.59729666 -0.2256454 -0.6636629 0.026546517 0.0 0.29201168 -0.06636629
-0.21237214 0.411471 0.18582562 0.026546517 -0.2256454 0.2521919 -0.11945933 -0.17255236
0.27873844 0.079639554 0.43801755 -0.15927911 0.2521919 0.33183146 0.026546517 0.14600584
0.19909889 0.06636629 0.78312224 -0.3849245 -0.11945933 -0.11945933 0.29201168 0.079639554
-0.5707501 -0.079639554 0.15927911 -0.06636629 0.58402336 0.18582562 0.716756 0.53093034
0.15927911 0.5043838 0.14600584 0.7034827 -0.23891866 0.09291281 -0.053093035 0.53093034
0.26546517 -0.053093035 -0.21237214 0.4512908 0.21237214 0.358378 0.23891866 0.15927911

Zero_4 f4 [24]
00000000: babf dc3c 7dac 00bd 0414 a5bd 1a42 29be
00000010: 7bbb 5bbc d8f5 b03d a7fb 27bb e180 83bd
00000020: a390 ebbd 28e8 debc 7316 123e 4739 40bd
00000030: b535 9ebe a66b 0b3e 7667 503e e378 243e
00000040: 2700 353d fbfb 58be 12e8 f93d ab04 09be
00000050: e727 4f3e 9ebf 19bd da2c e23c 36f4 a33d
0.026946891 -0.031414498 -0.08060458 -0.16529122 -0.013411398 0.08640641 -0.0025632174 -0.06421066
-0.11502197 -0.02721031 0.14266376 -0.046929624 -0.3090035 0.13615283 0.20351967 0.1606174
0.0441896 -0.21189873 0.12202467 -0.13380687 0.20230065 -0.037536256 0.027609278 0.08005564

sequential/conv2d_2/Conv2D/ReadVariableOp:0_cp1 f4 [24, 1, 3, 1]
00000000: 8b63 02be 1412 edbe b09e 40bf 95ec 78be
00000010: 2d0f 1dbf 0c3e 8ebf cc50 88be efd6 2ebf
00000020: b408 70bf 4c2b 943e ce05 203f 0c3e 8e3f
00000030: 10a8 bdbe 125d d53d c02c bc3f d0ba b73e
00000040: 10a8 bd3e 8b63 823e 741b 6a3f 9337 e13e
00000050: cc50 083f ac34 913f 0c3e 8e3d 2d0f 1dbf
00000060: 2d0f 1d3f d424 673f ac34 113f 10a8 bd3c
00000070: ce05 a03e 0c3e 0e3f 0c3e 0e3f ac34 113f
00000080: 8d18 9a3e 0ef3 a5bd 8b63 823e 5cb9 8f3f
00000090: 1412 6d3e 2b5a 053f 3179 4c3f cc50 083f
000000a0: 95ec f83e 8fcd 313e d6d9 fe3e ce05 203f
000000b0: 2fc4 343f 2b5a 853f cc50 883e 1412 6dbe
000000c0: 524a 5b3f 5095 c33e 8fcd b1be 10a8 bd3e
000000d0: 2b5a 053f 8b63 023f 70b1 3a3f 2b5a 053f
000000e0: 9182 c93e d0ba b7be 4ee0 2b3f 0c3e 8e3f
000000f0: 125d 55be 10a8 3dbd 95ec 783f 8d18 1a3f
00000100: 4c2b 143f 10a8 bdbc 8b63 823e 95ec f83e
00000110: b09e 403f 2b5a 053f 95ec 783e 8b63 82be
-0.12733285 -0.46302855 -0.7524214 -0.24308999 -0.6135128 -1.1112685 -0.26624143 -0.6829671
-0.9376328 0.28939283 0.6250886 1.1112685 -0.37042284 0.104181424 1.4701157 0.35884714
0.37042284 0.2546657 0.9144814 0.43987712 0.53248286 1.1344199 0.06945428 -0.6135128
0.6135128 0.9029057 0.56720996 0.023151428 0.3125443 0.55563426 0.55563426 0.56720996
0.30096856 -0.08103 0.2546657 1.1228442 0.23151428 0.5209071 0.79872423 0.53248286
0.48617998 0.1736357 0.4977557 0.6250886 0.7061185 1.0418142 0.26624143 -0.23151428
0.8566028 0.38199854 -0.3472714 0.37042284 0.5209071 0.5093314 0.72927 0.5209071
0.39357427 -0.35884714 0.67139137 1.1112685 -0.20836285 -0.046302855 0.97235996 0.6019371
0.57878566 -0.023151428 0.2546657 0.48617998 0.7524214 0.5209071 0.24308999 -0.2546657

Zero_5 f4 [24]
00000000: 1f4c 17bd aca3 153d 691f b0bd b6f9 19be
00000010: bd7d 04bd 8253 8b3d 367e 533c e5b8 48bd
00000020: 35f6 dbbd 2e61 2bbd 37c7 fd3d 9122 32bd
00000030: ec80 96be 6714 f83d 0e64 3d3e 37cb 163e
00000040: 3c3f 613d 1acd 56be 42ac aa3d 5001 03be
00000050: 0ed3 433e 27e2 febc a6ac 643c 1214 733d
-0.03693783 0.036533043 -0.08599741 -0.15036663 -0.032346476 0.06803037 0.012908509 -0.049004454
-0.1074032 -0.041840725 0.12391513 -0.043489996 -0.29395235 0.121132664 0.18495199 0.14725958
0.054991946 -0.20976678 0.08333637 -0.1279347 0.1912348 -0.031113697 0.013957178 0.059345312

sequential/conv2d_2/Conv2D/ReadVariableOp:0_cp2 f4 [24, 1, 1, 3]
00000000: ba65 9bbe 3b62 dfbe b2d0 50bf 0e87 5a3f
00000010: ba65 1bbe ba65 1bbf ba65 9bbe e0ab 55be
00000020: ef2e 9a3f 43f7 a93e 161c 253f 283f 423f
00000030: 9a66 0a3f e0ab 553e f3ce f23e 43f7 a93e
00000040: e840 203f 03f9 073f 31d4 0c3f 03f9 873e
00000050: 71d2 2e3e 161c a53e e840 a03e d51d 033f
00000060: c5f3 ed3e 23f8 183f 03f9 073f 9fad 333f
00000070: da64 2c3f 6c8b 053f da64 2c3f fb63 3d3f
00000080: 7fae 223f 2e86 6b3f 3eb0 003f e0ab 553e
00000090: 283f 423d c5f3 ed3e 5c61 703f 00ab 663f
000000a0: 9718 e93c f3ce 72be d2cf 613f f3ce 723e
000000b0: ba65 9b3c 0840 313f 6c8b 053f 5eaf 113f
000000c0: 31d4 8c3e 9a66 0a3f e840 203f 9718 693e
000000d0: 0840 313f d2cf 613f 161c 25bf e0ab d53d
000000e0: 3eb0 803f 6c8b 053f 0e87 da3e 283f c23e
000000f0: 09e7 813f 43f7 293f 84f5 4b3f ad89 273f
00000100: f51c 143f c741 0f3f 64f6 3a3f c741 0f3f
00000110: 84f5 4b3e 8c8a 963e d51d 833e f3ce 723e
-0.3035105 -0.4362963 -0.81568444 0.8536233 -0.15175524 -0.607021 -0.3035105 -0.20866346
1.2045573 0.33196458 0.6449598 0.7587762 0.5406281 0.20866346 0.47423515 0.33196458
0.6259904 0.53114337 0.5501128 0.26557168 0.17072465 0.3224799 0.3129952 0.51217395
0.46475044 0.59753627 0.53114337 0.701868 0.6734139 0.52165866 0.6734139 0.73980683
0.6354751 0.92001617 0.50268924 0.20866346 0.04742351 0.46475044 0.9389856 0.90104675
0.028454108 -0.23711757 0.88207734 0.23711757 0.018969405 0.6923833 0.52165866 0.56908214
0.2750564 0.5406281 0.6259904 0.22763287 0.6923833 0.88207734 -0.6449598 0.10433173
1.0053785 0.52165866 0.42681164 0.3793881 1.0148631 0.66392916 0.796715 0.6544445
0.57856685 0.55959743 0.7303221 0.55959743 0.19917876 0.29402578 0.25608698 0.23711757

sequential/conv2d_2/Conv2D/ReadVariableOp:0_cp3 f4 [64, 24, 1, 1]
00000000: ae3e bf3e 3efe fe3d d4fe a9be d4fe 293e
00000010: 761e 5fbf ddae a43f 64be e9be 3efe febe
00000020: 16cf 84bf d4fe 29bd 9cde 49bf 3efe 7ebe
00000030: 0c1f 0abf c19e b4bf d4fe a93d fabe 94be
00000040: 1177 07c0 897e 54be d4fe 29bf 897e 543e
00000050: fabe 943e d4fe 293f d4fe a93e d6aa a840
00000060: 3efe febd d4fe a93d 0000 0000 e75e 1f3f
00000070: 3efe febd d4fe a93e e75e 1f3f fabe 143f
00000080: d4fe a9bd e75e 1fbf d4fe a93f ae3e bfbe
00000090: d4fe a9bd 897e 543f 897e 54be e75e 1fbf
000000a0: 9cde c93f 3efe febe 897e 543e 897e 54be
000000b0: 897e 54be fabe 143f fabe 14bf fabe 1440
000000c0: 0000 0000 3efe febd 3efe fe3d d4fe 29be
000000d0: d4fe a9bd 897e 543e d4fe a9bd d4fe 293e
000000e0: 897e 54be 897e 543e 3efe fe3d 3efe 7e3e
000000f0: 0000 0000 fabe 94be d4fe 29bd 0000 0000
00000100: d4fe 29bd 3efe fe3d d4fe a93d 0000 0000
00000110: 3efe febd 0000 0000 d4fe a93d ae3e bf3e
00000120: 80ce d93f d4fe a93d d4fe 29bd ae3e bfbf
00000130: 64be 69bf fabe 94be 0000 0000 897e 54be
00000140: d4fe 29bf 0000 0000 3efe 7ebe fabe 94be
00000150: 3efe 7e3e d4fe a9bf d4fe a9be c19e 34bf
00000160: b8ee b9bf e75e 1fbf 897e d4be ae3e 3f3f
00000170: 0c1f 0a3f 897e 54be 64be 69bf fabe 143f
00000180: d4fe 293e 9cde 493f d4fe 293d 9cde 493f
00000190: d4fe 293f d4fe a9bf c19e b4bf d4fe a9bd
000001a0: 0c1f 0abf d4fe 29be d4fe a93e 036f 8f3f
000001b0: 3efe febe 64be e9be ae3e bf3e fabe 943f
000001c0: 3efe fe3e 761e 5f3f d4fe 29be 0c1f 8abf
000001d0: 3efe fe3d 80ce d9bf b8ee b93f 9786 4cc0
000001e0: fe16 12c0 fabe 143f 16cf 843f d4fe a93d
000001f0: 922e cfbf d4fe 2940 515e 743f d4fe 293d
00000200: a58e c43f 1a27 0240 fabe 943e 897e 543f
00000210: 3efe 7e3e d4fe 293f d4fe a93e 64be e9be
00000220: d4fe a93e d4fe a9bd d4fe 293e 9cde 49bf
00000230: 3efe febe 47ae f93f d4fe a9be 47ae f93f
00000240: 3efe fe3d d4fe 293e d4fe a9bd 0000 0000
00000250: fabe 943e 3efe 7e3e d4fe a9bd d4fe a9be
00000260: d4fe a9bd fabe 943e ae3e bf3e 897e 54be
00000270: 0000 0000 3efe 7ebe 0000 0000 d4fe a9bd
00000280: 3efe 7ebe 0000 0000 3efe febd 3efe fe3d
00000290: 3efe fe3d 3efe fe3d 0000 0000 3efe fe3d
000002a0: e75e 1fbf 897e 54be d4fe a9bd 3efe fe3e
000002b0: 64be 693f b8ee b93f 0c1f 0a3f d4fe a93d
000002c0: 3efe fe3d 16cf 84bf d4fe 293d d4fe a93d
000002d0: d4fe 29be e75e 1f3f 16cf 0440 fabe 943e
000002e0: ae3e 3f3f 761e 5f3f 3efe 7e3e 897e d4be
000002f0: 3efe 7ebe d4fe 29bd 897e 543f a58e c4bf
00000300: f00e 1ac0 897e 543f fabe 943e d4fe 293f
00000310: ae3e bfbe 761e df3f d4fe 293e 3efe fe3e
00000320: d4fe a9be 897e 543f 64be 69bf d4fe a93f
00000330: ae3e 3fbf f00e 9a3f 761e 5f3f 0000 0000
00000340: 897e d4be 64be e93e c19e 343f fabe 94be
00000350: 897e d43e 80ce d93f d4fe a93f a58e c43f
00000360: 897e 543f d4fe a9be 761e 5f3f 0c1f 8abf
00000370: fabe 14c0 0c1f 8abf d4fe 29bf ae3e bfbe
00000380: 3efe 7e3e d4fe 29bd d4fe 29bd ae3e bfbe
00000390: 3efe febd fabe 943e d4fe 29be 0000 0000
000003a0: d4fe 29bf 0000 0000 d4fe 29bd 897e 543e
000003b0: d4fe 293d d4fe 293f fabe 94be 897e d4be
000003c0: 897e 54bf 0c1f 0a3f 897e 54be d4fe a93e
000003d0: 3efe 7ebf 0000 0000 0c1f 8abf 0c1f 0a3f
000003e0: 3efe 7e3e 16cf 0440 64be e93e 64be 693f
000003f0: fabe 143f c19e b43f 897e 54be 3efe 7e3e
0.37352508 0.124508366 -0.3320223 0.16601115 -0.87155855 1.2865864 -0.4565307 -0.49803346
-1.0375698 -0.04150279 -0.788553 -0.24901673 -0.53953624 -1.4110948 0.08300558 -0.29051954
-2.1166422 -0.20751394 -0.6640446 0.20751394 0.29051954 0.6640446 0.3320223 5.270854
-0.124508366 0.08300558 0.0 0.62254184 -0.124508366 0.3320223 0.62254184 0.5810391
-0.08300558 -0.62254184 1.3280892 -0.37352508 -0.08300558 0.8300558 -0.20751394 -0.62254184
1.577106 -0.49803346 0.20751394 -0.20751394 -0.20751394 0.5810391 -0.5810391 2.3241563
0.0 -0.124508366 0.124508366 -0.16601115 -0.08300558 0.20751394 -0.08300558 0.16601115
-0.20751394 0.20751394 0.124508366 0.24901673 0.0 -0.29051954 -0.04150279 0.0
-0.04150279 0.124508366 0.08300558 0.0 -0.124508366 0.0 0.08300558 0.37352508
1.7016144 0.08300558 -0.04150279 -1.4941003 -0.9130614 -0.29051954 0.0 -0.20751394
-0.6640446 0.0 -0.24901673 -0.29051954 0.24901673 -1.3280892 -0.3320223 -0.7055474
-1.4525976 -0.62254184 -0.4150279 0.74705017 0.53953624 -0.20751394 -0.9130614 0.5810391
0.16601115 0.788553 0.04150279 0.788553 0.6640446 -1.3280892 -1.4110948 -0.08300558
-0.53953624 -0.16601115 0.3320223 1.1205753 -0.49803346 -0.4565307 0.37352508 1.1620781
0.49803346 0.87155855 -0.16601115 -1.0790725 0.124508366 -1.7016144 1.4525976 -3.1957147
-2.2826533 0.5810391 1.0375698 0.08300558 -1.6186087 2.6561785 0.95456415 0.04150279
1.5356032 2.0336366 0.29051954 0.8300558 0.24901673 0.6640446 0.3320223 -0.4565307
0.3320223 -0.08300558 0.16601115 -0.788553 -0.49803346 1.950631 -0.3320223 1.950631
0.124508366 0.16601115 -0.08300558 0.0 0.29051954 0.24901673 -0.08300558 -0.3320223
-0.08300558 0.29051954 0.37352508 -0.20751394 0.0 -0.24901673 0.0 -0.08300558
-0.24901673 0.0 -0.124508366 0.124508366 0.124508366 0.124508366 0.0 0.124508366
-0.62254184 -0.20751394 -0.08300558 0.49803346 0.9130614 1.4525976 0.53953624 0.08300558
0.124508366 -1.0375698 0.04150279 0.08300558 -0.16601115 0.62254184 2.0751395 0.29051954
0.74705017 0.87155855 0.24901673 -0.4150279 -0.24901673 -0.04150279 0.8300558 -1.5356032
-2.4071617 0.8300558 0.29051954 0.6640446 -0.37352508 1.7431171 0.16601115 0.49803346
-0.3320223 0.8300558 -0.9130614 1.3280892 -0.74705017 1.2035809 0.87155855 0.0
-0.4150279 0.4565307 0.7055474 -0.29051954 0.4150279 1.7016144 1.3280892 1.5356032
0.8300558 -0.3320223 0.87155855 -1.0790725 -2.3241563 -1.0790725 -0.6640446 -0.37352508
0.24901673 -0.04150279 -0.04150279 -0.37352508 -0.124508366 0.29051954 -0.16601115 0.0
-0.6640446 0.0 -0.04150279 0.20751394 0.04150279 0.6640446 -0.29051954 -0.4150279
-0.8300558 0.53953624 -0.20751394 0.3320223 -0.9960669 0.0 -1.0790725 0.53953624
0.24901673 2.0751395 0.4565307 0.9130614 0.5810391 1.4110948 -0.20751394 0.24901673

Zero_6 f4 [4]
00000000: a58e c03e 62fd d9be 58a2 0c3c 96cc 00bf
0.3760883 -0.42576128 0.008583628 -0.50312173

sequential/conv2d/Conv2D/ReadVariableOp:0_cp0 f4 [4, 3, 1, 1]
00000000: d0a3 f7be f689 33bf 8471 30bf 6d90 c43f
00000010: 5ed8 8c3f c8c7 5b3f 7c95 143d ea72 71bf
00000020: ea72 713f 9f40 2a3f d1f0 8f3f 56af 583f
-0.48367167 -0.70132387 -0.6892321 1.5356575 1.100353 0.85851717 0.036275372 -0.9431597
0.9431597 0.66504854 1.1245366 0.8464254

Zero_7 f4 [4]
00000000: 7df9 c4be d136 60bb ede3 333c fab1 01bf
-0.38471594 -0.003421236 0.010979635 -0.50662196

sequential/conv2d/Conv2D/ReadVariableOp:0_cp1 f4 [4, 1, 3, 1]
00000000: 31c5 fcbe 6977 aebf 7b5d 94be 2c15 383f
00000010: ddcc db3d 954b 61bf 491a 223f 8d84 7f3f
00000020: c0c7 f13e 17d7 2f3e 661f 8c3f d055 b53e
-0.49369195 -1.3630191 -0.2897757 0.71907306 0.10732434 -0.88005954 0.6332136 0.9981163
0.4722271 0.17171894 1.0947082 0.35417032

Zero_8 f4 [4]
00000000: 5720 70bc 543f 773a 700c 6d3c 559d 2bbc
-0.014656148 0.0009431739 0.014468297 -0.010474523

sequential/conv2d/Conv2D/ReadVariableOp:0_cp2 f4 [4, 1, 1, 3]
00000000: 2971 473f 7d89 d8be 2971 c7be 0aef 63bd
00000010: 23ec b43f a0c2 08bd 7d89 583e 443c 5e3f
00000020: e419 283f 1ab0 55bf 6675 8ebe 512f 8a3f
0.77907044 -0.42292395 -0.38953522 -0.055647887 1.4134563 -0.033388734 0.21146198 0.8681071
0.65664506 -0.83471835 -0.27823943 1.079569

sequential/conv2d/Conv2D/ReadVariableOp:0_cp3 f4 [32, 4, 1, 1]
00000000: 5553 4b3f 9308 013f 2d3f fa3c 62af 3bbd
00000010: 62af bbbd 41c9 e23e 2d3f 7a3c 2d3f 7abc
00000020: 62af 3bbd 8395 943e 2d3f fa3c 2d3f 7abc
00000030: 2d3f 7a3c 2d3f fa3c 68dd b3be 2d3f fa3c
00000040: 2d3f fa3d 346d f23e 2d3f 7a3d 7639 243f
00000050: 4b0e 573f 62af 3bbe 47f7 da3d 62af bbbd
00000060: 7c67 9c3d 62af 3bbd 2d3f 7abc 2d3f fa3c
00000070: 2d3f fa3c 5553 4bbe 89c3 0cbe 47f7 5abe
00000080: 89c3 8c3e 0000 0000 41c9 e2be 6f0b 2c3e
00000090: 5b81 c33e 3a9b 6abe 0000 0000 2d3f fabc
000000a0: 5553 4b3e 62af 3b3d 90f1 043f 62af bb3d
000000b0: 65c6 37bf 47f7 5abe 47f7 da3d 5553 4bbe
000000c0: 2a28 7e3f 7c67 9cbe 2d3f 7abc 9308 813f
000000d0: 8395 94be 2d3f fa3d 62af 3b3d 7639 a43e
000000e0: 5b81 c33e 90f1 04bf 2d3f 7abd 5553 4b3e
000000f0: 7c67 9c3e 2d3f 7a3c 68dd b33e 6f0b 2c3e
00000100: af4a f83f 2d3f fabc 2d3f fa3c 04a1 923f
00000110: 2d3f fabc 0000 0000 6f0b 2c3f 2d3f 7a3c
00000120: 8395 943e 2d3f fabc 6f0b 2cbe 62af 3b3e
00000130: af4a f83f 2d3f 7a3d 2d3f 7abc 44e0 5e3f
00000140: 2d3f fabd 2d3f fa3c 8395 943e 62af 3bbd
00000150: 62af bbbd 62af bb3e 2d3f 7abc 2d3f fabc
00000160: 5b81 c33e 47f7 da3d 7c67 9c3e 90f1 843e
00000170: 2d3f 7a3c 2d3f 7abc 62af 3b3d 2d3f fabe
00000180: 62af bbbd 62af 3b3d 62af bbbd 47f7 5a3e
00000190: 6cf4 2fbf 2d3f fa3c 41c9 e23e 68dd b3be
000001a0: 2d3f fa3e 47f7 da3e 2d3f fa3d 47f7 5a3e
000001b0: 0bcf 8abf 2d3f 7a3c 7c67 9cbd 7f7e 18bf
000001c0: 2d3f 7abd 3a9b eabe 2d3f fa3c 6f0b ac3e
000001d0: 7f7e 18bf 0000 0000 2d3f 7a3c 89c3 8c3e
000001e0: 3784 ee3f 2d3f fa3d 47f7 5a3e 89c3 8c3f
000001f0: edff adbf 89c3 8c3e 2d3f fa3c 04a1 92bf
0.7942403 0.5040371 0.030547703 -0.045821555 -0.09164311 0.4429417 0.015273851 -0.015273851
-0.045821555 0.29020318 0.030547703 -0.015273851 0.015273851 0.030547703 -0.35129857 0.030547703
0.12219081 0.4734894 0.061095405 0.6415018 0.84006184 -0.18328622 0.10691696 -0.09164311
0.076369256 -0.045821555 -0.015273851 0.030547703 0.030547703 -0.19856007 -0.13746466 -0.21383391
0.2749293 0.0 -0.4429417 0.16801237 0.38184628 -0.22910777 0.0 -0.030547703
0.19856007 0.045821555 0.51931095 0.09164311 -0.717871 -0.21383391 0.10691696 -0.19856007
0.99280035 -0.30547702 -0.015273851 1.0080742 -0.29020318 0.12219081 0.045821555 0.3207509
0.38184628 -0.51931095 -0.061095405 0.19856007 0.30547702 0.015273851 0.35129857 0.16801237
1.9397792 -0.030547703 0.030547703 1.1455388 -0.030547703 0.0 0.67204946 0.015273851
0.29020318 -0.030547703 -0.16801237 0.18328622 1.9397792 0.061095405 -0.015273851 0.8706095
-0.12219081 0.030547703 0.29020318 -0.045821555 -0.09164311 0.36657244 -0.015273851 -0.030547703
0.38184628 0.10691696 0.30547702 0.25965548 0.015273851 -0.015273851 0.045821555 -0.48876324
-0.09164311 0.045821555 -0.09164311 0.21383391 -0.68732333 0.030547703 0.4429417 -0.35129857
0.48876324 0.42766783 0.12219081 0.21383391 -1.0844434 0.015273851 -0.076369256 -0.5956802
-0.061095405 -0.45821553 0.030547703 0.33602473 -0.5956802 0.0 0.015273851 0.2749293
1.8634099 0.12219081 0.21383391 1.0997173 -1.3593727 0.2749293 0.030547703 -1.1455388

Zero_9 f4 [26]
00000000: 5e9a 8ebd 14b4 48be 7f0f 463e 92c4 0e3d
00000010: 97a6 c83d 18a2 93bd 62df 003e 92bd 1b3e
00000020: dce5 b0bb 7c6f 07bb d718 b63d 9398 873c
00000030: b687 4a3d ce26 3ebe 9080 273c 655b 593c
00000040: 6efb 64bd 3691 273e 1f6f 023c 44c2 0b3e
00000050: d67b 27bd e16a b93c 3734 9cbd 08a7 163e
00000060: 90da 68bd b5f3 19be
-0.06963037 -0.19599944 0.19341849 0.034855433 0.097973995 -0.07208651 0.12585214 0.15209034
-0.005398495 -0.0020665815 0.088914566 0.016552245 0.04944583 -0.1856949 0.010223523 0.013266419
-0.055903845 0.16363987 0.007961064 0.13648325 -0.040889584 0.022633972 -0.07627147 0.14712155
-0.056849062 -0.15034373

sequential/dense/MatMul/ReadVariableOp:0_cp0 f4 [1024, 26]
00000000: b66b 74be 06a7 123e bc8a 8c3e 06a7 12bd
00000010: 3218 ab3d 9cdf 1ebe b66b f4bd 7d34 b1be
00000020: 51c3 98be 06a7 12bd 8afa db3e 3fde d53e
00000030: 5e89 c3bc 3218 abbd 3fde d5be 2652 80be
00000040: 5e89 c33c 5e89 433c 3218 2b3e 5e89 433e
00000050: 5e89 43bd 06a7 123e b66b f43d 2652 803e
00000060: 9cdf 1e3e 716e 86be b66b f43d 8afa 5b3e
00000070: 5e89 43bd 06a7 12bf 716e 063e b66b 743d
00000080: f4c1 cfbe d516 e23e 5e89 433d b66b 743d
00000090: 5e89 43bc 8afa 5bbe 9cdf 9ebe d516 e23e
000000a0: c850 b73e 5e89 c33d 2033 683e 716e 86be
000000b0: b66b f4be 5e89 433e b66b 74bd 2652 803e
000000c0: 06a7 92bd b66b f4bd 8afa 5b3e 3218 ab3d
000000d0: b66b 743d b66b f43d 716e 063e 0000 0000
000000e0: f4c1 4f3e 06a7 123d 5e89 43bc 0000 0000
000000f0: b66b f43d 06a7 123e 06a7 123e 5e89 433e
00000100: b66b f43d f4c1 4f3e 06a7 923d 06a7 92bd
00000110: b66b 74bd 3218 2b3e 5e89 c33d 5e89 433c
00000120: f4c1 4fbe 06a7 92bd 06a7 12be 5e89 c3bc
00000130: 5e89 433c b66b 74be 06a7 12be 3fde d5be
00000140: 5e89 433c b66b 743d b66b 743d 9cdf 9ebe
00000150: 2652 80be 4b60 03bf 51c3 98be 5e89 c33c
00000160: 136d bdbe f4c1 4f3e 5e89 433e 8afa 5bbe
00000170: 2033 68be 06a7 12bd 2652 803e 8afa 5b3e
00000180: c850 37be 51c3 183f c850 37be 716e 86be
00000190: 3218 2bbe bc8a 8c3e f4c1 4f3e 5e89 c3bd
000001a0: 51c3 98be 5e89 43bd 06a7 923e f4c1 4fbe
000001b0: 06a7 92bd 0000 0000 06a7 92bd 06a7 123d
000001c0: 7d34 b1be 06a7 92bd c850 37be a9a5 c9be
000001d0: 9cdf 1ebe f4c1 4fbe 06a7 923d f4c1 4f3e
000001e0: 5e89 433c 5e89 c33c 5e89 c33e 7d34 b13e
000001f0: b66b 74bd 06a7 923d 5e89 c33d 8afa 5bbe
00000200: 06a7 923e 8afa 5bbe c850 37be f4c1 4fbe
00000210: 06a7 12be 5e89 433e 5e89 43bd c850 37be
00000220: 8afa dbbd e7fb a4be 2033 e8be 2652 803e
00000230: 51c3 983e 06a7 923d 51c3 983e e198 0f3f
00000240: b66b f4bd f4c1 4fbe b66b 743d 3218 ab3d
00000250: 3218 2bbe 06a7 923d 8afa 5b3e 716e 063e
00000260: 5e89 c3bd bc8a 8c3e 5e89 c33e e7fb a43e
00000270: 5e89 c3bd 06a7 92be 0000 0000 5e89 433c
00000280: b66b f4bd 5e89 c33c b66b 743e b66b 74be
00000290: 06a7 92be b66b 743e 716e 063e c850 37be
000002a0: b66b 74bd 3218 ab3d 3218 2bbe 9cdf 1ebe
000002b0: 716e 06be 5e89 c33d 5e89 43bd 8afa db3d
000002c0: 5e89 433c 5e89 43bd 06a7 123d 8afa dbbd
000002d0: b66b 74bd 06a7 92bd bc8a 8cbe c2ed 213f
000002e0: 2652 803e c850 37be 2652 803e 716e 063f
000002f0: 06a7 92bd b66b 74be 136d 3dbf 716e 063e
00000300: 51c3 983e bc8a 0c3f 5e89 43bc 5e89 433e
00000310: 5826 2ebf 06a7 12bd 2652 803e 06a7 12bd
00000320: bc8a 8cbe c850 b73e 5e89 43be 9cdf 1ebe
00000330: 5e89 43bc c850 b73e 3218 2bbe 06a7 123e
00000340: 9cdf 1e3e 5e89 433d 5e89 c33e 716e 86be
00000350: f4c1 cfbe 5e89 433c 8afa 5bbe 5e89 433d
00000360: c850 b73e 5e89 43bd 5e89 c3bc 9cdf 1e3e
00000370: 3218 2bbe 3218 ab3d c850 373e 5e89 43bc
00000380: 51c3 983e 716e 063e 9cdf 9e3e 3218 abbd
00000390: 7d34 b13e 9cdf 1e3e 06a7 12bd 2033 683e
000003a0: c850 b73e b66b f43d 5e89 43bd 5e89 433c
000003b0: 2033 683e 0d0a 283f 5e89 43be b66b 743e
000003c0: 2652 00bf 716e 063e 8afa db3d 716e 063e
000003d0: 716e 06be 8afa dbbd 6b4f ee3e 3218 abbd
000003e0: 716e 863e d516 e2be 5e89 43bd 7d34 b13e
000003f0: 8afa db3e 5e89 433e b66b 74be 06a7 12bd
-0.23869213 0.14321527 0.27449596 -0.035803817 0.08354224 -0.15514988 -0.11934607 -0.34610358
-0.29836515 -0.035803817 0.42964584 0.41771123 -0.023869213 -0.08354224 -0.41771123 -0.25062674
0.023869213 0.011934606 0.16708449 0.1909537 -0.047738425 0.14321527 0.11934607 0.25062674
0.15514988 -0.26256135 0.11934607 0.21482292 -0.047738425 -0.5728611 0.13128068 0.059673034
-0.40577662 0.44158044 0.047738425 0.059673034 -0.011934606 -0.21482292 -0.31029975 0.44158044
0.3580382 0.09547685 0.22675753 -0.26256135 -0.47738427 0.1909537 -0.059673034 0.25062674
-0.071607634 -0.11934607 0.21482292 0.08354224 0.059673034 0.11934607 0.13128068 0.0
0.20288831 0.035803817 -0.011934606 0.0 0.11934607 0.14321527 0.14321527 0.1909537
0.11934607 0.20288831 0.071607634 -0.071607634 -0.059673034 0.16708449 0.09547685 0.011934606
-0.20288831 -0.071607634 -0.14321527 -0.023869213 0.011934606 -0.23869213 -0.14321527 -0.41771123
0.011934606 0.059673034 0.059673034 -0.31029975 -0.25062674 -0.51318806 -0.29836515 0.023869213
-0.3699728 0.20288831 0.1909537 -0.21482292 -0.22675753 -0.035803817 0.25062674 0.21482292
-0.1790191 0.5967303 -0.1790191 -0.26256135 -0.16708449 0.27449596 0.20288831 -0.09547685
-0.29836515 -0.047738425 0.28643054 -0.20288831 -0.071607634 0.0 -0.071607634 0.035803817
-0.34610358 -0.071607634 -0.1790191 -0.393842 -0.15514988 -0.20288831 0.071607634 0.20288831
0.011934606 0.023869213 0.3819074 0.34610358 -0.059673034 0.071607634 0.09547685 -0.21482292
0.28643054 -0.21482292 -0.1790191 -0.20288831 -0.14321527 0.1909537 -0.047738425 -0.1790191
-0.10741146 -0.32223436 -0.45351505 0.25062674 0.29836515 0.071607634 0.29836515 0.5609265
-0.11934607 -0.20288831 0.059673034 0.08354224 -0.16708449 0.071607634 0.21482292 0.13128068
-0.09547685 0.27449596 0.3819074 0.32223436 -0.09547685 -0.28643054 0.0 0.011934606
-0.11934607 0.023869213 0.23869213 -0.23869213 -0.28643054 0.23869213 0.13128068 -0.1790191
-0.059673034 0.08354224 -0.16708449 -0.15514988 -0.13128068 0.09547685 -0.047738425 0.10741146
0.011934606 -0.047738425 0.035803817 -0.10741146 -0.059673034 -0.071607634 -0.27449596 0.63253415
0.25062674 -0.1790191 0.25062674 0.5251227 -0.071607634 -0.23869213 -0.7399456 0.13128068
0.29836515 0.5489919 -0.011934606 0.1909537 -0.6802726 -0.035803817 0.25062674 -0.035803817
-0.27449596 0.3580382 -0.1909537 -0.15514988 -0.011934606 0.3580382 -0.16708449 0.14321527
0.15514988 0.047738425 0.3819074 -0.26256135 -0.40577662 0.011934606 -0.21482292 0.047738425
0.3580382 -0.047738425 -0.023869213 0.15514988 -0.16708449 0.08354224 0.1790191 -0.011934606
0.29836515 0.13128068 0.31029975 -0.08354224 0.34610358 0.15514988 -0.035803817 0.22675753
0.3580382 0.11934607 -0.047738425 0.011934606 0.22675753 0.65640336 -0.1909537 0.23869213
-0.5012535 0.13128068 0.10741146 0.13128068 -0.13128068 -0.10741146 0.46544966 -0.08354224
0.26256135 -0.44158044 -0.047738425 0.34610358 0.42964584 0.1909537 -0.23869213 -0.035803817
