dnn-models/HAR-CNN.onnx (onnx, 60289 bytes, 8 tensors)

dense/kernel/read__15 f4 [1152, 6]
000000 5f 58 aa 3d 43 fe 49 3d 35 b2 a0 3d ed 11 31 be
       0.08317637 0.04931475 0.0784649 -0.17291994
000010 6c 6a 33 3e cf 1e a9 bd 44 52 af 3d e5 e9 c5 3c
       0.17521065 -0.082578294 0.08560613 0.024159381
000020 3a 98 04 3c fd 68 13 be 3d b6 f4 3d de 46 fc bc
       0.008092934 -0.14395519 0.11948822 -0.03079551
000030 45 46 1c 3d fd e4 07 bd 61 51 02 bd 5e aa 17 be
       0.03815295 -0.033177365 -0.03181589 -0.14811084
000040 ee 11 aa 3d e5 77 85 bd 26 0d cc 3b 0e 28 d7 bb
       0.08304201 -0.06517009 0.0062271534 -0.006566054
000050 3e bc 7c bc 5a 63 90 bd ed 50 a1 3c 03 ed bb bd
       -0.01542574 -0.070502 0.019691909 -0.09176066
000060 ff e0 4a 3c e4 ea 7f bc 07 79 13 3d 57 d8 6c bd
       0.012382745 -0.015619967 0.036004093 -0.057823505
000070 1e 21 8c 3d f5 e1 33 3c 59 de e0 bb dd 14 c0 bd
       0.06842254 0.010979165 -0.0068624434 -0.09378979
000080 e2 55 12 bd e0 bd bb bd b6 fd 7f bb 3a a2 03 bd
       -0.035726435 -0.09167075 -0.0039061136 -0.032137133
000090 0c 95 38 3d fc 1c 4b bc 74 00 16 3c 30 0b 80 bc
       0.045064017 -0.012397047 0.0091553815 -0.015630335
0000a0 fe 93 98 3d f4 da 8a bc 4a 62 cd 3d d7 c3 34 3d
       0.07450102 -0.016950108 0.10028513 0.04413208
0000b0 58 91 9f 3d 9e 46 78 bd c9 ae d2 3d af 0a 98 bd
       0.07791394 -0.06061422 0.10287244 -0.07423913
0000c0 c4 97 c3 3d 4e 94 ea 3a 92 d0 5c 3d a5 ad 21 be
       0.09550431 0.0017896981 0.053909846 -0.15788896
0000d0 28 22 a2 3d 4f 7e 85 bd f5 47 8f 3d d6 8b 4b 3d
       0.07916671 -0.06518232 0.069961466 0.049693905
0000e0 77 1a b1 3d 8f c9 d0 bd 06 fc 59 bc ee c0 26 bd
       0.08647626 -0.10194694 -0.013304716 -0.040711336
0000f0 df 61 4f bc 28 d7 3a bd e3 21 0c bd e9 c2 f7 bd
       -0.012657612 -0.045615345 -0.034212004 -0.12097723
000100 1b dd b8 3d 87 24 02 bd ab f6 9c bc 06 13 43 bd
       0.090265475 -0.031773116 -0.01916059 -0.047625564
000110 54 65 1a bd d9 0d 13 bd 71 6a 12 3d 52 8d 16 bd
       -0.03769429 -0.035901878 0.03574604 -0.036755867
000120 7d c7 b1 3d 4f 14 04 bd d3 e1 02 3c b1 95 bd bd
       0.086806275 -0.03224593 0.007988411 -0.09257067
000130 36 ea 96 3c 75 ed 81 3b d9 20 94 3d 31 d6 06 bd
       0.018422227 0.0039650747 0.07232828 -0.032919113
000140 e3 9b 1a b9 95 2c 0f be 71 65 97 3c a1 c4 0a bd
       -0.00014744657 -0.1398185 0.018480988 -0.033878926
000150 74 f4 9d 3d 2d d0 16 bd d8 1f 0f 3c ad fd 5a bd
       0.07712641 -0.036819626 0.0087356195 -0.05346458
000160 a0 19 09 3e 14 41 29 bd ac 6d 32 3d c7 af f5 bc
       0.13388681 -0.04132183 0.043561623 -0.029991044
000170 20 00 9d bb 6d 89 82 bd 50 39 06 3d 62 ad 00 3d
       -0.0047912747 -0.06373868 0.0327695 0.03141535
000180 0b 56 9a 3d 66 ac 19 bd 1f 65 5d bc 88 ad 35 3e
       0.07535943 -0.037517928 -0.013512879 0.17741978
000190 01 fe 75 be 6f f0 9d 3d 02 74 aa bc 4a de 81 bb
       -0.24022676 0.07711875 -0.02080727 -0.0039632665
0001a0 cd 07 92 bb 1f 84 ee 3d 29 dc b9 bd fd 03 a5 3d
       -0.0044564963 0.11646294 -0.09075195 0.08057401
0001b0 63 58 b2 bc a3 9e dd 3c 30 cb 1c bd a1 be 02 3e
       -0.021770662 0.027053183 -0.038279712 0.12768032
0001c0 1d f3 0b be 54 20 5f 3d c9 e8 d9 3c 2f a6 5c bd
       -0.13666959 0.05447419 0.026600258 -0.053869423
0001d0 41 e6 a2 bb 9e 58 84 3d d2 93 7f bd b5 7b 17 3c
       -0.004971296 0.06462215 -0.06239683 0.009245803
0001e0 ac 9b a5 3d 88 c2 4c 3d d0 a7 19 bd 81 1d 04 3d
       0.08086333 0.049990207 -0.037513554 0.0322547
0001f0 30 99 c2 3b e7 e1 8a bc 56 12 a1 bc ea 90 5d bb
       0.0059386715 -0.016953422 -0.019662064 -0.00338083
000200 01 e5 80 bd f4 ca b5 3d 3d 5e 4c bd ea e8 81 3d
       -0.06293679 0.08876601 -0.04989456 0.06343253
000210 10 29 1f bd 94 aa 2d 3d c5 80 07 3b 05 cf fb bc
       -0.03885752 0.042399004 0.0020676118 -0.030738363
000220 89 7a 3f bd 12 6d 19 bd f0 ae 0f 3b c0 28 0e 3d
       -0.046747718 -0.037457533 0.002192434 0.03470683
000230 f5 81 9f bc e9 06 2e 3d 4a ab 0d be 5d 3b 0f 3c
       -0.019471148 0.04248706 -0.13834873 0.008742181
000240 e6 2d c9 bb e7 51 70 3d a7 6f 27 bd 01 11 08 3e
       -0.0061395047 0.05867186 -0.040877964 0.13287736
000250 6b 8c 6f be 2c 8b 9a bc c6 61 29 3c 6f f4 71 bd
       -0.23393409 -0.01886519 0.010338252 -0.059071
000260 4d 27 21 3d 0d 25 30 3e c0 81 66 be 78 02 00 3c
       0.03934412 0.17201634 -0.22510433 0.007813089
000270 a0 da 42 bc de 45 05 3c cc a0 e8 bc 4c 2d 27 3d
       -0.011892945 0.008134333 -0.028396986 0.040814683
000280 c4 ef e7 bd a7 9f a9 bd b7 ee 95 3d df 10 eb 3c
       -0.113250285 -0.082824044 0.07320922 0.028694568
000290 45 4b 91 3d 14 94 a7 bd 79 2c 19 3b ea 4f 40 bd
       0.07094435 -0.081825405 0.0023372455 -0.046951212
0002a0 6f 2a af 3d 0b 08 c0 3c c0 ba a9 ba 58 96 fd 3b
       0.085530154 0.023441335 -0.0012949333 0.0077388696
0002b0 cb a9 10 bd 34 03 94 3b 5d 6f 63 bc 73 5f 71 bd
       -0.035318177 0.0045169834 -0.013881532 -0.058928918
0002c0 1e 8e 29 bd 05 b7 fe bb 37 53 4d bd 4b 91 da 3a
       -0.0413953 -0.0077732825 -0.050128188 0.0016675381
0002d0 bb c3 92 3d 05 2f 3d bd 06 65 ab 3c e7 bc 79 3d
       0.07166239 -0.04618742 0.020922195 0.060971167
0002e0 8b fe a9 bd 34 a8 95 bd 53 de fb b9 06 3c 2d 3a
       -0.08300503 -0.07307473 -0.00048040095 0.00066083705
0002f0 18 7b 2b 3c db cb 14 3e b4 65 14 be b8 40 5b 3d
       0.01046636 0.1453089 -0.14491922 0.053528517
000300 85 86 6a bd 0e 4b 3b 3d de c0 06 be f9 b9 d2 3d
       -0.057257194 0.045725875 -0.1315951 0.10289378
000310 13 0a f8 3d a2 15 2a be a0 af 8c bd b8 ad c8 bc
       0.121112965 -0.16609815 -0.06869435 -0.024496898
000320 dd d9 2d be f7 ea d3 3d 93 c2 e1 3d e4 40 63 bd
       -0.1697764 0.1034755 0.1102344 -0.055481806
000330 73 23 49 bd 56 34 0f bd 6e 30 ea bd 1d 0c a3 3d
       -0.049106073 -0.03496202 -0.114350185 0.07961295
000340 8d 61 ac 3d 0f eb 26 be ad 53 75 bd 5f 8f 28 bd
       0.08417044 -0.16300605 -0.059894253 -0.041152354
000350 14 92 3e be 0b 35 2c 3d 5e 9b 44 3d 6f 17 1d be
       -0.18610412 0.042042773 0.047999732 -0.1534097
000360 cc bd ec bc 3e a4 da bc e6 7e 0c be 47 26 73 3d
       -0.028899096 -0.026689645 -0.13720283 0.059362676
000370 f0 c4 76 3d 34 a7 f7 bd 3f 77 b3 bd 5e b6 58 bc
       0.060246408 -0.12092438 -0.08762979 -0.0132270735
000380 b3 29 47 be a7 34 05 3e da 03 fd 3d ea 2a 54 bd
       -0.194495 0.13008367 0.1235425 -0.05179874
000390 bb 39 4f bd 78 67 09 3d 9c a8 41 be cc 73 18 3d
       -0.050592165 0.03354594 -0.18911976 0.037219808
0003a0 f8 62 19 3d 17 46 e0 bd 8d e3 04 bd e7 c1 f5 3c
       0.0374479 -0.109508686 -0.03244357 0.029999686
0003b0 0d 56 fa bd 3d 26 86 3d 68 c7 80 3d 76 ff 4e bd
       -0.12223444 0.06550262 0.06288034 -0.050536595
0003c0 74 69 a9 bd 13 3a a1 bb f0 1a 1e be 58 f2 64 3d
       -0.08272067 -0.004920253 -0.15439963 0.05589518
0003d0 11 9b 55 3d 6f 8f 12 bd c2 42 50 bd 31 c6 73 bc
       0.052149836 -0.03578132 -0.050844915 -0.0148787955
0003e0 b7 a7 1c be f9 d8 9f 3d 12 98 b2 3d 1b 8c 79 bd
       -0.15298353 0.07805056 0.08720411 -0.06092463
0003f0 75 43 b4 bc 99 90 9c 3c c8 a2 17 be 59 c3 e8 3d
       -0.022004822 0.019111918 -0.1480819 0.113653846

dense/bias/read__16 f4 [6]
000000 e3 1a 95 bd ac 42 6c bd fd b4 42 bd b6 81 5c 3d
       -0.07280519 -0.05768077 -0.047535885 0.05383464
000010 08 81 41 3d e4 08 3c bc
       0.047242194 -0.011476729

conv1d_2/conv1d/ExpandDims_1__10 f4 [72, 36, 1, 2]
000000 7c 72 06 bc fc 28 1e be 47 44 7e bc bb 24 13 be
       -0.008206006 -0.15445322 -0.015519208 -0.1436948
000010 5e 35 dc 3d 31 2d b7 bd 65 1d 0f 3e ee 98 e0 3d
       0.107523665 -0.089441665 0.13976057 0.10966669
000020 9f 0d 2f 3e 30 8e 38 3e ab c8 3d 3d 8c 45 79 3d
       0.1709504 0.1802299 0.04633395 0.06085734
000030 75 df d2 3d ff cf 2c 3d d5 48 fe bc 59 9f 38 3e
       0.10296527 0.042190548 -0.031040588 0.18029536
000040 3d 41 97 3d d3 85 02 3e 31 05 4d 3d da bf 1e be
       0.0738549 0.12746362 0.05005378 -0.15502873
000050 34 9f 05 bd 09 10 48 3e 1a 0a 1d bd 28 af 67 be
       -0.03262253 0.19537367 -0.03833971 -0.2262541
000060 36 59 9e be 44 78 43 be 96 81 7a ba 67 03 71 3d
       -0.30927438 -0.19088846 -0.0009556053 0.058841135
000070 3b 03 03 bd 41 85 67 3d 5d ba ac bd 3c 38 7d bd
       -0.031985503 0.056523565 -0.084339835 -0.061821207
000080 74 9b 9c 3c 22 8e 93 3e 60 19 df 3c 7c 44 20 3e
       0.019117095 0.28819376 0.02723378 0.15651125
000090 d0 24 5a be 09 8e e8 bd aa 94 e0 3d c6 7d fe 3d
       -0.21303105 -0.11355216 0.109658554 0.12426333
0000a0 99 6d 89 be f1 ae c3 bb 67 85 9e bc db 70 f6 bb
       -0.2684143 -0.0059717824 -0.01935072 -0.0075207776
0000b0 61 4c c8 3c 93 dc 47 3a 29 2f b1 3d 86 ea 97 3d
       0.024450483 0.00076241157 0.08651573 0.07417779
0000c0 c7 50 44 be 22 ee 9e bd 11 1c e9 bd fe 6d 9b 3d
       -0.19171439 -0.07760264 -0.11382306 0.07589339
0000d0 6e de ad 3c 9d 3e bf bc b9 4f 05 be 47 c1 08 3e
       0.021224227 -0.023345286 -0.13018693 0.1335498
0000e0 bd 17 21 be 81 82 31 3e f9 c9 48 be aa 28 4d 3c
       -0.15731712 0.1733494 -0.19608296 0.012521902
0000f0 d6 e4 8d 3b ba e4 29 be b3 f2 ca 3d e9 b2 e8 bd
       0.004330258 -0.16591159 0.099095725 -0.113622494
000100 ca 3c 33 3c 67 e6 3c 3d b8 a2 e1 3d ec cf 8f 3d
       0.010939786 0.046118166 0.11017364 0.0702208
000110 a5 ad 8a 3d 58 d7 82 bd 1c ab 80 be 95 09 5d bb
       0.06771401 -0.0638873 -0.25130546 -0.0033727635
000120 60 24 d1 3d 13 74 c9 3d e8 20 b4 bd 94 a4 de 3d
       0.10212016 0.098365925 -0.08795339 0.108712345
000130 bc 63 be bd 16 58 9a bd 43 a5 f9 bc 3e 18 14 be
       -0.092963666 -0.07536332 -0.03047431 -0.14462373
000140 fb 7a 54 3d 4c 84 a8 3c e4 7a 1a 3e 88 4b 63 bd
       0.051875096 0.020570897 0.15085942 -0.055491954
000150 f6 8f 9e 3d 71 ea dd bd 56 87 ad 3c 66 a0 81 3c
       0.07742302 -0.10835732 0.021182697 0.015823554
000160 c1 ca 56 3d 43 0b 0c 3e 20 d9 ff 3d d5 5a c8 bd
       0.052439455 0.13676171 0.12492585 -0.0978295
000170 e3 d5 ec 3d 3e f5 02 3e 9a c0 1c be 74 22 06 be
       0.11564233 0.12788865 -0.15307847 -0.1309908
000180 50 53 20 bc 0f cd 29 be 09 01 3a 3d be 9a bc bd
       -0.009785488 -0.1658213 0.045411143 -0.09209202
000190 8c fd 84 3e 0a 87 4d 3e 7d bf 49 bd 15 89 1d bc
       0.2597469 0.20071045 -0.049254883 -0.009615202
0001a0 c7 85 92 3a 97 94 19 3d 33 4a eb 3c 38 36 45 be
       0.0011178785 0.037495222 0.028721904 -0.19258964
0001b0 ad 6b 88 bd 70 70 78 bc 96 27 74 3c 9a 46 9c bd
       -0.066611625 -0.015163526 0.014902016 -0.07630654
0001c0 4f b3 73 bd b3 ef 51 3e 07 6f 3a be 0b a4 b2 bd
       -0.059497174 0.20501594 -0.18206416 -0.08722695
0001d0 95 80 0f bd e9 4a 3d 3e 74 fb eb bd 3e 1d 6e 3d
       -0.035034735 0.18485607 -0.1152257 0.058133356
0001e0 13 e0 a4 3c 1e 8e 48 3e ac 17 0a be e2 0e 9e bd
       0.020126378 0.19585463 -0.13485593 -0.077176824
0001f0 be 53 88 3d bc 80 59 3e e1 ff 17 be 30 65 bd bd
       0.066565976 0.21240515 -0.14843704 -0.092478156
000200 fe 2b da 3d 04 44 a2 bd eb 58 f8 3c 89 eb be bc
       0.10652922 -0.07923129 0.030315837 -0.023305671
000210 d3 42 b2 3c f1 75 20 3e 67 a0 6d bd ec e4 fe bc
       0.02176038 0.15669991 -0.0580143 -0.031115018
000220 82 47 e5 3d b5 ed f4 3d f9 39 d3 bd bf 99 a5 3c
       0.1119528 0.119594015 -0.10313792 0.020214913
000230 71 c3 dc 3d 72 fa fa 3d ed 4c b0 3d c5 fb 30 3d
       0.10779465 0.122548 0.086084224 0.043208856
000240 95 69 ea bd 7b 7e 5a bd 22 31 ed 3d ce aa 3f 3e
       -0.114459194 -0.053343277 0.11581637 0.187175
000250 34 ba 93 bd cf 21 4c 3b 46 0b ce bd 4f e5 2a 3c
       -0.0721325 0.0031148081 -0.10060744 0.010430648
000260 10 13 72 3d 23 c8 81 3d c8 3f 5f be 01 4c 5e be
       0.05910021 0.06337001 -0.21801674 -0.2170868
000270 87 26 b0 bd 79 43 25 bd fe c9 e0 bd 04 30 41 be
       -0.086010985 -0.04034755 -0.10976027 -0.18865973
000280 94 ab f3 bd d1 b9 78 3b ea b6 16 3d 2f f0 30 be
       -0.1189796 0.0037952552 0.036795534 -0.17279123
000290 a0 9b 44 bc 4e ec 4d bd 37 8f a7 3d 7b 5d 6b bc
       -0.0119999945 -0.050274186 0.08181613 -0.014365549
0002a0 62 03 b2 bd 41 dd 6e be 92 d2 55 3e c3 2e 65 bd
       -0.086920515 -0.23326589 0.20881107 -0.0559528
0002b0 d9 97 25 bd e2 03 09 3e e1 53 59 3e bc 9c 1b 3e
       -0.040428016 0.13380387 0.21223404 0.15196508
0002c0 bd 74 3d be 23 58 31 be d8 cf 02 be 25 bb e5 bd
       -0.18501563 -0.17318778 -0.12774599 -0.112173356
0002d0 62 20 86 be 24 2c 2f be d7 b6 0f bd 0b 9c d6 3d
       -0.2619658 -0.17106682 -0.03508648 0.104789816
0002e0 d4 62 29 3e 9d 6c 56 3e 7b fa fb bc 26 35 48 bd
       0.16541606 0.2093987 -0.030759087 -0.04887881
0002f0 0b 64 33 3e 3e a8 bb 3c 33 c2 76 3e c3 38 33 bd
       0.17518632 0.022907373 0.24097519 -0.043755304
000300 70 b3 bb bd 16 f5 20 be 08 c2 56 ba de 99 75 3d
       -0.09165084 -0.15718493 -0.0008192365 0.059961192
000310 6f 35 a9 3c 15 89 76 bc 96 88 aa bb 4d f7 d4 3d
       0.020655362 -0.015047331 -0.0052042706 0.103987314
000320 d6 91 9f be cd c2 8e be a6 64 22 ba 57 ee 12 3e
       -0.31165951 -0.27882996 -0.00061948074 0.14348732
000330 dd c3 82 bd 5f 48 73 3e c1 99 6d be a7 cf e4 bd
       -0.06385014 0.23758076 -0.23203184 -0.11172419
000340 47 83 87 bd 53 45 5a bc 27 1f 92 3e 50 68 6d 3d
       -0.06616836 -0.013322192 0.28539392 0.05796081
000350 36 36 f7 3d ce d3 90 bd c9 9a 5a bd 2d ad 50 be
       0.12070887 -0.070716485 -0.05337027 -0.20378561
000360 af f7 e0 3d 7e 8c 12 3e c1 36 41 be 32 9b 64 3b
       0.10984742 0.14311406 -0.18868543 0.0034882543
000370 9a 4a 85 bb ef ed 09 be c5 e1 e6 3d 1d fd 1d 3d
       -0.004067731 -0.1346967 0.11273531 0.038571466
000380 1b 37 87 be 7e 2c 31 be a7 da 89 3d 79 15 74 bd
       -0.2640923 -0.17302129 0.06731158 -0.05959079
000390 82 68 fb bd c9 8b 28 be 3e 5d f6 bd 45 1e 30 bd
       -0.12275793 -0.16459574 -0.12029503 -0.042997617
0003a0 33 f6 2b bd bd 48 74 3d 2a bb 52 3e 3e af 53 3e
       -0.04198284 0.05963968 0.2057921 0.20672318
0003b0 0a 10 a9 3d 47 38 24 3e 90 87 01 3e 70 82 91 3e
       0.08255012 0.16037093 0.12649369 0.28419828
0003c0 b1 87 a9 bb 98 73 95 bd 9f 9f 64 3d be 42 3a 3d
       -0.0051736464 -0.072974384 0.05581629 0.045473807
0003d0 6f e6 16 3e e8 5a a2 3d 5c 19 8e bb a8 36 61 be
       0.14736341 0.07927495 -0.004336519 -0.21993506
0003e0 55 c6 dc bd 29 46 4f ba 8d ff 49 3d 5f 9b 47 be
       -0.10780016 -0.0007906878 0.049315978 -0.19492863
0003f0 0c e4 08 be b4 28 24 be e5 06 84 bd 98 c7 82 be
       -0.13368243 -0.16031152 -0.064466275 -0.25542903

conv1d_2/Reshape__11 f4 [1, 72, 1]
000000 f1 b3 7a bd fb 47 ca 3c 6c ee ea 3d a2 18 26 bd
       -0.06120676 0.024692526 0.114712566 -0.040550835
000010 61 c1 05 bd ff db c4 3d cb 1a db 3d 62 6a 9e bd
       -0.032655124 0.096122734 0.1069847 -0.07735135
000020 54 59 38 bd 4e 9c 03 3e bb e7 0f 3d e8 f0 96 3d
       -0.045007065 0.12852594 0.035133105 0.07370168
000030 4e 7a f1 3a 62 9a 90 bd 51 4f 38 3d 93 d1 24 bd
       0.001842329 -0.07060696 0.044997517 -0.040238928
000040 b4 17 1b 3d 58 44 84 3c b0 05 a2 3d 9a 26 56 bd
       0.037864402 0.01614587 0.07911241 -0.052282907
000050 ae 32 ba bc c1 77 bf 3c 59 f1 14 bd 99 b1 d4 bc
       -0.022729244 0.023372533 -0.03636298 -0.025963591
000060 b4 b7 74 bd 9c c5 8f bd ec 38 78 3d 2a 5f b6 bd
       -0.059745505 -0.07020113 0.06060116 -0.0890487
000070 90 70 27 bd d0 25 65 bd 99 64 ac 3d 8b 01 a7 bd
       -0.040878832 -0.055944264 0.08417625 -0.08154591
000080 f6 b9 93 3d 86 21 02 bd bc ba 9f bd 42 37 b8 3c
       0.072132036 -0.03177025 -0.07799289 0.022487286
000090 3d 52 a7 bb 86 f0 db bc 59 06 c0 3c 57 6d 8c 3d
       -0.005106239 -0.026848089 0.023440527 0.068567924
0000a0 c8 bc 36 3d 3b 0e 08 bd f5 ba 46 bd c9 f7 92 3c
       0.04461363 -0.033216696 -0.04851814 0.017940419
0000b0 c1 b9 a0 3c 6a 0a 1a 3d 3b 6a 4e 3c 44 02 90 bc
       0.019619824 0.037607588 0.0125985695 -0.017579205
0000c0 fd b5 ff 3d de 5a 8e bd 15 31 6b bd c7 81 3b bd
       0.124858834 -0.06950925 -0.057419855 -0.045778062
0000d0 29 8b 8c 3d 06 31 3a bd 86 02 a6 bd e0 af d6 3d
       0.0686248 -0.04545691 -0.0810595 0.10482764
0000e0 17 d6 37 bc 05 37 a6 bd b3 38 11 bd 98 b9 48 bd
       -0.011220477 -0.08115963 -0.035454463 -0.04900512
0000f0 40 9a 1d bd 34 52 86 bd 56 6c 94 3d a2 5a 1a 3d
       -0.038477182 -0.06558648 0.07247226 0.03768409
000100 9e 80 71 bd c9 a5 b7 bd 76 06 08 bd 0f cc 11 bb
       -0.05896055 -0.08967168 -0.033209287 -0.0022246873
000110 16 04 4a bd 62 57 f3 bb 4b b3 46 3d a7 28 0e 3d
       -0.049320303 -0.0074261883 0.04851083 0.034706738

conv1d_1/conv1d/ExpandDims_1__8 f4 [36, 18, 1, 2]
000000 e8 00 6e be 84 63 9a be 9f 0a 00 be b5 09 22 3e
       -0.23242533 -0.3015405 -0.12504052 0.15824015
000010 5e 86 1a 3d 3d c1 dc bd 5f 2d 48 3e fe d9 53 be
       0.0377258 -0.10779045 0.19548558 -0.20688626
000020 d2 54 34 bc dd 20 ae bd 37 d6 20 3e 00 85 49 3d
       -0.011006551 -0.08502362 0.15706716 0.049199104
000030 6b 2b 06 3e 2a c3 83 3e ec ca 7a be 3f b8 86 3d
       0.131025 0.25734836 -0.24491471 0.06578111
000040 f6 f8 2c be b0 7e 62 bd 51 69 1e be 5e 5e 2f be
       -0.16891846 -0.0552966 -0.15469863 -0.17125842
000050 6c c5 59 3e 13 fd a3 3e 76 1e ff bd 14 42 2b 3e
       0.21266717 0.32029018 -0.12456982 0.16724426
000060 e6 b5 91 3e b6 29 09 3e e2 83 19 be 76 8a 9f 3d
       0.2845909 0.13394818 -0.14991716 0.07790081
000070 dc 95 8f 3e 65 24 83 bc ee 07 3e 3e 62 2f 74 be
       0.2804402 -0.016008565 0.18557712 -0.238462
000080 ba 6a 4f 3e 37 ff ad 3d a3 21 6c 3e 92 4c 49 3e
       0.20255557 0.08495944 0.23059706 0.19658116
000090 d8 19 a2 3e 68 b0 13 be ca 66 a6 bd 09 92 1f bd
       0.31660342 -0.14422762 -0.08125074 -0.03895763
0000a0 19 c2 ba 3d e3 81 2e bd 50 8f ce 3d 37 4c 03 3e
       0.091190524 -0.04260434 0.100859284 0.12822042
0000b0 4f 93 76 3e 6e 46 33 3e e2 84 2a bd 72 23 7a bd
       0.24079631 0.17507336 -0.041630633 -0.06106896
0000c0 fe 71 10 3e e3 e8 14 be ad 9b 1e be 49 fb 20 3e
       0.14105985 -0.14541964 -0.15489073 0.15720858
0000d0 89 3e 48 3e 5a a9 fd bd b0 32 cf 3d 37 30 45 3e
       0.19555105 -0.12385817 0.1011709 0.19256674
0000e0 8f ca 7f bd 69 9d a1 be 1e 9e 2d 3e c9 c5 e9 bd
       -0.062449034 -0.31565407 0.16954848 -0.11414678
0000f0 da fe 0a 3e fb de 23 be 5f 08 84 3d 2c 05 ab 3e
       0.1357378 -0.16003029 0.06446909 0.33402383
000100 ac 3a 3a 3e f3 de cd bd 54 fd 1c 3e c2 56 17 3d
       0.18186444 -0.1005229 0.15331012 0.036947973
000110 eb bd 4c be b4 7f 0f 3e 16 11 79 be db c4 aa be
       -0.19994323 0.14013559 -0.24322924 -0.33353314
000120 5d 9e b3 3d d3 29 43 be 70 8b 2e be 95 11 7e 3e
       0.0877044 -0.19058923 -0.17045379 0.24811395
000130 27 a7 ae bc ae 91 4c bd e7 86 8d 3c df 4a f3 3d
       -0.021319939 -0.04994362 0.01727624 0.11879515
000140 69 96 13 bb c0 21 b3 bd 7c 41 95 3e 2b 23 c3 bd
       -0.0022520071 -0.08746672 0.29151523 -0.09528192
000150 c4 57 0e 3c 7a f7 8b be 74 4d 64 bc 3f c0 0a bd
       0.008687917 -0.27337247 -0.013934482 -0.033874746
000160 d0 5a 7c 3e 00 d4 07 3e 7c 13 bb 3d 37 b9 88 be
       0.24644017 0.13264465 0.09134576 -0.26703808
000170 e2 01 f0 3d 7c ad 2d be 6f fb 22 be a8 06 6c be
       0.11719109 -0.1696071 -0.15916227 -0.23049414
000180 30 fe 1a 3d ec b1 4f be f0 97 8a 3e 40 a3 3e 3e
       0.03784007 -0.20282716 0.27069044 0.18616962
000190 ea cb 97 bd 95 03 dc bd 9e b1 21 3d 0b 2d 88 bd
       -0.074119404 -0.10742871 0.03947603 -0.06649216
0001a0 b8 b5 ec bd 47 78 41 3d f8 81 92 3e 6d 7a 12 be
       -0.115580976 0.047233846 0.28614783 -0.14304514
0001b0 e3 17 4a 3e ff ba ca bd fa a1 79 bc b5 85 ff 3d
       0.19735675 -0.09898948 -0.015236372 0.124766745
0001c0 ad b7 df bd 62 6a 29 bd c5 19 77 bc 9e 3a f2 bc
       -0.10923705 -0.04136122 -0.0150818275 -0.029568966
0001d0 71 51 93 3e d4 ce 97 3e 7f 3f 8e be d0 75 ec bc
       0.28773072 0.29649985 -0.2778282 -0.028864771
0001e0 1b 6a 8d 3d ba 52 8b 3e b8 4f b3 3d 06 0b 5d 3e
       0.06905004 0.27211553 0.087554395 0.21586236
0001f0 61 6e 04 be 44 aa 25 be c9 49 84 3d db 26 78 3e
       -0.12932731 -0.16178232 0.06459386 0.24233572
000200 2e b8 e2 bd 25 90 4a 3e 75 56 3c 3e 66 e0 20 bd
       -0.11070286 0.1978155 0.18392356 -0.039276503
000210 1e d6 61 3d 4d 60 87 bd e9 1b 59 3d ce 6f 93 3d
       0.05513584 -0.06610165 0.053005133 0.071990594
000220 e8 5e d2 bd cd d3 6e be 8a 2f 00 3e 60 eb 14 be
       -0.10272008 -0.23322983 0.12518135 -0.14542913
000230 8e 69 61 be d6 36 c7 3c 36 ce 4c 3e 98 bf 1a be
       -0.22012922 0.02431814 0.20000538 -0.1511215
000240 bc 50 ef bd 69 c4 63 be 6e 3e 53 be 30 e0 ed 3d
       -0.11685321 -0.22242893 -0.20629284 0.11615026
000250 ed 2f 4b 3c 87 55 42 bd ad 85 76 3d af 3c 2a be
       0.012401563 -0.047444846 0.060186077 -0.16624711
000260 2b 72 d5 3d 16 94 12 bd 8e 1a 00 be 75 4a 06 3d
       0.104221664 -0.035785757 -0.1251013 0.03278585
000270 20 3a 26 bd ea a5 10 bd 29 3d d8 bb fe 4f 52 3e
       -0.040582776 -0.035314478 -0.0065990877 0.20538327
000280 70 42 8f be e3 f1 82 be 68 3b 1f be 12 44 4f 3d
       -0.27980375 -0.2557517 -0.15550005 0.050602026
000290 0b b5 ac 3c 42 18 f1 bd f1 ab 9e bc c5 9f f0 3c
       0.021082422 -0.11772205 -0.019369097 0.029373059
0002a0 7a b5 a2 bd 26 5f 3b be 24 5f 86 bc b9 9c 97 3e
       -0.0794477 -0.18298015 -0.016402788 0.29611757
0002b0 0c f6 56 be f4 b7 6a be cc ca 33 3e 73 6a bb 3e
       -0.20992297 -0.22921735 0.1755783 0.36604652
0002c0 5d 5a 86 3e 29 00 54 3e 72 6d 01 be f1 89 19 bd
       0.26240817 0.20703186 -0.12639406 -0.037485067
0002d0 17 a5 8e be 16 68 18 bd e6 1b d9 3c ad 88 5e be
       -0.2786033 -0.03720864 0.02650256 -0.21731825
0002e0 c8 4b 7d 3e d5 d1 dd bc d3 b0 2d be a1 d4 e4 bd
       0.2473594 -0.027077595 -0.16961984 -0.11173368
0002f0 34 6b f7 bd 81 25 3b 3b a1 6d 93 3c c3 23 95 be
       -0.12080994 0.002855629 0.017996611 -0.29128847
000300 6d 28 00 3a 4a 3c d3 bd 70 3a 7d 3e 33 2d 62 bd
       0.00048888364 -0.103142336 0.24729323 -0.055218887
000310 ee f2 14 be 77 63 26 be f2 d4 13 3e ad 2e 8a 3e
       -0.14545795 -0.1624888 0.14436701 0.26988736
000320 bb 3e 5c 3c 14 2e cf be e5 69 25 bc 23 22 a9 bd
       0.0134426905 -0.40464842 -0.010096048 -0.08258464
000330 68 43 85 bd e7 4d 53 be fd c0 c5 3a 60 65 64 be
       -0.06506997 -0.20635186 0.0015087422 -0.22304296
000340 b7 ff 80 be 86 76 c9 bd 9e 6a 36 3d 18 6f 89 3e
       -0.25195095 -0.0983706 0.04453527 0.2684257
000350 97 e7 d9 3d 85 d7 a0 3d 8e 4a 97 3e 22 72 92 bd
       0.106398754 0.07853607 0.29549068 -0.07150675
000360 f7 0a ac 3e f5 46 ab 3d 87 80 2b be ea ba 32 3e
       0.33602116 0.08363143 -0.16748248 0.17454115
000370 8c 69 e8 bc fb 95 11 3d 1d fc 0e 3e 7b e2 5d bd
       -0.028370641 0.035543423 0.13963361 -0.054171067
000380 12 df 46 3e 13 d7 f8 3d 38 0f 1e 3d 89 50 30 be
       0.19421032 0.12150397 0.038588732 -0.17218222
000390 3a a9 9a 3d 94 3a 73 be 10 7b 21 3c 69 f0 1d 3e
       0.07551809 -0.23752815 0.009856001 0.1542374
0003a0 db 28 3b bd a6 96 23 be 39 fd 9a 3e 51 4f d0 bc
       -0.04569326 -0.15975437 0.3027132 -0.025428446
0003b0 6b 0d b2 3c 61 fa 86 3e 9c 6f 9f 3d fa 96 3b 3e
       0.021734914 0.263629 0.0778496 0.18319312
0003c0 41 cc 89 3e 95 c2 8a 3e c1 d4 d8 bc 7d ba 50 3e
       0.26913646 0.2710158 -0.026468636 0.2038364
0003d0 e7 15 5d 3e 34 a1 3d 3e 65 89 04 be 9e 77 af bd
       0.21590386 0.18518525 -0.12943037 -0.08567737
0003e0 98 bd 48 be 0c 99 9c bd d9 0a 1c bd 0d 5d 98 3d
       -0.19603574 -0.07646379 -0.038096283 0.07439623
0003f0 0c d8 cd 3e 37 f6 be 3d a8 82 5b 3e c7 e8 11 bd
       0.40203893 0.093243055 0.2143656 -0.035622384

conv1d_1/Reshape__9 f4 [1, 36, 1]
000000 01 15 76 bd 91 2a 88 3d b0 02 78 bc 13 b7 9c bd
       -0.060078625 0.06648744 -0.0151373595 -0.07652106
000010 ea 0e 86 bd 36 e9 97 bd 2b 83 31 3d 07 47 fc bd
       -0.065458134 -0.07417528 0.043337982 -0.12318235
000020 de 7b df bd 9b 76 82 bd cc 02 6c bd 4c 26 7b 3d
       -0.10912298 -0.063702784 -0.057619855 0.06131582
000030 70 e7 5b bd c0 04 ce 3d 4f 5d 64 bd f6 38 ec 3d
       -0.053687513 0.100595 -0.05575305 0.11534302
000040 08 4c c9 bd cc 36 15 bd 94 67 c2 bc 23 e4 3b 3d
       -0.09828955 -0.03642921 -0.02373103 0.045871865
000050 87 e9 90 3d e7 0f bb bc 54 ec 67 bd 4e 15 de 3d
       0.07075792 -0.022834731 -0.056621864 0.10843907
000060 21 35 ba 3c 9f 41 9e 3d f0 38 a4 b9 43 16 d3 bc
       0.022730412 0.0772736 -0.0003132294 -0.025767451
000070 21 db 72 bd 0b b6 b1 3d d0 0f ed 3d 7c 67 19 bd
       -0.05929101 0.086773 0.115752816 -0.037452206
000080 8b d8 d8 bd 81 27 d6 3d 9a 78 57 3d ac 2f 62 bd
       -0.10588177 0.104567535 0.05260525 -0.055221245

conv1d/conv1d/ExpandDims_1__6 f4 [18, 9, 1, 2]
000000 91 84 13 3e 27 08 9a 3d 3c 91 5b be 29 55 a1 3e
       0.14406039 0.07521086 -0.21442121 0.31510285
000010 16 e3 f4 bc 42 43 9a bd a9 20 2c 3e bb b1 e7 3e
       -0.02989344 -0.0753236 0.16809334 0.45252785
000020 cb 2d 8b 3d 56 0c 38 bc 5b 1d 5f 3e d8 d8 21 be
       0.06795844 -0.01123341 0.21788542 -0.15805376
000030 c8 16 c0 bd 3a b8 d8 3c f8 1e 14 be f6 bb 78 be
       -0.09379345 0.026455034 -0.14464939 -0.24290451
000040 2c 94 f5 3e f4 0c 44 3e 61 cd a9 3e 25 2c 0a 3e
       0.4796461 0.19145566 0.33164504 0.13493402
000050 3e ae 11 be 1c e5 ee 3d 85 dc 9f be bf da 94 be
       -0.14226624 0.11664793 -0.3122293 -0.2907314
000060 b7 d6 18 bf d4 9d b8 be fc 4d 13 be 14 1a 0c 3d
       -0.5970263 -0.36057913 -0.14385217 0.034204558
000070 65 9c 31 3d ea fa 0d 3e c2 24 40 3e c5 dd 29 be
       0.04336204 0.13865247 0.18764022 -0.16588505
000080 22 b3 89 bc 01 8a 96 be c5 21 69 bd 95 1f 9c 3d
       -0.01680905 -0.29402164 -0.05691697 0.07623211
000090 d5 c3 eb 3d 90 e5 4d 3e 43 15 25 be ac fd 3a 3e
       0.11511961 0.20107102 -0.16121392 0.1826083
0000a0 2a 04 99 be 82 d4 db bd 30 db 4d 3e 96 ed f5 bd
       -0.2988599 -0.10733892 0.20103145 -0.120082065
0000b0 1a 57 eb 3d 0d da 47 3e e2 9f aa 3e 6e 40 2b 3e
       0.11491223 0.19516774 0.33325106 0.16723797
0000c0 7c b6 79 3e 15 b2 80 3e 61 81 cf 3e 7d 0f 66 3e
       0.24386019 0.25135866 0.40528396 0.22466846
0000d0 9c 45 47 be 5e 28 72 3e 7c 12 a8 be 37 98 ab bd
       -0.19460148 0.23648211 -0.32826602 -0.08378642
0000e0 15 b3 db 3d 5d 61 52 3e 4f ae d3 3e 71 b3 9e be
       0.107275166 0.20544954 0.41343924 -0.30996278
0000f0 fd d0 94 bd 6f 5c 71 3e e4 0f c7 3b 12 2d 9e 3e
       -0.07266424 0.23570417 0.0060748924 0.3089376
000100 7b 39 0e be 4a 0d 23 3e 8a 3b cd 3e 69 68 ab bd
       -0.13889115 0.15923038 0.40084487 -0.08369524
000110 e6 10 7f be ef 1a e8 bd cb 2d 38 3e 61 d7 d1 be
       -0.2490879 -0.11333262 0.17986219 -0.40984634
000120 0c 63 67 3e 27 ac 82 3e af b8 fd 3c 5c c3 0d 3e
       0.22596377 0.25521967 0.030971853 0.13844055
000130 d0 3c 82 3e c7 08 2d bd 64 a4 b7 3d ea dc 43 3e
       0.2543702 -0.0422447 0.08966902 0.19127241
000140 ee e9 a1 bd 00 8d 4c be eb d5 c1 3d 32 6c 2f be
       -0.07905947 -0.19975662 0.0946463 -0.17131117
000150 76 73 8a 3e 44 c9 a9 3e 05 e4 69 3e b1 ac cc 3d
       0.27041215 0.33161366 0.22840889 0.09993876
000160 01 2e 6c 3d 8c 2b 8c 3e 02 c9 c3 be 3d 4e db be
       0.05766106 0.27376974 -0.38239294 -0.4283313
000170 9e 79 b1 3c ae ef 2f be 8c a5 76 be d0 bc cb 3d
       0.021664437 -0.17181274 -0.24086589 0.099481225
000180 1d 6b 50 3e 7c 23 52 be f3 16 01 3e d8 45 5e 3e
       0.2035336 -0.20521349 0.1260641 0.21706331
000190 6e b5 17 3d 7b fa 5e bd 36 ee 80 3e bc 02 2e 3e
       0.03703826 -0.054438096 0.2518174 0.1699323
0001a0 14 f1 0b be 09 15 d1 be 50 3b 99 be c4 ac 25 3e
       -0.13666183 -0.4083636 -0.29928064 0.16179186
0001b0 53 fe 86 3e f3 c8 4e 3e fb bf d9 bd 50 a7 b4 3d
       0.2636591 0.20193844 -0.106323205 0.08820975
0001c0 ca 98 a4 3d 49 f5 7c be 6c 2c 7e 3e 8c dc b0 bd
       0.08036955 -0.24702944 0.24821633 -0.08635816
0001d0 77 08 83 bd 9c 37 17 bd a2 af 0a 3e 89 b8 3d be
       -0.06398099 -0.036918268 0.13543561 -0.18527426
0001e0 d0 73 87 3e 37 ec 41 3e 88 11 6b be e9 a4 95 be
       0.26455545 0.18937765 -0.22955906 -0.2922738
0001f0 5f 03 6c 3e 95 1c fc 3e 5e cc fd 3e 87 76 bb 3c
       0.23048161 0.49240556 0.49569982 0.022883667
000200 7a 7e 96 be 9f 58 da 3d e8 65 cf be 0f c3 54 3e
       -0.2939337 0.106614344 -0.40507436 0.20777534
000210 76 ac 96 3e 01 91 18 be 00 ba ea 3e b8 34 a2 3e
       0.29428452 -0.14899065 0.45845032 0.31680846
000220 9a 43 66 3d 67 56 65 be 67 41 b6 3d bd c6 1b 3e
       0.056216814 -0.22396241 0.08899193 0.15212531
000230 7e b3 05 be 2a e9 2a 3d a2 00 90 be 37 0f 32 be
       -0.13056752 0.04172627 -0.28125483 -0.17388617
000240 e9 82 8a bd 7b 8a 25 bd 4d ea aa 3d ba 2e 81 be
       -0.067632504 -0.04041527 0.083454706 -0.25230962
000250 b9 26 cc 3e 4e a2 07 be d8 7e 97 3e 8f 0d cc 3d
       0.39873293 -0.13245508 0.29588962 0.099635236
000260 22 c3 54 3e 76 2b f8 bd 68 3f 47 3e 62 1a bc 3e
       0.20777562 -0.121176645 0.19457781 0.36738878
000270 03 49 41 3c e3 46 0d 3e 2f 6b a4 be b5 c0 cc be
       0.0117971925 0.13796572 -0.32113025 -0.39990774
000280 f8 f6 0f 3d 3a 44 82 3c c3 8b 9f 3e f4 1b 3f 3d
       0.035147637 0.015901674 0.31161317 0.046657518
000290 0c 2f 22 bd 4f 56 8f 3c df 36 29 be 73 04 e7 3e
       -0.03959565 0.01749721 -0.16524838 0.45120582
0002a0 6f c4 61 be 7f cb 8e 3e 70 dc 42 3d 92 4d 80 be
       -0.2204759 0.2788963 0.047573507 -0.2505918
0002b0 d9 c5 39 be 52 0e 96 be d1 2e 8c 3e b7 02 84 3e
       -0.18141879 -0.293078 0.27379468 0.2578332
0002c0 25 2c f8 bd de 1e 58 3c 93 54 d9 3e 30 d3 74 3e
       -0.12117795 0.013190953 0.42447338 0.23908687
0002d0 e5 7e 1c be 2f c1 f9 3d ec c6 08 3e 09 56 eb 3d
       -0.15282781 0.1219505 0.13357133 0.11491019
0002e0 e5 67 f3 bd 7f b8 3f 3d f4 9e 70 3d 4d b2 c2 3d
       -0.11885051 0.04680681 0.05874534 0.095066644
0002f0 c8 38 3e be cb 4f 2e 3d ab 6a 8c 3e 72 d1 5c 3e
       -0.18576348 0.042556565 0.2742513 0.21564272
000300 d1 c6 c1 be c5 db bc be a1 49 bd 3e c9 47 bf 3e
       -0.37846997 -0.3688642 0.36970237 0.37359455
000310 79 d8 8a be 86 4c 84 be 1f a7 37 be 99 af 9f be
       -0.2711828 -0.25839633 -0.17934845 -0.31188658
000320 47 ff 9d 3d 72 6c c6 3d 9e 1b 62 be 40 10 29 3d
       0.07714706 0.09688653 -0.22080848 0.041275263
000330 dc 12 54 3e 84 0a 93 3e e7 a0 95 3d 71 62 d5 be
       0.2071032 0.2871896 0.0730608 -0.41676667
000340 9b 58 f0 3e 7e f6 d3 3e 41 75 9c 3e 3b 69 18 be
       0.469426 0.41398996 0.30558208 -0.14883892
000350 5b 43 96 3e d8 f4 c0 3e 4d 72 97 3e 1d e6 42 3d
       0.29348263 0.376868 0.29579392 0.047582734
000360 f3 c7 f7 bc 5e 43 e4 be d1 67 a8 3d 3a c5 98 3d
       -0.03024671 -0.44582647 0.082229264 0.07459493
000370 e3 d5 8b 3e 70 6f d1 3d 3c 91 82 be 99 59 a5 be
       0.2731162 0.10226333 -0.2550143 -0.3229492
000380 d2 74 8c 3e 01 41 e2 bd e3 df 88 3e 8b aa 2a be
       0.27432877 -0.11047555 0.26733312 -0.1666662
000390 6e 0d e9 be 3f fd 87 be 6d c8 fb bd 54 0f 15 bd
       -0.4551806 -0.265604 -0.122940876 -0.03639157
0003a0 bf 24 75 bd 26 6e 41 3e ef d9 af 3b 56 d6 e9 3c
       -0.059849497 0.18889675 0.005366556 0.028544586
0003b0 ef cb a2 3e 1e b0 a8 be ed ca a5 3e db 38 7e be
       0.31796214 -0.32946867 0.32381383 -0.24826376
0003c0 be 67 3b 3e f8 ad 88 be 2b b9 60 be 03 89 a8 3e
       0.18301293 -0.26695228 -0.21945636 0.32917032
0003d0 7e 05 0c bd 90 0b 3a be 97 dd 98 bc e3 fc 94 3e
       -0.034184925 -0.18168473 -0.01866035 0.29099187
0003e0 92 6e ca 3e cb f1 af 3e f6 a6 55 3e 18 a8 34 be
       0.39537483 0.3436416 0.20864472 -0.17642248
0003f0 d2 b9 42 3e ad 01 7e be e1 41 8b 3e 94 fc 7b 3e
       0.19016197 -0.24805327 0.271987 0.2460807

conv1d/Reshape__7 f4 [1, 18, 1]
000000 15 92 b0 3d d3 cb 02 be 56 42 df 3d a4 c0 e7 3d
       0.08621613 -0.12773065 0.109013245 0.1131604
000010 b9 47 43 3d f0 d7 ce 3d 83 d5 28 bc b4 d2 93 3d
       0.047675822 0.100997806 -0.010304811 0.07217923
000020 c3 a3 13 3d 4c 8c 0c 3d ad ca bd 3d f3 b7 0c 3e
       0.036044847 0.034313485 0.09267173 0.13742046
000030 00 a3 da 3b 6d 2d ae 3d 52 07 01 3e 15 96 dd 3d
       0.006672263 0.08504758 0.12600449 0.108196415
000040 9a aa 28 bd e5 e4 a7 bd
       -0.041178323 -0.08197955
