dnn-models/HAR-CNN-cp-fractal.onnx (onnx, 31279 bytes, 16 tensors)

dense/bias/read__16 f4 [6]
0.04703752 -0.18819012 -0.25429803 0.049766112 0.07869744 0.18767297
00000000: 6aaa 403d e9b4 40be 5a33 82be 8dd7 4b3d
00000010: 202c a13d 582d 403e

conv1d_2/Reshape__11 f4 [1, 72, 1]
-0.06120676 0.024692526 0.114712566 -0.040550835 -0.032655124 0.096122734 0.1069847 -0.07735135
-0.045007065 0.12852594 0.035133105 0.07370168 0.001842329 -0.07060696 0.044997517 -0.040238928
0.037864402 0.01614587 0.07911241 -0.052282907 -0.022729244 0.023372533 -0.03636298 -0.025963591
-0.059745505 -0.07020113 0.06060116 -0.0890487 -0.040878832 -0.055944264 0.08417625 -0.08154591
0.072132036 -0.03177025 -0.07799289 0.022487286 -0.005106239 -0.026848089 0.023440527 0.068567924
0.04461363 -0.033216696 -0.04851814 0.017940419 0.019619824 0.037607588 0.0125985695 -0.017579205
0.124858834 -0.06950925 -0.057419855 -0.045778062 0.0686248 -0.04545691 -0.0810595 0.10482764
-0.011220477 -0.08115963 -0.035454463 -0.04900512 -0.038477182 -0.06558648 0.07247226 0.03768409
-0.05896055 -0.08967168 -0.033209287 -0.0022246873 -0.049320303 -0.0074261883 0.04851083 0.034706738
00000000: f1b3 7abd fb47 ca3c 6cee ea3d a218 26bd
00000010: 61c1 05bd ffdb c43d cb1a db3d 626a 9ebd
00000020: 5459 38bd 4e9c 033e bbe7 0f3d e8f0 963d
00000030: 4e7a f13a 629a 90bd 514f 383d 93d1 24bd
00000040: b417 1b3d 5844 843c b005 a23d 9a26 56bd
00000050: ae32 babc c177 bf3c 59f1 14bd 99b1 d4bc
00000060: b4b7 74bd 9cc5 8fbd ec38 783d 2a5f b6bd
00000070: 9070 27bd d025 65bd 9964 ac3d 8b01 a7bd
00000080: f6b9 933d 8621 02bd bcba 9fbd 4237 b83c
00000090: 3d52 a7bb 86f0 dbbc 5906 c03c 576d 8c3d
000000a0: c8bc 363d 3b0e 08bd f5ba 46bd c9f7 923c
000000b0: c1b9 a03c 6a0a 1a3d 3b6a 4e3c 4402 90bc
000000c0: fdb5 ff3d de5a 8ebd 1531 6bbd c781 3bbd
000000d0: 298b 8c3d 0631 3abd 8602 a6bd e0af d63d
000000e0: 17d6 37bc 0537 a6bd b338 11bd 98b9 48bd
000000f0: 409a 1dbd 3452 86bd 566c 943d a25a 1a3d
00000100: 9e80 71bd c9a5 b7bd 7606 08bd 0fcc 11bb
00000110: 1604 4abd 6257 f3bb 4bb3 463d a728 0e3d

conv1d_1/Reshape__9 f4 [1, 36, 1]
-0.060078625 0.06648744 -0.0151373595 -0.07652106 -0.065458134 -0.07417528 0.043337982 -0.12318235
-0.10912298 -0.063702784 -0.057619855 0.06131582 -0.053687513 0.100595 -0.05575305 0.11534302
-0.09828955 -0.03642921 -0.02373103 0.045871865 0.07075792 -0.022834731 -0.056621864 0.10843907
0.022730412 0.0772736 -0.0003132294 -0.025767451 -0.05929101 0.086773 0.115752816 -0.037452206
-0.10588177 0.104567535 0.05260525 -0.055221245
00000000: 0115 76bd 912a 883d b002 78bc 13b7 9cbd
00000010: ea0e 86bd 36e9 97bd 2b83 313d 0747 fcbd
00000020: de7b dfbd 9b76 82bd cc02 6cbd 4c26 7b3d
00000030: 70e7 5bbd c004 ce3d 4f5d 64bd f638 ec3d
00000040: 084c c9bd cc36 15bd 9467 c2bc 23e4 3b3d
00000050: 87e9 903d e70f bbbc 54ec 67bd 4e15 de3d
00000060: 2135 ba3c 9f41 9e3d f038 a4b9 4316 d3bc
00000070: 21db 72bd 0bb6 b13d d00f ed3d 7c67 19bd
00000080: 8bd8 d8bd 8127 d63d 9a78 573d ac2f 62bd

conv1d/Reshape__7 f4 [1, 18, 1]
0.08621613 -0.12773065 0.109013245 0.1131604 0.047675822 0.100997806 -0.010304811 0.07217923
0.036044847 0.034313485 0.09267173 0.13742046 0.006672263 0.08504758 0.12600449 0.108196415
-0.041178323 -0.08197955
00000000: 1592 b03d d3cb 02be 5642 df3d a4c0 e73d
00000010: b947 433d f0d7 ce3d 83d5 28bc b4d2 933d
00000020: c3a3 133d 4c8c 0c3d adca bd3d f3b7 0c3e
00000030: 00a3 da3b 6d2d ae3d 5207 013e 1596 dd3d
00000040: 9aaa 28bd e5e4 a7bd

conv1d_2/conv1d/ExpandDims_1__10_cp0 f4 [4, 36, 1, 1]
0.037602853 -0.064462036 -0.17189875 -0.102064885 0.102064885 0.26321995 0.18264243 -0.22024527
0.24173263 0.118180394 -0.30619466 0.021487344 0.059090197 -0.021487344 -0.16115507 0.02685918
-0.21487343 0.118180394 0.037602853 0.005371836 0.32231015 -0.27933547 -0.102064885 -0.05371836
0.15578325 -0.16115507 -0.41363138 0.064462036 0.41363138 0.17727059 0.1342959 0.06983387
0.24173263 0.102064885 0.23636079 0.091321215 -0.112808555 -0.042974688 -0.22561711 0.2524763
-0.5640428 0.36528486 -0.16115507 -0.064462036 0.24173263 0.5156963 0.19875793 0.49958074
-0.1933861 -0.112808555 -0.06983387 -0.33842567 0.30619466 -0.3706567 -0.064462036 -0.19875793
-0.010743672 0.327682 -0.042974688 -0.05371836 0.016115509 0.34916934 -0.08057754 -0.112808555
0.33842567 -0.2685918 -0.15041141 -0.112808555 0.021487344 -0.20412977 -0.08057754 0.123552226
0.064462036 0.042974688 0.26321995 0.14503957 0.021487344 0.30619466 0.123552226 0.38140035
0.048346523 0.14503957 0.24710445 -0.18264243 0.27933547 -0.16115507 0.20412977 -0.24173263
0.6822232 0.15578325 0.23636079 -0.010743672 -0.2847073 0.24710445 0.010743672 -0.1342959
0.048346523 -0.15578325 0.34916934 0.09669305 0.15041141 -0.18264243 -0.10743672 -0.059090197
0.010743672 -0.2685918 0.0 0.21487343 -0.21487343 0.15041141 0.2847073 0.29007915
0.032231018 0.32231015 0.021487344 -0.1933861 0.06983387 0.30082282 0.19875793 -0.037602853
0.45660606 0.085949376 0.15041141 -0.085949376 0.655364 -0.24173263 -0.13966773 0.15041141
-0.09669305 0.18801425 -0.091321215 -0.010743672 0.032231018 0.08057754 0.02685918 0.037602853
0.2685918 0.021487344 0.16652691 -0.33305383 0.12892407 0.23636079 0.18264243 -0.059090197
00000000: 7305 1a3d ac04 84bd 3a06 30be 6507 d1bd
00000010: 6507 d13d c4c4 863e 9e06 3b3e fa87 61be
00000020: c288 773e 9008 f23d 8cc5 9cbe 3a06 b03c
00000030: 9008 723d 3a06 b0bc d605 25be c807 dc3c
00000040: c807 5cbe 9008 f23d 7305 1a3d 3a06 b03b
00000050: d605 a53e 0f05 8fbe 6507 d1bd c807 5cbd
00000060: a585 1f3e d605 25be 7ec7 d3be ac04 843d
00000070: 7ec7 d33e 6c86 353e dd84 093e 0f05 8f3d
00000080: c288 773e 6507 d13d 9008 723e 9e06 bb3d
00000090: 2c08 e7bd 3a06 30bd 2c08 67be 9344 813e
000000a0: 1c65 10bf 9e06 bb3e d605 25be ac04 84bd
000000b0: c288 773e ac04 043f 3387 4b3e 0cc9 ff3e
000000c0: 0107 46be 2c08 e7bd 0f05 8fbd 2146 adbe
000000d0: 8cc5 9c3e b7c6 bdbe ac04 84bd 3387 4bbe
000000e0: 3a06 30bc efc5 a73e 3a06 30bd c807 5cbd
000000f0: ac04 843c 53c6 b23e d605 a5bd 2c08 e7bd
00000100: 2146 ad3e dd84 89be 7305 1abe 2c08 e7bd
00000110: 3a06 b03c 6507 51be d605 a5bd f308 fd3d
00000120: ac04 843d 3a06 303d c4c4 863e 4185 143e
00000130: 3a06 b03c 8cc5 9c3e f308 fd3d e846 c33e
00000140: 0107 463d 4185 143e f308 7d3e 9e06 3bbe
00000150: 0f05 8f3e d605 25be 6507 513e c288 77be
00000160: 2ea6 2e3f a585 1f3e 9008 723e 3a06 30bc
00000170: 28c5 91be f308 7d3e 3a06 303c dd84 09be
00000180: 0107 463d a585 1fbe 53c6 b23e 0107 c63d
00000190: 7305 1a3e 9e06 3bbe c807 dcbd 9008 72bd
000001a0: 3a06 303c dd84 89be 0000 0000 c807 5c3e
000001b0: c807 5cbe 7305 1a3e 28c5 913e 4185 943e
000001c0: ac04 043d d605 a53e 3a06 b03c 0107 46be
000001d0: 0f05 8f3d 7305 9a3e 3387 4b3e 7305 1abd
000001e0: 45c8 e93e 3a06 b03d 7305 1a3e 3a06 b0bd
000001f0: efc5 273f c288 77be 0f05 0fbe 7305 1a3e
00000200: 0107 c6bd cf86 403e 9e06 bbbd 3a06 30bc
00000210: ac04 043d d605 a53d c807 dc3c 7305 1a3d
00000220: dd84 893e 3a06 b03c 0886 2a3e 0886 aabe
00000230: ac04 043e 9008 723e 9e06 3b3e 9008 72bd

conv1d_2/conv1d/ExpandDims_1__10_cp1 f4 [4, 1, 1, 2]
-0.7309967 -0.66025513 0.99824286 0.9746623 0.6681153 0.8488994 0.9903827 0.83317906
00000000: 9a22 3bbf 7b06 29bf d88c 7f3f 7883 793f
00000010: 9b09 2b3f 7951 593f b889 7d3f 394b 553f

conv1d_2/conv1d/ExpandDims_1__10_cp2 f4 [72, 4, 1, 1]
0.08002418 -0.14226522 0.124482065 0.17783152 -0.16004837 0.053349458 0.20450625 0.106698915
0.64019346 -0.053349458 -0.9247239 0.41790408 0.32009673 0.46236196 -0.293422 0.008891576
0.39122933 -0.24007255 0.16004837 0.28453043 0.524603 0.19561467 -0.9958565 0.24896413
0.4090125 -0.23118098 -0.7024345 0.48903668 0.49792826 -0.04445788 0.21339783 0.2578557
-0.293422 0.09780733 0.4001209 -0.56906086 -0.062241033 -0.3645546 -0.4356872 0.48903668
-0.2222894 0.04445788 -0.08002418 0.14226522 -0.4090125 0.34677145 0.1511568 -0.19561467
-0.21339783 -0.08891576 0.035566304 0.17783152 0.38233778 0.41790408 -0.3289883 0.08002418
-0.48903668 0.11559049 0.08002418 0.035566304 0.48903668 -0.23118098 0.04445788 0.04445788
0.8002418 -0.16004837 -0.23118098 -0.106698915 -0.4801451 0.13337363 -0.106698915 0.017783152
-0.24007255 0.026674729 0.20450625 -0.28453043 0.1511568 -0.27563885 0.14226522 0.27563885
-0.2222894 0.31120515 0.07113261 -0.07113261 -0.293422 -0.062241033 0.08891576 -0.24007255
-0.062241033 -0.124482065 0.19561467 -0.49792826 0.053349458 0.2222894 0.11559049 -0.755784
0.45347038 -0.19561467 0.2578557 0.2222894 0.14226522 -0.3023136 0.07113261 0.3023136
0.78245866 0.2578557 -0.64019346 0.14226522 -0.17783152 0.39122933 0.026674729 -0.08002418
0.4001209 -0.2578557 0.2222894 0.293422 -0.42679566 -0.053349458 0.19561467 0.28453043
0.04445788 -0.35566303 -0.42679566 0.46236196 -0.31120515 -0.07113261 0.3378799 0.3734462
0.72021765 -0.035566304 -0.14226522 -0.26674727 -0.21339783 0.24896413 0.053349458 0.035566304
-0.4801451 -0.026674729 0.1511568 0.3734462 -0.57795244 -0.16004837 0.2222894 -0.4001209
0.21339783 0.2578557 0.07113261 -0.04445788 -0.20450625 0.45347038 0.24007255 -0.20450625
-0.4001209 -0.17783152 0.27563885 -0.39122933 -0.48903668 -0.035566304 0.16893995 -0.32009673
0.86248285 -0.16004837 -0.21339783 -0.07113261 -0.3645546 -0.008891576 -0.035566304 0.09780733
0.38233778 0.16004837 -0.08002418 0.08002418 -0.293422 -0.008891576 0.4356872 -0.4356872
0.026674729 0.16004837 0.11559049 -0.008891576 -0.4445788 -0.16004837 -0.017783152 -0.20450625
-0.8091334 0.062241033 0.035566304 0.062241033 0.28453043 0.46236196 -0.106698915 -0.04445788
0.7291092 0.124482065 -1.1381217 0.34677145 -0.4445788 -0.08002418 0.3645546 0.32009673
0.6224103 0.24007255 -0.1867231 0.09780733 -0.106698915 0.4712535 0.08891576 -0.1511568
0.8002418 -0.08891576 -0.3734462 -0.08002418 -0.53349453 -0.053349458 -0.026674729 -0.1511568
0.6757598 0.3734462 -0.293422 0.07113261 -0.04445788 -0.16004837 -0.1511568 0.24007255
-0.3645546 -0.062241033 0.09780733 0.23118098 0.16004837 -0.2578557 0.4445788 0.34677145
-0.3734462 -0.17783152 0.09780733 -0.35566303 -0.16893995 0.017783152 0.64908504 -0.3734462
0.6846514 -0.13337363 -0.07113261 0.27563885 0.14226522 -0.11559049 0.32009673 -0.106698915
0.24007255 0.56906086 -0.56906086 0.035566304 -0.19561467 -0.08002418 0.24007255 -0.39122933
00000000: b8e3 a33d f9ad 11be 74f0 fe3d 7719 363e
00000010: b8e3 23be f684 5a3d 166a 513e f684 da3d
00000020: b8e3 233f f684 5abd b5ba 6cbf 86f7 d53e
00000030: b8e3 a33e b5ba ec3e 693b 96be f9ad 113c
00000040: 364f c83e 94d5 75be b8e3 233e f9ad 913e
00000050: 624c 063f 364f 483e 74f0 7ebf 74f0 7e3e
00000060: 166a d13e b5ba 6cbe bfd2 33bf 0463 fa3e
00000070: 74f0 fe3e 7719 36bd f684 5a3e aa05 843e
00000080: 693b 96be 364f c83d a6dc cc3e f9ad 11bf
00000090: 74f0 7ebd e7a6 babe 6512 dfbe 0463 fa3e
000000a0: d59f 63be 7719 363d b8e3 a3bd f9ad 113e
000000b0: 166a d1be 078c b13e d9c8 1a3e 364f 48be
000000c0: f684 5abe 7719 b6bd f9ad 113d 7719 363e
000000d0: c7c1 c33e 86f7 d53e 2871 a8be b8e3 a33d
000000e0: 0463 fabe b5ba ec3d b8e3 a33d f9ad 113d
000000f0: 0463 fa3e b5ba 6cbe 7719 363d 7719 363d
00000100: a6dc 4c3f b8e3 23be b5ba 6cbe f684 dabd
00000110: 94d5 f5be 1993 083e f684 dabd f9ad 913c
00000120: 94d5 75be f684 da3c 166a 513e f9ad 91be
00000130: d9c8 1a3e 8920 8dbe f9ad 113e 8920 8d3e
00000140: d59f 63be 4856 9f3e f9ad 913d f9ad 91bd
00000150: 693b 96be 74f0 7ebd 7719 b63d 94d5 75be
00000160: 74f0 7ebd 74f0 febd 364f 483e 74f0 febe
00000170: f684 5a3d d59f 633e b5ba ec3d 0f7b 41bf
00000180: 452d e83e 364f 48be aa05 843e d59f 633e
00000190: f9ad 113e d9c8 9abe f9ad 913d d9c8 9a3e
000001a0: 364f 483f aa05 843e b8e3 23bf f9ad 113e
000001b0: 7719 36be 364f c83e f684 da3c b8e3 a3bd
000001c0: a6dc cc3e aa05 84be d59f 633e 693b 963e
000001d0: f684 dabe f684 5abd 364f 483e f9ad 913e
000001e0: 7719 363d 7719 b6be f684 dabe b5ba ec3e
000001f0: 4856 9fbe f9ad 91bd 98fe ac3e 5734 bf3e
00000200: 2f60 383f f9ad 11bd f9ad 11be 1993 88be
00000210: f684 5abe 74f0 7e3e f684 5a3d f9ad 113d
00000220: 94d5 f5be f684 dabc d9c8 1a3e 5734 bf3e
00000230: b1f4 13bf b8e3 23be d59f 633e a6dc ccbe
00000240: f684 5a3e aa05 843e f9ad 913d 7719 36bd
00000250: 166a 51be 452d e83e 94d5 753e 166a 51be
00000260: a6dc ccbe 7719 36be 8920 8d3e 364f c8be
00000270: 0463 fabe f9ad 11bd 98fe 2c3e b8e3 a3be
00000280: adcb 5c3f b8e3 23be f684 5abe f9ad 91bd
00000290: e7a6 babe f9ad 11bc f9ad 11bd 364f c83d
000002a0: c7c1 c33e b8e3 233e b8e3 a3bd b8e3 a33d
000002b0: 693b 96be f9ad 11bc 6512 df3e 6512 dfbe
000002c0: f684 da3c b8e3 233e b5ba ec3d f9ad 11bc
000002d0: d59f e3be b8e3 23be f9ad 91bc 166a 51be
000002e0: 5e23 4fbf 74f0 7e3d f9ad 113d 74f0 7e3d
000002f0: f9ad 913e b5ba ec3e f684 dabd 7719 36bd
00000300: e7a6 3a3f 74f0 fe3d f9ad 91bf 078c b13e
00000310: d59f e3be b8e3 a3bd e7a6 ba3e b8e3 a33e
00000320: 4856 1f3f 94d5 753e 5734 3fbe 364f c83d
00000330: f684 dabd 2448 f13e 7719 b63d d9c8 1abe
00000340: a6dc 4c3f 7719 b6bd 5734 bfbe b8e3 a3bd
00000350: 1993 08bf f684 5abd f684 dabc d9c8 1abe
00000360: 98fe 2c3f 5734 bf3e 693b 96be f9ad 913d
00000370: 7719 36bd b8e3 23be d9c8 1abe 94d5 753e
00000380: e7a6 babe 74f0 7ebd 364f c83d b5ba 6c3e
00000390: b8e3 233e aa05 84be d59f e33e 078c b13e
000003a0: 5734 bfbe 7719 36be 364f c83d 7719 b6be
000003b0: 98fe 2cbe f9ad 913c 702a 263f 5734 bfbe
000003c0: 5045 2f3f 1993 08be f9ad 91bd 8920 8d3e
000003d0: f9ad 113e b5ba ecbd b8e3 a33e f684 dabd
000003e0: 94d5 753e f9ad 113f f9ad 11bf f9ad 113d
000003f0: 364f 48be b8e3 a3bd 94d5 753e 364f c8be

Zero_0 f4 [4]
-0.016860105 0.17259489 0.09993347 -0.08275874
00000000: 341e 8abc b7bc 303e eba9 cc3d 6a7d a9bd

dense/kernel/read__15_cp0 f4 [1152, 4]
-0.28255323 -0.1267867 -0.094184406 -0.028979817 -0.19561377 -0.12316422 -0.086939454 -0.03622477
-0.15938899 -0.079694495 -0.16301148 -0.010867432 -0.10505184 -0.05071468 -0.18474634 0.047092203
-0.10142936 -0.09056193 -0.079694495 -0.0072449544 -0.13040918 -0.028979817 -0.14852156 0.02535734
-0.10505184 -0.02535734 -0.097806886 -0.05071468 -0.14127661 -0.07244954 -0.14127661 -0.06882706
-0.2064812 -0.17387891 -0.16301148 -0.06158211 -0.13040918 -0.14489909 -0.17025642 -0.05071468
-0.2064812 -0.094184406 -0.11591927 0.0 -0.14127661 -0.05071468 -0.11591927 0.039847247
-0.17387891 -0.13403165 -0.13403165 -0.079694495 -0.21372615 -0.13765413 -0.13040918 -0.032602295
-0.22097111 -0.06882706 -0.094184406 -0.06158211 -0.09056193 -0.12316422 -0.05433716 -0.05433716
0.3042881 -0.05071468 -0.0036224772 -0.05433716 0.13765413 -0.02535734 0.028979817 -0.047092203
0.22097111 -0.02535734 0.0036224772 -0.018112386 0.11954175 -0.028979817 -0.05071468 -0.05433716
0.021734864 0.0072449544 -0.032602295 -0.043469727 0.09056193 -0.0072449544 0.0 -0.02535734
0.06520459 -0.09056193 -0.083316974 0.032602295 0.15214404 -0.07244954 -0.043469727 0.021734864
0.2535734 -0.043469727 -0.10867432 0.014489909 0.2680633 -0.028979817 -0.13040918 -0.014489909
0.097806886 -0.057959635 -0.13765413 0.039847247 -0.028979817 -0.13765413 -0.10505184 -0.057959635
-0.0072449544 -0.07244954 -0.09056193 -0.10505184 -0.0072449544 0.0 -0.05433716 -0.0036224772
0.032602295 0.010867432 -0.13040918 -0.0072449544 0.11229679 0.0072449544 0.039847247 -0.0036224772
-0.094184406 0.28979817 -0.06158211 0.17025642 -0.079694495 0.27530825 0.021734864 0.11591927
-0.07607202 0.26444083 -0.086939454 0.13765413 -0.06520459 0.24632844 -0.09056193 0.14852156
-0.06882706 0.2390835 -0.06520459 0.15938899 -0.07244954 0.2970431 0.05071468 0.14852156
-0.09056193 0.2535734 -0.03622477 0.16301148 -0.06158211 0.24632844 0.010867432 0.11954175
-0.05433716 0.21010368 0.06158211 0.14127661 -0.05433716 0.27893075 0.0 0.11591927
-0.06158211 0.24995093 0.043469727 0.09056193 -0.094184406 0.22821607 -0.06520459 0.15214404
-0.06520459 0.24632844 -0.02535734 0.097806886 -0.06882706 0.2970431 0.014489909 0.17025642
-0.07244954 0.2680633 -0.021734864 0.17025642 -0.032602295 0.2861757 0.0036224772 0.09056193
0.14127661 -0.043469727 0.032602295 0.094184406 0.043469727 -0.10867432 -0.06158211 0.15576652
0.05071468 -0.083316974 0.02535734 0.14489909 0.11229679 -0.15214404 0.09056193 0.14489909
0.086939454 -0.12316422 0.097806886 0.14852156 -0.018112386 -0.18474634 0.03622477 0.14127661
0.014489909 -0.20285872 0.05433716 0.14127661 -0.014489909 -0.18112385 0.014489909 0.13040918
0.0072449544 -0.21734864 0.057959635 0.079694495 0.06882706 -0.22097111 0.06158211 0.12316422
0.043469727 -0.23546101 0.07607202 0.13765413 -0.0036224772 -0.24270597 0.039847247 0.10867432
0.02535734 -0.17387891 0.032602295 0.15576652 -0.079694495 -0.24270597 -0.018112386 0.18112385
-0.11954175 -0.2861757 0.079694495 0.06882706 -0.06158211 -0.21734864 0.06158211 0.10142936
00000000: d1aa 90be 5fd4 01be c1e3 c0bd 1567 edbc
00000010: fa4e 48be 863d fcbd 500d b2bd 6d60 14bd
00000020: de36 23be de36 a3bd 7bec 26be 500d 32bc
00000030: 6b25 d7bd 32ba 4fbd 252e 3dbe c1e3 403d
00000040: 32ba cfbd 8878 b9bd de36 a3bd 1567 edbb
00000050: fc89 05be 1567 edbc 0916 18be 32ba cf3c
00000060: 6b25 d7bd 32ba cfbc fa4e c8bd 32ba 4fbd
00000070: d1aa 10be 6d60 94bd d1aa 10be 34f5 8cbd
00000080: cf6f 53be 500d 32be 7bec 26be 863d 7cbd
00000090: fc89 05be 6d60 14be b357 2ebe 32ba 4fbd
000000a0: cf6f 53be c1e3 c0bd 1567 edbd 0000 0000
000000b0: d1aa 10be 32ba 4fbd 1567 edbd de36 233d
000000c0: 500d 32be 983f 09be 983f 09be de36 a3bd
000000d0: 07db 5abe 34f5 0cbe fc89 05be fc89 05bd
000000e0: 4046 62be 34f5 8cbd c1e3 c0bd 863d 7cbd
000000f0: 8878 b9bd 863d fcbd a490 5ebd a490 5ebd
00000100: a6cb 9b3e 32ba 4fbd 1567 6dbb a490 5ebd
00000110: 34f5 0c3e 32ba cfbc 1567 ed3c c1e3 40bd
00000120: 4046 623e 32ba cfbc 1567 6d3b 6d60 94bc
00000130: 4ed2 f43d 1567 edbc 32ba 4fbd a490 5ebd
00000140: 500d b23c 1567 ed3b fc89 05bd 500d 32bd
00000150: 8878 b93d 1567 edbb 0000 0000 32ba cfbc
00000160: fc89 853d 8878 b9bd 17a2 aabd fc89 053d
00000170: a6cb 1b3e 6d60 94bd 500d 32bd 500d b23c
00000180: 5fd4 813e 500d 32bd a490 debd 1567 6d3c
00000190: 983f 893e 1567 edbc fc89 05be 1567 6dbc
000001a0: fa4e c83d 1567 6dbd 34f5 0cbe de36 233d
000001b0: 1567 edbc 34f5 0cbe 6b25 d7bd 1567 6dbd
000001c0: 1567 edbb 6d60 94bd 8878 b9bd 6b25 d7bd
000001d0: 1567 edbb 0000 0000 a490 5ebd 1567 6dbb
000001e0: fc89 053d 500d 323c fc89 05be 1567 edbb
000001f0: dcfb e53d 1567 ed3b de36 233d 1567 6dbb
00000200: c1e3 c0bd 6d60 943e 863d 7cbd b357 2e3e
00000210: de36 a3bd 34f5 8c3e 500d b23c 1567 ed3d
00000220: a6cb 9bbd ca64 873e 500d b2bd 34f5 0c3e
00000230: fc89 85bd 863d 7c3e 8878 b9bd 0916 183e
00000240: 34f5 8cbd 4ed2 743e fc89 85bd de36 233e
00000250: 6d60 94bd 0916 983e 32ba 4f3d 0916 183e
00000260: 8878 b9bd 5fd4 813e 6d60 14bd 7bec 263e
00000270: 863d 7cbd 863d 7c3e 500d 323c 4ed2 f43d
00000280: a490 5ebd 6b25 573e 863d 7c3d d1aa 103e
00000290: a490 5ebd 03d0 8e3e 0000 0000 1567 ed3d
000002a0: 863d 7cbd 23f3 7f3e 500d 323d 8878 b93d
000002b0: c1e3 c0bd 79b1 693e fc89 85bd a6cb 1b3e
000002c0: fc89 85bd 863d 7c3e 32ba cfbc fa4e c83d
000002d0: 34f5 8cbd 0916 983e 1567 6d3c b357 2e3e
000002e0: 6d60 94bd 983f 893e 500d b2bc b357 2e3e
000002f0: fc89 05bd 9f85 923e 1567 6d3b 8878 b93d
00000300: d1aa 103e 500d 32bd fc89 053d c1e3 c03d
00000310: 500d 323d a490 debd 863d 7cbd 4281 1f3e
00000320: 32ba 4f3d 17a2 aabd 32ba cf3c 6d60 143e
00000330: dcfb e53d a6cb 1bbe 8878 b93d 6d60 143e
00000340: 500d b23d 863d fcbd fa4e c83d 0916 183e
00000350: 6d60 94bc 252e 3dbe 6d60 143d d1aa 103e
00000360: 1567 6d3c 32ba 4fbe a490 5e3d d1aa 103e
00000370: 1567 6dbc 8878 39be 1567 6d3c fc89 053e
00000380: 1567 ed3b a490 5ebe 1567 6d3d de36 a33d
00000390: 34f5 8c3d 4046 62be 863d 7c3d 863d fc3d
000003a0: 500d 323d b11c 71be a6cb 9b3d 34f5 0c3e
000003b0: 1567 6dbb ea87 78be de36 233d a490 de3d
000003c0: 32ba cf3c 500d 32be fc89 053d 4281 1f3e
000003d0: de36 a3bd ea87 78be 6d60 94bc 8878 393e
000003e0: 4ed2 f4bd 9f85 92be de36 a33d 34f5 8c3d
000003f0: 863d 7cbd a490 5ebe 863d 7c3d 32ba cf3d

dense/kernel/read__15_cp1 f4 [4, 6]
-0.2542142 -0.31287903 0.31287903 0.48887348 -0.61598057 0.31287903 0.00977747 -0.1955494
-0.4497636 0.7333102 0.49865094 -0.3910988 -0.479096 0.18577193 -0.03910988 0.20532686
0.48887348 1.2417387 -0.7333102 0.27376914 -0.36176637 -0.068442285 -0.23465927 -0.27376914
00000000: 5d28 82be ae31 a0be ae31 a03e a04d fa3e
00000010: e7b0 1dbf ae31 a03e ae31 203c 1a3e 48be
00000020: 6a47 e6be 38ba 3b3f 2d4f ff3e 1a3e c8be
00000030: 124c f5be ff3a 3e3e ae31 20bd 3441 523e
00000040: a04d fa3e 4bf1 9e3f 38ba 3bbf 782b 8c3e
00000050: 7139 b9be 782b 8cbd 854a 70be 782b 8cbe

conv1d/conv1d/ExpandDims_1__6_cp0 f4 [6, 9, 1, 1]
0.28727812 -0.044887207 -0.07181953 -0.16159394 0.17057139 -0.6284209 0.33216533 -0.9426313
0.4129623 -0.34114277 0.7630825 0.70921785 0.43091717 -0.52966905 -0.062842086 -0.10772929
0.18852626 0.3231879 -0.6194434 -0.09875185 -0.17057139 0.08079697 -0.08079697 0.5206916
-0.28727812 0.1975037 -0.08079697 0.062842086 -0.4578495 -0.35909766 -0.4758044 -0.51171416
0.20648114 1.140135 -0.43091717 0.0 -0.26932323 -0.17057139 -0.2603458 -0.08079697
-0.3231879 0.37705252 0.7181953 0.24239092 0.3231879 0.062842086 0.4578495 0.17057139
0.72717273 -0.44887206 0.1526165 -0.42193973 0.35909766 -0.28727812
00000000: 1e16 933e a6db 37bd 1e16 93bd e278 25be
00000010: 44aa 2e3e 31e0 20bf 9311 aa3e 4950 71bf
00000020: cb6f d33e 44aa aebe 6059 433f 4d8f 353f
00000030: 2da1 dc3e 6498 07bf 5ab3 80bd 2da1 dcbd
00000040: 070d 413e e278 a53e d893 1ebf 693e cabd
00000050: 44aa 2ebe e278 a53d e278 a5bd 0b4c 053f
00000060: 1e16 93be 693e 4a3e e278 a5bd 5ab3 803d
00000070: 406b eabe a6db b7be a29c f3be b3ff 02bf
00000080: cb6f 533e f2ef 913f 2da1 dcbe 0000 0000
00000090: bce4 89be 44aa 2ebe 0b4c 85be e278 a5bd
000000a0: e278 a5be 070d c13e a6db 373f 5335 783e
000000b0: e278 a53e 5ab3 803d 406b ea3e 44aa 2e3e
000000c0: fe27 3a3f 8fd2 e5be 8047 1c3e 7c08 d8be
000000d0: a6db b73e 1e16 93be

conv1d/conv1d/ExpandDims_1__6_cp1 f4 [6, 1, 1, 2]
-0.59766823 -0.611731 -0.90001804 0.6187624 0.4640718 0.70313907 0.56954265 0.20391034
0.70313907 0.51329154 -0.32344398 0.45000902
00000000: c900 19bf 679a 1cbf 9567 66bf 3667 1e3f
00000010: d29a ed3e ec00 343f 8ccd 113f dfcd 503e
00000020: ec00 343f 1367 033f 739a a5be 9567 e63e

conv1d/conv1d/ExpandDims_1__6_cp2 f4 [18, 6, 1, 1]
-0.30505088 0.17046961 -0.1794417 -0.7895435 0.56524134 0.76262724 0.062804595 0.25121838
0.08074877 1.0138456 -0.50243676 -0.1794417 0.4127159 0.2422463 -0.76262724 -0.22430213
0.4665484 -0.4665484 -0.314023 -0.7895435 0.25121838 0.09869294 -0.01794417 1.1394548
0.26916257 0.07177668 -0.69085056 -0.2422463 0.47552052 0.22430213 -0.5203809 0.28710672
0.8164597 -0.008972085 -0.008972085 -0.8254318 -0.38579965 0.17046961 -0.28710672 -0.28710672
0.49346468 -0.30505088 0.05383251 0.69085056 -0.26916257 -0.10766502 -0.14355336 -0.4127159
-0.61010176 -0.15252544 0.34093922 -0.57421345 0.4665484 -0.13458128 -0.18841378 0.2960788
-0.3678555 -0.16149753 0.34991133 0.38579965 0.61010176 -0.3678555 -0.026916254 -0.17046961
-0.14355336 0.18841378 0.25121838 0.20635796 0.14355336 -0.43066007 0.83440393 0.47552052
-0.25121838 0.044860426 0.64599013 -0.2332742 -0.44860426 -0.7895435 0.39477175 -0.7446831
-0.50243676 0.08972085 0.008972085 -0.58318555 -0.18841378 0.14355336 0.10766502 -0.86132014
-0.26019046 -0.008972085 -0.40374383 -0.51140887 -0.3678555 -0.3678555 0.56524134 0.4127159
-0.50243676 -0.83440393 0.421688 0.637018 -0.637018 0.18841378 0.13458128 0.12560919
-0.529353 -0.7446831 0.1794417 0.38579965
00000000: a12f 9cbe 968f 2e3e 91bf 37be 861f 4abf
00000010: a8b3 103f 8a3b 433f b29f 803d b29f 803e
00000020: 9c5f a53d b1c5 813f b29f 00bf 91bf 37be
00000030: 804f d33e 6a0f 783e 8a3b 43bf 75af 65be
00000040: 6fdf ee3e 6fdf eebe 9fc7 a0be 861f 4abf
00000050: b29f 803e 861f ca3d a7ff 92bc a8d9 913f
00000060: adcf 893e a7ff 923d 95db 30bf 6a0f 78be
00000070: 6d77 f33e 75af 653e af37 05bf a7ff 923e
00000080: 8103 513f a7ff 12bc a7ff 12bc 804f 53bf
00000090: 8887 c5be 968f 2e3e a7ff 92be a7ff 92be
000000a0: 67a7 fc3e a12f 9cbe 7a7f 5c3d 95db 303f
000000b0: adcf 89be 7a7f dcbd a7ff 12be 804f d3be
000000c0: a12f 1cbf a12f 1cbe 968f ae3e a7ff 12bf
000000d0: 6fdf ee3e adcf 09be 8bef 40be a497 973e
000000e0: 8e57 bcbe 9c5f 25be 9427 b33e 8887 c53e
000000f0: a12f 1c3f 8e57 bcbe 7a7f dcbc 968f 2ebe
00000100: a7ff 12be 8bef 403e b29f 803e 804f 533e
00000110: a7ff 123e 7a7f dcbe 7f9b 553f 6d77 f33e
00000120: b29f 80be 91bf 373d 9c5f 253f 6fdf 6ebe
00000130: 75af e5be 861f 4abf 861f ca3e 8da3 3ebf
00000140: b29f 00bf 91bf b73d a7ff 123c a64b 15bf
00000150: 8bef 40be a7ff 123e 7a7f dc3d 7a7f 5cbf
00000160: af37 85be a7ff 12bc 83b7 cebe b1eb 02bf
00000170: 8e57 bcbe 8e57 bcbe a8b3 103f 804f d33e
00000180: b29f 00bf 7f9b 55bf 7de7 d73e 9d13 233f
00000190: 9d13 23bf 8bef 403e adcf 093e b29f 003e
000001a0: ae83 07bf 8da3 3ebf 91bf 373e 8887 c53e

conv1d_1/conv1d/ExpandDims_1__8_cp0 f4 [2, 18, 1, 1]
-0.13712063 0.2797261 0.24681714 0.032908954 0.26875645 -0.16454476 0.115181334 0.4278164
-0.2139082 -0.027424127 0.076787554 -0.14809029 -0.43878603 0.08775721 -0.32908952 0.1700296
-0.071302734 -0.18648407 -0.69657284 -0.14260547 0.054848254 0.25230196 -0.5375129 0.2577868
-0.115181334 -0.14809029 0.16454476 -0.3016654 0.12066616 -0.10969651 0.24681714 0.31263506
-0.016454477 0.36748332 0.2797261 0.20293854
00000000: 5a69 0cbe 4238 8f3e a2bd 7c3e 8acb 063d
00000010: 729a 893e 6c7e 28be 31e4 eb3d c00a db3e
00000020: c00a 5bbe 90a8 e0bc cb42 9d3d fba4 17be
00000030: 90a8 e0be 0dba b33d 6c7e a8be 3d1c 2e3e
00000040: 2b07 92bd aef5 3ebe 9952 32bf 2b07 12be
00000050: 90a8 603d b92d 813e 729a 09bf a2fc 833e
00000060: 31e4 ebbd fba4 17be 6c7e 283e e373 9abe
00000070: d21f f73d 90a8 e0bd a2bd 7c3e b411 a03e
00000080: 8acb 86bc c626 bc3e 4238 8f3e 1fcf 4f3e

conv1d_1/conv1d/ExpandDims_1__8_cp1 f4 [2, 1, 1, 2]
-0.4758917 -0.76142675 -1.0073042 -0.7297006
00000000: 14a8 f3be ddec 42bf 58ef 80bf a9cd 3abf

conv1d_1/conv1d/ExpandDims_1__8_cp2 f4 [36, 2, 1, 1]
0.051404968 -0.33698812 -0.18848488 0.09709827 -0.13136825 -0.2456015 -0.39981642 0.18848488
-0.6225713 -0.25702482 -0.36554644 -0.022846652 0.1542149 0.33698812 0.11994492 -0.045693304
-0.2970065 0.13707991 -0.36554644 0.26844817 -0.7253812 -0.15992656 -0.30271813 0.25131318
0.08567495 -0.18277322 -0.09138661 0.011423326 0.36554644 0.21133153 -0.41123974 -0.31414148
-0.09709827 0.2970065 0.2456015 -0.1713499 0.5825896 -0.045693304 -0.045693304 -0.062828295
0.6568413 0.46835637 -0.5540313 0.102809936 -0.17706156 -0.21704319 -0.19990821 -0.05711663
-0.21704319 -0.54260796 -0.39981642 -0.028558316 0.48549137 0.12565659 0.051404968 0.19990821
-0.051404968 0.3426998 -0.26844817 0.1713499 -0.2627365 0.2798715 0.5711663 -0.15992656
-0.45122138 -0.034269977 -0.18848488 0.005711663 0.011423326 0.23417819 0.045693304 -0.27415982
00000000: 048e 523d b589 acbe 2e02 41be 75db c63d
00000010: 6685 06be f67e 7bbe bdb4 ccbe 2e02 413e
00000020: d560 1fbf c298 83be e728 bbbe e728 bbbc
00000030: 83ea 1d3e b589 ac3e afa5 f53d e728 3bbd
00000040: 3c11 98be ad5e 0c3e e728 bbbe 0a72 893e
00000050: 95b2 39bf cac3 23be dffd 9abe 1fac 803e
00000060: 5976 af3d e728 3bbe e728 bbbd e728 3b3c
00000070: e728 bb3e 4b67 583e 048e d2be 27d7 a0be
00000080: 75db c6bd 3c11 983e f67e 7b3e 5976 2fbe
00000090: 9824 153f e728 3bbd e728 3bbd 1fac 80bd
000000a0: c026 283f 68cc ef3e ffd4 0dbf 048e d23d
000000b0: a04f 35be 9240 5ebe bdb4 4cbe 21f3 69bd
000000c0: 9240 5ebe 5be8 0abf bdb4 ccbe 21f3 e9bc
000000d0: 5392 f83e 1fac 003e 048e 523d bdb4 4c3e
000000e0: 048e 52bd 5976 af3e 0a72 89be 5976 2f3e
000000f0: 6685 86be 514b 8f3e f437 123f cac3 23be
00000100: 7d06 e7be ad5e 0cbd 2e02 41be e728 bb3b
00000110: e728 3b3c 68cc 6f3e e728 3b3d ad5e 8cbe
