dnn-models/HAR-CNN-tucker2.onnx (onnx, 39840 bytes, 14 tensors)

dense/kernel/read__15 f4 [1152, 6]
0.13170026 0.04008269 0.051534887 -0.16033076 0.057260986 -0.23477004 0.12024807 0.022904394
-0.011452197 -0.15460466 0.022904394 -0.26912662 0.04580879 -0.03435659 -0.011452197 -0.13742636
-0.04580879 -0.3321137 0.04580879 -0.022904394 -0.011452197 -0.04580879 -0.13170026 -0.3321137
0.06298708 -0.028630493 0.022904394 -0.097343676 -0.04580879 -0.20041345 0.051534887 -0.09161758
-0.06871318 -0.16033076 -0.103069775 -0.32066151 0.13742636 -0.04008269 -0.017178295 -0.08589148
-0.04008269 -0.32066151 0.16033076 0.03435659 0.06871318 -0.13170026 -0.04008269 -0.349292
0.16605686 0.0 0.03435659 -0.30348322 -0.06871318 -0.4180052 0.17750905 0.017178295
0.04580879 -0.23477004 -0.11452197 -0.3435659 0.07443928 -0.06298708 -0.06298708 -0.23477004
-0.08589148 -0.3263876 0.06298708 -0.06871318 -0.04580879 -0.22331785 -0.13170026 -0.3321137
0.15460466 -0.051534887 0.011452197 -0.28057882 -0.108795874 -0.32066151 0.14887856 -0.017178295
-0.051534887 -0.29775712 -0.15460466 -0.3321137 0.103069775 -0.022904394 0.017178295 -0.25194833
0.011452197 -0.30920932 0.022904394 0.0057260985 0.022904394 -0.18323515 -0.097343676 -0.097343676
0.11452197 -0.09161758 0.0057260985 0.12597416 -0.29203102 0.011452197 0.0 -0.06298708
0.028630493 0.04008269 -0.13742636 0.011452197 0.0 0.017178295 -0.04008269 0.028630493
-0.18896125 0.022904394 0.017178295 -0.051534887 0.011452197 0.028630493 -0.15460466 -0.09161758
0.08589148 0.03435659 -0.017178295 -0.04008269 -0.103069775 -0.057260986 0.022904394 -0.0057260985
-0.108795874 0.051534887 -0.17750905 0.03435659 0.0 0.0057260985 0.0057260985 -0.08016538
-0.15460466 -0.097343676 0.051534887 -0.017178295 0.0 -0.051534887 -0.25194833 -0.06298708
0.07443928 -0.0057260985 -0.03435659 0.04008269 -0.3721964 -0.13170026 0.04008269 -0.057260986
0.028630493 0.08016538 -0.3263876 -0.103069775 0.022904394 -0.03435659 -0.011452197 -0.051534887
-0.22904395 -0.17178296 0.108795874 0.011452197 0.057260986 -0.17750905 -0.06298708 -0.11452197
0.097343676 0.0057260985 0.022904394 -0.09161758 -0.12597416 -0.097343676 0.04580879 -0.103069775
-0.051534887 -0.097343676 -0.16605686 -0.051534887 0.06871318 -0.04580879 0.028630493 -0.03435659
-0.20613955 -0.14315246 -0.011452197 0.0057260985 0.011452197 0.057260986 -0.17178296 0.103069775
0.0 -0.06298708 -0.25194833 0.12597416 0.12597416 -0.32066151 -0.04580879 -0.12024807
-0.25194833 0.12024807 0.11452197 -0.14887856 -0.011452197 -0.13170026 -0.22331785 0.09161758
0.103069775 -0.30920932 -0.057260986 -0.12597416 -0.28630492 0.04580879 0.07443928 -0.24049614
0.017178295 -0.09161758 -0.29775712 0.06871318 0.08016538 -0.22331785 -0.022904394 -0.108795874
-0.3263876 0.13742636 0.13742636 -0.21186565 -0.03435659 -0.06298708 -0.29203102 0.06871318
0.04008269 -0.29775712 0.03435659 -0.103069775 -0.25767443 0.06871318 0.09161758 -0.18896125
-0.04580879 -0.11452197 -0.27485272 0.08589148 0.051534887 -0.24622224 0.0057260985 -0.12024807
-0.28057882 0.11452197 0.08589148 -0.18323515 0.0057260985 -0.057260986 -0.28057882 0.13742636
00000000: 6fdc 063e bf2d 243d 3f16 533d bf2d 24be
00000010: 7f8a 6a3d 8f67 70be 9f44 f63d ffa1 bb3c
00000020: ffa1 3bbc af50 1ebe ffa1 bb3c f7ca 89be
00000030: ffa1 3b3d 7fb9 0cbd ffa1 3bbc 7fb9 0cbe
00000040: ffa1 3bbd cf0a aabe ffa1 3b3d ffa1 bbbc
00000050: ffa1 3bbc ffa1 3bbd 6fdc 06be cf0a aabe
00000060: 5fff 803d 7f8a eabc ffa1 bb3c 1f5c c7bd
00000070: ffa1 3bbd 2f39 4dbe 3f16 533d ffa1 bbbd
00000080: 7fb9 8cbd bf2d 24be 3f16 d3bd bf2d a4be
00000090: 7fb9 0c3e bf2d 24bd 7fb9 8cbc dfe7 afbd
000000a0: bf2d 24bd bf2d a4be bf2d 243e 7fb9 0c3d
000000b0: 7fb9 8c3d 6fdc 06be bf2d 24bd 67d6 b2be
000000c0: cf0a 2a3e 0000 0000 7fb9 0c3d 2762 9bbe
000000d0: 7fb9 8cbd c704 d6be efc4 353e 7fb9 8c3c
000000e0: ffa1 3b3d 8f67 70be 7f8a eabd dfe7 afbe
000000f0: 9f73 983d 5fff 80bd 5fff 80bd 8f67 70be
00000100: dfe7 afbd 471c a7be 5fff 803d 7fb9 8cbd
00000110: ffa1 3bbd 6fad 64be 6fdc 06be cf0a aabe
00000120: af50 1e3e 3f16 53bd ffa1 3b3c 07a8 8fbe
00000130: 5fd0 debd bf2d a4be 9f73 183e 7fb9 8cbc
00000140: 3f16 53bd 9f73 98be af50 1ebe cf0a aabe
00000150: 3f16 d33d ffa1 bbbc 7fb9 8c3c 5fff 80be
00000160: ffa1 3b3c af50 9ebe ffa1 bb3c ffa1 bb3b
00000170: ffa1 bb3c ffa1 3bbe 1f5c c7bd 1f5c c7bd
00000180: 7f8a ea3d ffa1 bbbd ffa1 bb3b 5fff 003e
00000190: 1785 95be ffa1 3b3c 0000 0000 5fff 80bd
000001a0: 7f8a ea3c bf2d 243d 7fb9 0cbe ffa1 3b3c
000001b0: 0000 0000 7fb9 8c3c bf2d 24bd 7f8a ea3c
000001c0: 0f7f 41be ffa1 bb3c 7fb9 8c3c 3f16 53bd
000001d0: ffa1 3b3c 7f8a ea3c af50 1ebe ffa1 bbbd
000001e0: dfe7 af3d 7fb9 0c3d 7fb9 8cbc bf2d 24bd
000001f0: 3f16 d3bd 7f8a 6abd ffa1 bb3c ffa1 bbbb
00000200: 5fd0 debd 3f16 533d efc4 35be 7fb9 0c3d
00000210: 0000 0000 ffa1 bb3b ffa1 bb3b bf2d a4bd
00000220: af50 1ebe 1f5c c7bd 3f16 533d 7fb9 8cbc
00000230: 0000 0000 3f16 53bd 5fff 80be 5fff 80bd
00000240: 9f73 983d ffa1 bbbb 7fb9 0cbd bf2d 243d
00000250: 8790 bebe 6fdc 06be bf2d 243d 7f8a 6abd
00000260: 7f8a ea3c bf2d a43d 471c a7be 3f16 d3bd
00000270: ffa1 bb3c 7fb9 0cbd ffa1 3bbc 3f16 53bd
00000280: 7f8a 6abe dfe7 2fbe 5fd0 de3d ffa1 3b3c
00000290: 7f8a 6a3d efc4 35be 5fff 80bd 7f8a eabd
000002a0: 1f5c c73d ffa1 bb3b ffa1 bb3c ffa1 bbbd
000002b0: 5fff 00be 1f5c c7bd ffa1 3b3d 3f16 d3bd
000002c0: 3f16 53bd 1f5c c7bd cf0a 2abe 3f16 53bd
000002d0: 7fb9 8c3d ffa1 3bbd 7f8a ea3c 7fb9 0cbd
000002e0: 3f16 53be 8f96 12be ffa1 3bbc ffa1 bb3b
000002f0: ffa1 3b3c 7f8a 6a3d dfe7 2fbe 3f16 d33d
00000300: 0000 0000 5fff 80bd 5fff 80be 5fff 003e
00000310: 5fff 003e bf2d a4be ffa1 3bbd 9f44 f6bd
00000320: 5fff 80be 9f44 f63d 7f8a ea3d 9f73 18be
00000330: ffa1 3bbc 6fdc 06be 6fad 64be ffa1 bb3d
00000340: 3f16 d33d af50 9ebe 7f8a 6abd 5fff 00be
00000350: 8f96 92be ffa1 3b3d 9f73 983d 9f44 76be
00000360: 7fb9 8c3c ffa1 bbbd 9f73 98be 7fb9 8c3d
00000370: bf2d a43d 6fad 64be ffa1 bbbc 5fd0 debd
00000380: 471c a7be 7fb9 0c3e 7fb9 0c3e 4ff3 58be
00000390: 7fb9 0cbd 5fff 80bd 1785 95be 7fb9 8c3d
000003a0: bf2d 243d 9f73 98be 7fb9 0c3d 3f16 d3bd
000003b0: e7ed 83be 7fb9 8c3d ffa1 bb3d 0f7f 41be
000003c0: ffa1 3bbd 7f8a eabd 7fb9 8cbe dfe7 af3d
000003d0: 3f16 533d af21 7cbe ffa1 bb3b 9f44 f6bd
000003e0: 07a8 8fbe 7f8a ea3d dfe7 af3d ffa1 3bbe
000003f0: ffa1 bb3b 7f8a 6abd 07a8 8fbe 7fb9 0c3e

dense/bias/read__16 f4 [6]
-0.119881585 -0.15320927 -0.15534821 0.045427043 0.14980233 0.13553032
00000000: 7a84 f5bd e4e2 1cbe 9a13 1fbe b511 3a3d
00000010: c865 193e 76c8 0a3e

conv1d_2/Reshape__11 f4 [1, 72, 1]
-0.06120676 0.024692526 0.114712566 -0.040550835 -0.032655124 0.096122734 0.1069847 -0.07735135
-0.045007065 0.12852594 0.035133105 0.07370168 0.001842329 -0.07060696 0.044997517 -0.040238928
0.037864402 0.01614587 0.07911241 -0.052282907 -0.022729244 0.023372533 -0.03636298 -0.025963591
-0.059745505 -0.07020113 0.06060116 -0.0890487 -0.040878832 -0.055944264 0.08417625 -0.08154591
0.072132036 -0.03177025 -0.07799289 0.022487286 -0.005106239 -0.026848089 0.023440527 0.068567924
0.04461363 -0.033216696 -0.04851814 0.017940419 0.019619824 0.037607588 0.0125985695 -0.017579205
0.124858834 -0.06950925 -0.057419855 -0.045778062 0.0686248 -0.04545691 -0.0810595 0.10482764
-0.011220477 -0.08115963 -0.035454463 -0.04900512 -0.038477182 -0.06558648 0.07247226 0.03768409
-0.05896055 -0.08967168 -0.033209287 -0.0022246873 -0.049320303 -0.0074261883 0.04851083 0.034706738
00000000: f1b3 7abd fb47 ca3c 6cee ea3d a218 26bd
00000010: 61c1 05bd ffdb c43d cb1a db3d 626a 9ebd
00000020: 5459 38bd 4e9c 033e bbe7 0f3d e8f0 963d
00000030: 4e7a f13a 629a 90bd 514f 383d 93d1 24bd
00000040: b417 1b3d 5844 843c b005 a23d 9a26 56bd
00000050: ae32 babc c177 bf3c 59f1 14bd 99b1 d4bc
00000060: b4b7 74bd 9cc5 8fbd ec38 783d 2a5f b6bd
00000070: 9070 27bd d025 65bd 9964 ac3d 8b01 a7bd
00000080: f6b9 933d 8621 02bd bcba 9fbd 4237 b83c
00000090: 3d52 a7bb 86f0 dbbc 5906 c03c 576d 8c3d
000000a0: c8bc 363d 3b0e 08bd f5ba 46bd c9f7 923c
000000b0: c1b9 a03c 6a0a 1a3d 3b6a 4e3c 4402 90bc
000000c0: fdb5 ff3d de5a 8ebd 1531 6bbd c781 3bbd
000000d0: 298b 8c3d 0631 3abd 8602 a6bd e0af d63d
000000e0: 17d6 37bc 0537 a6bd b338 11bd 98b9 48bd
000000f0: 409a 1dbd 3452 86bd 566c 943d a25a 1a3d
00000100: 9e80 71bd c9a5 b7bd 7606 08bd 0fcc 11bb
00000110: 1604 4abd 6257 f3bb 4bb3 463d a728 0e3d

conv1d_1/Reshape__9 f4 [1, 36, 1]
-0.060078625 0.06648744 -0.0151373595 -0.07652106 -0.065458134 -0.07417528 0.043337982 -0.12318235
-0.10912298 -0.063702784 -0.057619855 0.06131582 -0.053687513 0.100595 -0.05575305 0.11534302
-0.09828955 -0.03642921 -0.02373103 0.045871865 0.07075792 -0.022834731 -0.056621864 0.10843907
0.022730412 0.0772736 -0.0003132294 -0.025767451 -0.05929101 0.086773 0.115752816 -0.037452206
-0.10588177 0.104567535 0.05260525 -0.055221245
00000000: 0115 76bd 912a 883d b002 78bc 13b7 9cbd
00000010: ea0e 86bd 36e9 97bd 2b83 313d 0747 fcbd
00000020: de7b dfbd 9b76 82bd cc02 6cbd 4c26 7b3d
00000030: 70e7 5bbd c004 ce3d 4f5d 64bd f638 ec3d
00000040: 084c c9bd cc36 15bd 9467 c2bc 23e4 3b3d
00000050: 87e9 903d e70f bbbc 54ec 67bd 4e15 de3d
00000060: 2135 ba3c 9f41 9e3d f038 a4b9 4316 d3bc
00000070: 21db 72bd 0bb6 b13d d00f ed3d 7c67 19bd
00000080: 8bd8 d8bd 8127 d63d 9a78 573d ac2f 62bd

conv1d/Reshape__7 f4 [1, 18, 1]
0.08621613 -0.12773065 0.109013245 0.1131604 0.047675822 0.100997806 -0.010304811 0.07217923
0.036044847 0.034313485 0.09267173 0.13742046 0.006672263 0.08504758 0.12600449 0.108196415
-0.041178323 -0.08197955
00000000: 1592 b03d d3cb 02be 5642 df3d a4c0 e73d
00000010: b947 433d f0d7 ce3d 83d5 28bc b4d2 933d
00000020: c3a3 133d 4c8c 0c3d adca bd3d f3b7 0c3e
00000030: 00a3 da3b 6d2d ae3d 5207 013e 1596 dd3d
00000040: 9aaa 28bd e5e4 a7bd

conv1d_2/conv1d/ExpandDims_1__10_tucker0 f4 [4, 36, 1, 1]
0.1486977 -0.1103241 -0.0767472 -0.0239835 0.191868 0.287802 0.0863406 -0.41731292
0.3261756 0.0575604 -0.24463171 -0.1247142 0.1247142 -0.047967 -0.3885327 0.047967
-0.1582911 0.1678845 0.1151208 0.0383736 0.1630878 -0.2830053 -0.0527637 -0.0431703
0.26861522 -0.18227461 -0.48926342 -0.2925987 0.3309723 0.18227461 0.0863406 0.095934
0.3309723 0.1055274 0.2638185 0.1966647 -0.0767472 0.143901 0.2638185 -0.12951091
0.3597525 -0.2302416 0.0095934 0.0287802 -0.3501591 -0.3165822 0.033576902 -0.3261756
0.2782086 0.1103241 0.1726812 0.1678845 0.0047967 0.0767472 -0.2302416 0.2158515
-0.1630878 -0.0863406 -0.0239835 0.0047967 -0.0575604 -0.2782086 0.0815439 0.0767472
-0.31178552 0.1630878 0.1774779 -0.23503831 -0.0287802 0.2494284 0.0623571 -0.1630878
0.067153804 0.0383736 0.2206482 0.119917504 0.0767472 0.4125162 0.1151208 0.1966647
0.0719505 0.1630878 0.2014614 -0.1534944 0.2925987 -0.1630878 0.143901 -0.2014614
0.6091809 0.0815439 0.0863406 0.0143901 -0.25902182 0.1774779 0.0095934 -0.1774779
0.143901 -0.1486977 0.2254449 -0.0239835 0.1678845 -0.1007307 -0.0383736 -0.1391043
0.1726812 -0.13430761 0.0815439 0.1582911 0.2542251 -0.191868 -0.033576902 -0.1630878
0.18227461 -0.119917504 0.12951091 0.3453624 0.0191868 -0.2158515 -0.0815439 -0.2254449
-0.2254449 -0.1966647 0.0143901 0.0047967 -0.26861522 0.3885327 0.25902182 -0.0575604
-0.0815439 -0.095934 0.0863406 -0.067153804 0.091137305 -0.13430761 0.191868 0.047967
-0.1534944 0.0 -0.2494284 0.2638185 -0.047967 -0.31178552 -0.1678845 0.1007307
00000000: 3644 183e 9af1 e1bd a32d 9dbd 0c79 c4bc
00000010: 0c79 443e c95a 933e 57d3 b03d 0aaa d5be
00000020: 7d00 a73e 74c4 6b3d bc80 7abe 296a ffbd
00000030: 296a ff3d 0c79 44bd c2ed c6be 0c79 443d
00000040: 1017 22be eae9 2b3e 74c4 eb3d a32d 1d3d
00000050: 7d00 273e 12e6 90be c01e 58bd 57d3 30bd
00000060: ef87 893e 32a6 3abe bc80 fabe 7fcf 95be
00000070: 3475 a93e 32a6 3a3e 57d3 b03d 0c79 c43d
00000080: 3475 a93e c01e d83d 3813 873e 7962 493e
00000090: a32d 9dbd c95a 133e 3813 873e 829e 04be
000000a0: 7b31 b83e 74c4 6bbe a32d 1d3c 74c4 eb3c
000000b0: 0e48 b3be 1017 a2be ef87 093d 7d00 a7be
000000c0: 5c71 8e3e 9af1 e13d 57d3 303e eae9 2b3e
000000d0: a32d 9d3b a32d 9d3d 74c4 6bbe 2d08 5d3e
000000e0: 7d00 27be 57d3 b0bd 0c79 c4bc a32d 9d3b
000000f0: 74c4 6bbd 5c71 8ebe 7d00 a73d a32d 9d3d
00000100: 5aa2 9fbe 7d00 273e c4bc 353e e2ad 70be
00000110: 74c4 ebbc 296a 7f3e 296a 7f3d 7d00 27be
00000120: ef87 893d a32d 1d3d 9af1 613e 4f97 f53d
00000130: a32d 9d3d 5335 d33e 74c4 eb3d 7962 493e
00000140: c95a 933d 7d00 273e e64b 4e3e a32d 1dbe
00000150: 7fcf 953e 7d00 27be c95a 133e e64b 4ebe
00000160: 48f3 1b3f 7d00 a73d 57d3 b03d 74c4 6b3c
00000170: 829e 84be c4bc 353e a32d 1d3c c4bc 35be
00000180: c95a 133e 3644 18be 07db 663e 0c79 c4bc
00000190: eae9 2b3e e64b cebd a32d 1dbd 5c71 0ebe
000001a0: 57d3 303e ef87 09be 7d00 a73d 1017 223e
000001b0: cb29 823e 0c79 44be ef87 09bd 7d00 27be
000001c0: 32a6 3a3e 4f97 f5bd 829e 043e 57d3 b03e
000001d0: a32d 9d3c 2d08 5dbe 7d00 a7bd 07db 66be
000001e0: 07db 66be 7962 49be 74c4 6b3c a32d 9d3b
000001f0: ef87 89be c2ed c63e 829e 843e 74c4 6bbd
00000200: 7d00 a7bd 0c79 c4bd 57d3 b03d ef87 89bd
00000210: 32a6 ba3d ef87 09be 0c79 443e 0c79 443d
00000220: a32d 1dbe 0000 0000 296a 7fbe 3813 873e
00000230: 0c79 44bd 5aa2 9fbe eae9 2bbe e64b ce3d

conv1d_2/conv1d/ExpandDims_1__10_tucker1 f4 [4, 4, 1, 2]
2.6896849 2.4355414 -0.16942897 -0.021178622 -0.08471449 0.12707174 0.021178622 -0.042357244
0.12707174 0.06353587 -2.1178622 -1.9907905 -0.08471449 -0.12707174 0.14825036 -0.06353587
-0.12707174 0.16942897 0.14825036 0.042357244 -1.8848974 -1.9272546 -0.06353587 0.021178622
0.12707174 0.042357244 0.14825036 -0.16942897 -0.21178621 0.36003658 1.6095753 1.4613249
00000000: cc23 2c40 e9df 1b40 ca7e 2dbe ca7e adbc
00000010: ca7e adbd 181f 023e ca7e ad3c ca7e 2dbd
00000020: 181f 023e 181f 823d 0e8b 07c0 39d2 febf
00000030: ca7e adbd 181f 02be f1ce 173e 181f 82bd
00000040: 181f 02be ca7e 2d3e f1ce 173e ca7e 2d3d
00000050: 5144 f1bf 47b0 f6bf 181f 82bd ca7e ad3c
00000060: 181f 023e ca7e 2d3d f1ce 173e ca7e 2dbe
00000070: 7cde 58be b756 b83e 9006 ce3f b20c bb3f

conv1d_2/conv1d/ExpandDims_1__10_tucker2 f4 [72, 4, 1, 1]
-0.04719742 -0.101137325 -0.13147853 0.026969954 -0.06405364 -0.026969954 -0.10450857 0.033712443
-0.15844849 -0.24947208 0.303412 -0.3202682 -0.0033712443 0.42814803 -0.07753862 -0.101137325
-0.121364795 -0.20901714 -0.14159226 0.020227466 -0.060682397 0.121364795 0.289927 -0.19553217
-0.12810728 -0.33038193 0.303412 -0.36409438 -0.020227466 -0.07416737 -0.35060942 -0.08428111
0.09776609 0.11125106 -0.05393991 0.18878968 0.087652355 -0.20901714 0.14833474 -0.2123884
0.07753862 0.060682397 0.033712443 -0.11125106 0.151706 0.21913087 0.07416737 0.0
-0.04719742 -0.05393991 0.037083685 -0.09439484 0.06405364 0.33712444 -0.11125106 -0.16856222
0.14159226 0.18541844 0.04045493 -0.067424886 -0.289927 -0.15844849 0.02359871 -0.0033712443
-0.27644202 -0.033712443 0.06405364 -0.016856221 0.14159226 0.15507723 0.067424886 -0.060682397
-0.020227466 0.36409438 0.16181973 0.17867595 -0.13147853 -0.20901714 -0.1449635 0.04719742
0.11125106 0.24947208 -0.033712443 0.020227466 0.14159226 0.11462231 0.10787982 0.043826178
0.087652355 0.06405364 -0.020227466 0.22587337 -0.0067424886 0.38432184 -0.087652355 0.24947208
-0.11799355 -0.12473604 -0.17530471 0.09776609 -0.09439484 -0.21913087 -0.087652355 0.026969954
-0.22250213 0.13484977 0.2056459 -0.067424886 0.11125106 0.30004075 -0.13147853 -0.016856221
-0.11125106 -0.17530471 -0.14159226 0.05393991 0.016856221 0.02359871 -0.12810728 -0.12810728
-0.037083685 -0.21913087 0.22587337 -0.29329824 -0.037083685 -0.07079613 -0.2798133 -0.09439484
-0.0033712443 -0.07753862 0.010113733 0.16856222 -0.0067424886 0.087652355 -0.17530471 -0.16519096
0.07079613 0.02359871 -0.10787982 -0.10787982 0.14159226 0.13822101 0.121364795 0.19553217
0.033712443 0.22924462 -0.10450857 0.08090986 0.043826178 0.2359871 -0.17530471 0.060682397
0.07753862 0.1449635 0.08428111 0.31689698 0.151706 0.16856222 0.07416737 0.07416737
-0.13147853 0.09439484 0.013484977 0.24610083 0.11462231 0.04719742 0.18541844 -0.07753862
-0.24947208 0.11462231 0.020227466 -0.04719742 0.067424886 0.09776609 -0.07416737 0.13147853
-0.151706 0.11799355 -0.030341199 0.033712443 0.151706 -0.101137325 0.14833474 0.06405364
0.17530471 0.17867595 0.16181973 -0.016856221 -0.07416737 0.39106435 -0.07416737 -0.016856221
-0.09439484 0.026969954 0.32363945 -0.24610083 -0.020227466 -0.016856221 -0.25621456 -0.13484977
-0.17193346 0.15844849 -0.04045493 -0.06405364 0.091023594 0.36072314 -0.14833474 0.013484977
-0.28655577 0.08428111 0.09776609 -0.0067424886 0.15507723 0.12473604 0.15844849 0.091023594
-0.17867595 0.25621456 -0.026969954 -0.09776609 0.04719742 -0.030341199 0.057311155 -0.09439484
-0.016856221 -0.020227466 -0.05393991 -0.14159226 -0.087652355 -0.13822101 -0.24610083 0.0033712443
0.09776609 0.05393991 0.121364795 0.18204719 0.07416737 0.02359871 -0.39780682 0.31015447
-0.303412 -0.2663283 0.07753862 -0.07079613 0.0067424886 -0.06405364 -0.14159226 0.13147853
0.07416737 0.27644202 0.17193346 -0.23261586 0.060682397 0.121364795 0.0033712443 0.20901714
00000000: 1552 41bd 1621 cfbd 4fa2 06be 18f0 dc3c
00000010: 8e2e 83bd 18f0 dcbc 9708 d6bd 0f16 0a3d
00000020: 5240 22be 9c75 7fbe d158 9b3e 32fa a3be
00000030: 18f0 5cbb 3836 db3e 91cc 9ebd 1621 cfbd
00000040: 1b8e f8bd 9708 56be 90fd 10be 12b4 a53c
00000050: 1b8e 78bd 1b8e f83d 5071 943e 9639 48be
00000060: 8e2e 03be d227 a9be d158 9b3e 946a babe
00000070: 12b4 a5bc 10e5 97bd 1483 b3be 939b acbd
00000080: 9639 c83d 99d7 e33d 18f0 5cbd 1552 413e
00000090: 1483 b33d 9708 56be 10e5 173e 587c 59be
000000a0: 91cc 9e3d 1b8e 783d 0f16 0a3d 99d7 e3bd
000000b0: d158 1b3e d863 603e 10e5 973d 0000 0000
000000c0: 1552 41bd 18f0 5cbd 10e5 173d 1552 c1bd
000000d0: 8e2e 833d 939b ac3e 99d7 e3bd 939b 2cbe
000000e0: 90fd 103e 55de 3d3e 12b4 253d 0f16 8abd
000000f0: 5071 94be 5240 22be 1552 c13c 18f0 5cbb
00000100: cf89 8dbe 0f16 0abd 8e2e 833d 0f16 8abc
00000110: 90fd 103e 91cc 1e3e 0f16 8a3d 1b8e 78bd
00000120: 12b4 a5bc 946a ba3e 12b4 253e d4f6 363e
00000130: 4fa2 06be 9708 56be 5071 14be 1552 413d
00000140: 99d7 e33d 9c75 7f3e 0f16 0abd 12b4 a53c
00000150: 90fd 103e 1abf ea3d 18f0 dc3d 1483 333d
00000160: 1483 b33d 8e2e 833d 12b4 a5bc 594b 673e
00000170: 18f0 dcbb d5c5 c43e 1483 b3bd 9c75 7f3e
00000180: 9aa6 f1bd 9c75 ffbd 1483 33be 9639 c83d
00000190: 1552 c1bd d863 60be 1483 b3bd 18f0 dc3c
000001a0: 99d7 63be 0f16 0a3e d794 523e 0f16 8abd
000001b0: 99d7 e33d f19e 993e 4fa2 06be 0f16 8abc
000001c0: 99d7 e3bd 1483 33be 90fd 10be 18f0 5c3d
000001d0: 0f16 8a3c 1552 c13c 8e2e 03be 8e2e 03be
000001e0: 10e5 17bd d863 60be 594b 673e 302b 96be
000001f0: 10e5 17bd 90fd 90bd b043 8fbe 1552 c1bd
00000200: 18f0 5cbb 91cc 9ebd 12b4 253c 939b 2c3e
00000210: 18f0 dcbb 1483 b33d 1483 33be d227 29be
00000220: 90fd 903d 1552 c13c 18f0 dcbd 18f0 dcbd
00000230: 90fd 103e cf89 0d3e 1b8e f83d 9639 483e
00000240: 0f16 0a3d 1abf 6a3e 9708 d6bd 12b4 a53d
00000250: 1483 333d 9aa6 713e 1483 33be 1b8e 783d
00000260: 91cc 9e3d 5071 143e 939b ac3d 5240 a23e
00000270: d158 1b3e 939b 2c3e 10e5 973d 10e5 973d
00000280: 4fa2 06be 1552 c13d 18f0 5c3c db01 7c3e
00000290: 1abf ea3d 1552 413d 55de 3d3e 91cc 9ebd
000002a0: 9c75 7fbe 1abf ea3d 12b4 a53c 1552 41bd
000002b0: 0f16 8a3d 9639 c83d 10e5 97bd 4fa2 063e
000002c0: d158 1bbe 9aa6 f13d 1b8e f8bc 0f16 0a3d
000002d0: d158 1b3e 1621 cfbd 10e5 173e 8e2e 833d
000002e0: 1483 333e d4f6 363e 12b4 253e 0f16 8abc
000002f0: 10e5 97bd 9639 c83e 10e5 97bd 0f16 8abc
00000300: 1552 c1bd 18f0 dc3c 12b4 a53e db01 7cbe
00000310: 12b4 a5bc 0f16 8abc 8e2e 83be 0f16 0abe
00000320: 530f 30be 5240 223e 12b4 25bd 8e2e 83bd
00000330: 946a ba3d b4b0 b83e 10e5 17be 18f0 5c3c
00000340: 70b7 92be 939b ac3d 9639 c83d 18f0 dcbb
00000350: 91cc 1e3e 9c75 ff3d 5240 223e 946a ba3d
00000360: d4f6 36be 8e2e 833e 18f0 dcbc 9639 c8bd
00000370: 1552 413d 1b8e f8bc 1abf 6a3d 1552 c1bd
00000380: 0f16 8abc 12b4 a5bc 18f0 5cbd 90fd 10be
00000390: 1483 b3bd cf89 0dbe db01 7cbe 18f0 5c3b
000003a0: 9639 c83d 18f0 5c3d 1b8e f83d 946a 3a3e
000003b0: 10e5 973d 1552 c13c 56ad cbbe 91cc 9e3e
000003c0: d158 9bbe 2f5c 88be 91cc 9e3d 90fd 90bd
000003d0: 18f0 dc3b 8e2e 83bd 90fd 10be 4fa2 063e
000003e0: 10e5 973d cf89 8d3e 530f 303e da32 6ebe
000003f0: 1b8e 783d 1b8e f83d 18f0 5c3b 9708 563e

conv1d_1/conv1d/ExpandDims_1__8_tucker0 f4 [2, 18, 1, 1]
0.25995603 0.15069914 0.12055931 -0.18460645 0.42195758 -0.23735115 0.15446661 0.30516577
-0.19967636 0.13562922 0.018837392 -0.07534957 -0.3164682 -0.13186175 -0.14316419 -0.1582341
-0.25242105 -0.20721132 0.47846976 -0.07534957 -0.35791045 -0.15069914 0.011302436 0.015069914
-0.12055931 -0.2448861 0.14693166 0.25618854 -0.19590889 0.1770715 0.18460645 -0.29763082
0.30516577 -0.37674785 -0.12055931 0.18837392
00000000: f518 853e e050 1a3e cde7 f63d 7909 3dbe
00000010: d30a d83e 2e0c 73be 7f2c 1e3e b03e 9c3e
00000020: f677 4cbe 63e2 0a3e e050 9a3c e050 9abd
00000030: 1f08 a2be c406 07be a299 12be 1f08 22be
00000040: 553d 81be 342f 54be fdf9 f43e e050 9abd
00000050: 0a40 b7be e050 1abe da2d 393c cde7 763c
00000060: cde7 f6bd 6cc3 7abe 4175 163e 252b 833e
00000070: 579c 48be 3b52 353e 7909 3d3e 1163 98be
00000080: b03e 9c3e 18e5 c0be cde7 f6bd 18e5 403e

conv1d_1/conv1d/ExpandDims_1__8_tucker1 f4 [2, 2, 1, 2]
1.5261213 1.4660378 0.32445097 -0.18025054 0.25235075 -0.33646768 1.213687 1.5141045
00000000: f157 c33f 20a7 bb3f 701e a63e 9993 38be
00000010: 1e34 813e 7e45 acbe 185a 9b3f 2dce c13f

conv1d_1/conv1d/ExpandDims_1__8_tucker2 f4 [36, 2, 1, 1]
-0.1845741 -0.07623713 0.21266146 0.07623713 -0.10833697 -0.10031201 0.23272386 -0.13241185
-0.028087363 -0.29692355 0.07623713 -0.11234945 0.10833697 0.07222465 0.052162245 0.35309827
0.15648673 -0.12037441 0.3290234 -0.12438689 0.35711074 -0.3490858 0.17253666 -0.020062402
-0.15247425 -0.10031201 0.08426209 0.040124804 0.19661154 0.4132855 -0.060187206 -0.27686113
0.1645117 0.25679874 -0.11636193 -0.040124804 -0.18056162 0.21667394 -0.048149765 -0.044137284
-0.1645117 0.27284867 0.509585 -0.19259906 -0.032099843 -0.15247425 0.012037441 -0.012037441
-0.4132855 -0.20864898 0.16049922 -0.12037441 0.21266146 0.38519812 0.16852418 0.2648237
0.1845741 -0.09629953 0.008024961 -0.12037441 0.12037441 0.048149765 -0.29291105 0.13642433
0.07222465 -0.17253666 0.028087363 -0.09629953 -0.032099843 0.056174725 -0.2608112 -0.016049922
00000000: fe00 3dbe 3622 9cbd edc3 593e 3622 9c3d
00000010: c6df ddbd 6270 cdbd 2a4f 6e3e f996 07be
00000020: 7817 e6bc 5d06 98be 3622 9c3d 7817 e6bd
00000030: c6df dd3d 84ea 933d 14a8 553d 4cc9 b43e
00000040: 0f3e 203e dc86 f6bd c175 a83e 8ebe febd
00000050: 38d7 b63e 60bb b2be 73ad 303e e859 a4bc
00000060: 3622 1cbe 6270 cdbd 9a91 ac3d e859 243d
00000070: 8954 493e 289a d33e dc86 76bd bec0 8dbe
00000080: c175 283e 207b 833e 2a4f eebd e859 24bd
00000090: 25e5 38be c6df 5d3e b038 45bd 4cc9 34bd
000000a0: c175 28be d2b2 8b3e 2a74 023f b038 45be
000000b0: 207b 03bd 3622 1cbe b038 453c b038 45bc
000000c0: 289a d3be 14a8 55be e859 243e dc86 f6bd
000000d0: edc3 593e b038 c53e 9a91 2c3e f996 873e
000000e0: fe00 3d3e b038 c5bd 207b 033c dc86 f6bd
000000f0: dc86 f63d b038 453d 70f8 95be d2b2 0b3e
00000100: 84ea 933d 73ad 30be 7817 e63c b038 c5bd
00000110: 207b 03bd 7817 663d 0c89 85be 207b 83bc

conv1d/conv1d/ExpandDims_1__6_tucker0 f4 [2, 9, 1, 1]
-0.5467742 0.2733871 0.418624 0.21358368 -0.23494205 0.017086694 -0.39726564 0.20504034
0.09397682 -0.055531755 -0.431439 -0.24348539 0.20076865 0.52114415 0.3203755 -0.32891887
0.52114415 -0.25202873
00000000: 65f9 0bbf 65f9 8b3e e355 d63e aeb5 5a3e
00000010: a694 70be 65f9 8b3c 6766 cbbe 18f6 513e
00000020: eb76 c03d 4475 63bd 93e5 dcbe 3c54 79be
00000030: 4c96 4d3e b469 053f 4208 a43e 0e68 a8be
00000040: b469 053f e909 81be

conv1d/conv1d/ExpandDims_1__6_tucker1 f4 [2, 2, 1, 2]
-0.3431404 1.243884 1.3618385 0.22518589 -1.1902683 -0.064338826 -0.04289255 -0.79351217
00000000: 19b0 afbe 9737 9f3f b950 ae3f 2197 663e
00000010: b65a 98bf 13c4 83bd 19b0 2fbd 9d23 4bbf

conv1d/conv1d/ExpandDims_1__6_tucker2 f4 [18, 2, 1, 1]
0.07255315 0.12803496 -0.102427974 0.35849792 0.12376714 0.08108881 -0.2774091 -0.28167692
0.025606994 0.042678323 -0.042678323 0.11096364 -0.20912378 0.25606993 0.1323028 0.3713014
-0.15364197 -0.051213987 0.10669581 0.33289093 0.26887342 -0.5420147 0.3030161 -0.20485595
0.10669581 -0.038410492 -0.35423008 -0.41397974 0.2646056 -0.102427974 -0.32008743 -0.085356645
-0.48653287 -0.029874826 0.20058812 -0.09816014
00000000: bf96 943d 991b 033e c2c5 d1bd 0a8d b73e
00000010: a079 fd3d e411 a63d 9108 8ebe f537 90be
00000020: c2c5 d13c 77cf 2e3d 77cf 2ebd e840 e33d
00000030: 8b24 56be 991b 833e 637a 073e 381b be3e
00000040: 5254 1dbe c2c5 51bd 5583 da3d ae70 aa3e
00000050: c7a9 893e 7ac1 0abf ed24 9b3e c2c5 51be
00000060: 5583 da3d 5254 1dbd a55d b5be 27f5 d3be
00000070: 637a 873e c2c5 d1bd 80e2 a3be 77cf aebd
00000080: d61a f9be 0dbc f4bc f966 4d3e 2f08 c9bd
