dnn-models/HAR-CNN-cp.onnx (onnx, 22452 bytes, 16 tensors)

dense/bias/read__16 f4 [6]
00000000: b0c7 e73e a635 9cbe f58d 7bbe 2202 473d
00000010: 407c 57be 2ee1 95be
0.45269537 -0.3050968 -0.24565871 0.04858602 -0.21043491 -0.2927336

conv1d_2/Reshape__11 f4 [1, 72, 1]
00000000: f1b3 7abd fb47 ca3c 6cee ea3d a218 26bd
00000010: 61c1 05bd ffdb c43d cb1a db3d 626a 9ebd
00000020: 5459 38bd 4e9c 033e bbe7 0f3d e8f0 963d
00000030: 4e7a f13a 629a 90bd 514f 383d 93d1 24bd
00000040: b417 1b3d 5844 843c b005 a23d 9a26 56bd
00000050: ae32 babc c177 bf3c 59f1 14bd 99b1 d4bc
00000060: b4b7 74bd 9cc5 8fbd ec38 783d 2a5f b6bd
00000070: 9070 27bd d025 65bd 9964 ac3d 8b01 a7bd
00000080: f6b9 933d 8621 02bd bcba 9fbd 4237 b83c
00000090: 3d52 a7bb 86f0 dbbc 5906 c03c 576d 8c3d
000000a0: c8bc 363d 3b0e 08bd f5ba 46bd c9f7 923c
000000b0: c1b9 a03c 6a0a 1a3d 3b6a 4e3c 4402 90bc
000000c0: fdb5 ff3d de5a 8ebd 1531 6bbd c781 3bbd
000000d0: 298b 8c3d 0631 3abd 8602 a6bd e0af d63d
000000e0: 17d6 37bc 0537 a6bd b338 11bd 98b9 48bd
000000f0: 409a 1dbd 3452 86bd 566c 943d a25a 1a3d
00000100: 9e80 71bd c9a5 b7bd 7606 08bd 0fcc 11bb
00000110: 1604 4abd 6257 f3bb 4bb3 463d a728 0e3d
-0.06120676 0.024692526 0.114712566 -0.040550835 -0.032655124 0.096122734 0.1069847 -0.07735135
-0.045007065 0.12852594 0.035133105 0.07370168 0.001842329 -0.07060696 0.044997517 -0.040238928
0.037864402 0.01614587 0.07911241 -0.052282907 -0.022729244 0.023372533 -0.03636298 -0.025963591
-0.059745505 -0.07020113 0.06060116 -0.0890487 -0.040878832 -0.055944264 0.08417625 -0.08154591
0.072132036 -0.03177025 -0.07799289 0.022487286 -0.005106239 -0.026848089 0.023440527 0.068567924
0.04461363 -0.033216696 -0.04851814 0.017940419 0.019619824 0.037607588 0.0125985695 -0.017579205
0.124858834 -0.06950925 -0.057419855 -0.045778062 0.0686248 -0.04545691 -0.0810595 0.10482764
-0.011220477 -0.08115963 -0.035454463 -0.04900512 -0.038477182 -0.06558648 0.07247226 0.03768409
-0.05896055 -0.08967168 -0.033209287 -0.0022246873 -0.049320303 -0.0074261883 0.04851083 0.034706738

conv1d_1/Reshape__9 f4 [1, 36, 1]
00000000: 0115 76bd 912a 883d b002 78bc 13b7 9cbd
00000010: ea0e 86bd 36e9 97bd 2b83 313d 0747 fcbd
00000020: de7b dfbd 9b76 82bd cc02 6cbd 4c26 7b3d
00000030: 70e7 5bbd c004 ce3d 4f5d 64bd f638 ec3d
00000040: 084c c9bd cc36 15bd 9467 c2bc 23e4 3b3d
00000050: 87e9 903d e70f bbbc 54ec 67bd 4e15 de3d
00000060: 2135 ba3c 9f41 9e3d f038 a4b9 4316 d3bc
00000070: 21db 72bd 0bb6 b13d d00f ed3d 7c67 19bd
00000080: 8bd8 d8bd 8127 d63d 9a78 573d ac2f 62bd
-0.060078625 0.06648744 -0.0151373595 -0.07652106 -0.065458134 -0.07417528 0.043337982 -0.12318235
-0.10912298 -0.063702784 -0.057619855 0.06131582 -0.053687513 0.100595 -0.05575305 0.11534302
-0.09828955 -0.03642921 -0.02373103 0.045871865 0.07075792 -0.022834731 -0.056621864 0.10843907
0.022730412 0.0772736 -0.0003132294 -0.025767451 -0.05929101 0.086773 0.115752816 -0.037452206
-0.10588177 0.104567535 0.05260525 -0.055221245

conv1d/Reshape__7 f4 [1, 18, 1]
00000000: 1592 b03d d3cb 02be 5642 df3d a4c0 e73d
00000010: b947 433d f0d7 ce3d 83d5 28bc b4d2 933d
00000020: c3a3 133d 4c8c 0c3d adca bd3d f3b7 0c3e
00000030: 00a3 da3b 6d2d ae3d 5207 013e 1596 dd3d
00000040: 9aaa 28bd e5e4 a7bd
0.08621613 -0.12773065 0.109013245 0.1131604 0.047675822 0.100997806 -0.010304811 0.07217923
0.036044847 0.034313485 0.09267173 0.13742046 0.006672263 0.08504758 0.12600449 0.108196415
-0.041178323 -0.08197955

Zero_0 f4 [2]
00000000: 02a2 943c 7cfc 2ebe
0.018143658 -0.17088503

dense/kernel/read__15_cp0 f4 [1152, 2]
00000000: 7a72 c43e e4de 8ebd 4dc5 5a3e e4de 0ebc
00000010: 188f 753e 7a72 44bd 8b84 3b3e 443c dfbd
00000020: 4dc5 5a3e e4de 8ebd 940d 373e d2cc 97bd
00000030: 067d 7e3e ed67 0abe 68a3 8c3e c0ba 20bd
00000040: c0ba a03e c0ba 20bd 322a 683e e4de 0ebd
00000050: 4e08 9a3e 2118 f1bd 9d96 323e 0f06 fabd
00000060: db55 933e d2cc 97bd 188f 753e e4de 0e3c
00000070: 067d 7e3e f6f0 05be d2cc 173e 0000 0000
00000080: 443c 5fbe 0f06 fabc 7a72 c4bd 564e 56bc
00000090: 443c dfbd 322a 68bd e4de 8ebd c0ba 20bd
000000a0: 564e d63c 6860 cdbd 7a72 c4bd 9d96 32bd
000000b0: e4de 0ebc 443c df3d 7a72 c4bd d2cc 973d
000000c0: c0ba 20be 322a 68bd 443c 5fbe e4de 0ebd
000000d0: e4de 0ebd 7a72 44bd e4de 8e3d 9d96 323d
000000e0: e4de 8ebc 564e d6bc c0ba 20bd afa8 a9bd
000000f0: 443c dfbd e4de 0ebd 9d96 32be 8b84 bbbd
00000100: 564e 563d e39b cfbe 564e d63c d2cc 97be
00000110: e4de 0e3d afa8 a9be 0f06 fa3c 215b b0be
00000120: 9d96 b23c a61f aebe 564e 563c 07c0 bdbe
00000130: e4de 8e3c afa8 a9be 564e 563c 4e08 9abe
00000140: 564e d6bc e39b cfbe e4de 0e3c fe36 c2be
00000150: 0000 0000 ae65 eabe 564e 563c 940d b7be
00000160: e4de 0ebc f5ad c6be c0ba 20bd da12 d4be
00000170: e4de 0ebc f5ad c6be e4de 0ebd 2ae4 abbe
00000180: e4de 0ebd c943 1c3e 564e d63c 71e9 483e
00000190: 9d96 b23c 3bb3 633e 9d96 b23c 68a3 8c3e
000001a0: e4de 8e3c d2cc 973e e4de 0e3d c0ba a03e
000001b0: 0000 0000 afa8 a93e 7a72 443d 68a3 8c3e
000001c0: e4de 0e3c 5791 953e 564e 56bc 336d a73e
000001d0: afa8 a93d 3cf6 a23e 0f06 fa3c 8b84 bb3e
000001e0: e4de 8e3c 19d2 b43e 0f06 7a3d afa8 a93e
000001f0: 8b84 bb3d 82fb bf3e c0ba 203d 4e08 9a3e
00000200: ed67 8a3e e4de 8e3b 8b84 3b3e e4de 8e3b
00000210: 7ab5 833e 0f06 fabc c943 1c3e e4de 8ebd
00000220: 82fb 3f3e 6860 cdbd a61f 2e3e 9d96 b2bd
00000230: 443c 5f3e 7a72 c4bd 82fb 3f3e e4de 8ebc
00000240: ed67 8a3e afa8 a9bd 4dc5 5a3e e4de 0ebe
00000250: 82fb 3f3e ff79 01be b831 253e 0f06 7abd
00000260: 2118 713e 0f06 7abd 71e9 483e 0f06 fabc
00000270: 82fb 3f3e e4de 0ebd c943 1c3e f6f0 85bd
00000280: f6f0 853d 6860 cdbe 7a72 443d ae65 eabe
00000290: f6f0 853d 1049 b9be c0ba 203d fe36 c2be
000002a0: 9d96 323d 0f06 fabe 322a 683d 6860 cdbe
000002b0: c0ba 203d 38d3 04bf 9d96 323d 93ca f7be
000002c0: 0f06 fa3c 68a3 0cbf 0000 0000 f5ad c6be
000002d0: e4de 8e3c 322a e8be 9d96 b2bc ae65 eabe
000002e0: e4de 0ebc 188f f5be 9d96 b23c c900 ddbe
000002f0: e4de 0ebc ff79 01bf e4de 8e3b 6860 cdbe
00000300: e4de 0e3c 7ab5 83be e4de 8e3b 5fd7 51be
00000310: 322a 683d 4e08 9abe e4de 8e3b 2aa1 6cbe
00000320: 564e 563c 188f 75be e4de 8e3c 067d 7ebe
00000330: 564e 563c 712c 88be e4de 8ebb 9d96 b2be
00000340: e4de 0ebc 9d96 b2be 564e 563c ed67 8abe
00000350: e4de 8e3b 4dc5 dabe 9d96 b2bc 8b84 bbbe
00000360: e4de 8ebb 5791 95be e4de 8e3c 940d b7be
00000370: 9d96 b2bc 7ab5 83be 0f06 fabc 712c 88be
00000380: 7a72 c43d 564e 56bc 0f06 7a3d 564e 563d
00000390: 322a e83d d2cc 973d 82fb 3f3e f6f0 853d
000003a0: 601a 913e 322a e83d 188f 753e ff79 013e
000003b0: 067d 7e3e f6f0 853d 2aa1 6c3e 564e d63d
000003c0: 3bb3 633e c943 1c3e 2aa1 6c3e c0ba a03d
000003d0: 8b84 3b3e 7a72 c43d 0f06 7a3e 82fb 3f3e
000003e0: 68a3 8c3e 4dc5 5a3e 188f 753e 7a72 443e
000003f0: 2118 713e 443c df3d 8b84 3b3e f6f0 053e
0.3836859 -0.06976107 0.21364327 -0.008720133 0.23980367 -0.047960736 0.1831228 -0.10900167
0.21364327 -0.06976107 0.17876273 -0.07412113 0.2485238 -0.13516207 0.2746842 -0.0392406
0.3139248 -0.0392406 0.22672346 -0.034880534 0.3008446 -0.1177218 0.17440267 -0.12208187
0.2877644 -0.07412113 0.23980367 0.008720133 0.2485238 -0.130802 0.14824226 0.0
-0.21800333 -0.030520467 -0.09592147 -0.0130802 -0.10900167 -0.056680866 -0.06976107 -0.0392406
0.0261604 -0.10028154 -0.09592147 -0.043600667 -0.008720133 0.10900167 -0.09592147 0.07412113
-0.1569624 -0.056680866 -0.21800333 -0.034880534 -0.034880534 -0.047960736 0.06976107 0.043600667
-0.017440267 -0.0261604 -0.0392406 -0.08284127 -0.10900167 -0.034880534 -0.17440267 -0.0915614
0.0523208 -0.4054862 0.0261604 -0.29648453 0.034880534 -0.33136508 0.030520467 -0.34444526
0.021800334 -0.3400852 0.0130802 -0.37060568 0.017440267 -0.33136508 0.0130802 -0.3008446
-0.0261604 -0.4054862 0.008720133 -0.3793258 0.0 -0.457807 0.0130802 -0.35752547
-0.008720133 -0.38804594 -0.0392406 -0.41420633 -0.008720133 -0.38804594 -0.034880534 -0.33572513
-0.034880534 0.15260233 0.0261604 0.19620301 0.021800334 0.2223634 0.021800334 0.2746842
0.017440267 0.29648453 0.034880534 0.3139248 0.0 0.33136508 0.047960736 0.2746842
0.008720133 0.29212448 -0.0130802 0.327005 0.08284127 0.31828487 0.030520467 0.3662456
0.017440267 0.35316542 0.061040934 0.33136508 0.0915614 0.37496573 0.0392406 0.3008446
0.27032414 0.0043600667 0.1831228 0.0043600667 0.25724393 -0.030520467 0.15260233 -0.06976107
0.18748286 -0.10028154 0.1700426 -0.087201335 0.21800333 -0.09592147 0.18748286 -0.017440267
0.27032414 -0.08284127 0.21364327 -0.13952214 0.18748286 -0.12644194 0.16132247 -0.061040934
0.2354436 -0.061040934 0.19620301 -0.030520467 0.18748286 -0.034880534 0.15260233 -0.065401
0.065401 -0.40112615 0.047960736 -0.457807 0.065401 -0.36188555 0.0392406 -0.3793258
0.043600667 -0.48832747 0.056680866 -0.40112615 0.0392406 -0.51884794 0.043600667 -0.4839674
0.030520467 -0.5493684 0.0 -0.38804594 0.017440267 -0.45344692 -0.021800334 -0.457807
-0.008720133 -0.47960734 0.021800334 -0.43164662 -0.008720133 -0.50576776 0.0043600667 -0.40112615
0.008720133 -0.25724393 0.0043600667 -0.20492314 0.056680866 -0.3008446 0.0043600667 -0.23108354
0.0130802 -0.23980367 0.017440267 -0.2485238 0.0130802 -0.26596406 -0.0043600667 -0.34880534
-0.008720133 -0.34880534 0.0130802 -0.27032414 0.0043600667 -0.42728654 -0.021800334 -0.3662456
-0.0043600667 -0.29212448 0.017440267 -0.35752547 -0.021800334 -0.25724393 -0.030520467 -0.26596406
0.09592147 -0.0130802 0.061040934 0.0523208 0.11336173 0.07412113 0.18748286 0.065401
0.28340435 0.11336173 0.23980367 0.12644194 0.2485238 0.065401 0.23108354 0.1046416
0.2223634 0.15260233 0.23108354 0.0784812 0.1831228 0.09592147 0.24416374 0.18748286
0.2746842 0.21364327 0.23980367 0.19184294 0.2354436 0.10900167 0.1831228 0.130802

dense/kernel/read__15_cp1 f4 [2, 6]
00000000: c4e0 e13e e8bb 553e fe72 5fbe 7397 dabe
00000010: 3703 883d 803a 1abf 2be1 f2bd 554d b13e
00000020: c9f0 013f 9d03 19bf 6371 1bbf bc4d c23c
0.44116795 0.20872462 -0.2182121 -0.42693672 0.06641238 -0.60245514 -0.11859354 0.34629312
0.50758034 -0.5977114 -0.6071989 0.023718707

conv1d_2/conv1d/ExpandDims_1__10_cp0 f4 [4, 36, 1, 1]
00000000: aa4e c2bd 00bb 913d 4429 a53d de03 083e
00000010: 66e0 2ebe 9196 96be 66e0 aebd 7799 7c3e
00000020: d504 aabe efbc d53d 0d97 a73e 55e2 f23d
00000030: 332b 693d 332b 693c aa4e 423d cd05 ccbd
00000040: 9196 963e 1174 dfbd 332b e93c 00bb 91bd
00000050: c828 94be 9e72 ac3e aa4e 42bd efbc 553d
00000060: 4429 25be 4d28 833e 2f4e b13e 1174 df3d
00000070: 68f1 01bf aa4e 42be efbc d5bd 332b 69bd
00000080: 332b 69be 332b e9bd de03 08be 9196 16be
00000090: 0000 0000 7799 fc3d 00bb 113e a24f 64be
000000a0: 8ba8 0b3f 68f1 01bf 4429 a5bd 2272 1b3c
000000b0: 66e0 aebe 315f 04bf 1174 dfbd 9e72 acbe
000000c0: 7799 7cbd 6fdf 0c3e 55e2 f2bd 3c2a c73e
000000d0: 9573 cebe 4d28 033e 4d28 03be 66e0 2e3d
000000e0: efbc d5bd cd05 4cbe aa4e c23c 4429 253e
000000f0: c828 94be efbc 55be 4429 a5bd 00bb 913d
00000100: 4d28 03bf 66e0 2e3e 00bb 113e 332b e9bc
00000110: 00bb 91bd 84ba 803e 7799 fcbd 6fdf 8cbe
00000120: 332b e9bc 2272 9bbc 5904 99be 4429 25be
00000130: a24f 64be 00bb 91bd aa4e c2bc 1973 3dbe
00000140: 00bb 913d cd05 ccbd 1174 5fbe 1973 bd3e
00000150: 3e3b 1abf cd05 cc3d 6fdf 0c3e 9196 163e
00000160: 6abd e6be 6fdf 0cbe 6fdf 8cbe 4429 a5bd
00000170: c406 6e3e f7bb 33be aa4e c23d d504 2a3e
00000180: 332b e9bc c406 6e3e 374d 8fbe 7799 7c3d
00000190: 8098 5a3e 332b 69bc 66e0 aebd 332b 693d
000001a0: 55e2 f2bd 2272 1bbd 4d28 03be 4429 a5bd
000001b0: c406 6ebe 1174 df3d 55e2 f23d 1174 5fbe
000001c0: 4429 253e e2e0 bfbe cd05 ccbd aa4e 42be
000001d0: aa4e 42be 9e72 acbe 4d28 03be aa4e 42be
000001e0: de03 083e 5ee1 503e d504 2abe de03 883e
000001f0: d504 2abe 55e2 f2bd 9196 96be 55e2 723e
00000200: 2272 9b3c 7799 7cbe 2272 1bbe f7bb 333e
00000210: c406 6ebe 8897 b8bd 2272 9b3d 2272 9b3b
00000220: de03 88be 9196 163e b34d 203e 1973 3dbe
00000230: 7799 fcbd 5ee1 d03e aa4e 423d 6fdf 8cbe
-0.0948766 0.071157455 0.080645114 0.13282725 -0.17077789 -0.29411748 -0.08538894 0.24667917
-0.33206812 0.10436427 0.3273243 0.11859576 0.056925964 0.014231491 0.0474383 -0.09962044
0.29411748 -0.1091081 0.028462982 -0.071157455 -0.28937364 0.33681196 -0.0474383 0.052182134
-0.16129023 0.25616685 0.34629962 0.1091081 -0.5075898 -0.1897532 -0.10436427 -0.056925964
-0.22770385 -0.11385193 -0.13282725 -0.14705874 0.0 0.123339586 0.14231491 -0.22296003
0.5455405 -0.5075898 -0.080645114 0.009487661 -0.34155577 -0.5170775 -0.1091081 -0.33681196
-0.061669793 0.13757108 -0.11859576 0.3889941 -0.40322557 0.12808342 -0.12808342 0.04269447
-0.10436427 -0.19924088 0.02371915 0.16129023 -0.28937364 -0.20872854 -0.080645114 0.071157455
-0.5123337 0.17077789 0.14231491 -0.028462982 -0.071157455 0.251423 -0.123339586 -0.27514216
-0.028462982 -0.018975321 -0.2988613 -0.16129023 -0.22296003 -0.071157455 -0.02371915 -0.18500938
0.071157455 -0.09962044 -0.2182162 0.37001875 -0.60246646 0.09962044 0.13757108 0.14705874
-0.45066386 -0.13757108 -0.27514216 -0.080645114 0.23244768 -0.17552172 0.0948766 0.16603406
-0.028462982 0.23244768 -0.27988598 0.061669793 0.21347237 -0.014231491 -0.08538894 0.056925964
-0.11859576 -0.037950642 -0.12808342 -0.080645114 -0.23244768 0.1091081 0.11859576 -0.2182162
0.16129023 -0.3747626 -0.09962044 -0.1897532 -0.1897532 -0.33681196 -0.12808342 -0.1897532
0.13282725 0.20398471 -0.16603406 0.2656545 -0.16603406 -0.11859576 -0.29411748 0.23719151
0.018975321 -0.24667917 -0.15180257 0.17552172 -0.23244768 -0.09013277 0.075901285 0.0047438303
-0.2656545 0.14705874 0.1565464 -0.18500938 -0.123339586 0.40796942 0.0474383 -0.27514216

conv1d_2/conv1d/ExpandDims_1__10_cp1 f4 [4, 1, 1, 2]
00000000: ca27 58bf ca20 32bf ca2e 7e3f 5026 503f
00000010: 0d19 883e 0d19 883e 5e2a 663f ca2e 7e3f
-0.84435713 -0.6958128 0.99290144 0.8130846 0.26581612 0.26581612 0.899084 0.99290144

conv1d_2/conv1d/ExpandDims_1__10_cp2 f4 [72, 4, 1, 1]
00000000: b651 a9be 9274 073d 000c edbe db2e cb3d
00000010: b651 293e 9274 073d 000c 6dbe db2e 4b3d
00000020: 9274 87be 9274 873c a404 b63f 6dda 203f
00000030: db2e cbbe c99e 1cbf 24a6 d33f 9274 073d
00000040: 37b0 0bbf b651 a93d 8027 94bf 6d1d 5c3e
00000050: 9274 87be 9274 07bd 320c 0040 a404 363f
00000060: b651 29be db2e 4bbd 00c9 313f 8027 143f
00000070: 5b8d 2dbf 9274 873d 1216 25bf 0000 0000
00000080: db2e 4b3e 9274 87bd c056 853f ed38 03bf
00000090: 2463 18be 00c9 b1be dbeb 0fbf 92b7 423f
000000a0: 2463 183e db2e cbbd 000c 6d3e 92fa 7d3e
000000b0: 4983 f53e 9274 07be ed38 033f dbeb 8fbe
000000c0: 9274 07bd 9274 07bd db2e 4bbf 4940 3a3e
000000d0: 000c edbe 4940 babe 5b8d 2d3f 9274 87bc
000000e0: 37b0 0b3f 92fa 7dbe 9274 073d 0000 0000
000000f0: 8027 14bf 2463 183e b651 a9be 9274 873c
00000100: b694 64bf 9274 073d a447 713f b651 a93d
00000110: 37b0 0b3f db2e 4b3d 9274 873d 9274 87bd
00000120: 92b7 c23e 6d1d 5c3e b651 a93d b651 a9be
00000130: 9274 87be 6d1d 5c3e 2dab afbf db2e 4b3d
00000140: b651 a93d b651 a9be a404 363f db2e cbbd
00000150: 24a6 d33e 4940 3a3e 9274 873d b651 a9bd
00000160: db2e 4bbd db2e cb3e 6d1d 5c3f 00c9 b1be
00000170: 9274 07be db2e cbbd a965 0640 2463 18bf
00000180: b651 29bf b651 a93d ed7b 3ebf db2e cb3d
00000190: 2463 98be 9274 073e 37b0 8bbf 2463 183e
000001a0: 24a6 d3be db2e 4b3d 5bd0 e83f 92b7 c23e
000001b0: 9274 07bd 2463 18bf 24a6 533f db2e 4b3d
000001c0: b694 e4be 2463 183e 00c9 b1bf 000c ed3d
000001d0: 4940 ba3e 9274 07bf 6dda 20bf 92fa fd3e
000001e0: db2e 4bbe 6d1d 5cbe 4940 3abf 8027 143f
000001f0: 9274 873e 00c9 b1be 000c 6dbf b651 a93e
00000200: a447 71bf 4940 3abe e476 e23f dbeb 8f3e
00000210: 0000 0000 2463 18bf db2e 4b3e db2e 4b3e
00000220: 6dda a03e c99e 1cbf 9274 07bf 9274 073f
00000230: 806a 4f3f 00c9 b13e 000c ed3e 92b7 c2be
00000240: 92b7 c2be db2e cbbd 6d1d 5c3f 92fa 7dbe
00000250: db2e cbbd b651 a9be 6492 893f 000c 6dbe
00000260: 5b8d 2d3f 24a6 d33e b694 e43e 6d1d dcbe
00000270: 1216 253f b651 293e 2463 183e 92fa 7dbe
00000280: a447 71bf 000c 6d3e dbeb 0f3f 000c edbd
00000290: b651 a93e 000c ed3d 9274 07bd 9274 073e
000002a0: 6d1d dcbe db2e 4b3d 9274 073f db2e cbbd
000002b0: b651 293e b651 a9bd 5b8d 2d3f 92b7 c2be
000002c0: db2e 4b3e 4940 3a3e db2e cbbd 4940 3abe
000002d0: 8027 143f 4940 3a3e 92b7 c23e 6d1d 5cbe
000002e0: c9e1 573f 9274 873c 6d1d 5cbe 0000 0000
000002f0: dbeb 8fbe 9274 87be ed7b be3f dbeb 8fbe
00000300: b694 e4be db2e cbbd ed38 0340 1259 603f
00000310: b694 e43e 24a6 d3be 1259 60bf 00c9 b13e
00000320: 5b8d 2dbf db2e 4b3d 6d1d 5c3f db2e 4bbd
00000330: db2e 4bbd b694 e4be ad09 923f b651 29be
00000340: b694 64bf b651 a9bd 4940 ba3f 4940 3a3e
00000350: 4940 3a3f 9274 873e 4940 3a3e 6d1d 5cbe
00000360: db2e 4bbf 9274 87bd 40f8 a23f 0000 0000
00000370: db2e cbbd 2463 18be 000c 6d3e 92fa fd3e
00000380: 000c ed3d 2463 18be 9274 07bf 92b7 c23e
00000390: 2463 98be 9274 873d bfdc fbbf db2e 4b3e
000003a0: ed38 033f 00c9 b13e 6d1d 5c3f ed38 03bf
000003b0: b651 a9be 9274 873d 000c 6dbe b651 a9be
000003c0: 00c9 31bf 000c ed3d 24a6 d3be 9274 873d
000003d0: b694 e4be 4940 3a3e dbeb 0fbf 92fa 7dbe
000003e0: 000c edbd 4983 75bf 36f3 c63f 000c ed3e
000003f0: 00c9 b13e 9274 073e 4940 ba3e b694 e4be
-0.33070153 0.033070154 -0.46298218 0.09921046 0.16535076 0.033070154 -0.23149109 0.04960523
-0.26456124 0.016535077 1.4220166 0.6283329 -0.39684185 -0.61179787 1.6535077 0.033070154
-0.5456576 0.08267538 -1.1574554 0.214956 -0.26456124 -0.033070154 2.0007443 0.7110083
-0.16535076 -0.04960523 0.69447327 0.5787277 -0.67793816 0.06614031 -0.644868 0.0
0.19842093 -0.06614031 1.0417099 -0.51258737 -0.14881569 -0.34723663 -0.5621926 0.76061356
0.14881569 -0.09921046 0.23149109 0.24802616 0.47951725 -0.13228062 0.51258737 -0.2810963
-0.033070154 -0.033070154 -0.7936837 0.18188585 -0.46298218 -0.3637717 0.67793816 -0.016535077
0.5456576 -0.24802616 0.033070154 0.0 -0.5787277 0.14881569 -0.33070153 0.016535077
-0.89289415 0.033070154 0.9424994 0.08267538 0.5456576 0.04960523 0.06614031 -0.06614031
0.38030678 0.214956 0.08267538 -0.33070153 -0.26456124 0.214956 -1.3724114 0.04960523
0.08267538 -0.33070153 0.7110083 -0.09921046 0.41337693 0.18188585 0.06614031 -0.08267538
-0.04960523 0.39684185 0.859824 -0.34723663 -0.13228062 -0.09921046 2.0999548 -0.59526277
-0.66140306 0.08267538 -0.74407846 0.09921046 -0.29763138 0.13228062 -1.0913152 0.14881569
-0.41337693 0.04960523 1.8188585 0.38030678 -0.033070154 -0.59526277 0.82675385 0.04960523
-0.44644707 0.14881569 -1.3889465 0.115745544 0.3637717 -0.5291225 -0.6283329 0.49605232
-0.19842093 -0.214956 -0.7275434 0.5787277 0.26456124 -0.34723663 -0.92596436 0.33070153
-0.9424994 -0.18188585 1.7692533 0.2810963 0.0 -0.59526277 0.19842093 0.19842093
0.31416646 -0.61179787 -0.5291225 0.5291225 0.8102188 0.34723663 0.46298218 -0.38030678
-0.38030678 -0.09921046 0.859824 -0.24802616 -0.09921046 -0.33070153 1.07478 -0.23149109
0.67793816 0.41337693 0.44644707 -0.429912 0.644868 0.16535076 0.14881569 -0.24802616
-0.9424994 0.23149109 0.5621926 -0.115745544 0.33070153 0.115745544 -0.033070154 0.13228062
-0.429912 0.04960523 0.5291225 -0.09921046 0.16535076 -0.08267538 0.67793816 -0.38030678
0.19842093 0.18188585 -0.09921046 -0.18188585 0.5787277 0.18188585 0.38030678 -0.214956
0.84328896 0.016535077 -0.214956 0.0 -0.2810963 -0.26456124 1.4881569 -0.2810963
-0.44644707 -0.09921046 2.0503495 0.8763591 0.44644707 -0.41337693 -0.8763591 0.34723663
-0.67793816 0.04960523 0.859824 -0.04960523 -0.04960523 -0.44644707 1.1409203 -0.16535076
-0.89289415 -0.08267538 1.4550868 0.18188585 0.7275434 0.26456124 0.18188585 -0.214956
-0.7936837 -0.06614031 1.273201 0.0 -0.09921046 -0.14881569 0.23149109 0.49605232
0.115745544 -0.14881569 -0.5291225 0.38030678 -0.29763138 0.06614031 -1.9676741 0.19842093
0.51258737 0.34723663 0.859824 -0.51258737 -0.33070153 0.06614031 -0.23149109 -0.33070153
-0.69447327 0.115745544 -0.41337693 0.06614031 -0.44644707 0.18188585 -0.5621926 -0.24802616
-0.115745544 -0.9590345 1.5542972 0.46298218 0.34723663 0.13228062 0.3637717 -0.44644707

conv1d_1/conv1d/ExpandDims_1__8_cp0 f4 [4, 18, 1, 1]
00000000: 2ea1 35bf 7944 0d3e a789 503e d472 213d
00000010: b64f 37bf 4c5b bc3d 5b8a 863d c543 573c
00000020: d472 213e a789 d0be 5b8a 063d 7aa0 ffbe
00000030: 10e7 ae3e b6b8 1abe 5bb8 bfbe d472 213d
00000040: 5b8a 063e d472 a1bc 97fe 133e a789 50be
00000050: 6ae7 89be d472 213e 4d89 f5be 6ae7 893e
00000060: 10e7 2e3e 5ce6 f8be 01f3 0e3f 7a72 c6be
00000070: 1f44 b23e 4c5b 3cbe b6b8 1a3f 3dfe b8be
00000080: 6ae7 093f 6b15 43be b6b8 1abe 4d89 f53e
00000090: 5bb8 bfbe e3fd 5d3e 3e2c f23d 88a1 903e
000000a0: e3fd ddbe 97fe 933e 5bb8 bf3e 5b8a 06be
000000b0: e3cf 243f c543 57bf f22c 283f 8938 2dbf
000000c0: c543 573e c543 d7be 01b8 643e 0000 0000
000000d0: d472 213d 7944 0d3e 6b15 433e 3dfe b8be
000000e0: 10e7 aebd d4a0 da3e 5ce6 783e 7944 8d3e
000000f0: 5b8a 06bd f22c 28be 3e2c f23d 3e2c f2bd
00000100: e3cf a43e 982c cd3e f22c 28be 4cc4 1f3f
00000110: 2ea1 b53e b6e6 d33e c543 d73d 4c5b bcbd
-0.70949066 0.13795651 0.2036501 0.03941615 -0.71606004 0.09197101 0.06569358 0.013138716
0.1576646 -0.4073002 0.03284679 -0.4992712 0.34160662 -0.15109524 -0.3744534 0.03941615
0.13138716 -0.019708075 0.14452587 -0.2036501 -0.26934367 0.1576646 -0.47956315 0.26934367
0.17080331 -0.4861325 0.55839545 -0.38759214 0.34817597 -0.18394202 0.60438097 -0.36131468
0.53868735 -0.19051139 -0.15109524 0.47956315 -0.3744534 0.21678881 0.11824845 0.2824824
-0.43357763 0.28905174 0.3744534 -0.13138716 0.6437971 -0.84087783 0.6569358 -0.6766439
0.21021946 -0.42043892 0.22335817 0.0 0.03941615 0.13795651 0.19051139 -0.36131468
-0.085401654 0.42700827 0.24306625 0.27591303 -0.03284679 -0.16423395 0.11824845 -0.11824845
0.32189855 0.40073085 -0.16423395 0.624089 0.35474533 0.41386956 0.10510973 -0.09197101

conv1d_1/conv1d/ExpandDims_1__8_cp1 f4 [4, 1, 1, 2]
00000000: 9dcc 45bf 0632 22bf 5d6a 0e3f d76c 673f
00000010: 7659 143f 2ea5 533f 8034 7b3f 4b3d 1e3f
-0.7726534 -0.6335758 0.5563105 0.9040045 0.57949007 0.8267392 0.98126984 0.61812276

conv1d_1/conv1d/ExpandDims_1__8_cp2 f4 [36, 4, 1, 1]
00000000: 3cdc 98be 9902 fdbc 2c37 333e 130c 093e
00000010: 9902 fd3c 9902 7dbe 66ac a8bc 66ac 283e
00000020: f3c1 3dbe 66ac 283d 9902 fd3c 4662 5d3e
00000030: 4662 dd3e 66ac a8be e31c d83e 9902 7dbe
00000040: d377 f2be 4662 ddbe 0ced e7bd b0c6 833e
00000050: 0367 a3be 66ac 28be b94c c8be 9902 fdbd
00000060: 4662 dd3e 130c 093e 66ac 283d d996 13be
00000070: 3cdc 983e 9902 fd3c d377 723e 66ac 283c
00000080: 9902 fd3c d996 93bd f3c1 3dbe a021 9ebe
00000090: d377 723f 5607 c3be 411f 3b3f 51c4 20bf
000000a0: fe23 013f ded9 35bf b94c 483f d996 93bd
000000b0: b409 263f 7651 8ebe 66ac 283f 5775 82bf
000000c0: 80d7 d2be 2c37 333e 0ced 67be d996 93bd
000000d0: d996 133e 66ac 28bd 9902 7d3e 2c37 333e
000000e0: 66ac 28bc 9902 7d3e c4ae 0bbf a021 9ebe
000000f0: 2c37 b3be a9a7 e2be d377 723e a9a7 e23e
00000100: 2c37 333e 66ac a83c d996 93bd d996 93bd
00000110: 9902 fd3c 2c37 333e 9902 fd3d 80d7 523e
00000120: 6169 06bf 8b39 163f b0c6 03bf 0ced 673e
00000130: d996 13be f3c1 3d3e f3c1 bdbd 4662 5d3e
00000140: 28f4 103f b94c c83e 66ac 28be 0ced 67be
00000150: 0ced 673f 66ac 28bf 841a 753f b94c c8be
00000160: d996 93be f3c1 3dbe f3c1 bd3d d996 933d
00000170: 0000 0000 0ced e7bd 907c b83e f3c1 bd3d
00000180: 0d5b a7bf 9902 fd3c ded9 35bf 80d7 d2bd
00000190: b0c6 833e 2c37 b3be 411f 3b3f 2c37 33bf
000001a0: f3c1 bdbe fe23 013f 2c37 33bf 9902 fdbd
000001b0: 1c92 cd3e f3c1 bdbd 3cdc 983e 130c 09be
000001c0: 4662 5d3e f3c1 bd3d 66ac a8be 3cdc 18bf
000001d0: 80d7 523e d996 93be d996 133e 2c37 333e
000001e0: f3c1 3dbe 2c37 33be a021 9ebe d996 933d
000001f0: 0367 a3be 9902 fd3e e31c d8be b0c6 833e
00000200: a021 1ebe 9902 7dbe 9902 fdbc a021 1e3e
00000210: 3cdc 98be 80d7 52be 80d7 d2bd 9902 7d3e
00000220: 9902 fd3c 0000 0000 9902 fdbd 0000 0000
00000230: 2c37 33bf 9902 7d3d 3cdc 18bf 80d7 d23e
-0.29855525 -0.030885028 0.17501515 0.13383512 0.030885028 -0.24708022 -0.020590018 0.16472015
-0.18531017 0.041180037 0.030885028 0.2161952 0.4323904 -0.3294403 0.4220954 -0.24708022
-0.47357044 -0.4323904 -0.1132451 0.25737524 -0.3191453 -0.16472015 -0.39121035 -0.12354011
0.4323904 0.13383512 0.041180037 -0.14413013 0.29855525 0.030885028 0.23678522 0.010295009
0.030885028 -0.07206506 -0.18531017 -0.3088503 0.9471409 -0.38091534 0.73094565 -0.62799555
0.50445545 -0.71035564 0.7824207 -0.07206506 0.64858556 -0.27796525 0.6588806 -1.0192059
-0.41180038 0.17501515 -0.2264902 -0.07206506 0.14413013 -0.041180037 0.24708022 0.17501515
-0.010295009 0.24708022 -0.54563546 -0.3088503 -0.3500303 -0.4426854 0.23678522 0.4426854
0.17501515 0.020590018 -0.07206506 -0.07206506 0.030885028 0.17501515 0.12354011 0.20590019
-0.52504545 0.58681554 -0.5147505 0.2264902 -0.14413013 0.18531017 -0.092655085 0.2161952
0.5662255 0.39121035 -0.16472015 -0.2264902 0.9059608 -0.6588806 0.95743585 -0.39121035
-0.28826025 -0.18531017 0.092655085 0.07206506 0.0 -0.1132451 0.36032534 0.092655085
-1.3074661 0.030885028 -0.71035564 -0.102950096 0.25737524 -0.3500303 0.73094565 -0.7000606
-0.37062034 0.50445545 -0.7000606 -0.12354011 0.40150535 -0.092655085 0.29855525 -0.13383512
0.2161952 0.092655085 -0.3294403 -0.5971105 0.20590019 -0.28826025 0.14413013 0.17501515
-0.18531017 -0.17501515 -0.3088503 0.07206506 -0.3191453 0.49416044 -0.4220954 0.25737524
-0.15442514 -0.24708022 -0.030885028 0.15442514 -0.29855525 -0.20590019 -0.102950096 0.24708022
0.030885028 0.0 -0.12354011 0.0 -0.7000606 0.061770055 -0.5971105 0.41180038

conv1d/conv1d/ExpandDims_1__6_cp0 f4 [6, 9, 1, 1]
00000000: e22d 363e 7034 d0bd 248e e1bd a0cd 8abd
00000010: d8e7 f2bd 7034 d03d b737 5d3f 91e4 e5be
00000020: d8e7 723e d6f8 0c3f 3eac 2fbf b294 fbbe
00000030: 7034 d0bc b0a5 153f 248e e13d 7034 d0bd
00000040: 5427 9cbd 5427 1cbe 248e 61bf 0881 adbe
00000050: 5427 9cbd 453e f7be 7a7a 133e b737 dd3e
00000060: 7034 d03c 4ae1 583e d8e7 f2bd fc4b 043f
00000070: 248e 613e bcda be3d bcda be3e c17d a03e
00000080: d8e7 f2be 7034 d0bc a0cd 8abf 0881 adbe
00000090: f8a8 22bf 5427 1c3e 4f84 ba3e 2ed4 243f
000000a0: 2ed4 a43e 9687 c73e 5427 9c3d bcda be3d
000000b0: 91e4 e53e 1efc 193f 0d24 0f3f b294 7b3e
000000c0: 7a7a 133f 9b2a a9be d8e7 723d fc4b 04bf
000000d0: 5427 9cbd 75d7 b13e
0.1779094 -0.10166252 -0.11013439 -0.06777501 -0.11860627 0.10166252 0.8641314 -0.44900945
0.23721254 0.55067194 -0.68622196 -0.49136883 -0.02541563 0.58455944 0.11013439 -0.10166252
-0.07624689 -0.15249377 -0.88107514 -0.33887506 -0.07624689 -0.48289695 0.1440219 0.4320657
0.02541563 0.21179691 -0.11860627 0.5167844 0.22026879 0.09319064 0.37276256 0.31345943
-0.47442508 -0.02541563 -1.0844002 -0.33887506 -0.63539076 0.15249377 0.36429068 0.6438626
0.3219313 0.3897063 0.07624689 0.09319064 0.44900945 0.60150325 0.55914384 0.24568442
0.5760876 -0.33040318 0.059303135 -0.5167844 -0.07624689 0.34734693

conv1d/conv1d/ExpandDims_1__6_cp1 f4 [6, 1, 1, 2]
00000000: 6c37 3cbf 43db 17bf f728 5abf 699b 043f
00000010: 6a69 203f b8d0 873f 5554 803e bc53 4d3e
00000020: f48c 223f 9661 fc3e 831a 783e 1ee9 463f
-0.7352207 -0.5931894 -0.8521876 0.5179964 0.6266085 1.0610571 0.2506434 0.20051473
0.6349633 0.49293202 0.24228863 0.7769946

conv1d/conv1d/ExpandDims_1__6_cp2 f4 [18, 6, 1, 1]
00000000: 7023 12be 7a6c 9fbd 66da 04be 84b5 2c3e
00000010: a390 d43e 0a5a b33e add9 e1be 84b5 2cbe
00000020: 327e e83e a390 543e 603e 51bf add9 e13e
00000030: a390 d4bd ff10 a6be 4263 29bf c707 b0bf
00000040: 2ed1 0e3f 3cc7 f5be 8ffe b9bd add9 e13e
00000050: 84b5 ac3e 327e 683f f5c7 983e 8ffe b93d
00000060: 7a6c 9fbe 66da 043e 4263 29bf cad5 89bf
00000070: 66da 043e 7a6c 1fbe 84b5 2cbe 8ffe b9bd
00000080: 0a5a 333f f5c7 983f 8ffe 393e a390 d4bd
00000090: 66da 04bf a390 d4bc c26b 7cbe a390 543c
000000a0: a390 543e 66da 843e 8ffe b93e db99 4abf
000000b0: 84b5 2cbf 7023 123e ff10 a63e 2388 81bf
000000c0: 9947 47be 66da 043e eb7e 8b3e 0a5a 333f
000000d0: a82c 083f a390 d4bd add9 e1be 327e e8be
000000e0: c26b 7cbe 7a6c 1fbe b722 6f3e a390 543d
000000f0: eb7e 0b3f a390 d43c 8ffe b9bd a82c 08bf
00000100: 0000 0000 14a3 c03e add9 61be 7a6c 9fbd
00000110: 7023 123e 9947 c7bf ff10 a63e a390 d43e
00000120: 2388 013f 66da 843d 56f5 433f 6b87 5e3f
00000130: 8ffe b9bd b722 6f3e a390 543e f5c7 183f
00000140: d150 3dbf 7a6c 9fbf b722 ef3d 2ed1 8ebf
00000150: 14a3 403f 7a6c 1fbe a390 54bd 4cac 363f
00000160: b722 efbd b722 ef3d 1eec cdbe f5c7 983e
00000170: add9 61be eb7e 8b3e b722 ef3e 66da 843d
00000180: 9947 47be eb7e 0b3f ff10 263f 82e7 d23f
00000190: 4263 29bf 84b5 ac3e ff10 263f 84b5 acbe
000001a0: 8ffe 39bf 2835 dbbe f5c7 983e a390 d4be
-0.14271331 -0.07784362 -0.12973937 0.16866118 0.415166 0.35029632 -0.44111386 -0.16866118
0.4540878 0.207583 -0.817358 0.44111386 -0.1037915 -0.32434842 -0.6616708 -1.3752373
0.5578793 -0.48003566 -0.09081756 0.44111386 0.33732235 0.9081756 0.29840055 0.09081756
-0.3113745 0.12973937 -0.6616708 -1.0768368 0.12973937 -0.15568724 -0.16866118 -0.09081756
0.70059264 1.1936022 0.18163513 -0.1037915 -0.5189575 -0.025947874 -0.24650481 0.012973937
0.207583 0.25947875 0.36327025 -0.79141015 -0.6746447 0.14271331 0.32434842 -1.0119671
-0.19460906 0.12973937 0.27245268 0.70059264 0.5319314 -0.1037915 -0.44111386 -0.4540878
-0.24650481 -0.15568724 0.23353086 0.05189575 0.54490536 0.025947874 -0.09081756 -0.5319314
0.0 0.3762442 -0.22055693 -0.07784362 0.14271331 -1.5568725 0.32434842 0.415166
0.50598353 0.06486969 0.7654623 0.8692538 -0.09081756 0.23353086 0.207583 0.5968011
-0.7395144 -1.245498 0.11676543 -1.1157587 0.7524884 -0.15568724 -0.05189575 0.71356654
-0.11676543 0.11676543 -0.40219206 0.29840055 -0.22055693 0.27245268 0.46706173 0.06486969
-0.19460906 0.54490536 0.64869684 1.64769 -0.6616708 0.33732235 0.64869684 -0.33732235
-0.7265405 -0.42813993 0.29840055 -0.415166
