dnn-models/har_har_cnn-single.onnx (onnx, 55542 bytes, 14 tensors)

conv1.conv1.weight f4 [18, 9, 1, 2]
00000000: 3b5c 76bd 224d 0cbf e21d 4ebd e9dc 92bc
00000010: 9664 0cbf a941 7cbe ad35 4a3e 1788 beb9
00000020: bbf8 063e e3f3 14be 3ebe ccbe fe0a 52be
00000030: 94c4 723e 5e6f 7fbd 506d 25bf acbc d7be
00000040: c3f2 563e aec8 82bd 454e e8be 8d93 01bf
00000050: 2df1 8b3e 440c 25be cfe9 423e 788e 55be
00000060: bee5 313d d94f 963e 70f3 dabd f4e7 4d3e
00000070: 4ec2 34be 6edc e7bd 608a b0bd 1e78 833e
00000080: 62d5 a4be c490 efbd 4c07 b03e ffb6 4f3e
00000090: e876 483c 40cf 04bf 7dcc debe 8aaf 91be
000000a0: 7684 8b3e 81d3 813e 27e7 023f fb14 e73c
000000b0: 3501 833d babe 0d3e eeb9 2d3e 4b4d c0bc
000000c0: 772f 0abd 8d70 fd3d 5a05 be3d b84c d6bd
000000d0: 3255 7f3d a5b3 e1bd 030f ca3e eab0 c63e
000000e0: b258 b1be 68b7 193c 2f53 0abd 8133 143e
000000f0: 7436 a3bd 5c94 84bd 64dc b73d cace 263c
00000100: bad8 a5be 5104 dcbe d21c 98be 13c1 783c
00000110: 9fb3 6cbd 7bd1 aebc 24a9 7fbd 7c75 793e
00000120: 269f 0fbc 7753 2abe e538 1e3d 27d9 24be
00000130: 3a73 5cbe 514d b6bd 60a5 1ebe fbaa 483e
00000140: fc60 8fbe a825 a83e be01 b73e 704c ecbd
00000150: 5787 9dbe c073 19bc 2c1b b4bd e426 103d
00000160: bf1c 94bd 2ee2 a23c d2ae f4bd 0b4a ca3d
00000170: 2b17 8cbc 2ad2 c1bd e7f9 983d 2f01 22be
00000180: 7f39 b8be ae1e 96be 890f 44be 7999 843e
00000190: c7f0 763e b560 d9bd 81da 97be b430 8cbe
000001a0: cf02 313d a6c4 a73d 1f1a 3c3e c744 4a3e
000001b0: 6197 8bbe 6884 46be 7f44 acbc 1163 ce3d
000001c0: 8fda 04bd 9008 22be 3e89 0bbe 5fb2 773d
000001d0: 91e1 7ebd b9dc 40bd 1592 bb3e 21f5 3cbd
000001e0: c9ee 14be 8af5 1c3c c873 a83e 7436 8d3d
000001f0: 579f 6f3e 3cfd 653e bc33 0a3f bcbc 093f
00000200: f014 8abe bf0f d73d 16a5 68be d7c7 b83e
00000210: 76d9 fb3d fc67 663e b97a b43d c4bc 80bd
00000220: bece 70be c5d6 5dbd 063a 03bf 8be8 71be
00000230: 0281 24be 23b0 e43d 2462 17be 3de8 8a3e
00000240: 19a0 8d3c 9b8c ee3e 0797 d2bc 4d6b 9f3e
00000250: cb91 b5be 79a0 9fbe 22a9 05bf 239b 32be
00000260: 639e 6e3d 2c8f 163e ec1c d83d be22 0a3e
00000270: f513 6dbe 1f68 08be dfab 49be a5b4 47bc
00000280: 687e b13d f6db 5a3e 3caa bb3e b421 b0bd
00000290: 4095 50bd 022f afbe 79a6 01bc c9a2 7abe
000002a0: 1457 303e ed79 ddbd 58d1 d43d fcd5 0b3f
000002b0: b5f9 a0be feb7 9fbe b68c a03d dfe8 333e
000002c0: 4e96 b93e 011c 06bc b1c7 bc3e e8b8 a43d
000002d0: 65ed ff3d 86b9 db3d 5038 8a3e 5135 e6bc
000002e0: 5729 f63d 8369 90be 513d bb3e 7b98 48be
000002f0: fc9a 04bf 64dc 84bd 0cbd 193e 17ee e6bd
00000300: cfb6 02bf 9b2b abbe 12b4 b13d 0091 a33c
00000310: beff c43e b3a2 1f3e afc9 793e cbe0 e63d
00000320: 027e 263e 6c1e a0bd eed4 c73d cb0e f03d
00000330: a9a7 0abe 0288 da3b e7f2 053e cbe5 6abd
00000340: bb98 353b c8e6 8bbe 9fc3 763e c85a 9c3d
00000350: b090 c9bd e205 d83d dc21 143c 698c 42be
00000360: 00f1 aabd 8bd4 eebd ff1b 97be b26e afbe
00000370: 9100 313e 8dcb 21be 34b7 bebd 2bbb 8f3d
00000380: d8f6 c13d 8594 a0bc 4ca9 fd3d 77b3 ca3d
00000390: 44c8 f83d f359 8bbd 9060 3ebe 69ff 1dbe
000003a0: 1ccd 05bd 02d6 6cbd 9214 65bd d051 b8be
000003b0: 0355 4f3c c026 0e3d b0e5 cebd c8f8 353e
000003c0: 3691 8bbe b319 93bd 076e 093d 73f3 883d
000003d0: ae91 bebd d82a a33c 8cb5 13be c80c 283d
000003e0: d341 1c3e 4d7d 83be 445c 073e e8f4 1d3d
000003f0: 6cf2 69be 1294 753d a31f 493e dbee bbbd
-0.06014655 -0.54805195 -0.050321467 -0.017927604 -0.5484098 -0.24634422 0.19747038 -0.0003634102
0.1318082 -0.1454616 -0.39988893 -0.20512006 0.23707801 -0.062362067 -0.6461992 -0.42136133
0.20991044 -0.06385933 -0.45372215 -0.5061577 0.2733244 -0.1611796 0.19034503 -0.20855129
0.04343199 0.29357794 -0.10690963 0.20108014 -0.17652246 -0.113213405 -0.08620143 0.2567758
-0.32194048 -0.11697534 0.34380567 0.20284651 0.012235381 -0.5187874 -0.43515387 -0.28454238
0.27249497 0.25356677 0.5113396 0.028208246 0.063967146 0.13842288 0.16965458 -0.023474356
-0.033736672 0.12374983 0.092783645 -0.10463852 0.062337108 -0.110205926 0.39464578 0.3880685
-0.34637982 0.009382106 -0.033770736 0.14472772 -0.079693705 -0.0647361 0.08977583 0.010181138
-0.32391912 -0.42972043 -0.29709488 0.015182751 -0.057788488 -0.021340122 -0.062417164 0.24361223
-0.008765971 -0.16633402 0.038628478 -0.16098462 -0.2152833 -0.08901466 -0.15492773 0.19596474
-0.2800368 0.3284123 0.35743517 -0.11538017 -0.3076732 -0.009365976 -0.08794245 0.03519334
-0.072320454 0.019883242 -0.11947407 0.09877404 -0.017100891 -0.09463914 0.0746954 -0.15820764
-0.35981366 -0.29320282 -0.19146551 0.2589834 0.24115287 -0.106141485 -0.29658893 -0.27380908
0.04321557 0.081918046 0.1836934 0.19752799 -0.2726393 -0.19386446 -0.021028755 0.10077489
-0.032434996 -0.15823579 -0.13626572 0.060472842 -0.062226836 -0.047085498 0.3663489 -0.04613221
-0.14544214 0.009580025 0.32900834 0.06895152 0.23400627 0.22459882 0.5398519 0.5380361
-0.269691 0.1050105 -0.22719225 0.36089966 0.12297337 0.22500604 0.0881247 -0.06286004
-0.23516366 -0.0541599 -0.5126041 -0.23623864 -0.16064838 0.11166408 -0.14783531 0.2713031
0.017288255 0.46591648 -0.025706781 0.31136551 -0.35462794 -0.31177118 -0.522112 -0.17441992
0.058256518 0.14703053 0.105523914 0.13489816 -0.23152144 -0.13320969 -0.1969447 -0.012189065
0.08666688 0.21372971 0.36653316 -0.08600178 -0.050923586 -0.34215552 -0.007913225 -0.2447616
0.17220718 -0.10814271 0.10391492 0.5462339 -0.3144051 -0.31195062 0.078393385 0.17569302
0.36247486 -0.008185388 0.36871102 0.080430806 0.12496451 0.10728745 0.26996088 -0.028101595
0.12019604 -0.282055 0.36570218 -0.19589417 -0.5179899 -0.06487349 0.15013522 -0.11275881
-0.51060194 -0.33431706 0.08676924 0.019966602 0.38476366 0.15589409 0.24393342 0.112733446
0.16259006 -0.078183025 0.0975741 0.117215715 -0.1354052 0.0066690454 0.13080941 -0.057348054
0.0027709443 -0.2732451 0.24098061 0.07634503 -0.0984205 0.10547997 0.009041276 -0.18998875
-0.08346748 -0.11661633 -0.29513547 -0.3426414 0.17285372 -0.15800305 -0.09312287 0.07018121
0.0947091 -0.01960207 0.123858064 0.098975115 0.12147573 -0.06804266 -0.18591523 -0.15429462
-0.03266631 -0.05782128 -0.05592782 -0.35999918 0.012654546 0.034704924 -0.10102403 0.17770684
-0.27259225 -0.07182636 0.033552196 0.06687059 -0.0930513 0.01991789 -0.14424723 0.041027814
0.15259485 -0.25681534 0.1321879 0.03856364 -0.22846383 0.059955664 0.19640975 -0.091764174

conv1.conv1.bias f4 [18]
00000000: d24e 553c 2343 023d 8ea7 7dbd 2e9e 3bbe
00000010: bea9 debd b0d2 81be 0066 313e 8815 f4bd
00000020: 8894 0fbe bca1 1d3c 8aef f63e 1d1d 2abe
00000030: 2dea cdbd e29a e43d da09 8abb b314 97be
00000040: be50 5e3e f720 39bd
0.0130192805 0.031802308 -0.06192737 -0.1832206 -0.108722195 -0.25356054 0.17324066 -0.11918169
-0.14021504 0.00962108 0.4822963 -0.16612668 -0.10054431 0.11162354 -0.0042126 -0.2950798
0.21710488 -0.045197453

conv1.conv2.weight f4 [18, 18, 1, 2]
00000000: f8af da3d 27d8 953e 8150 8d3d c3a9 853d
00000010: 855c 0b3e b3d7 933e 805c 4f3d fe7f 10bd
00000020: d1e8 e9bd 5894 febc 7c27 7bbe 6abd 44be
00000030: 638c 47be b6f8 3ebe 503e 92bc 052c 8fbe
00000040: 0165 733d 0a78 f13d 155b 733d a52d 30bc
00000050: d409 37be 2e73 efbc 3775 9f3d c173 6bbe
00000060: fa75 f83c a95c 143e 1876 60be 7a8f 95bb
00000070: 49ca 673d 82c3 943d 53e4 8a3d 4038 753e
00000080: 4ec7 a4bc 21f5 aa3d 7c18 ba3d e74e 0ebd
00000090: 5c9d b53d db14 f33b 8be8 283e 34a3 e8bd
000000a0: 0029 463c 8810 023d a408 cdbc 905c 13be
000000b0: a7b7 c8bd 2822 a1bd 9870 3dbb fdf0 ee3d
000000c0: fdd1 9abc ca13 323e 0296 a0bd 65e9 5cbd
000000d0: 8f52 083d c244 27be 23a7 3abd 08ef 0ebe
000000e0: bc02 c0bd 16a7 8b3d 6cac 77bd 6919 59bc
000000f0: 70e7 25be 68fb f13c 1eef 613d b10c c0bd
00000100: 964b a0bd 9e4d 96bd 75be b7bd 326e e53d
00000110: 1a49 d93d 884d c23d dc76 353d 7012 adbd
00000120: 8b3a f53d f0b4 ccbc c102 24be cd42 583d
00000130: fb4a 97bd 512a 9d3d d927 28be 7cca 12be
00000140: c35b c4bd a80e 0dbe dcf1 8ebd e329 ce3d
00000150: ac03 513e 01f5 093e b3da ffbc bcb6 db3c
00000160: 83b9 abbd 7ca9 5c3d da58 6b3e 7271 9a3e
00000170: 016b 393a 1061 fabd 6f67 313e 3f89 8c3d
00000180: 6c40 e1bd 4aed 913d 19fb a13d 34fd 40bd
00000190: 9d96 ab3d 0175 94bc cde1 773d a4e1 23be
000001a0: bfd5 f3bc db2c e0bd 3a04 033e 3e67 033e
000001b0: 7d24 203e a081 5f3d d3e7 a33d 5b57 63bd
000001c0: 7624 c3bd 41d1 353e 8ebc 0cbe bc86 b03d
000001d0: d1cc 143e 18a8 36ba bcda bdbd 4734 13bd
000001e0: f713 a73d b6c4 0cbe 0276 0ebe 00dc a3bd
000001f0: 96b4 3d3d ed84 e93d 5b75 a2bd bb43 f1bd
00000200: 8ca8 d0bc 76e8 5cbd ec2c 5e3c 40b2 b53d
00000210: 24a6 443d 0aeb 2bbe 6fa1 f43d c8a6 37bd
00000220: 9c02 743e 5e8a 143e e019 46be 7536 2bbd
00000230: 9710 5ebb 42ad 083e a902 a2bd 1c86 123e
00000240: 5e70 bf3d b160 7fbd 05c2 e9bd e509 d43c
00000250: 888d 86bd ef78 d2bd a7fd dbbd 3419 3fbd
00000260: 6904 00bd fc8b 8abc b8b6 4f3d 6768 b9bb
00000270: 77ca 873d 9fb0 353d ca88 e5bd 2b0d 61bd
00000280: 9b26 5b3c 6ddc 1bbd edd7 e2bd 8f29 e23c
00000290: 1679 a53d 2cb6 a53d 7d4b 293e 5bcb 5f3e
000002a0: 1976 a03c ea8f e3bd 6d27 4bbe 5375 38bc
000002b0: 7ddf 96bd 4f7d 243d f23c 3fbe 2d12 0e3c
000002c0: fa8f 81be 5efb 45be bd96 8a3b b431 d0bd
000002d0: ce91 3abe 83c7 5ebe 3f2d babd fbe0 d43c
000002e0: 034f 02be bc8b ddbd 204c 97bd a1c5 253e
000002f0: 9485 5cbd 33a1 493e 37dc 613e c4f9 cb3d
00000300: 4e91 923e 648a 423e a178 a03e cf79 e63c
00000310: 3f5d 45be 0aa7 2f3e 4454 66bd 1818 253e
00000320: 17f2 c43e bb7e 7d3e 8b58 bdbd b82a 5bbe
00000330: 0067 423e fd2f b53d bb17 d93d 9823 50bd
00000340: 5d03 3ebd 1372 76bd d5c1 bfbc 2661 1cbe
00000350: b4eb 113e 5480 a53c f8c1 5dbd a989 90be
00000360: d3cf 993e 6eb7 663e 15b6 9dbd 9a04 b2bb
00000370: ea65 773c f4f7 29bc f62f 88bb 3579 e1bc
00000380: 4f23 8d3d 917a 03be 7848 4fbe 4ba6 c2bc
00000390: f595 06be f6ec e9bd 971c e0bb f34d 45be
000003a0: 8252 09bd 7c1e 5fbc d7f6 043e 6350 27be
000003b0: 10b2 23be 952b b03d 8a09 48bd 3ce2 02be
000003c0: 2d8a 1e3e 1562 433d c736 4ebe 6dea e93d
000003d0: b217 723d 4eab 233d 976c e83c 1e5c 1bbe
000003e0: db24 3bbe e1cc 6c3d 7236 283d cb94 283e
000003f0: a285 13bd b4f0 9dbe 9eed c83d 9dc9 433e
0.106780946 0.29266474 0.069001205 0.0652652 0.13609512 0.28875503 0.050625324 -0.035278313
-0.11421359 -0.031076595 -0.24526781 -0.1921288 -0.19487147 -0.18649563 -0.017851979 -0.27963272
0.059422497 0.11790474 0.059413034 -0.01075307 -0.17874843 -0.029229727 0.07786029 -0.22993375
0.030329693 0.14488472 -0.21920049 -0.004564223 0.0565894 0.07263853 0.06781831 0.23947239
-0.020114567 0.08347536 0.09086701 -0.034743216 0.088679045 0.0074182576 0.16494958 -0.113592535
0.012094736 0.031754047 -0.025028534 -0.14390779 -0.09800654 -0.07867843 -0.0028906222 0.116670586
-0.018898958 0.17390361 -0.07841112 -0.05393352 0.03328186 -0.16334823 -0.04556955 -0.1395837
-0.093755215 0.068189785 -0.06046717 -0.013250687 -0.16201568 0.029538825 0.05515968 -0.09377421
-0.07826917 -0.07339023 -0.08971874 0.11202659 0.10609646 0.09487444 0.044302806 -0.08450782
0.11974057 -0.024988621 -0.16016676 0.05279808 -0.07387348 0.07674087 -0.1642145 -0.14335054
-0.09587815 -0.13775122 -0.06979725 0.10066583 0.20411557 0.13472368 -0.031232214 0.026820533
-0.08384993 0.05387257 0.22983113 0.30164677 0.0007073135 -0.122255445 0.17324613 0.06862115
-0.109986156 0.071253374 0.07909221 -0.047116473 0.083783366 -0.018122198 0.060518075 -0.16004044
-0.029765008 -0.109460555 0.12794581 0.12832353 0.15638919 0.05456698 0.08003201 -0.05550323
-0.09528439 0.17755605 -0.13743803 0.086194485 0.14531256 -0.0006967797 -0.09270236 -0.035938527
0.08158105 -0.13746914 -0.13912204 -0.08000946 0.0463148 0.11402307 -0.0793254 -0.11780497
-0.025470994 -0.05393263 0.013560515 0.08871889 0.048010007 -0.16788879 0.119448535 -0.04483679
0.2382912 0.14505908 -0.19345808 -0.04179998 -0.00338844 0.13347343 -0.07910664 0.14308971
0.09347604 -0.06234807 -0.114139594 0.025883624 -0.06569964 -0.102769725 -0.1074174 -0.046654895
-0.031254206 -0.016912453 0.050711364 -0.0056581977 0.06630414 0.044357892 -0.11207731 -0.0549442
0.0133759035 -0.03805201 -0.11076341 0.027607707 0.08079736 0.08091387 0.16532703 0.21854918
0.019587563 -0.11111434 -0.19839258 -0.011258441 -0.07366846 0.040158566 -0.18675593 0.008671326
-0.25305158 -0.1933417 0.004229395 -0.1016573 -0.18219683 -0.21755795 -0.09090661 0.025986185
-0.12725453 -0.10817668 -0.073875666 0.1618867 -0.053838328 0.19690399 0.22056662 0.099597484
0.28626484 0.18998104 0.31342033 0.028134255 -0.19273852 0.17153564 -0.056232706 0.16122472
0.3846595 0.24755375 -0.09245404 -0.21403015 0.18984604 0.08847044 0.10600229 -0.050815195
-0.046389926 -0.060167383 -0.023407856 -0.15271434 0.1425007 0.020202793 -0.05414006 -0.28230026
0.3004137 0.2253091 -0.07700745 -0.0054326775 0.015099982 -0.010374058 -0.004156108 -0.027523616
0.068915 -0.12839724 -0.20242488 -0.023760935 -0.13143142 -0.1142215 -0.0068393457 -0.19268017
-0.03352595 -0.013618108 0.12984787 -0.16339259 -0.15985894 0.086020626 -0.048837222 -0.12781614
0.15482397 0.04770096 -0.20138083 0.11421666 0.05910463 0.03995829 0.028372092 -0.15171859
-0.18275778 0.057812575 0.041067548 0.1646301 -0.036016114 -0.30847704 0.09810947 0.19119878

conv1.conv2.bias f4 [18]
00000000: eb30 243d c2b6 08be 8aa5 d93d 6c54 15be
00000010: 2ea9 923e b2f4 063e 0233 623b 972b cabd
00000020: a8b0 2bbe 511e 8d3d 5f62 2cbd d885 06bd
00000030: 5d08 f03c 56c4 7bbd 4631 3dbd f9af e03c
00000040: f4b3 bfbd ef78 5b3e
0.040085714 -0.13350967 0.10627277 -0.14582986 0.286447 0.13179281 0.0034515266 -0.09871595
-0.16766608 0.06890548 -0.042086 -0.032842487 0.029300863 -0.061466537 -0.04618957 0.02742766
-0.09360495 0.21432851

conv1.decision_head.channel_gates f4 [5, 18]
00000000: 9234 553f 8438 603f 5929 1c3f a8d3 263f
00000010: 5522 fb3e e579 ea3e 8222 f63e 399a 593f
00000020: c00a 2f3f 1b98 1e3f c1cb 473f 2c93 e53e
00000030: 4be9 d53e 801a f23e 2402 fb3e 8e8b 273f
00000040: 708c 513f 5cbf fd3e 47bc 593f f3e7 333f
00000050: b74f db3e d0a6 df3e 3e0d e63e d535 f93e
00000060: 7cae db3e e986 453f 1006 3c3f dc02 e33e
00000070: 87d0 313f d1fe e43e 7e6f dd3e 5e8c e53e
00000080: 529d e83e b3cc 453f 0547 603f e3f7 e23e
00000090: 30ea 493f f926 513f df97 313f 8b8a 103f
000000a0: 5dfe ec3e 9c98 f93e 90e6 f13e 9df4 3d3f
000000b0: 2241 2e3f fe23 133f 1456 2e3f bb7e f53e
000000c0: aab7 e93e a883 ee3e d064 ef3e 2d9c 243f
000000d0: e3e5 4b3f c143 f13e a71a 5d3f 6264 693f
000000e0: b591 113f 3499 193f cfcf fc3e e545 f03e
000000f0: 6dcc e33e c2c9 263f c73c 2c3f 46be 203f
00000100: 4716 293f 2396 f83e 3a5e f93e 5ffe f13e
00000110: c2f2 cd3e 2dfd 383f 73a5 573f 3b9c e83e
00000120: 56b6 513f 3047 5f3f 3cee 4c3f cfb3 1e3f
00000130: dae4 ea3e 8b96 e83e e862 f93e ea12 583f
00000140: 34a2 2f3f c5c8 153f d679 1d3f 8b0e e53e
00000150: 7a2d cc3e 39bd f33e b155 f63e a6ed 233f
00000160: 56ee 573f a2fd fa3e
0.8328334 0.87586236 0.6100059 0.6516671 0.4904963 0.45796123 0.48073202 0.8500095
0.6837578 0.61950845 0.7804528 0.44838846 0.4177955 0.47285843 0.4902507 0.6544732
0.81854916 0.49560058 0.85052913 0.702758 0.42834255 0.43681955 0.44931978 0.48673883
0.4290656 0.7715898 0.7344675 0.4433812 0.6945881 0.4472566 0.43249124 0.44833654
0.45432526 0.7726547 0.8760837 0.44329748 0.78872967 0.8170009 0.6937236 0.564614
0.46287814 0.48749244 0.47246218 0.74201375 0.68068135 0.57476795 0.68100095 0.4794825
0.45647937 0.4658482 0.467566 0.64300805 0.79647654 0.47122005 0.86368793 0.91168797
0.56862956 0.59999394 0.49377295 0.46928325 0.44491902 0.6515161 0.6728024 0.62790334
0.6604962 0.48552045 0.48704702 0.47264382 0.40224272 0.72261316 0.8423683 0.45431694
0.8191885 0.87218 0.80051017 0.61993116 0.45877725 0.45427355 0.48708272 0.8440386
0.6860688 0.58509475 0.6151403 0.44737658 0.39878446 0.47605303 0.48112252 0.640345
0.84348047 0.4902163

conv2.conv1.weight f4 [36, 18, 1, 2]
00000000: aff0 55bd c6b1 7fbd a576 553e b341 d1bd
00000010: 838a 743e cae5 2c3e 87b6 15be 11ed a93d
00000020: 52f2 673e d9a2 543b 7181 e83e a5a1 213e
00000030: 24bb 663c ce38 ff3d eed0 d03d efab c13c
00000040: f1bc 223e 5120 8a3c 40c9 66be 3841 77be
00000050: 3aed 683e bb9d 253e e215 17be 6a55 843e
00000060: 0318 963c a872 9f3e 1b89 11be 171b 6dbd
00000070: 875e 923d 1c0e 593e fd7c eebd b8f9 4d3d
00000080: 2d6b 69be 118c 5dbd 2de0 0c3f 2165 f03e
00000090: 0624 12be 6738 06bd 071b e9bd 1546 913c
000000a0: 783d e33d 3866 593e e9c7 0f3e d03a e9bd
000000b0: 9522 e23c 8187 3dbd 6213 393e 9eb6 ab3d
000000c0: d5de 85bd dd29 af3d b12a 40be ff35 1fbd
000000d0: a3e2 f9bd c80e 243b d626 3fbe 6b31 3fbe
000000e0: 8079 15be 6e8a 4b3e 0252 12bd 4e89 9f3c
000000f0: 486b 01be 4717 c93d d938 e23d b4e3 d0bd
00000100: 6965 82bd cf6c 1a3d 17e8 133e 931e a0bd
00000110: 1c74 01be 2a23 dc3d 79e4 82bd 6562 2e3e
00000120: 6737 fa3d 4a97 ef3c e3a2 8bbd 545e 213e
00000130: 9815 a73d cf22 2dbe 28a2 293e c293 c53d
00000140: e4a6 a43d 182d e9bd 2813 c9bd 257c adbd
00000150: dc28 3abb c2aa 9bbc 1570 a53c d9a8 b6bd
00000160: 1c78 73bd 463e bc3c 5a6f 4e3d 43cb 963d
00000170: c0ad 2d3e 91fc a63c 1f02 22bd 4e0d 253e
00000180: a13a 15be 38b6 e23d 531c 6e3d e52f 583d
00000190: e1ce e73d 242e 29be 3dd3 ea3d 6056 17be
000001a0: 0535 123e 8078 ec3d ce10 37be abbb d4bd
000001b0: 3213 86bd dcc2 5abe 4260 c73d c090 203d
000001c0: c3fe 0d3e 9296 4f3e 0fd3 9abd 8d1d e03d
000001d0: 5c45 5ebe 78e0 19be a208 e5bc 8495 5cbe
000001e0: cec4 72be 7bda 61be 2ee4 c93e 3016 3e3e
000001f0: 288b 11be e506 c83d 23f2 ac3e 47e8 793e
00000200: 4709 47be d4e1 1ebc a691 c23d 4a71 4abd
00000210: 9247 223e d817 87bc 7f7e abbc aa3f 1f3d
00000220: 3cc2 483d c646 a2bd a8e4 943d f113 073e
00000230: e31f 0ebe 05a0 0bbd 6c3a a4bd 58a1 ab3d
00000240: 3d2d 853d 2d9d 5ebd 8f33 a3b8 c6f5 153e
00000250: 26af 0f3e d710 2f3c c99b 92bc be0c 0e3d
00000260: 676c d63d 3a5a f8bc 1b47 b8bd 0140 273e
00000270: 63de 263e de6c a8bd 1ea8 22be ce9e cdbd
00000280: 24b6 103d b54e ecbd e387 043e 5209 ddbc
00000290: 175d 14bc c70f 05be 401a cd3b 9ae9 42bc
000002a0: 511d 13be 431f 11b9 0564 a3bd c04b f13d
000002b0: b5cf 8abd 2f8e cfbc 1170 273e cf23 bdbd
000002c0: 3d18 17be 0ac2 1f3e 6ad6 a6bd 1cab 953c
000002d0: f670 283d 59ca f33d 68f8 18bd 26d1 49bd
000002e0: 118a 9abd c6f4 d6bb 0abd 31bd b816 07be
000002f0: b133 d23d 279d debb ee3c e6bd 6d15 433d
00000300: e1f9 153c 1052 593c b32c 2c3e bdcd 173d
00000310: cfc9 033e 58f0 21be 1ebb 11be 4e6c 0f3e
00000320: f7c2 d9bd e66e 1bbe a4c9 473d 1e25 a5ba
00000330: c701 f4bd c010 23be 1637 03bd 0509 183e
00000340: 05f8 9cbc f46a dbbd a51b e53c 9e28 d9bb
00000350: 272e dbbd a5bc 143e ae71 4fbd 0235 cb3d
00000360: 909c 833e 7103 0a3e 9ad8 243d baf3 01be
00000370: 1f03 133e 2577 0fbd 71cb 9c3d a862 d9bc
00000380: c5a9 0c3e 69e3 03be e692 a03d 75de d9bd
00000390: 7292 31bc 3943 e83d 0fa9 9ebe 8951 8bbd
000003a0: c88c 143e aeae 34bd 9a5b 94be b88b b2bd
000003b0: 0c5f 863e 42cd e93e 270c 893e d5c1 e33e
000003c0: 0d9d b53c 7577 a7bd e2b2 d33c 31c7 b8bc
000003d0: 2d04 0bbe 3f1e 523e 4191 d93d 9cc3 e6bd
000003e0: 51e3 4f3b be63 b33e 4755 4d3e 8be7 3c3d
000003f0: cea5 1d3d 7b49 6b3d 2d5d 7d3d e47a eebd
-0.052231487 -0.062425397 0.2084604 -0.10217609 0.23880963 0.16884533 -0.1462041 0.0829717
0.22651032 0.0032445698 0.45411256 0.15784319 0.014082704 0.124620065 0.101961 0.023641555
0.15892388 0.016861113 -0.22537708 -0.24145973 0.22746745 0.1617345 -0.14754441 0.25846416
0.018321997 0.31142163 -0.14212458 -0.057887163 0.07146936 0.21196789 -0.116449334 0.05028698
-0.2279479 -0.054088656 0.55029565 0.46952155 -0.14271554 -0.032768633 -0.11382108 0.017733613
0.110957086 0.212304 0.14041103 -0.11388171 0.02760438 -0.046271805 0.180738 0.08384441
-0.065366425 0.08552907 -0.18766285 -0.038869854 -0.12201431 0.0025033224 -0.18667158 -0.18671195
-0.1459713 0.19877025 -0.03572274 0.019474652 -0.12638581 0.09818893 0.11045999 -0.10199681
-0.06366999 0.037701424 0.14444004 -0.078183316 -0.12641948 0.107488945 -0.06391234 0.17029722
0.122175984 0.029246945 -0.068181776 0.1575864 0.081584156 -0.1690781 0.16565764 0.09647323
0.08039644 -0.11385554 -0.09818107 -0.08470944 -0.0028405702 -0.019002322 0.020195046 -0.08918924
-0.059440717 0.022978913 0.050399162 0.07362988 0.16960812 0.020384105 -0.039552804 0.16118357
-0.14573146 0.11069912 0.05813248 0.05278005 0.11318756 -0.16521508 0.11466072 -0.14779043
0.14278038 0.11546421 -0.17877504 -0.10387357 -0.0654663 -0.21363395 0.097351566 0.039200544
0.13866715 0.20272282 -0.075597875 0.10943136 -0.21706146 -0.15027034 -0.027958218 -0.2154141
-0.23707888 -0.22056 0.394319 0.18563151 -0.1421324 0.0976694 0.33778486 0.24405013
-0.19437133 -0.009697396 0.095004365 -0.049424447 0.15847614 -0.016490862 -0.020934341 0.038879074
0.04901336 -0.07923655 0.07270175 0.13191201 -0.13879351 -0.034088153 -0.080189556 0.08380383
0.06502769 -0.054349113 -7.782049e-05 0.14644536 0.14031658 0.010685167 -0.01789655 0.03468012
0.10469895 -0.03031646 -0.08997937 0.1633301 0.16295771 -0.0822389 -0.15884444 -0.10040055
0.035329953 -0.1153845 0.12942462 -0.026981983 -0.0090553975 -0.129943 0.0062592328 -0.011896515
-0.14366652 -0.00013839923 -0.079780616 0.11782026 -0.06777898 -0.025336353 0.16351344 -0.092353456
-0.1475534 0.15601364 -0.08146365 0.018270068 0.041123353 0.11903829 -0.037346274 -0.049271725
-0.07545865 -0.006559941 -0.043393172 -0.1319226 0.102637656 -0.0067936364 -0.1124209 0.047627855
0.009153814 0.013264194 0.16813926 0.03706144 0.12869953 -0.1581434 -0.14231536 0.14006159
-0.1063289 -0.15179023 0.048776284 -0.0012599563 -0.119144015 -0.15924358 -0.032034956 0.1484719
-0.019161234 -0.10713759 0.027967284 -0.0066271564 -0.10702162 0.14525087 -0.050645523 0.0992222
0.25705385 0.13477875 0.04024563 -0.1269063 0.1435666 -0.035025734 0.07655991 -0.0265363
0.13736637 -0.12879719 0.07840519 -0.106381334 -0.010838138 0.11340947 -0.30988356 -0.06802661
0.14506829 -0.0441119 -0.28976136 -0.087180555 0.2624439 0.45664412 0.26767084 0.4448382
0.022169614 -0.081770815 0.025842134 -0.02255592 -0.13575812 0.2051935 0.10623408 -0.11267778
0.0031721184 0.35037035 0.20052062 0.046119254 0.0384882 0.057443123 0.061856437 -0.11644533

conv2.conv1.bias f4 [36]
00000000: 86f0 8a3e 947d cb3e 425d 583e 84a4 c5bd
00000010: cf5a cbbd 66b2 19be 275d 003e 907a 523e
00000020: aeff 363a 74e6 2abe e855 b7bc 23a3 bfbc
00000030: 6eaa 0c3d 7503 953d c20d 18bd 5730 c8bd
00000040: c776 1cbe 4b7c 223d dcc0 a93d 090e 01be
00000050: fe39 87bd 65fe 2abe 2964 553e 2ebc 1a3c
00000060: ae35 803d 45c1 823e 27f6 ebbd 9567 a1bd
00000070: 76e3 13be 70e2 28bd 0b0d 2d3d cce0 593e
00000080: db91 92bd 3187 dbbc 63e1 33bc ef69 613e
0.2713663 0.39744246 0.21129325 -0.096505195 -0.0992943 -0.1500946 0.12535535 0.20554566
0.0006980848 -0.16689473 -0.02237983 -0.02339322 0.034342222 0.0727605 -0.037122495 -0.09774845
-0.15279685 0.039669316 0.08288738 -0.1260301 -0.06602858 -0.16698606 0.2083899 0.00944428
0.062602386 0.25538078 -0.11521559 -0.07881085 -0.14442238 -0.041231573 0.042248767 0.2127716
-0.07156726 -0.026797863 -0.010979029 0.22013067

conv2.conv2.weight f4 [36, 36, 1, 2]
00000000: 7b33 1d3e 45db 783e b531 ccbc 00aa a43c
00000010: 67d6 c0bd 1e7c d1bd 927d 183e 2476 a63d
00000020: 11d5 5fbd c6b7 cdbd 6641 b03c 24b1 40bd
00000030: 859e d7ba 74d9 a83d 8743 743d d858 f63d
00000040: a71b ccbc 2339 7a3d e298 debc ad6f 8a3d
00000050: a28f ec3c 8680 c1bd 4bb2 a33d 7b6e ae3d
00000060: 883e 8abd 086a 703d 524c fcbc e957 5b3c
00000070: 342a b53d e275 9a3c cf29 003d 26b2 5fbd
00000080: f76d 2f3d 5dbe 25bd 03e5 debc e56b 84bd
00000090: 4430 dfbd 5f16 64bd bc52 f63d 659b 8cbc
000000a0: 0ac5 2f3d 3fc8 61bd bee3 46bd bc3d f7b8
000000b0: ce5a 993b 8264 09bd baf1 583e 4969 4d3e
000000c0: 2e8e 83bc 1242 913d 86b1 9dbb 0dd1 533d
000000d0: a932 dbbd 2c75 9b3c 3d7a 1cbd a798 8fbc
000000e0: a586 cebd f93d 6d3c 754d af3d c509 f4bc
000000f0: 28dc 283e 0aae 363e 8458 6ebe 5baf 8abb
00000100: 37e2 bc3d 4234 583d 856e 423d 9b0c a2bd
00000110: 4d8d cdbc 6df6 2cbb 0f0d 893c 17bc 42bc
00000120: d40f d53b 8c51 733c 9e1c df3d afdd bfbd
00000130: eab4 b8bd a72b a0bd 2716 bfbd 04c4 d5bd
00000140: a40f 58bd 8d7a cbbd ee85 a33c a8f7 0f3d
00000150: 4004 cd3d e368 8b3e c334 14bd 264e 133b
00000160: 0215 adbd d03b 413d 828e a5bc 99cf 6ebc
00000170: 6646 b8bd 5a85 39bd f1ff ea3d ec12 ea3a
00000180: eac2 3c3c a042 f33d 31c3 19bd cfe2 943d
00000190: 013e cc3d 46ec df3d f698 47bd ebed dfbd
000001a0: 5f1e adbd 7a88 c43d 4761 08bc 0492 f63d
000001b0: 6309 2dbe c488 8f3d d300 0abd ad4d b63c
000001c0: 2af9 9c3d 4f00 1abd 75c9 7d3d 0b2e e53d
000001d0: b404 81bd a35f 26bb 82e6 f83b abc8 c8bb
000001e0: 7f75 7d3d a4bf bf3d f33f 913d d552 a53d
000001f0: de5f ebbd c190 113c befe 26bd 0d52 35bc
00000200: 4873 543c e604 a03d 68a3 2fbd 82c5 7bbd
00000210: 3312 b43d 1a95 0cbd 6cdd 5bba d488 143e
00000220: 7631 56bd cb9d 133e 4518 1bbc 14b0 83bd
00000230: 2142 c13c d312 c3bd 21dd c33b d69d c63c
00000240: 1e65 95bd 64da 6e3d 6b9a b23d 3f47 423c
00000250: fb1a b53d 70bb dfbd 90af 9dbd 05ea b5bc
00000260: 5e0d 1e3d 3688 7c3d 474d 8fbd 5698 8d3c
00000270: b497 343e 7e2e 64be d000 033e ceff ac3d
00000280: 6d6f 813d 4408 a2bd 327f 143d dea5 f7bd
00000290: 58c1 913d 2859 173c b866 e03c 49ba 693c
000002a0: 3da2 a83d ab4c 8bbd 177c b13d 5af0 0f3e
000002b0: 158b 8cbc fb9a 02bc dc24 da3d 470e 563d
000002c0: 4619 82bc 189d 063d 6435 d63d 4b93 b93d
000002d0: e2d7 29bd f8d6 5abd 07c9 e0bd e6c6 913a
000002e0: dc62 5b3d 398e fcbc 1ae5 05be c6c2 86bd
000002f0: 0064 85bd 6da9 393d 52c8 5dbd 29a3 753d
00000300: 3cf0 b33d a324 12be a501 223e 5997 06be
00000310: 77bf da3d 99cf 51bd b8fa 113c 428f 243d
00000320: 39df 6cbc e46e 51bc 56b5 433d 165d cd3d
00000330: 9d31 743d 5738 3dbd 2376 4d3e 8890 95bb
00000340: a61c 013e 13e7 2bbe 45fe ae3c 3ddd debd
00000350: e1db 523d b154 e43d 9656 e6bd 6657 eebc
00000360: 05a9 8a3e ed97 9a3e 3229 c23d 30a4 683c
00000370: e13c 00bb 9027 aabd 0883 1e3e 6ab0 8a3d
00000380: 5de6 a43d 756a b93c 5188 0dbc 8200 bcbd
00000390: 3208 253e d50c bc3d 5882 163c bcc2 bf3d
000003a0: c7b6 193e 5789 263e afd6 ce3c 66d1 a13d
000003b0: 2234 cbbd 3578 9b3d 00fa 47bd 3e4d 363e
000003c0: 9812 7c3d 9a12 bcbc 37b4 253d 3fa9 963d
000003d0: 1938 093e cf10 083e ee50 9e3d 6a08 9abc
000003e0: 1f87 febb 55c9 d3bd 1807 643b 91f1 233d
000003f0: fb6a 32be 7600 4dbd e8de c4bd 450b 5bbd
0.1535167 0.24302395 -0.024926046 0.020100594 -0.09415894 -0.102287516 0.14891651 0.08128002
-0.054646555 -0.100448176 0.02151556 -0.047043934 -0.0016450441 0.08244601 0.05963471 0.12028664
-0.02491553 0.061089646 -0.02717251 0.06759582 0.028877083 -0.09448342 0.07992991 0.08517166
-0.06750208 0.05869487 -0.030798111 0.013387659 0.0884594 0.018855039 0.03128987 -0.054613255
0.04282948 -0.040464748 -0.02720881 -0.06465892 -0.10897878 -0.055685397 0.12027499 -0.017163942
0.04291252 -0.05512261 -0.048557036 -0.00011789377 0.004680014 -0.033543117 0.21185961 0.20059694
-0.016059007 0.0709268 -0.004812422 0.05171304 -0.10703022 0.01897677 -0.038202513 -0.017528845
-0.10084275 0.014480107 0.08559696 -0.029789815 0.16490233 0.17839828 -0.23275954 -0.00423233
0.092228346 0.052784212 0.04746868 -0.079125606 -0.025091792 -0.0026391998 0.01672986 -0.011885664
0.006502131 0.014850985 0.1089413 -0.09368455 -0.090188816 -0.07820826 -0.09330397 -0.10437778
-0.05274929 -0.09935484 0.019961324 0.035148293 0.10010576 0.2722846 -0.03618313 0.0022477
-0.084512725 0.047176182 -0.020209555 -0.014575862 -0.089978024 -0.04529319 0.11474598 0.0017858422
0.0115210805 0.11877942 -0.037539665 0.07269823 0.09972764 0.109337375 -0.04872986 -0.10934051
-0.084530585 0.09596343 -0.008323974 0.12039569 -0.16898112 0.07008508 -0.033692192 0.022253836
0.07664712 -0.03759795 0.061959703 0.111904226 -0.06299725 -0.0025386594 0.007595838 -0.006127437
0.06187963 0.093627244 0.070922755 0.080724396 -0.114928946 0.00888461 -0.040770285 -0.011066926
0.012966938 0.07813434 -0.042880446 -0.061467655 0.08792534 -0.03432188 -0.00083871814 0.14505321
-0.052293263 0.14415662 -0.0094662355 -0.064300686 0.023591103 -0.09525075 0.0059772884 0.024245184
-0.07294677 0.058313742 0.08720859 0.011857807 0.08843037 -0.10924423 -0.076995015 -0.022206316
0.038586967 0.06165334 -0.06997161 0.017284553 0.17635995 -0.2228336 0.12793279 0.08447228
0.06320081 -0.07911733 0.036254115 -0.120921835 0.071169555 0.009237565 0.02739273 0.014265605
0.082340695 -0.06801733 0.086662464 0.1405653 -0.017156163 -0.007971521 0.106515616 0.05225971
-0.015881192 0.03286466 0.10459402 0.09061297 -0.041465648 -0.053427666 -0.10975843 0.0011121898
0.053561077 -0.030829536 -0.13075677 -0.06580119 -0.06513214 0.045327593 -0.05414612 0.059970055
0.087860554 -0.14271788 0.1582094 -0.13143672 0.1068105 -0.05122337 0.008909874 0.040175684
-0.014457517 -0.012782786 0.047780357 0.1002752 0.059617627 -0.046196308 0.20064597 -0.0045643486
0.12608585 -0.16787367 0.02136148 -0.108820416 0.051479224 0.11148966 -0.11246984 -0.02909441
0.27082077 0.30194035 0.09480514 0.014199302 -0.0019567537 -0.08308327 0.15479672 0.067719296
0.08051751 0.02263377 -0.008638457 -0.09179784 0.16116408 0.09182135 0.00918635 0.093633145
0.1501113 0.16263328 0.025248853 0.07901268 -0.09922053 0.07591287 -0.048822403 0.17802903
0.06154117 -0.022958089 0.04045507 0.073565 0.13400306 0.13287662 0.0773028 -0.01880284
-0.0077675725 -0.103411354 0.0034794267 0.040025298 -0.17423622 -0.050049268 -0.096128285 -0.053477544

conv2.conv2.bias f4 [36]
00000000: de84 be3d 441a 15be 0a87 ecbd ebab 233d
00000010: 73c6 d73e ca03 21bb aeb1 cf3e 90d7 ecbd
00000020: 067d e23e 28fd aa3e 0310 413c e344 703c
00000030: dcd5 95bd 4c95 e73c eeac da3e e64c e1bc
00000040: e8e4 36bd 77dd ebbd 1bf8 1b3d b60b 65bd
00000050: a2ae 313d f354 3dbd feca 023d 9334 e63d
00000060: ce58 fd3e 6f46 093e eef4 5f3e e97e c9bd
00000070: 1555 8ebd 2d27 d9bd c8fd febd 8f54 cd3d
00000080: 7c3b d93c 3254 0d3c 3e43 ffbd 41c4 29be
0.09302686 -0.14560801 -0.11549194 0.039958876 0.42143592 -0.002456891 0.40565246 -0.11564553
0.4423601 0.33396268 0.011783603 0.014664861 -0.07316181 0.028269432 0.4271006 -0.027502488
-0.044651896 -0.115168504 0.03807841 -0.05591937 0.043379433 -0.046223592 0.03193187 0.112404965
0.49481815 0.13405775 0.21870777 -0.09838659 -0.06949822 -0.10603175 -0.12450749 0.10025894
0.026517622 0.008626031 -0.12463997 -0.16578771

conv2.decision_head.channel_gates f4 [5, 36]
00000000: 1d39 3e3f bfb6 e83e af53 ec3e c064 053f
00000010: 4d08 e13e efd5 e13e 6850 2f3f 8dd4 e03e
00000020: de4f 243f d49d e13e 9cb4 e13e bae4 f33e
00000030: 69fc e63e 34e4 e83e c469 e13e e300 e13e
00000040: 5cef e03e b6c7 e23e 7093 483f 2b16 e13e
00000050: ec9c e13e 165d e73e a044 e03e adb1 153f
00000060: f675 e63e 7992 ce3e aee7 e03e 5485 e23e
00000070: 9a00 e13e d343 f23e 0e42 de3e 9963 4b3f
00000080: 6d3f f93e 2d02 e13e fd03 e13e 9c46 e43e
00000090: c889 373f 6850 d33e 68b6 ee3e 565b ea3e
000000a0: 9537 eb3e a33c eb3e d527 323f 9fd5 f03e
000000b0: d5c6 473f 2ee0 ea3e b782 eb3e c242 ea3e
000000c0: cd54 f23e c747 ee3e 1a4b ee3e 9f4a eb3e
000000d0: 4047 ec3e 2cbf f03e df0c 383f b7c1 ec3e
000000e0: d3eb ed3e ac00 ea3e 8cd7 ee3e 5e89 023f
000000f0: 6cf8 ed3e 62f6 e93e 910d ec3e 50b7 e93e
00000100: c932 eb3e 340a ee3e 83b6 ec3e 06e1 743f
00000110: f440 e63e c331 eb3e 2a4c ea3e 4033 f73e
00000120: 9774 343f 355f e73e 0190 f03e a904 ef3e
00000130: 6af5 e83e 89df e83e a10c de3e 3502 e93e
00000140: aaf6 533f 64ee e83e 038e e93e f265 fa3e
00000150: 7027 eb3e 2fa8 e83e 4095 e63e 87f1 e83e
00000160: 0455 e93e c720 e03e 1080 543f a8ee e83e
00000170: de3e e73e 67b7 eb3e 3d8d eb3e 1e1a 063f
00000180: 9f73 ed3e 7a45 393f b9d9 e83e 52f3 e83e
00000190: 2ff0 e83e 5d6c ed3e ed40 fc3e ceeb 413f
000001a0: fa3c de3e 54f0 e83e 3919 e93e 07d0 e43e
000001b0: 4dad 2e3f 0923 cc3e 832d dc3e 89bc f33e
000001c0: 1020 c13e 247d c13e de10 183f 4a14 bf3e
000001d0: f124 3f3f 2a6d c13e de36 c23e f072 e93e
000001e0: f4a9 c23e 221b c43e c14b be3e a614 c13e
000001f0: a802 c13e 200c f23e 8c0c 3e3f fdfc c03e
00000200: e2f9 c13e e5b0 c63e af7c c23e 429e 1f3f
00000210: 5f1a c73e c597 f23e 3231 c13e 683a c33e
00000220: ad1b c13e a416 ca3e 31c3 ef3e 738d 443f
00000230: 76b6 ee3e fe18 c13e dd30 c23e 4236 c73e
00000240: 18b0 1f3f f7bc f63e 2cd2 f93e 7797 e43e
00000250: f9f6 f93e b160 f93e 2118 213f cd3e f73e
00000260: 8622 3c3f ea7f f93e e281 f93e 49f8 e93e
00000270: cd44 fa3e 06c2 f93e 3aa7 f83e e4ee f93e
00000280: 6657 f93e ddc2 fc3e 1792 583f 4d0a f93e
00000290: 1101 fa3e 69b1 f83e c9a8 fc3e f5c7 193f
000002a0: cab6 f73e cfd8 c33e 2a89 f93e 1cbb f93e
000002b0: 38f0 f93e 56eb f83e 4770 f83e ed3c 523f
000002c0: 8f7b f93e 99f9 f93e a4bb f93e f97b f43e
0.743059 0.45451924 0.46157596 0.5210686 0.43951645 0.4410853 0.68482065 0.43912163
0.6418437 0.44065726 0.44083107 0.47635442 0.4511445 0.45486605 0.44026005 0.4394599
0.43932617 0.44292992 0.7834997 0.43962225 0.44065034 0.45188206 0.43802357 0.58474237
0.45011872 0.40346125 0.43926758 0.44242346 0.4394577 0.4731737 0.4340977 0.7944885
0.48681203 0.43946972 0.43948355 0.4458512 0.7169461 0.41272283 0.4662354 0.4577281
0.45940843 0.459447 0.6959203 0.4703798 0.7803777 0.4587416 0.45998165 0.45754057
0.47330323 0.46539137 0.46541673 0.4595537 0.4614811 0.47020853 0.7189464 0.46241543
0.46468982 0.45703638 0.46648824 0.50990856 0.46478593 0.45695788 0.461041 0.4564767
0.45937183 0.4649216 0.46232995 0.9565586 0.4497143 0.45936403 0.45761234 0.48281288
0.704904 0.45189825 0.46984866 0.46683243 0.45499736 0.45483044 0.4336901 0.45509496
0.82798254 0.45494378 0.4561616 0.48905903 0.45928526 0.45440814 0.45035744 0.4549677
0.45572674 0.43775007 0.8300791 0.4549458 0.4516515 0.46038362 0.46006194 0.523836
0.46377274 0.7237164 0.4547861 0.4549814 0.45495746 0.46371737 0.49268284 0.75750434
0.43405896 0.45495856 0.45527056 0.44689962 0.68233186 0.3987048 0.43003473 0.47604778
0.37719774 0.37790787 0.5940074 0.37320167 0.74665743 0.37778598 0.37932485 0.45595503
0.3802029 0.3830195 0.3716717 0.37711066 0.3769734 0.47274876 0.74237895 0.37693015
0.37885958 0.38806835 0.3798575 0.6235086 0.38887307 0.47381416 0.37732846 0.38130498
0.37716427 0.39470398 0.46828607 0.76778334 0.46623582 0.3771438 0.37927905 0.38908583
0.6237807 0.48191044 0.4879316 0.44646809 0.48821238 0.48706582 0.6292744 0.482901
0.7349018 0.48730403 0.48731905 0.4569724 0.48880616 0.4878084 0.48565084 0.48815072
0.48699492 0.4936742 0.84597915 0.4864067 0.4882894 0.48572853 0.49347523 0.60070735
0.48381644 0.3825135 0.4873746 0.48775566 0.48816085 0.48617047 0.4852316 0.82124215
0.4872708 0.4882324 0.4877597 0.47750834

ip1.weight f4 [6, 1152]
00000000: 5512 83ba 9121 a5bc c12c 52bc 0934 213d
00000010: 915c e33c a0db 6f3c 8c80 313b 78c3 1f3d
00000020: 1703 eb3c c5d2 1b3d de96 123d 6e73 533d
00000030: a37e 553d 2bd8 213d 37d2 713d 4216 083d
00000040: 9fc7 52bb 2872 573d 3494 693c f9b9 8a3d
00000050: ae46 1a3d f082 793d 744f 123d 289c 6a3d
00000060: 1517 583c 7a66 ec3c 587b 9d3c 129b 5e3d
00000070: a304 db38 8161 453c fa90 bd3c 82f6 3dbc
00000080: 6b7a 133d 3887 f93c e247 6f3d 2bb4 563d
00000090: 9482 533d a581 0b3d 970b 5d3d c07d 823d
000000a0: 8a72 3a3d 8185 bb3d 167c 723d c1e9 4d3d
000000b0: 7305 403d 52f4 603d b355 863d 9ad4 b13d
000000c0: 55bb 833d 7b8d aa3d c37f 963d 2f18 b23d
000000d0: f092 d53d e89e 543d 0479 bd3d 92f4 773d
000000e0: dc39 cd3d a063 883d 9c10 cc3d 1534 ce3d
000000f0: b4e1 6e3d 1153 573d 8a68 6c3d 5e61 8cbb
00000100: e40b cd3c e961 1e3d bce4 953d b322 833d
00000110: 9c73 bb3d 0d64 a13d 7a6c b13d ce8f 833d
00000120: b78e 683d 099f 9a3d e71c 993d 103b c13d
00000130: 97bd a13d c6ba 653d 6c27 9f3d 6a35 9d3d
00000140: 3499 a23d a265 623d 77df 473d 3ec8 a73d
00000150: c9a9 a33d 2821 893d dc02 813d 6345 7d3d
00000160: 41b1 be3d 20d7 973d 525b 8c3d cb2c 4e3d
00000170: 5062 813d 9744 563d eaac 8d3d 0a98 c43b
00000180: 16be ea3c a2ae 7a3c e2a2 d73c 236b 5d3d
00000190: cb4e d03c 91b6 753d 72a8 213d 2423 233d
000001a0: 68a5 953d d465 8d3d c1f2 b13d de32 6d3d
000001b0: 7e44 513d 3d65 923d 79b9 823d ff78 353d
000001c0: 0a42 343d 99d8 583d f1d4 5e3d 2c39 5a3d
000001d0: 7d64 583d 62cb a93d b5fb 823d a234 a23d
000001e0: a2cc 673d a3c7 bd3d 78d9 8e3d 8ec9 a93d
000001f0: cd84 9d3c a138 6e3d 3e75 6a3d 7e30 6abd
00000200: 4852 cabc 4c6e 00bd b8dc 8bbd ff6e 27bd
00000210: 0d96 39bd 8325 4cbd c278 77bd e1ee 9ebd
00000220: 781b 3abd b05f 02bd 1dae 93bd e227 a2bd
00000230: 82c0 6ebd 463a 98bd e9d9 c3bd f8c6 98bd
00000240: b5e9 95bd fc98 93bd 6cd6 80bd 7303 9cbd
00000250: 3c89 97bd 874e 6ebd 15de 9ebd 1bf0 87bd
00000260: e507 49bd d4b0 78bd 395a abbd 0748 a9bd
00000270: e8c1 90bd 56ad a8bd 845e 78bd 5036 49bc
00000280: efb0 3cbd 1bc8 d73c c2e4 1cbc 7e04 14bc
00000290: 35fc cbba 8900 aebc c748 8ab9 5146 9a3c
000002a0: fb07 e73c 25af f23c 5336 aa3b 903a a53c
000002b0: de16 863b c7ad 243b 0149 d2bb 2cb9 893b
000002c0: f251 a4bc a0f8 813c 1cf8 a9bc f54a e53c
000002d0: ef02 c1bc ad62 20bc 3539 5dbc dc62 a139
000002e0: 0fcf 583d a64f 3fbb 0843 453d 1cc3 753d
000002f0: de4d b73b b701 a0ba bc40 b33c 2072 bcbc
00000300: 3ffe 023d b48c 4abc 04a6 e23c 18a8 fd3c
00000310: 0588 b53c 4f05 123d 937c 163d 183f cf3c
00000320: bbac 6f3d 18ed e63c d6fe 983d 3e8e 083d
00000330: a644 643d 8440 863d 3c05 283d 6f79 3e3d
00000340: 70d2 973d 9ce6 003c ff26 803d 58d1 c33c
00000350: 5a67 a13d 86d1 483d eb75 933d 34c8 573d
00000360: 830b 833d 52de 023d a9ad 333d 06c1 9d3c
00000370: 0ce3 613d d31a fe3c 699e 2d3d 005b 9cbc
00000380: 5fc7 41bd caf4 34bb eec3 61bd d584 843b
00000390: ecf7 7fbb 579c 8eba 8eda f6bb a83a 87bc
000003a0: 1eb3 b93c 2fb6 c0bc 102b 3d3c be10 49bc
000003b0: 6331 f83c 70b2 a83c 2bca 133d db3f 22bc
000003c0: 2a0a 0ebd fae8 c03b 9f74 ab3b 2db8 603d
000003d0: a594 363d 0743 523c fa13 a33b b305 6b3d
000003e0: d2d3 003d 7754 7c3d 4269 3d3c e58e 253d
000003f0: 765c ab3c aaed 3cbc 5060 8a3c 91a9 68bd
-0.000999997 -0.020157607 -0.012828053 0.039356265 0.0277541 0.014639765 0.0027084677 0.039004773
0.028687997 0.038042802 0.03578841 0.051623754 0.052122723 0.039512794 0.059038367 0.03322435
-0.003216244 0.052599102 0.014256526 0.06773753 0.03766506 0.060915887 0.035720304 0.05727783
0.013189097 0.028857458 0.019223854 0.054347105 0.000104435974 0.0120471725 0.02314042 -0.011594417
0.03600542 0.030459985 0.058418162 0.052417915 0.0516382 0.034059186 0.05396613 0.06371641
0.04551939 0.09156323 0.05920037 0.050271753 0.046880197 0.054920502 0.065593146 0.08683129
0.06432215 0.083277665 0.07348587 0.08696019 0.10428417 0.051909357 0.092515975 0.060535975
0.100208014 0.06659627 0.099641055 0.100685276 0.058320716 0.052569453 0.057716884 -0.004284068
0.025030084 0.038667593 0.07319018 0.06403103 0.0915291 0.07880411 0.086632684 0.06423913
0.05677673 0.07549865 0.07476216 0.094350934 0.078974895 0.056086324 0.07771191 0.076762035
0.079393774 0.055272706 0.048797097 0.0819249 0.07991368 0.06695777 0.062993735 0.06183375
0.09311152 0.07414079 0.068533555 0.050335687 0.0631758 0.052311506 0.06917746 0.00599957
0.028655093 0.015300425 0.026322786 0.05405725 0.025428196 0.059988562 0.039467283 0.039828435
0.07306939 0.06904188 0.0868888 0.05790984 0.05109071 0.07148216 0.06383032 0.044304844
0.044008292 0.05294094 0.054402296 0.05327718 0.052830208 0.08290745 0.063956656 0.07920195
0.056591637 0.09266593 0.069750726 0.08290397 0.019228363 0.058159474 0.057240717 -0.057175152
-0.024697438 -0.031355187 -0.06829208 -0.04087734 -0.045309115 -0.04984046 -0.060417898 -0.07760406
-0.045436352 -0.031829536 -0.07210944 -0.07917763 -0.05828906 -0.0743299 -0.095630474 -0.07459825
-0.07319967 -0.07206914 -0.06290898 -0.076178454 -0.07399222 -0.05818036 -0.077572025 -0.06637593
-0.049079794 -0.06071551 -0.08366818 -0.08265691 -0.07068235 -0.08236186 -0.060637012 -0.0122810155
-0.046067175 0.026340535 -0.0095760245 -0.009034274 -0.0015562834 -0.02124049 -0.00026375634 0.018832358
0.028202048 0.029624531 0.005194464 0.020169526 0.0040920814 0.0025127993 -0.006417394 0.0042029824
-0.020058606 0.015865624 -0.02074819 0.027989844 -0.02356097 -0.009789151 -0.013502409 0.0003078197
0.05293184 -0.0029191761 0.04815963 0.060000524 0.0055939993 -0.0012207542 0.021881454 -0.023003638
0.03198075 -0.012362648 0.027667053 0.030963942 0.022159586 0.035649594 0.036739897 0.02529864
0.058514338 0.028189227 0.07470481 0.033338778 0.05572953 0.06555274 0.041020617 0.046502527
0.07413185 0.007867482 0.06257438 0.023903534 0.07881041 0.049027942 0.072002254 0.052681163
0.0639868 0.031950302 0.043866787 0.01925708 0.05514817 0.03101865 0.0423874 -0.019086361
-0.047309276 -0.0027611726 -0.055118494 0.004044155 -0.0039057685 -0.0010880333 -0.007533378 -0.016507462
0.022668418 -0.023524372 0.011545911 -0.012272058 0.030296987 0.020592898 0.036081474 -0.00990292
-0.034677662 0.005887148 0.005232408 0.054863144 0.044575352 0.012833363 0.0049767466 0.057378482
0.031452008 0.06160399 0.01156074 0.040419478 0.020918112 -0.011531273 0.016891629 -0.056802336

ip1.bias f4 [6]
00000000: 7878 acbd 355d 18bd 2e8c 00be f16d 7c3e
00000010: d3e1 6d3e b707 2ebe
-0.08421415 -0.037198264 -0.12553474 0.24651314 0.23230676 -0.1699513

onnx::MatMul_68 f4 [9, 5]
00000000: 334c 69be 0dd0 96be 6a0a 003e 2351 32be
00000010: 3dce b13e 8c41 c1be f3de d4be 3c25 053f
00000020: 9242 50be 91d7 b03e b029 babe abb0 31be
00000030: fb3e 8b3e c6b6 a0be 303a a83e 324a 39be
00000040: 211f d2be 3cf0 493e 7f89 ff3d c1ff d33e
00000050: a747 a0be 44d0 8fbe 20ea 9a3e e9ba 1ebe
00000060: 49d6 c03e 9003 a4be c513 a3be f990 973e
00000070: 8856 96be e8e3 ac3e d5b4 75be 80f1 85be
00000080: 7864 c43e 03f1 64be f5a5 d03e ec60 04bf
00000090: c61f c73e 1f1f ba3e 4bcc 25bf 8234 5bbe
000000a0: f4b1 adbe bdcd c03e 024f c13e 7cf4 f7be
000000b0: 18d4 e8bd
-0.22782974 -0.29455605 0.12503973 -0.17413764 0.3472766 -0.3774532 -0.41576347 0.5200994
-0.20337895 0.34539464 -0.3635993 -0.1735255 0.27196488 -0.31389445 0.32856894 -0.1809471
-0.41039374 0.19720548 0.12477397 0.41406062 -0.31304666 -0.28088582 0.30256748 -0.15500988
0.37663487 -0.32033968 -0.3185102 0.29602793 -0.29362893 0.3376763 -0.23994763 -0.26160812
0.38357902 -0.22357564 0.40751615 -0.5171039 0.3889143 0.3635187 -0.6476485 -0.21406749
-0.3392483 0.37656966 0.3775559 -0.48428714 -0.11368579

onnx::MatMul_72 f4 [18, 5]
00000000: 34f7 bf3d 331c 92be 1bf9 91be 0b93 a83e
00000010: 4a04 a6be a37f 0c3e 002d 65be 87b9 84be
00000020: 47af 763e 2ff6 71be 4bbf bd3e 9913 66be
00000030: 54e9 52be e06e 773e 4d00 56be c460 c5bb
00000040: 6975 5fbe e397 66be 2dd4 543e 6356 9bbe
00000050: eb9c 0c3f b40e 4fbe 011d 13be ff92 753e
00000060: 0186 0abe aa27 c6bd 08da 5ebe 0186 8ebe
00000070: d09d 2e3e ae77 2dbe 4262 863e 7218 63be
00000080: 7a3b 0ebe b9e0 493e ad3b 70be ac89 a93d
00000090: fb56 9cbe 6612 96be 4e4a 953e df99 83be
000000a0: 0720 ae3e daec 47be cffb 1c3c 2330 86bc
000000b0: 94bd aebd 884f 863e ce4b 81be 14c5 93be
000000c0: c4e7 a73e 93b3 8dbe c736 693e 0c73 6bbe
000000d0: add4 6abe 3c8c 6e3e d597 60be 8b30 1e3e
000000e0: ce01 82be 8b38 77be 0a72 873e 3018 90be
000000f0: d921 e0bd 1803 86be bbb1 84be f3ac 633e
00000100: 96a3 83be d441 823e 953b 3ebe 5b13 5cbe
00000110: ed22 193e c0c8 71be 252b 8b3d 29f0 85be
00000120: 428d 4abe a698 613e f14d 75be e932 963e
00000130: 235e 48be 4789 4dbe cfa3 883e c817 76be
00000140: 7b0b 133e 39bd 71be 37d4 8bbe 2faa 7f3e
00000150: 2d06 82be 2cd1 943a 3a22 70be fa7e 9cbe
00000160: 420c 413e 4cb0 19be
0.09373322 -0.2853714 -0.28510365 0.32924685 -0.32425147 0.13720565 -0.22380447 -0.25922796
0.240903 -0.23629068 0.37060007 -0.22468413 -0.2059682 0.24163389 -0.20898552 -0.0060234983
-0.21822132 -0.22518878 0.20784064 -0.30339345 0.5492694 -0.20220453 -0.14366533 0.23981856
-0.13527681 -0.09675534 -0.2176286 -0.27836612 0.17052388 -0.16940185 0.2624684 -0.22177294
-0.13889876 0.19714631 -0.23460265 0.08278212 -0.3053511 -0.29310912 0.29158252 -0.25703332
0.3400881 -0.19523945 0.00958152 -0.016380375 -0.08532253 0.26232553 -0.25253147 -0.28861296
0.3279401 -0.27676067 0.22774802 -0.22993106 -0.22932692 0.23295683 -0.2193292 0.15448205
-0.25392002 -0.24142663 0.26454192 -0.28143454 -0.10943956 -0.26174235 -0.25916848 0.22233944
-0.25710744 0.25440848 -0.18577416 -0.21491759 0.1495473 -0.23611736 0.067953385 -0.2615979
-0.19780448 0.22030887 -0.23955514 0.29335716 -0.1956716 -0.20071898 0.26687476 -0.2403251
0.14359848 -0.23607339 -0.27310345 0.24967264 -0.25395337 0.0011353842 -0.23450556 -0.30565625
0.18852332 -0.15008658
