dnn-models/har_har_cnn-batched.onnx (onnx, 68441 bytes, 14 tensors)

conv1.conv.weight f4 [18, 9, 1, 2]
00000000: 9e92 1b3f a3d6 9b3e c05b d3be 6360 cebe
00000010: 4ec2 07bf 918d b33c 373b e4be 3fa4 14bf
00000020: 5874 e2bd 64ec f3be 0bcf 963e 89d0 26be
00000030: e71d 8c3e 8d70 18be f421 18be bc6b de3d
00000040: 5ce8 d73d 64d6 0e3e ee4a d0be eeac 373d
00000050: 106d 863e feb7 853e 1d49 5ebd d370 7ebd
00000060: e4cf 95be fc09 80be 5582 c5be 1c11 60be
00000070: f9d1 3fbe 0516 99be 01c4 f63d 8da2 ddbd
00000080: d6ee e7bd 8112 53be cf5d 0e3d d806 1f3e
00000090: 2f9f abbe 054e c2be a6f1 3b3e 62f1 a8bc
000000a0: 9866 eebd dd21 fabe 05b8 1dbf 0152 3bbf
000000b0: ea43 6a3e 95ed 123c 0ce4 23bf 380c cbbe
000000c0: 3b2e 05be 4757 233e 3740 1fbe 8719 71be
000000d0: 5fcb 3dbe 556b 463d 26df 413e 076b 623c
000000e0: f87c 81be 613f 9dbe 4607 62be 2144 00bd
000000f0: b0df 103e e401 3d3d e925 9cbe 88e3 fbbd
00000100: 9b51 0abe 1014 81bc 659f 25be bd6e 143c
00000110: adfc 433f dd78 493f f0ee 0a3f 3b00 403f
00000120: d455 d5be 5bc6 25bf b333 d1be d7ac 6fbc
00000130: 9b99 1cbd 36fd 94bd 7f08 1a3c a860 9fbe
00000140: d863 613e ed02 693d b104 0cbe 9414 36be
00000150: 2975 21be fcd0 65bd 13b2 b1be fbd7 a0be
00000160: ccdc 07be bf1c 703e db0a 23be 0a74 d83e
00000170: 0757 413d 1bc3 d4be 9c86 2a3b 77c0 89be
00000180: bd00 eabd 3151 c0bd eb5b b0bb 5b14 ccbd
00000190: 8df3 6f3d 4973 96bb 7e33 ccbf bada c8bf
000001a0: b5f6 b9bd 6353 3abe bf88 87bd a1da a3bd
000001b0: 01eb 153e 0260 903e aa4b abbc 82a5 03bf
000001c0: 6f92 e2bc d72e 173e 395f c1bd b6d9 c6be
000001d0: fd1d ac3d ae5c d8bd e4af d33e ccec 6e3e
000001e0: f98e 33be c9bd eebd 3e76 52be eb5f 1ebe
000001f0: b6fd 813e a573 f3bd d04c 573e 1630 66bd
00000200: 56c6 4abe 0938 f639 2213 26be ef28 fa3d
00000210: ed85 9c3e 9c9e 5ebc e7de 8f3d 507f 6ebe
00000220: 93bc aebd b1b8 5a3e a7b8 41be ce69 24be
00000230: f9e8 a9bf dbfa 99bf 8958 1abe 32c3 1e3e
00000240: cb8a 2dbf 2e54 47bf f6dd f9be daf9 01be
00000250: 3110 f2be ab50 04bf d256 933c c32a 533e
00000260: a962 61be 34f2 06bd e493 d0be a47a c9be
00000270: 9123 2a3e 4bdc 0e3d a039 65be cade 3ebe
00000280: 7b80 183f fcde 703e f712 d63e 1877 2c3f
00000290: 877d 403c d9c6 8ebd f105 fcbe b7db cdbe
000002a0: 1efd 833e 77e3 bb3e f970 a93e 72d2 30be
000002b0: d06a 8e3d ee9d f73d 791b 13bf a861 93be
000002c0: 9258 693e 3212 8f3e c6b0 37be e97f 74bd
000002d0: 8710 053f 15c9 f23e 415d 1bbd daca e83d
000002e0: ac98 47be 51df b93e 303d 7d3e 82d9 4a3e
000002f0: 6c6d da3e 78fb ecbd 8894 1dbe 9f85 d8be
00000300: 647b a1be 19be 63be ecfa f23d 8d97 a53e
00000310: 7a7e ebbb fdd1 2dbd d681 53be bd9a bdbd
00000320: d60c ce3d c690 c5be 0e05 7abe ba38 7ebe
00000330: 4ade 59be b0f8 7bbe ab39 94be bf15 aabe
00000340: 248c 03bd c9fe 90be cb9b b73d 27ad db3a
00000350: d8ad 323f 1cdd 0c3f 9e74 083f 79ac 213f
00000360: 6369 313f 7574 1a3f 78ca 92be a9df 3e3e
00000370: e626 bbbe 9be0 ff3d 2bf5 cd3d 5638 d73d
00000380: 292d af3e a448 24be cad2 623e 9f95 6ebe
00000390: 163f c13e 3478 203d b522 92be 8e6c 2bbe
000003a0: ef61 5b3e 4207 a23e 2681 223e f3fb 4ebc
000003b0: 7bce 28be 54bd 723e c3c1 de3d ca7f 163d
000003c0: ef00 4dbe ea01 7abe c765 d7bd 7e28 dd3d
000003d0: 969a 1ebe f507 6bbd 4778 883e 9fb3 833e
000003e0: 5047 193f 839b 7b3f 2563 13bf 3f59 0dbf
000003f0: 692c bb3d 5d7e 203d 381e 3d3d 9f87 78be
0.60770595 0.30437192 -0.41280937 -0.40307912 -0.5303086 0.02191809 -0.44576427 -0.5806312
-0.11057347 -0.4764129 0.29454836 -0.16290487 0.27366564 -0.14886685 -0.14856702 0.108603925
0.10542366 0.13948971 -0.40682167 0.044842653 0.26255083 0.26116937 -0.054268945 -0.062119316
-0.2926017 -0.25007617 -0.38575998 -0.21881527 -0.18732442 -0.29899612 0.120491035 -0.1082202
-0.11324851 -0.20612527 0.03475743 0.15529954 -0.33519885 -0.3795015 0.183539 -0.020622913
-0.11640662 -0.4885396 -0.61608917 -0.73172003 0.2287747 0.008967777 -0.64019847 -0.3965776
-0.13005917 0.15951262 -0.1555184 -0.23544894 -0.18534611 0.048442204 0.1893278 0.013819463
-0.25290656 -0.30712417 -0.22073087 -0.031314973 0.1414783 0.04614438 -0.30497673 -0.122992575
-0.13507693 -0.015756637 -0.16174085 0.009059605 0.7655743 0.7870005 0.5427084 0.7500035
-0.41667044 -0.6475579 -0.40859756 -0.014628611 -0.038232427 -0.07274859 0.00940144 -0.3112843
0.22010744 0.056887556 -0.13673665 -0.17781287 -0.1576735 -0.056107506 -0.34706172 -0.3141478
-0.13267821 0.23448466 -0.1592211 0.4227603 0.047202136 -0.41555104 0.0026020175 -0.26904652
-0.11425922 -0.09390486 -0.005382051 -0.0996482 0.058581877 -0.00459138 -1.5953214 -1.569175
-0.09080259 -0.18195872 -0.06617879 -0.080006845 0.14640428 0.28198248 -0.020910103 -0.5142442
-0.027657716 0.14763962 -0.094419904 -0.38837975 0.08404157 -0.10564552 0.4134513 0.23332518
-0.17535008 -0.116572924 -0.20552918 -0.15466277 0.2538888 -0.11887292 0.21025395 -0.056198202
-0.19802222 0.00046962526 -0.16218236 0.12214839 0.30570927 -0.01358762 0.07024937 -0.23290753
-0.085320614 0.21359517 -0.18918096 -0.16055986 -1.3274223 -1.202968 -0.15072836 0.15504149
-0.67789906 -0.77862823 -0.48802155 -0.12692967 -0.47277978 -0.5168559 0.017985735 0.20621781
-0.22010292 -0.032945827 -0.40737832 -0.3935138 0.1661513 0.034878056 -0.22385263 -0.18639675
0.59571046 0.23522562 0.41811344 0.6736922 0.011748678 -0.06971521 -0.49223283 -0.40206692
0.2577905 0.3669698 0.33094004 -0.17267779 0.069539666 0.120906696 -0.57463795 -0.28785443
0.22787693 0.2794357 -0.17938527 -0.059692297 0.51978344 0.47419038 -0.03793073 0.11366816
-0.19491833 0.3630319 0.24730372 0.19809535 0.42661607 -0.11571401 -0.15388691 -0.42289445
-0.31539452 -0.22240485 0.11864266 0.32342187 -0.007186708 -0.04243659 -0.20654997 -0.092580296
0.10061042 -0.38587016 -0.2441599 -0.24826327 -0.21276203 -0.24606586 -0.28950247 -0.33219716
-0.03211607 -0.28319386 0.08965262 0.0016759977 0.69796515 0.55024886 0.53302944 0.631538
0.6930143 0.6033395 -0.28670096 0.18640007 -0.36553115 0.12494012 0.10056528 0.10508792
0.34214142 -0.16043335 0.22150722 -0.23299263 0.37743443 0.039177135 -0.28542104 -0.16740629
0.21424077 0.31646162 0.15869579 -0.012633312 -0.16485016 0.23705035 0.10876801 0.036742963
-0.20019887 -0.24414793 -0.10517459 0.10798739 -0.15488657 -0.057380635 0.26654264 0.25722978
0.5987444 0.9828417 -0.5757316 -0.55214304 0.0913933 0.03918301 0.046171397 -0.24270485

conv1.conv.bias f4 [18]
00000000: 26e6 f9be 2a58 503c 9062 b63d a83a fb3e
00000010: f5cb 8cbd 6ee5 55bf 95dd e8be ca72 a5be
00000020: 21bf 273e 5a73 89be 5a08 8cbe c10e a03e
00000030: 0aae bdbe f162 d0bd f225 3abe 0d0e 6dbe
00000040: c881 96be d978 dbbe
-0.48808402 0.012716332 0.08905518 0.4906819 -0.06874839 -0.83553207 -0.45481554 -0.3231414
0.16381504 -0.2684582 -0.27350122 0.31261256 -0.37046844 -0.101751216 -0.18178537 -0.23149891
-0.2939589 -0.42865637

conv1.decision_head.channel_gates f4 [5, 18]
00000000: cc50 3c3f 3229 ec3e a94f 6b3f f6a0 723f
00000010: 13b1 f63e c543 7f3f 299a f53e 928a 453f
00000020: ddfe 643f 9b35 fd3e 1a6d de3e bda0 4e3f
00000030: 44f9 673f 149d 183f 7cda ec3e c762 eb3e
00000040: 3cd3 963f 3341 2c3f 6bc2 4e3f 8bfb d73e
00000050: ce1a 8b3f e7cc 5b3f 3b53 eb3e 5017 3f3f
00000060: db5e e93e 3a29 3c3f 17b9 7b3f 210f 773f
00000070: 5699 f63e 421e 403f 436a 7f3f e369 2a3f
00000080: c3b7 ec3e 45f4 4c3f 4d99 973f a2cb 3e3f
00000090: 42fc 373f 1de9 e13e 5982 7e3f d128 783f
000000a0: 7ec8 f13e f710 483f ddb8 ed3e 03e9 383f
000000b0: 6844 813f 1359 713f 8ca5 f73e c77d 293f
000000c0: 911a 813f 402d 333f 02a1 e23e 1a26 413f
000000d0: 22e7 973f 6ef5 3d3f 99c6 573f 5095 f23e
000000e0: fc05 543f 2cd4 7e3f 8d47 ec3e bfd3 6c3f
000000f0: 38c3 dd3e b0ca 663f dd2b 7c3f 79bd fb3e
00000100: 4c0f e83e 9e44 263f e721 863f 9459 f23e
00000110: 4c50 f23e 4113 263f 1841 6f3f 051f 343f
00000120: dbbe 533f 71c6 ea3e 1ce1 363f b4ee 773f
00000130: e09c de3e 3dd6 883f b37c e23e fd22 583f
00000140: 54f7 7d3f 3af1 f13e cc46 f33e 3879 543f
00000150: 1384 883f d203 ef3e 35c3 263f a605 273f
00000160: 0a56 783f 3e9b 343f
0.73560786 0.4612518 0.91918427 0.94776857 0.48181972 0.99712783 0.47969177 0.77164567
0.8945139 0.4945496 0.43442613 0.8071402 0.90614724 0.5961468 0.4626044 0.459738
1.1783214 0.67286986 0.8076541 0.421841 1.0867555 0.8585953 0.45961937 0.7464495
0.4558018 0.73500407 0.983293 0.9650746 0.4816386 0.7504617 0.9977152 0.6656782
0.4623395 0.80060226 1.1843659 0.7452947 0.7186929 0.44123164 0.99417645 0.9693728
0.47223276 0.78150886 0.46430102 0.7223055 1.0099001 0.9427654 0.4836849 0.66207546
1.0086232 0.6999092 0.44263464 0.75448763 1.1867411 0.7420262 0.8428741 0.4737954
0.8282163 0.995425 0.4614834 0.925106 0.43313003 0.90153027 0.9850443 0.49167994
0.4532417 0.6494845 1.0479096 0.47333968 0.47326887 0.6487313 0.934587 0.7035983
0.827131 0.45854524 0.7143724 0.9684861 0.4347906 1.069038 0.44235763 0.8442839
0.9920552 0.47254354 0.4751495 0.82997465 1.0665306 0.46682602 0.6514161 0.65242994
0.97006285 0.7054938

conv2.conv.weight f4 [36, 18, 1, 2]
00000000: 0da1 a1bc 4989 b8bd 9fec 8a36 3654 9cbd
00000010: 48e4 92be f3c5 89be 6112 3a3e 3052 313e
00000020: e6d8 87bd 0878 0dbe b0f9 04be 8c2d d9bd
00000030: cc18 60be 0f55 48bd 4978 43be b934 23be
00000040: dba3 3a3c 6e99 00be 32a5 9abd 063a 643d
00000050: a243 9ebd 61a7 6d3d 0b1f 1d3e 7883 763c
00000060: e271 7bbe b1e6 8abd 9dc6 e43d b3ac 51bd
00000070: 8692 20bd 3627 05bd b1fd 44be afb1 14be
00000080: 2351 343d e4de e1bd 2e16 e5bd 0f63 44be
00000090: 6f2b 433d 61fb 36bd 9f10 723d a051 9dbd
000000a0: e1b9 9cbe 5821 89be 9ecf 05bf 4a24 d4be
000000b0: 1ace cebd bb07 1fbe d03c 06bd 6453 0cbe
000000c0: 3f96 10be 33dd 10be 054a 45bd 5ea7 18be
000000d0: fa93 fa3e ad0c 443e 6373 ecba 1d20 8dbd
000000e0: bd36 d1bd e7ca d3bd ed06 f7be 3e0a 01bf
000000f0: e53a 3d3d 85e1 863c 4268 b0be 5426 bdbe
00000100: e3aa 9bbe 2b60 a5be e686 0cbe cd41 24be
00000110: 5af4 e6bc c4e4 dc3d bb14 36be a816 98bd
00000120: 9fd9 a9bd 5851 7ebd d908 f43c ac21 83be
00000130: daaf 023d 5b4f 55be b897 1e3e 7a3b aa3d
00000140: 74c5 9dbd 240f 36be d921 6f3e 84d3 b83e
00000150: 3983 11be 9d2d 34be 4948 fabe 8552 d9be
00000160: a861 abbd f6d0 d43d c861 31bd a074 823e
00000170: d95d 6a3e 1867 863e 66df 0fbe f9e3 c2bd
00000180: ada4 22be d3df 93be 8d5b a23e 984f 6f3e
00000190: 9eee bf3d c4df 93bd e375 2a3e f2cd 5d3e
000001a0: 2ed7 09be ebbf 5ebe fecb 2dbe d13a 313d
000001b0: bd7d 1f3e 9d45 a33e bca7 d63d 4091 903e
000001c0: d2dc aebd 07c4 da3d e0e8 b1bd 0303 183c
000001d0: 986d 21be 393e a1be 69e8 903e 88cc 673e
000001e0: 207e 31bd d1e2 c1bd c0b1 c23d 81a5 61bd
000001f0: 2d1a c4be 0c72 c5be 6b08 a73e 7c47 153e
00000200: 5c7b 6d3e 928a a33e f561 c8bc e835 4a3d
00000210: 0de7 b83e 0565 593d cd7c c03d da2a 8c3d
00000220: 22a0 c93d 249f 9e3e 10e3 683d f41e 67bd
00000230: 6631 b0bc 5057 8dbe 121e 943e ab8b ad3e
00000240: 6fac 47be cb84 22bd ac8e 4bbe 141e d1bd
00000250: ed27 92bd 2381 f6bd 1370 07be 14f1 b0be
00000260: d373 db3a ee16 633d d3c8 6abe 979e 3cbd
00000270: 6e16 7d3e 456a c53e 62dc 77be 62e2 503e
00000280: a266 b3be 3867 89be 05a4 f73b 5a8b fabd
00000290: c6dc 00be 5ffd 2ebe 64cf 2dbe 42af 48be
000002a0: 306f 6f3d c50d 7a3e 1906 bf3e 9f91 a73e
000002b0: b46d 16be 22d4 2f3e 131a 7fbd d4fa 3c3e
000002c0: 77da b63d 132e fa3e ffd1 3abd 4aa4 7ebe
000002d0: 1b35 323e 3e27 16bc 5a40 09be 6395 71bd
000002e0: 1696 48be f555 9bbe 2baa 253e f634 9e3e
000002f0: e86f 45bd fcc7 24be 0af9 d03e 086f 883e
00000300: d1d6 27be 855b f43d c887 3a3d 9912 09be
00000310: 4b61 03bd 2275 753d 6168 683e 4978 9a3e
00000320: 1cb7 cb3d 3a45 ebbd 0974 9a3e 40c7 6e3e
00000330: c8cb 123c 09b0 0ebe adfc 423e ef38 363e
00000340: 321f 11bd 075c 78bd 8b95 01be aeb8 0abd
00000350: 4ef1 adbd a1e2 af3d 931d c4bc 9e12 58be
00000360: a66e 0ebe 82b1 58be 9aa2 48be d538 aabd
00000370: 0475 59be 7741 c8bc 383a 873e 2541 633e
00000380: 792f 6ebe b3d1 06be 0166 eebd 889f 89bc
00000390: 20b8 88be 82d2 b2bd 99a0 03bf 93af 26bf
000003a0: f245 d6be 412c dabd 6fb0 10be 2a1f d7be
000003b0: 87b7 4c3d e746 49be d54a 6a3e 71ce af3d
000003c0: 6d9f 253e ef82 05be 8589 923e d6da bc3d
000003d0: cd71 143e fac5 773e d478 41be 8909 9cbe
000003e0: 3d6b 9039 a9fe 04be 31eb ca3e 9eae 8c3e
000003f0: 79ec d7bd be7a c93b 95ba a33d ba89 08be
-0.019730115 -0.0901056 4.140267e-06 -0.076332495 -0.2868979 -0.26908836 0.18171073 0.17316508
-0.06633167 -0.1381532 -0.12985873 -0.106043905 -0.2188446 -0.048909243 -0.19088854 -0.15938081
0.011391605 -0.12558529 -0.0755104 0.055719398 -0.07727744 0.058020953 0.15343873 0.015045993
-0.24555162 -0.06782282 0.11170695 -0.05119009 -0.039202236 -0.032508098 -0.192374 -0.14520906
0.04402269 -0.11028841 -0.11185871 -0.19178413 0.047648843 -0.044673327 0.059097882 -0.07681584
-0.30610564 -0.26783252 -0.52269924 -0.41433936 -0.100979045 -0.15530293 -0.03277284 -0.13703686
-0.14119814 -0.14146881 -0.048166294 -0.14907596 0.48941022 0.1914546 -0.0018039759 -0.06890891
-0.102155186 -0.10341435 -0.4824747 -0.50406253 0.046198744 0.016464958 -0.34454542 -0.36943305
-0.30403814 -0.32299933 -0.13723335 -0.16040726 -0.028192688 0.10785821 -0.17781346 -0.07426196
-0.08293461 -0.062089294 0.029789375 -0.25611627 0.031905986 -0.20831053 0.15487564 0.083121255
-0.07703677 -0.17779213 0.23352756 0.36098874 -0.14210214 -0.17595525 -0.48883274 -0.4244577
-0.08368236 0.10391419 -0.043306142 0.25479603 0.22887363 0.2625053 -0.14050063 -0.095161386
-0.15883131 -0.28881702 0.31710473 0.23370206 0.093716845 -0.07220414 0.16646533 0.21660593
-0.13460991 -0.21752898 -0.16972348 0.043268982 0.15575309 0.31889048 0.104812115 0.28235817
-0.08538212 0.106819205 -0.086869955 0.009278062 -0.15764463 -0.31492785 0.28302315 0.22636616
-0.043333173 -0.0946709 0.09506559 -0.055089477 -0.3830122 -0.38563573 0.3262361 0.1457805
0.23191589 0.31941658 -0.024460772 0.049367815 0.36113778 0.053074855 0.09398804 0.06844111
0.09844996 0.3098079 0.05685717 -0.056426004 -0.02150793 -0.27605677 0.28929192 0.3389562
-0.19499372 -0.039677422 -0.19878644 -0.10210815 -0.071365215 -0.120363496 -0.13226347 -0.34558928
0.0016742892 0.05544179 -0.22928171 -0.04604968 0.24715587 0.3855764 -0.24205163 0.20398858
-0.3503924 -0.26836562 0.0075573944 -0.122336105 -0.12584218 -0.17088841 -0.16973644 -0.19598106
0.058455646 0.24419315 0.3730934 0.32728288 -0.14690286 0.17170766 -0.062280726 0.18455058
0.089283876 0.48863277 -0.045610424 -0.24867359 0.1740307 -0.0091646295 -0.13403454 -0.058980357
-0.19588503 -0.30339018 0.16178195 0.3089978 -0.048202425 -0.16091913 0.40815002 0.2664721
-0.1639054 0.119315185 0.045539647 -0.13386 -0.032075208 0.05992616 0.22696067 0.30169895
0.09947035 -0.11487813 0.30166653 0.23318195 0.008959718 -0.1393434 0.190417 0.17795156
-0.03543014 -0.06063464 -0.12654702 -0.03386753 -0.08493291 0.08588148 -0.023939883 -0.21100852
-0.13909397 -0.21161464 -0.19593278 -0.08311621 -0.21236044 -0.024445279 0.26411605 0.2219282
-0.23260297 -0.13165931 -0.116405495 -0.016799703 -0.26702976 -0.087315574 -0.5141693 -0.65111655
-0.4185024 -0.10652972 -0.14129804 -0.42015964 0.049979713 -0.19655953 0.22880109 0.085842974
0.16174097 -0.13038228 0.28620544 0.09221427 0.14496537 0.24196616 -0.18893749 -0.30476025
0.0002754572 -0.1298777 0.39632562 0.27476972 -0.105431505 0.006148665 0.07994572 -0.13333789

conv2.conv.bias f4 [36]
00000000: 9c2c cc3b 251b 873e 2e52 36b9 b1e9 f4be
00000010: cb4d d7bd fc6e bf3d 865b f73e e4f2 43bd
00000020: 6db0 5ebe 72ef ccbe 1021 d3be 236c 1abf
00000030: 84c3 c0be 38e9 d0bd d9ae 9fbe 40f6 85bd
00000040: f6f8 23bf afdd 25be 11c9 3f3c 8106 66be
00000050: dcdb c8be 5f80 13be 056d 443c 27bf dcbd
00000060: 6b57 3fbc 8bcb 823e b72f abbd 11c1 8dbe
00000070: 2288 73be c094 2b3e 5bab e4bd 7b71 1abe
00000080: 263f 1dbe b01d 9fbe 955a 58be ae5d 95be
0.006230904 0.26387897 -0.00017387487 -0.47834542 -0.10512885 0.093473405 0.48312014 -0.04783906
-0.21746989 -0.40026432 -0.41236162 -0.60321254 -0.37649167 -0.10200733 -0.31188086 -0.06541109
-0.6405176 -0.16197847 0.011705653 -0.22463419 -0.3923024 -0.14404438 0.011988883 -0.10778647
-0.011678557 0.25545916 -0.0835871 -0.2768636 -0.237824 0.16755962 -0.11165496 -0.15082352
-0.1535612 -0.31077337 -0.21128304 -0.29173034

conv2.decision_head.channel_gates f4 [5, 36]
00000000: 4355 f33e 4b7e 6a3f ac7e f43e 4b11 c63e
00000010: 89c8 203f 4d71 d43e 3f18 933f 62cb f63e
00000020: 041e f33e 27ce f53e d8b2 ef3e 11a6 803f
00000030: 01bd f43e e692 f63e 72fb 883f 910c f73e
00000040: e64d 663f 5ba3 f13e 1c3d f73e 761c f73e
00000050: de07 f63e f013 f33e 9691 f63e 3a39 f73e
00000060: ef9e f63e f283 ac3f 80af f63e 6dce ed3e
00000070: 2ef0 263f a791 f53e 23bb f73e a15e f33e
00000080: 5046 f63e 373c f83e d810 f73e 842c 463f
00000090: d0da f73e 3434 5d3f e40a eb3e 70d3 463f
000000a0: 55dc 3d3f 12b7 f43e 2541 953f 50c5 ef3e
000000b0: 595b f03e 6bf1 f63e 7831 eb3e a1f5 403f
000000c0: a0a0 f83e 26ce ed3e 775e 6e3f 4a6e ed3e
000000d0: 177f 493f 7403 f23e 836f ed3e c0cf ef3e
000000e0: ba1c ef3e ada4 f03e 08d8 ee3e 047f ee3e
000000f0: 2255 ed3e b036 a33f 09be ed3e 8edb ee3e
00000100: 9678 493f f1ff e23e df40 ed3e 61cc ee3e
00000110: f1db f03e 1f84 ef3e 3af0 ee3e 8dbd 383f
00000120: 068c dd3e 60cb 853f ddc2 f73e 4d45 393f
00000130: 1515 273f 702e bc3e 1681 893f d13e f43e
00000140: 0e72 f23e 4ec9 f43e 65c9 f63e d241 5e3f
00000150: 55c7 f43e bf3d f53e 0e69 793f aa49 f43e
00000160: dc3b 823f ddac f83e 7609 f43e 3b69 f93e
00000170: cccf fa3e c98b f43e 5e5b f33e fb4e f43e
00000180: 7f65 f43e 848d a63f d51c f63e bb4f f83e
00000190: 39ad 423f bdd3 ed3e 743b ea3e fc54 f13e
000001a0: b06b f03e 0037 f43e 954b f43e 880c 173f
000001b0: e5df ee3e ac9c fb3e 0d1d e23e 79cd f83e
000001c0: 1eb1 323f 59b7 8a3f ff51 643f e8e5 e23e
000001d0: c2c1 e63e de43 e63e e4e3 ec3e 8018 7a3f
000001e0: 36a3 e63e a332 e23e 647f 833f 4fb0 e03e
000001f0: cf86 aa3f 168e e53e 7bbb e03e 4c30 f53e
00000200: cfe7 ea3e d18e e33e e4d3 e23e 67a1 e13e
00000210: e148 e23e 1a0a 893f 4d91 e63e 4c8c eb3e
00000220: 2fbb f73e a4db ea3e 5185 e83e f722 df3e
00000230: f317 f13e fb23 643f 5e23 e33e bedb f63e
00000240: f1f6 d03e a8e8 d93e 7404 f73e 47dd e93e
00000250: 388f fa3e f17f f53e 43c6 9d3f 465e ce3e
00000260: 9942 cf3e b96b f83e d429 ef3e 3a34 523f
00000270: 9016 203f 14f4 c83e 2ddd 843f 9890 c73e
00000280: 81c6 883f 35d4 d13e 11eb c63e 6d8c e43e
00000290: 2807 e03e fc89 cd3e ed3a ca3e 58b9 c73e
000002a0: 8514 cc3e f3fb 693f c45f ca3e 2190 d13e
000002b0: bb7d f43e 146e cd3e 7e3d cc3e d37b ca3e
000002c0: f3f7 d13e 2a05 093f 8c62 c83e 2c53 3c3f
0.47525987 0.9159896 0.47752893 0.38685068 0.6280599 0.41492692 1.1491774 0.48202044
0.47483838 0.48008844 0.46816134 1.005068 0.4780045 0.4815895 1.0701735 0.48251775
0.89962614 0.47194943 0.4828881 0.482639 0.48052877 0.4747615 0.48157948 0.48285848
0.48168132 1.3477767 0.4818077 0.46446553 0.65210235 0.47962686 0.4838496 0.47533134
0.4810052 0.4848344 0.48255038 0.77411675 0.48409128 0.8640778 0.45906746 0.7766638
0.74164325 0.47795922 1.1660506 0.46830225 0.46944693 0.48231062 0.4593618 0.753748
0.48560047 0.4644634 0.9311289 0.46373206 0.7870955 0.4726826 0.4637414 0.46838188
0.46701604 0.47000638 0.46649194 0.4658128 0.46354014 1.2751064 0.46434048 0.46651882
0.78699625 0.44335893 0.46338555 0.46640304 0.47042802 0.46780488 0.46667653 0.7216423
0.43270892 1.045269 0.48390856 0.7237137 0.65266544 0.3675418 1.0742519 0.47704175
0.47352642 0.47809833 0.48200527 0.86819184 0.47808328 0.4789867 0.97425926 0.4771245
1.0174518 0.48569384 0.47663468 0.48713097 0.4898666 0.47762898 0.47530645 0.47716507
0.47733685 1.3011937 0.48068872 0.4849833 0.76045567 0.46450606 0.45748484 0.4713515
0.4695716 0.47698212 0.47713915 0.59003496 0.46655193 0.4914297 0.4416279 0.48594263
0.6980151 1.0837203 0.89187616 0.4431603 0.450697 0.44973654 0.46267617 0.97693634
0.45046395 0.44179258 1.0273252 0.43884513 1.332239 0.44834965 0.43893036 0.4788841
0.4587998 0.44444898 0.44302285 0.44068453 0.44196227 1.0706208 0.4503273 0.46005476
0.48384997 0.45870697 0.45414212 0.43581364 0.47088584 0.891174 0.4436292 0.48214525
0.408134 0.42560315 0.48245585 0.45676634 0.48937392 0.47949174 1.232613 0.403063
0.40480497 0.48519686 0.467116 0.8211094 0.6253443 0.39248717 1.0379997 0.38977504
1.0685579 0.40982214 0.38851216 0.44638386 0.4375546 0.40144336 0.39498082 0.39008594
0.39859405 0.9140007 0.39526188 0.40930274 0.47752175 0.40123045 0.39890665 0.39547595
0.41009483 0.53523505 0.39137685 0.7356441

conv3.conv.weight f4 [72, 36, 1, 2]
00000000: 8ddd 8b3d 4c8b 233e 3170 c83c f0dc f0bd
00000010: 81a0 893c 4162 213c 056d 113e b294 ed3d
00000020: 7e6f c9bd ff4a 02be 3517 8f3d 284b 1c3e
00000030: 2d29 383e 7e30 7c3e 2534 0dbd 9ea3 cf3d
00000040: 36cd 493d 5324 363d cd0d 8c3d 05a4 673d
00000050: 16ea 623d 1547 50bd 63bb 273e c698 873d
00000060: e63a 19bd 92fa ce3d 68c0 11bb ba4d 01bd
00000070: 2c3e b93c 8317 a4bd 0b76 213d 5ce6 bbbd
00000080: 3d24 33bd 6513 5fbe 9076 a6bd bd8a cabd
00000090: 69a8 01bb 1422 383d c3ba 933d b5bb 0f3d
000000a0: f8db 923d 0649 de3d 8834 8d3d a28b 9bbb
000000b0: 37a0 553d b37f f73c 5bd7 a2bd 31fc aabc
000000c0: 4533 23bd 8cc2 42bd 38fd a93c 6612 84bd
000000d0: 9ba9 0e3d d8ea c23d 0a98 abbd 5569 f9bd
000000e0: 1842 213e 3ab5 e83d 4a0a 87bd 5286 bbbd
000000f0: e39b b6bd e7f7 a1bd a029 f2bb a001 93bd
00000100: 5ae7 e5bd 6285 693c 8dc0 303e 7961 49bc
00000110: 8ab7 7ebd 72b7 eabd 9ba5 a43d 6fec 643e
00000120: 236d 2cbc 6237 a5bd 1392 813d 1ebc f63d
00000130: 9da6 f0bc 04c9 05be 0cf2 efbd 38bf 05be
00000140: fca8 973d 0aae 96bc 74d0 49be 46d1 cebd
00000150: 5dad adbd 406b 80bd 53b1 813d d4f9 2ebd
00000160: 18d5 ccbd a1e1 1c3d 14a1 083d a185 5abd
00000170: 7305 bbbd 0177 cdbd f4db 0cbe d6b6 7fbd
00000180: 0b3d 6ebc c091 f03c dae5 943d b148 efbd
00000190: 4af5 b7bc 434d 2fbe a4dc b5ba 0452 873d
000001a0: 80df 18bd 7e0a 94be fd0f 0e3c f20f 59bd
000001b0: 6b83 203d ff4c db3d 3946 4c3d 1e27 f3bd
000001c0: 0a84 c83c b0c7 15be 1f15 1c3d d4a6 a73c
000001d0: 691c 973d 88e5 02bd 0771 b03d e89a bfbd
000001e0: cdb2 3d3b c028 59bb c5fe 74bd e4e5 393d
000001f0: 1204 49bd f40f 6a3d e863 9dbc 2d5b 3dbe
00000200: b886 bdbd eafc 87be 2eb4 b9bd a81e 10be
00000210: 0fc8 1ebd feec 9e3b 7634 aabc 7275 f4bc
00000220: b6ff d1bc db5e 4dbd a769 40bd 96c9 07be
00000230: e5ee 93b9 3bf8 f3bc aafd e93c 3265 cbbd
00000240: a69a d53d 8206 e0bb ff20 cabd 7c37 f83c
00000250: f007 253e e639 e63d 0f9e f8bd 5ef9 de3d
00000260: 6094 01be b233 0bbd e030 63bd ce30 103d
00000270: fa26 ebbd bc22 eb3c 26c4 813d 6bb1 283d
00000280: d8f3 e8bd 51e5 f0bd cf15 553e b03b 253e
00000290: faf7 cc3d 99fb acbd 2584 df3c 9a95 3b3e
000002a0: 30f3 0c3e 9e89 563e c25d b5bd 06f4 ee3c
000002b0: e941 d33d 1057 81bd d0f1 b73c b8f9 73bd
000002c0: 531f b2bd 27b4 89be 331a 803d cf75 ed3d
000002d0: 8ea5 16be f8bd e9bc 02de 6c3d 3c9b 153e
000002e0: ac5a 9abc 61d0 d83d 10cc f43d b2b5 973d
000002f0: 92d5 be3b de80 0b3d e3d7 c2bd cd0a c73d
00000300: 98f9 7dbd 5c4f 393c 8958 2abe 8b85 9abc
00000310: 9796 4fbc 37e7 66bd 214e 253e 3dc0 c53d
00000320: 7a7e afbb 94ea 0039 7617 ec3d 3491 b9bd
00000330: 063b b4bc 678f 3d3c 7868 9dbd db8c a63d
00000340: 3745 d6bb 7ab6 b53d fe71 953b d397 193e
00000350: 060d fcbd 2415 c2bd 91e3 d83b 80f2 283e
00000360: 8893 b9bc 2ac9 e4bd b9e8 af3e 821e 1c3e
00000370: 92f8 93bc 7ab4 67bd 221a 3fbe c163 cdbd
00000380: 01d7 16be 328f 523b 46cc a53d e46a 88bd
00000390: f26e afbe a347 c2be 5722 96bc 450b ec3d
000003a0: 18d0 c7bc ed4e 003c 55ac 72bc 068e ba3c
000003b0: e8a5 83bd 5f24 4a3d 2988 15be dafa 03be
000003c0: f8a9 f43d 41cd 8fbd 0c69 f0bc a086 00be
000003d0: 7c76 a4bd bfc3 41be 77cc 4fbd 282b 3e3c
000003e0: 96bd 2d3d 4f47 bf3d 64f3 8d3d 94f9 dd3d
000003f0: 8a10 913d 8591 61bc 2539 8fbd 68e6 1dbe
0.06829367 0.15971106 0.02446756 -0.117608905 0.016800167 0.009850086 0.14201744 0.11600627
-0.098357186 -0.12723921 0.06986848 0.15263045 0.17984457 0.24627873 -0.034473557 0.101386294
0.04926797 0.044468235 0.0683857 0.056552906 0.055399023 -0.05084904 0.16380076 0.06620936
-0.037409686 0.10106386 -0.0022239927 -0.031568266 0.022612654 -0.08012297 0.039419215 -0.09174797
-0.04373573 -0.21784742 -0.08128083 -0.098897435 -0.0019784218 0.044954374 0.07213356 0.03509112
0.07170862 0.10853772 0.06894785 -0.00474687 0.052154746 0.030212259 -0.07951232 -0.020872207
-0.039843816 -0.047548816 0.020750627 -0.06448822 0.034829717 0.09517449 -0.083786085 -0.121782936
0.15747869 0.11362691 -0.06593759 -0.09156479 -0.08916452 -0.07908612 -0.007390216 -0.07178044
-0.112257674 0.014252992 0.17260952 -0.012291306 -0.062186755 -0.11460771 0.08039399 0.22355817
-0.010524067 -0.08067204 0.063266896 0.12047599 -0.029376322 -0.13064963 -0.11716089 -0.13061225
0.07405278 -0.018393535 -0.19708425 -0.100985095 -0.08480332 -0.06270456 0.0633265 -0.042718723
-0.10001582 0.038301114 0.03335674 -0.053350095 -0.09131899 -0.10032464 -0.1375578 -0.062430225
-0.014540921 0.029366374 0.07270403 -0.11683787 -0.02245583 -0.17119317 -0.001387496 0.0660744
-0.03732252 -0.28914255 0.008670804 -0.052993722 0.03918783 0.10708045 0.049871657 -0.118726954
0.024477024 -0.14626956 0.03810608 0.020465292 0.07378466 -0.03195718 0.08615308 -0.09355718
0.0028945685 -0.003313586 -0.05981328 0.045385256 -0.049076147 0.05714412 -0.019212678 -0.18491812
-0.09254211 -0.26560146 -0.0906757 -0.14074194 -0.03876501 0.004850029 -0.020776968 -0.029841159
-0.025634628 -0.05013929 -0.046975758 -0.13260493 -0.00028216015 -0.029781451 0.02856334 -0.09931411
0.104298875 -0.0068367133 -0.09869575 0.030299895 0.16116309 0.11241512 -0.12139522 0.10887407
-0.12654257 -0.033984847 -0.055466533 0.035202794 -0.114820436 0.028703086 0.063362405 0.041184824
-0.113746345 -0.11762489 0.208091 0.1613605 0.10008235 -0.08446426 0.027284691 0.18318787
0.13764644 0.20950934 -0.088557735 0.029169094 0.10315306 -0.06315434 0.022454172 -0.059564322
-0.08697381 -0.26895258 0.06254997 0.11594736 -0.14711592 -0.028532967 0.05782891 0.14609998
-0.018842064 0.1058662 0.11952984 0.074077025 0.0058237994 0.034058444 -0.095138334 0.09718857
-0.06200561 0.011310425 -0.16635336 -0.018862506 -0.012670181 -0.056372847 0.16143085 0.09655807
-0.0053556534 0.00012294418 0.11527912 -0.090608984 -0.0220008 0.011569834 -0.076859415 0.08132335
-0.006539013 0.08872695 0.004560708 0.14999323 -0.123071715 -0.094766885 0.006618925 0.16498756
-0.022653356 -0.111711815 0.3435724 0.15246013 -0.018062863 -0.0565686 -0.18662313 -0.10028792
-0.14730455 0.0032128808 0.08095603 -0.06661013 -0.34264332 -0.3794528 -0.018326921 0.11525587
-0.024391219 0.007831317 -0.014811595 0.0227728 -0.064281285 0.049351092 -0.14602722 -0.12888661
0.119464815 -0.07021571 -0.029346965 -0.12551355 -0.080304116 -0.18922327 -0.050732102 0.011606969
0.04241713 0.09339773 0.06931189 0.10838619 0.07083233 -0.013767605 -0.06993321 -0.15419924

conv3.conv.bias f4 [72]
00000000: 3d44 b0be 8037 3c3e 870e bebe 1d5b 693e
00000010: 132e 233d 08f6 b3bd 09d0 f5bc f34c b7be
00000020: 1162 8fbe 2be8 91be 6291 88bd 65c7 57be
00000030: 141f bd3d a058 1a3a 7583 77bd ffeb 7dbd
00000040: 12ce 28be 1b93 4dbe f5a4 88bd 820e d8be
00000050: adf0 ccbd fbeb e6bd 450f 42be 1084 febd
00000060: aec2 233e 1509 d0be 62b4 2e3f 274e 33be
00000070: 37ca fabe e5ed 24bd 988b cabd 6ff1 5abd
00000080: 22dc be3e a6dc a5bd 9486 b4be 6f80 02be
00000090: 9572 47bc acf5 39be fcd5 6dbe 5aa3 37be
000000a0: 8674 e2bd e197 d4bd 0511 83be 06a6 bbbe
000000b0: 0da3 19be d017 25bd dc68 a73b 00f1 2c3e
000000c0: 6caa 1abd 3f00 613e 34e2 ddbd c3b1 ddbd
000000d0: b079 46be 3a1b e93e 1fba e3bd 343f f8bb
000000e0: e190 2a3e 246c a7be 7b72 303e d80d de3e
000000f0: 71d7 d2bd b70a 84be c3a3 ddbe 8bac 9b3d
00000100: 7b89 b63c 8c34 65be f650 1c3e 62bd c7bd
00000110: de90 1fbe 5722 43be de7b 81bc 3487 cabd
-0.34427062 0.18380547 -0.37120458 0.22788663 0.03983886 -0.08787161 -0.030006425 -0.35800895
-0.28004506 -0.28497443 -0.066683546 -0.21072157 0.09234443 0.000588784 -0.0604281 -0.06199264
-0.1648486 -0.20075648 -0.06672088 -0.4219857 -0.10006843 -0.112754785 -0.18951137 -0.12427533
0.15992233 -0.4063193 0.6824399 -0.17510282 -0.48982403 -0.040265936 -0.09889907 -0.053452905
0.37277323 -0.08098726 -0.35258925 -0.12744306 -0.012173315 -0.18160123 -0.2322616 -0.17933407
-0.11057381 -0.10380531 -0.25598922 -0.36650103 -0.15003605 -0.040305912 0.0051089358 0.16888809
-0.037760183 0.2197275 -0.108341604 -0.10824921 -0.19382358 0.45528585 -0.11119484 -0.007575894
0.1665683 -0.32699692 0.17231171 0.43369937 -0.102949984 -0.25789425 -0.43289003 0.07601269
0.022282353 -0.22383326 0.15265259 -0.09752919 -0.15582606 -0.19056068 -0.015806135 -0.09889069

conv3.decision_head.channel_gates f4 [5, 72]
00000000: 200f ea3e ec14 d93e 0501 de3e 09ec e93e
00000010: bb36 e03e a5a3 dd3e 1c69 ec3e c0ad dd3e
00000020: cb2d e03e aa39 743f 55a0 dd3e a3b4 e13e
00000030: ab94 ee3e 2cbf dd3e 2c9f dd3e 04b8 e73e
00000040: 26ea e13e 6f68 df3e dc9b dd3e 7fa0 dd3e
00000050: c0b2 dd3e 981e dc3e ef7b df3e fc46 df3e
00000060: c68a d43e 3a98 df3e a194 af3f 7fa0 dd3e
00000070: c853 df3e f0a4 de3e 37a0 dd3e 5a66 e23e
00000080: f0da 323f 949e dd3e efef e73e 06c8 eb3e
00000090: 02c1 db3e 94a7 dd3e 2f60 e53e 1b3a e03e
000000a0: 7fa0 dd3e 86eb dd3e a938 303f 9449 de3e
000000b0: 6242 db3e e9c9 dd3e 9abc 1e3f 725a df3e
000000c0: 8909 453f b7e4 d83e 4e70 df3e b30a dd3e
000000d0: f79d de3e 3f17 e93e 50a6 dd3e 0e8b dd3e
000000e0: 9aae f13e 2d42 dc3e 4443 e13e 19e3 943f
000000f0: 4bcb db3e 7070 de3e 9511 7e3f 6da7 f23e
00000100: 85fe e23e 762d 983f aa81 833f f008 fc3e
00000110: 9a0b de3e ad81 de3e f232 dd3e 41a5 dd3e
00000120: 0f24 1e3f a7af f13e 291f f93e ff4d 113f
00000130: faf7 d83e a168 e73e f74b cc3e 2a41 e73e
00000140: 687a fb3e fdce 3d3f 0a55 e73e aff1 e83e
00000150: 0f3c e43e 9091 e73e ef4c e73e df2f e83e
00000160: e81d ec3e 12f2 e43e 8594 e73e 0155 e73e
00000170: ca50 e73e 7d17 e83e be2f e13e 0bff e93e
00000180: 89dd f33e fe40 ef3e e95a a63f 0155 e73e
00000190: d75a e43e 0929 e93e 0053 e73e d060 ef3e
000001a0: fd8c 373f 4231 e73e 487b fb3e 8e15 fb3e
000001b0: ab8b e83e 2683 ea3e aedb f53e a93d fd3e
000001c0: 0155 e73e 1dbb e73e 55c4 273f 0bd6 eb3e
000001d0: e3ec dc3e 11df e63e e3b5 f03e 9470 eb3e
000001e0: 1dbd 333f a4cb ef3e 5822 e83e 2622 db3e
000001f0: 3dce df3e e493 083f e4bf e73e 1ea8 ea3e
00000200: 206a ed3e 85a4 f43e 2322 eb3e f417 8d3f
00000210: 1703 e83e b9f7 e13e ae98 283f 8e82 f33e
00000220: 3fc0 e23e e0fe 603f a211 8e3f 7c7e 203f
00000230: 80ab e93e f58b ec3e 2752 e93e 0c64 e73e
00000240: 3de2 333f cd62 fd3e 4638 f33e 7302 f83e
00000250: 673d f83e 1752 f33e 50cf 293f 8a47 f13e
00000260: 508d f63e 1cb0 e83e 1451 f33e 15c8 f63e
00000270: 98e6 f03e e30b f33e bd4d f33e aed1 ed3e
00000280: 5086 f93e cbf4 fa3e 0f57 f33e 1153 f33e
00000290: fa73 f33e 43d7 f33e d5e5 f83e da57 f23e
000002a0: c5b9 f33e 1f58 f23e 90fd 9c3f 5e52 f33e
000002b0: d4e3 f83e a8ba f53e 145c f33e 95d9 e63e
000002c0: 6009 673f 5354 f33e e8d7 7f3f 5628 f43e
000002d0: f6e2 f03e 9966 f33e 5e51 a03f 826d f43e
000002e0: 1153 f33e e9fb f23e d37e 6b3f f8b3 f03e
000002f0: 9848 f73e dc03 f33e 5e52 e73e f2b0 f23e
00000300: 84bd 2c3f 61fb f33e f480 f23e 067a d93e
00000310: 1618 ec3e 83cf f13e 9cb9 f33e ff8a f33e
00000320: dbbe f93e e05b f23e eb1b f43e a7c1 953f
00000330: 8bc7 f33e 90c7 e83e 33d5 f83e 61d8 db3e
00000340: 100a fc3e 18f7 ae3f 9a25 4a3f 1728 f03e
00000350: 6300 f43e 0ce3 f23e 7e8e f43e 764a f33e
00000360: 6a2b de3e 102e d63e 83b8 df3e 62fc e73e
00000370: 12a0 d73e e6f3 d23e ade1 833f e4ea d23e
00000380: 7a69 e33e 6e63 773f 21f2 d23e 6e60 d43e
00000390: 5aa6 d63e 12f6 d23e 86e8 d23e e64a d73e
000003a0: d66a d63e 21dc d43e 64fb d23e cbf2 d23e
000003b0: 5f00 d33e 9b1d d03e 8952 d53e 198f d93e
000003c0: 4d4d d43e 00f3 ef3e 978c 933f cef6 d23e
000003d0: 2cd2 d53e 6005 d03e ddf2 d23e 3bb3 d63e
000003e0: 389a 363f 7df8 d23e c397 f43e 09c0 ec3e
000003f0: 38e4 cf3e cb93 d33e e4dd 1c3f 4372 ed3e
0.45714664 0.42398775 0.43360153 0.45687893 0.43791756 0.43288913 0.46173942 0.43296623
0.43784937 0.9540049 0.43286386 0.44083127 0.465978 0.43309915 0.432855 0.4525758
0.44123954 0.43634364 0.43282974 0.4328651 0.43300438 0.4299209 0.4364924 0.43608844
0.41512126 0.43670827 1.3717233 0.4328651 0.43618608 0.43485212 0.43286297 0.44218713
0.6986532 0.43285048 0.45300242 0.46051043 0.4292069 0.43291914 0.44799945 0.4379433
0.4328651 0.43343753 0.68836457 0.4341551 0.42824084 0.43318108 0.62006533 0.43623692
0.76967674 0.42361996 0.4364037 0.43172225 0.43479893 0.45525548 0.4329095 0.43270153
0.47203523 0.43019238 0.43996632 1.1631805 0.42928538 0.43445158 0.9924558 0.4739336
0.44334808 1.1888874 1.0273945 0.4922557 0.43368226 0.4345831 0.4320293 0.4329014
0.6177377 0.47204325 0.48656586 0.5675964 0.4237669 0.45197013 0.39901707 0.45166904
0.49116826 0.74143964 0.45182067 0.4549689 0.4457707 0.45228243 0.45175883 0.45349023
0.46116567 0.44715935 0.452305 0.4518204 0.45178825 0.4533042 0.43981737 0.45702395
0.47629955 0.46729273 1.2996494 0.4518204 0.44600555 0.4553912 0.4518051 0.4675355
0.71699506 0.45154768 0.49117494 0.49039882 0.45419058 0.45803183 0.48019165 0.49461105
0.4518204 0.45259944 0.65533954 0.4606174 0.4314948 0.4509206 0.4701377 0.45984328
0.7021044 0.46835053 0.45338702 0.4279949 0.43712035 0.53350663 0.45263588 0.45831388
0.4637003 0.47781768 0.45924482 1.1022935 0.45314857 0.4413431 0.6585797 0.47560543
0.44287297 0.8788891 1.1099131 0.62693 0.45638657 0.4620053 0.4557049 0.45193517
0.7026709 0.49489442 0.4750387 0.4843937 0.48484346 0.47523567 0.6633196 0.47124892
0.48154688 0.4544686 0.47522795 0.48199525 0.4705093 0.47470006 0.47520247 0.46449035
0.48735285 0.49014887 0.47527358 0.47524312 0.4754942 0.4762517 0.48612848 0.4733265
0.47602668 0.47332856 1.2264881 0.4752378 0.4861132 0.4799397 0.47531188 0.45087877
0.9024868 0.47525272 0.9993882 0.47687024 0.47048157 0.47539213 1.2524831 0.47739798
0.47524312 0.47457817 0.91990393 0.47012305 0.48297572 0.47463882 0.4518003 0.47400624
0.6747668 0.47652724 0.47364008 0.4247591 0.46112126 0.4722863 0.47602546 0.47566983
0.48778424 0.4733572 0.4767755 1.1699723 0.47613177 0.45464754 0.48600158 0.42938522
0.49226427 1.3669157 0.78963625 0.46905586 0.47656545 0.47438848 0.47764963 0.47517747
0.43392497 0.41832018 0.4369546 0.4530974 0.4211431 0.41201705 1.0303246 0.41194832
0.4441641 0.9663609 0.41200355 0.4147982 0.4192379 0.41203362 0.41193026 0.4204933
0.41878384 0.41574195 0.4120742 0.4120086 0.4121122 0.40647587 0.41664532 0.42491987
0.41465226 0.46865082 1.152728 0.41203922 0.4176191 0.406291 0.41200915 0.41933617
0.7132907 0.41205207 0.47772035 0.4624026 0.40603805 0.41323695 0.6127608 0.46376237

ip1.weight f4 [6, 1152]
00000000: ef07 cebd ac9c 3abd 06cd 89bd e728 ddbd
00000010: d4c5 a5bd 7a72 35bd 9462 ccbd 825f a6bd
00000020: 1585 8ebd 0299 86bd 7fe4 d0bd aed7 d9bd
00000030: 1930 5bbd 778b a8bd 13bc 38bd 335c 99bd
00000040: de32 fcbc 9896 7fbc 09f1 7abc ab82 a239
00000050: 6405 c7bc 1308 4e3c b896 773d dd23 69bc
00000060: 79e7 d33c e45a 163d a77b 8c3c 2599 1dbd
00000070: 69f1 a5ba e8fd dbbb 0b75 93bd f265 243c
00000080: 1e2a 89bd d648 debd 8cb3 cfbd bcb6 01be
00000090: 030f 81bd 94e4 8fbd 6399 94bd acc8 c9bd
000000a0: a0c8 e1bd b7b6 15be b043 babd c392 95bd
000000b0: bafa f7bd a004 a2bd 15b0 4abd b2f6 19be
000000c0: 804e 82bc ee1c 50bb 9f83 b5bd 000c 85ba
000000d0: d5b3 a13b 964f a0bc b2c6 50bd 1e10 6ebd
000000e0: 29d5 90bd 38ba 34bd eaa7 2cbd eb1b 6abd
000000f0: 3214 55bd 6f3a 45bd 0646 43bc 4d06 8ebd
00000100: ab6b 6cbc c582 1cbd a7e5 30bc 8a3b 13ba
00000110: f434 babb f4b4 c2bc 331d 4abd dd9c a2bc
00000120: ddb8 0abc 88d4 68bd f729 b6bc aa72 30ba
00000130: 5bea 89bc 52ae 2ebd 7c2d 60bc f27d 23bd
00000140: 880e 2a3b 6106 1e3b dde7 4cbc 2a63 f1bb
00000150: 9767 953c 6310 b3bb 8e7f 133d a1c4 243d
00000160: f0e7 fc3c 5a16 103d e849 ddbc ed24 a83b
00000170: 8c7c babb d7eb ecbc 6503 c1bb 0d78 23bc
00000180: 5e84 31bd dd8c 40bc 24cf e1bc b19d cd3c
00000190: 60c8 b73c 4058 fd3d c6c1 593d 30bd a73d
000001a0: c7c7 3d3d c407 5b3d 9b8e 5f3d e3eb db3d
000001b0: 5b4b 9b3d 1d08 b63d 1851 e43d 375f e83d
000001c0: 3df5 9abd 3313 df3c 1a91 3d3d da2e bb3d
000001d0: 5e5a 973d 74c5 0f3e a0cc c33d 8f39 103e
000001e0: 520d ef3d a12c 3a3d 4714 dd3d 33e1 a23d
000001f0: ccc8 c33d 3a6a 883d b4d8 a03d 092d 243e
00000200: 785c b9bc a42d 81bd 4e52 2ebd 8801 06be
00000210: 19fd acbd ef70 9fbd 1122 eabd 5828 8cbd
00000220: ad22 41bd c1d0 92bd 3534 e6bd 894e 93bd
00000230: f0c5 a7bd acea 19bd a8b5 d33c f079 0fbd
00000240: 550a 8cbd fd91 5bbd 7e04 26be 9deb 70bd
00000250: 31ae 15be 76df e0bd f2b2 01be 42d4 0abe
00000260: 1138 d0bd 96c6 0fbe f680 f9bd a38f 48be
00000270: 2173 20be 6aba 55be 102d f1bd 7eac 25be
00000280: ea40 d03c 40ea a13d 546d 7b3d 2f9c b13d
00000290: 25bc a63d 9d4c 183d 90c5 c93d cd7a 443d
000002a0: 4249 983d 5569 3e3d 78b6 d43d 3c30 af3d
000002b0: be7c 3e3d 17e1 7e3d 5377 d73b 2ec2 d93c
000002c0: f797 cf3c 6244 9a3d c7a7 ec3c aa77 903d
000002d0: 75f0 a53d 805c 213e f68c 0e3e f3d9 fe3d
000002e0: f9c7 4f3e 18c4 bb3d 9e7e c43d d9b8 cf3d
000002f0: 9519 003e 056c b43d 37e3 ea3d 9d3a 1e3e
00000300: 956a 5fbd b0c3 71bd 1db3 0abd 3ec3 bdbd
00000310: 86d4 9fbd 2f5b 0fbd 56f5 21bd 163f 77bd
00000320: 446d 10bd 95cc 32bd 8b5f 9bbd 8bea 70bd
00000330: c41a 7abd e217 93bd c641 0dbd fc7d dbbd
00000340: 3308 fabb 2e20 cdba 5508 e43c b8b2 523b
00000350: 294a d8bb aedd b33b dcbe b1bb 724d 00bc
00000360: 8521 acbc 94fd 79bc a6a2 50bc 1946 97bc
00000370: b1b8 1c3c d461 583c 6f6d abbc 0eb8 483c
00000380: 3bca fab9 f850 0d3c 310e 87bc 3a1d 6dbc
00000390: 836b 03bc 83cb 47bb 6f44 8dbc 6be5 9f3c
000003a0: 6f35 eabc 3b77 833c c059 7e3b fca9 f0bb
000003b0: ed68 843b 6e27 7b3c c422 bebb ceff 83bc
000003c0: 0d8b 89bd 6f4a c1bd b01d 82bd b973 33be
000003d0: bc94 e5bd bcdb afbd 1970 00be cb08 66bd
000003e0: 2d1b a1bd e9cd fdbd 8ab9 c0bd 60d9 bcbd
000003f0: 1907 1cbe 2e75 bbbd 6913 0ebd 9dc0 d7bd
-0.10060107 -0.04555957 -0.06728558 -0.10798817 -0.08094373 -0.044298626 -0.0997974 -0.081236854
-0.06958977 -0.06572153 -0.10199832 -0.10636841 -0.053512666 -0.08229726 -0.045101237 -0.07488289
-0.030785974 -0.015599869 -0.015316256 0.00030996403 -0.024294563 0.012575167 0.06044647 -0.014229742
0.02586721 0.036707774 0.017148806 -0.038476128 -0.0012660447 -0.0067136176 -0.072000585 0.010034071
-0.06697486 -0.10853736 -0.10141668 -0.12667364 -0.063016914 -0.0702602 -0.07255819 -0.09852728
-0.11024594 -0.14620481 -0.090949416 -0.07303383 -0.12108369 -0.079110384 -0.04948433 -0.15035513
-0.015906572 -0.0031755525 -0.08862995 -0.0010150671 0.0049347677 -0.0195692 -0.05097074 -0.05812084
-0.07071907 -0.044122905 -0.042152323 -0.05715553 -0.052021213 -0.04815143 -0.01191855 -0.069347955
-0.014429967 -0.03821065 -0.010796941 -0.0005616477 -0.005682582 -0.023767926 -0.049344253 -0.019850189
-0.008466926 -0.05684331 -0.022236807 -0.00067309535 -0.016835382 -0.042646714 -0.013682719 -0.039915033
0.0025948603 0.002411269 -0.012506452 -0.0073665576 0.018237872 -0.0054646 0.036010318 0.040226582
0.030872315 0.035177566 -0.02701278 0.005131355 -0.0056911167 -0.028921051 -0.0058902972 -0.009977353
-0.043339126 -0.011752334 -0.027564593 0.025099607 0.022434413 0.12370348 0.053163312 0.081903815
0.0463331 0.053474203 0.05457936 0.10738351 0.07582732 0.08888266 0.1114828 0.11346286
-0.07566307 0.027230835 0.046280958 0.091397956 0.07390283 0.14040166 0.095605135 0.14084457
0.116724625 0.045452718 0.10794883 0.079531096 0.09559783 0.06660886 0.07853833 0.16032805
-0.0226271 -0.063075334 -0.04255896 -0.13086522 -0.08446712 -0.07785212 -0.11432279 -0.068436325
-0.04715221 -0.07168723 -0.112404265 -0.07192714 -0.081920505 -0.037577316 0.025843456 -0.035028398
-0.06837908 -0.053606022 -0.16212651 -0.05881845 -0.1461723 -0.10980122 -0.12665918 -0.13557532
-0.10166944 -0.14040598 -0.121828005 -0.19586043 -0.15668918 -0.20871893 -0.11776173 -0.16179082
0.025421578 0.07906008 0.06138356 0.08672368 0.081413545 0.03718244 0.09852135 0.047968674
0.07435848 0.04648717 0.10386366 0.08554122 0.046505682 0.06222638 0.006575504 0.02658185
0.025341017 0.07532574 0.028888596 0.07054074 0.08102504 0.15757942 0.1392096 0.12443914
0.20291127 0.09168261 0.09594463 0.10142679 0.12509759 0.088096656 0.11469119 0.15452047
-0.054545004 -0.059024513 -0.033862222 -0.09265755 -0.078042075 -0.03499907 -0.03954061 -0.060362898
-0.035260454 -0.043652136 -0.07586583 -0.058817428 -0.061060682 -0.0718229 -0.034486555 -0.10717389
-0.007630372 -0.0015649849 0.027836004 0.0032149982 -0.0066006375 0.0054890728 -0.0054243635 -0.007830964
-0.021012077 -0.015258212 -0.012734091 -0.018466042 0.009565518 0.013206918 -0.020926205 0.012250913
-0.0004783439 0.0086252615 -0.01648626 -0.0144723 -0.008021238 -0.0030486293 -0.017244546 0.019518575
-0.028589932 0.016048064 0.003881082 -0.0073444825 0.0040408284 0.015329225 -0.005802484 -0.016113188
-0.06715975 -0.09438025 -0.06353319 -0.17524613 -0.112100095 -0.08586833 -0.12542762 -0.05616073
-0.078665115 -0.1239279 -0.09410389 -0.092211485 -0.15237083 -0.091532096 -0.03468648 -0.10534785

ip1.bias f4 [6]
00000000: 3553 0ebf 39dc b33d 30af 79bf 1691 743f
00000010: a544 583f e61b b9be
-0.55595714 0.087822385 -0.9753294 0.95533884 0.84479743 -0.36154097

onnx::MatMul_109 f4 [9, 5]
00000000: 5a1b 9fbd 40df 7c3e 0ccd 943e 63d9 a8be
00000010: 8afe bdbe 7815 07be 91ad 903e 530c a93e
00000020: f94d d0be f881 e2be ebdc 893c fa4a 5c3e
00000030: cc55 4b3e 182f e1be 2ea0 a0be f40f 3dbf
00000040: ba20 f03e ba19 223e d759 83be 793e 5dbe
00000050: 4ed9 f03c 386a 333e c687 9d3e a410 f2be
00000060: 39ac cdbe c3f4 0d3e 4c41 2b3e 76f0 963e
00000070: 7fd2 cbbe a188 f4be ad15 1ebd f5a1 023d
00000080: 002c f63d a44c 92bd e361 093d 8eb7 063f
00000090: 75f1 e1be f3c6 1ebf dce8 3abe 0da6 a73c
000000a0: fa45 ba3e 6cf1 14bf f3a6 cdbe 48be 5bbe
000000b0: 9aee b83e
-0.07768889 0.24694538 0.29062688 -0.32978353 -0.3710826 -0.13191783 0.2825742 0.33017215
-0.40684488 -0.44239783 0.016828975 0.21512976 0.19856948 -0.43981242 -0.31372207 -0.7385247
0.46899968 0.15830126 -0.2565448 -0.21605863 0.029400494 0.17520988 0.3076765 -0.4727832
-0.40170458 0.138629 0.16724128 0.29480332 -0.39809033 -0.4776049 -0.03859489 0.031892736
0.12020111 -0.07143524 0.033540618 0.5262383 -0.4412953 -0.6202232 -0.18252891 0.020464921
0.36381513 -0.5818088 -0.40166435 -0.21459305 0.3611954

onnx::MatMul_110 f4 [18, 5]
00000000: d57a 9cbe b92c a0be d639 9fbe 4a0d 893e
00000010: 1153 1ebe 3ef6 68bc c4dc 5abd 7195 c2bc
00000020: 6d84 023c 7968 a83d de04 90be 1965 8ebe
00000030: fac2 f7bd 91a5 573e da42 5dbd 5f44 e63c
00000040: 0164 4c3e defc 273e dfd1 20be 3950 dc3e
00000050: f404 57bd a127 ffbd 0e1c 6ebd dbf9 bd3c
00000060: 6b5b 17bc 577d 81be 0b41 a63c cb67 b2be
00000070: fc27 723e d4c2 3c3d 7cb5 eebc 5448 34be
00000080: 6957 0cbd 2621 753c 366e 973d ecdf 35be
00000090: fc86 88be 4784 3abe 093e ba3e de56 98be
000000a0: 0ba0 bcbd 4df9 8cbe 6332 48be f621 7a3e
000000b0: bbb8 ebbd 9ffc d2be d92e 8bbe deed b3be
000000c0: e67f 8c3e 8a1d 1dbe d440 cdbd a51b c0bd
000000d0: e1be 1dbd 728c 503c 3cc7 2a3e 5dc0 64bd
000000e0: fc96 2b3e a828 0c3e e819 20be d42c d73e
000000f0: a8dc 2bbe 53fc a1be dfac afbe 0f53 a13e
00000100: 635b babe 548c c9bc f030 053e ff8e 87be
00000110: 52b7 3e3e 144f 40be 6836 eabe 274c bdbd
00000120: 2395 64be 9c59 6b3e 3221 2bbe fe2e d5be
00000130: 1c32 c7be 008b d8be 0fc2 d13e 94a0 81be
00000140: e9ed acbe 6fb3 e3be 6fb9 a4be a0ea c73e
00000150: 1119 c3be 342a d1bd 2d3c 57bd 357f e5bb
00000160: e1b2 75bd 39d5 493e
-0.30562463 -0.3128412 -0.31098813 0.2676795 -0.15461375 -0.014218865 -0.053433195 -0.0237529
0.007966143 0.082230516 -0.28128713 -0.27811506 -0.12097736 0.21059252 -0.054018833 0.028108774
0.19960023 0.16405055 -0.1570506 0.43029955 -0.052494958 -0.124587305 -0.058132224 0.02319043
-0.009238104 -0.2529094 0.020294687 -0.34844813 0.23648065 0.04608424 -0.029139273 -0.17605716
-0.03426305 0.0149615165 0.07394068 -0.177612 -0.26665485 -0.18214522 0.36375454 -0.29753774
-0.09210213 -0.2753395 -0.19550471 0.24427018 -0.11509844 -0.4120836 -0.2718418 -0.35142416
0.2744133 -0.153433 -0.100221306 -0.09380273 -0.038512114 0.012728797 0.16677564 -0.055847514
0.16756815 0.13687384 -0.15634882 0.4202639 -0.16783392 -0.3163782 -0.34311578 0.3150868
-0.36397848 -0.024603046 0.1300695 -0.26476285 0.18624619 -0.18780166 -0.45744634 -0.092430405
-0.22322516 0.22983402 -0.16711882 -0.41637415 -0.38905418 -0.4229355 0.40968367 -0.25317824
-0.3377526 -0.44472834 -0.32172725 0.39046192 -0.38105062 -0.10213128 -0.052547622 -0.0070036897
-0.059985045 0.19710244

onnx::MatMul_111 f4 [36, 5]
00000000: 5753 b8bd 130f d8bc ec48 2abd 2fc8 b33d
00000010: 8278 91bd 7e72 013e e4e1 0bbd 3b84 c13b
00000020: efb1 00bd af7a b0be 537c 9fbd a041 0dbd
00000030: 7b9b eebc 0a73 043e fd21 d7bd 7595 7abe
00000040: bde4 14be e7cc d4bb 9b4f c73e 07d5 60be
00000050: d2dd 61bd 26f8 82bd aa41 263e 0512 fbbd
00000060: ed4c c9bd 3743 debe b3b8 dbbd 4c7f b5bc
00000070: ce52 163f 54e8 cdbe a588 8f3d 8001 d43d
00000080: 86a0 733d 790a 8b3d 863a bdbe 0df0 8bbd
00000090: eb7a 4fbd c692 c2bc fbf7 863d d02b 4fbd
000000a0: fca6 bfbd 5958 a6bd 493c 1fbd d114 ae3d
000000b0: f301 79bd 72f6 b5bc 0cbb 50bc 4868 46be
000000c0: 9472 953d b71a 98bd b0b1 babd aac7 1e3e
000000d0: 8edb 073e 68cc 7ebe e7bf d23d b2b0 a1be
000000e0: 97fb 03bf b447 2f3e 09b4 be3e 02e8 65be
000000f0: 30cf af3c 45d6 4e3e 8592 cdbe 4507 4bbc
00000100: 570c 85bd 6ca9 b4bd 5857 79bd 5f2f 01bd
00000110: 2cbd 913d 5295 5ebd 74e9 2fbe 98e3 71be
00000120: 02d0 663e 7f36 97bd 9af0 8cbd c957 56bd
00000130: f762 bbbc bdac ddbc 3031 8d3d 8ce9 57bd
00000140: 1079 c0bd 0c9e aabe 4bd4 693e 21fc 8ebe
00000150: c8ce 143e 8add a4bd 0c94 a9bd 2600 13bd
00000160: e07a a03d c10d 5cbd b341 c13c c918 823d
00000170: f591 41bd 6c94 683d 3675 23bd 7ae4 d9bd
00000180: 01c7 78bd c1e1 22bd 0b2b b03d ebc6 7fbd
00000190: 3b64 cebd 5385 92bd 3f96 09bd 21d0 a33d
000001a0: b447 72bd 5f74 9abd 36ee 91bd 08ca 01bd
000001b0: d27d 903d 45f1 5abd fe85 9bbd 5f97 82bd
000001c0: 143f d9bc f35a 8e3d 4ff4 68bd de41 71bd
000001d0: 30b7 84bd 804f 18bd 31bb 973d be6e 6fbd
000001e0: 2de5 5dbd 991f 85bd 78c5 d3bc 0202 7c3d
000001f0: afbd 5abd 436f 11bf 019a cabe da34 1f3f
00000200: 04f5 cd3d c215 f7be 67de a6bd 84a9 98bd
00000210: 98fc 0fbd 0904 a73d a66d 69bd b61a a3bd
00000220: 1496 8ebd be5e 12bd 71fa 8d3d 54d0 71bd
00000230: 5208 733c d025 39be c353 273e ee02 ddbb
00000240: 4d5b 69be 1c09 62bd 2c50 cbbc f780 f2bc
00000250: 770c 813d a141 8fbd 791b 89bd dc6c 22bd
00000260: 1efb eebc bd60 8e3d 3e62 6abd 9c09 b4bd
00000270: 71ac 92bd 3888 07bd b11f a13d 9904 7cbd
00000280: 20d2 9bbd 83ba babd ca00 16bd a4d7 a23d
00000290: 87d4 52bd b041 95be 3afc d7be 5cbe c93e
000002a0: 3676 8d3d 1f1c 61be fdbd 9abd 6fde a5bd
000002b0: 6570 09bd de1a 8e3d 16e5 5fbd 25e6 603e
000002c0: 04e5 16bd cc77 2bbe 7d7a 6b3e 02c2 0bbe
-0.09000271 -0.026374375 -0.04157345 0.08778416 -0.07103063 0.12641332 -0.034150973 0.0059056557
-0.03141969 -0.344686 -0.07787385 -0.034486413 -0.029126873 0.12934509 -0.105045296 -0.24471076
-0.14540382 -0.006494153 0.38927922 -0.21956263 -0.055143185 -0.06394987 0.16235986 -0.12259296
-0.098291256 -0.43410656 -0.10728588 -0.022155426 0.587201 -0.40216315 0.07008485 0.103518486
0.05947926 0.06789107 -0.36958712 -0.068328954 -0.050654333 -0.023751628 0.06590267 -0.050578892
-0.093580216 -0.0812232 -0.03887585 0.08500064 -0.060792875 -0.02221224 -0.012739908 -0.19375718
0.07297245 -0.074269705 -0.091159225 0.15505853 0.13267347 -0.24882662 0.10290509 -0.3158012
-0.5155577 0.17117196 0.3724673 -0.22451785 0.0214611 0.20198925 -0.40150848 -0.01239187
-0.06496494 -0.08821377 -0.060874313 -0.031539317 0.0711616 -0.05434162 -0.17178899 -0.23621976
0.22540286 -0.07383441 -0.068818286 -0.052329812 -0.022874339 -0.027059907 0.068941474 -0.052712962
-0.09398091 -0.33323705 0.2283489 -0.27926734 0.14532006 -0.08050068 -0.08280191 -0.035888813
0.078359365 -0.053724054 0.023590898 0.06352384 -0.047258336 0.05678217 -0.039906703 -0.106392816
-0.06073666 -0.039766077 0.0860196 -0.062445562 -0.10077711 -0.07154336 -0.03359055 0.07998682
-0.059150413 -0.07541727 -0.07125513 -0.031686813 0.07055248 -0.05345275 -0.07593916 -0.06376528
-0.026519336 0.06950941 -0.056873616 -0.058900706 -0.06480253 -0.037185192 0.07408751 -0.05845522
-0.054173637 -0.065001674 -0.025850996 0.061525352 -0.053403553 -0.56810397 -0.3957062 0.6219002
0.10056499 -0.48258787 -0.08147889 -0.074542075 -0.035153 0.081550665 -0.056989335 -0.07964079
-0.06962219 -0.035734884 0.069325335 -0.059036568 0.014833527 -0.1808083 0.16340546 -0.006744734
-0.22788735 -0.05518447 -0.024818502 -0.02960251 0.063012056 -0.069949396 -0.06694693 -0.039654598
-0.029172476 0.06952045 -0.057222597 -0.08790895 -0.07161797 -0.033088893 0.07867373 -0.061527822
-0.076084375 -0.091176055 -0.036621846 0.079512864 -0.051472213 -0.29151678 -0.4218462 0.39403045
0.069073126 -0.21983384 -0.07555769 -0.080990665 -0.033554453 0.06938718 -0.054661833 0.21962793
-0.0368395 -0.16744918 0.22995944 -0.13648227
