dnn-models/KWS-DNN_S.onnx (onnx, 319780 bytes, 8 tensors)

final_fc/read__12 f4 [144, 12]
-0.002134293 -0.059786312 -0.14328203 0.005813954 -0.20544843 0.26502946 -0.26728752 0.047838047
-0.18609579 0.13263397 0.06072803 0.059130933 -0.123143725 0.049644046 0.08157886 -0.051328305
0.19679056 -0.09377217 -0.1474005 -0.28861088 0.04410081 0.05809975 0.14513262 0.040319942
0.024476731 -0.0563934 -0.10030528 0.026422778 0.18482403 -0.049598686 0.06449171 -0.021953272
-0.19082995 0.055634007 -0.11257931 0.13215333 -0.45805737 -0.24569103 0.023887612 0.12117572
0.23972802 0.05652887 0.23249589 -0.14240514 -0.17623495 -0.14902425 -0.04270267 -0.078174524
-0.47055957 0.1625616 -0.19833653 0.17559795 -0.12293016 0.12826784 -0.20070815 -0.041232668
0.11461032 -0.06318136 -0.17779832 0.08917951 -0.0886592 -0.03238616 -0.17806672 -0.05241399
-0.03718578 -0.2535454 0.027342394 0.10063929 0.13028733 0.10409544 0.14117996 -0.07997418
0.118593365 0.03553299 -0.17449129 -0.022432411 0.051213585 -0.20559993 0.05463112 0.11108695
0.036584347 0.19280669 0.18013681 -0.20706894 -0.21334389 -0.08013099 0.12783195 -0.10060807
0.18007499 -0.052898582 -0.27825868 -0.02614395 -0.060355328 0.099968724 -0.03451617 0.12906106
-0.096599534 -0.0087405 0.28289965 0.05155754 -0.10637136 0.28617567 -0.07409299 -0.11530094
-0.19471374 -0.068009354 0.013438077 0.066414036 -0.26417127 -0.0768468 0.0749648 -0.01583153
-0.076595314 -0.101091295 0.25238445 0.10513028 0.03521344 -0.18904048 0.02233509 -0.22524832
0.14798898 -0.115194984 -0.1359976 -0.16212535 0.19457163 0.07601845 -0.031711847 -0.20018408
0.0989046 -0.049244296 0.10977351 0.0024935543 -0.12993154 0.13901097 0.17473845 -0.18995188
-0.015787508 0.14459978 -0.0742493 -0.10411015 0.09116936 0.025044987 -0.018113373 -0.06938943
-0.306493 0.1957466 0.017318465 0.116904184 0.120844364 0.14897922 0.01293183 -0.3589116
-0.062145483 -0.13806172 -0.11016454 0.014661623 0.041679367 -0.19255728 0.03977243 -0.10946224
-0.13012487 -0.16383542 0.123540744 0.101062596 0.051921517 0.14055546 0.023012578 0.17400312
-0.3560689 -0.040199388 -0.119018786 0.018816225 0.073409304 -0.15228091 -0.23617646 0.05778602
0.067142256 0.043077096 -0.20101374 -0.007555886 -0.08586869 0.022196975 -0.069607146 0.11172001
0.12479389 0.15822488 -0.03712506 -0.09185049 0.06498825 -0.016365804 0.1834669 0.042017188
-0.31241912 0.14678265 0.0797532 -0.02357565 -0.105521485 0.001805739 0.15107213 -0.013850599
-0.19711508 -0.11758168 0.04280125 0.03340226 -0.19513194 -0.050488114 -0.056566298 0.16923365
0.017882992 -0.08750032 0.059220523 0.018305218 -0.15116411 -0.14690141 -0.13719967 0.088408604
0.09408809 0.028119039 0.11757989 -0.10281547 -0.1692167 0.011020157 0.1269812 -0.17909971
0.053595647 -0.032942574 0.120247535 -0.18185416 -0.22427572 0.0065814354 -0.00091427384 0.004338683
-0.08311653 -0.049165297 -0.2437174 0.24906231 -0.22364321 -0.018185334 -0.19637322 0.1311266
-0.16860197 -0.11521086 -0.053134352 -0.22435604 -0.13033877 0.1620842 0.012598336 -0.0007672475
-0.15397143 -0.116480745 -0.18282121 0.024883674 0.0044035115 0.29292676 0.04353002 -0.14813375
00000000: 7fdf 0bbb 7ee2 74bd 86b8 12be fb82 be3b
00000010: 1361 52be f1b1 873e e9d9 88be d4f1 433d
00000020: e58f 3ebe 33d1 073e f4bd 783d 4733 723d
00000030: c732 fcbd 8e57 4b3d d112 a73d a13d 52bd
00000040: 7783 493e a00b c0bd 28f0 16be cec4 93be
00000050: 0da3 343d 01fa 6d3d a59d 143e 8626 253d
00000060: 6d83 c83c c4fc 66bd db6c cdbd 9574 d83c
00000070: 8342 3d3e fe27 4bbd 3b14 843d 59d7 b3bc
00000080: ed68 43be 7ce0 633d fb8f e6bd 3453 073e
00000090: 7f86 eabe 6e96 7bbe f4af c33c fa2a f83d
000000a0: 437b 753e d18a 673d 6713 6e3e a7d2 11be
000000b0: ef76 34be d099 18be ffe8 2ebd f719 a0bd
000000c0: 2fed f0be 8c76 263e bb18 4bbe f3cf 333e
000000d0: cfc2 fbbd a558 033e 7086 4dbe 96e3 28bd
000000e0: d1b8 ea3d 3b65 81bd c310 36be bfa3 b63d
000000f0: f492 b5bd 5aa7 04bd 1f57 36be 0db0 56bd
00000100: 1e50 18bd b4d0 81be 28fd df3c f91b ce3d
00000110: 0b6a 053e fd2f d53d 7b91 103e 81c9 a3bd
00000120: 14e1 f23d 0a8b 113d d8ad 32be 2dc4 b7bc
00000130: 56c5 513d ca88 52be e2c4 5f3d 8e81 e33d
00000140: 78d9 153d 1e6f 453e c975 383e e109 54be
00000150: d276 5abe b71b a4bd 61e6 023e 9b0b cebd
00000160: 9465 383e 2fac 58bd ec77 8ebe d62b d6bc
00000170: 2637 77bd 67bc cc3d d460 0dbd 9528 043e
00000180: fad5 c5bd 5034 0fbc 39d8 903e 002e 533d
00000190: 3ad9 d9bd 9e85 923e 11be 97bd e622 ecbd
000001a0: 0a63 47be 7d48 8bbd 612b 5c3c 1504 883d
000001b0: 7541 87be db61 9dbd 2587 993d 20b1 81bc
000001c0: 01de 9cbd f408 cfbd 8938 813e 8b4e d73d
000001d0: f83b 103d d493 41be 14f8 b63c 7fa7 66be
000001e0: 6c8a 173e 59eb ebbd f442 0bbe 3004 26be
000001f0: c93d 473e 90af 9b3d 48e4 01bd 0efd 4cbe
00000200: 7f8e ca3d 63b4 49bd efd0 e03d e66a 233b
00000210: c60c 05be e458 0e3e a3ee 323e bf82 42be
00000220: ce54 81bc f711 143e 0410 98bd b437 d5bd
00000230: 00b7 ba3d 252b cd3c 7f62 94bc 0c1c 8ebd
00000240: a7ec 9cbe cc71 483e 74df 8d3c 766b ef3d
00000250: 407d f73d 028e 183e 07e0 533c 43c3 b7be
00000260: 438c 7ebd 0d60 0dbe f29d e1bd 4e37 703c
00000270: fcb7 2a3d bc2d 45be 6ae8 223d bd2d e0bd
00000280: 743f 05be 79c4 27be ee02 fd3d e8f9 ce3d
00000290: a8ab 543d c5ed 0f3e e084 bc3c e02d 323e
000002a0: aa4e b6be 1da8 24bd 1fc0 f3bd 7c24 9a3c
000002b0: 9e57 963d 87ef 1bbe 3ed8 71be 09b1 6c3d
000002c0: e181 893d 9c71 303d 8cd6 4dbe 5e97 f7bb
000002d0: ecdb afbd 6ed6 b53c 318e 8ebd 76cd e43d
000002e0: f093 ff3d b405 223e 7210 18bd 1c1c bcbd
000002f0: 8f18 853d 9411 86bc bfde 3b3e 371a 2c3d
00000300: 66f5 9fbe 314e 163e a555 a33d b921 c1bc
00000310: a61b d8bd 8cae ec3a a7b2 1a3e 9fed 62bc
00000320: 89d8 49be aace f0bd 5d50 2f3d cfd0 083d
00000330: abd0 47be a0cc 4ebd 10b2 67bd 964b 2d3e
00000340: 5a7f 923c 5e33 b3bd 3891 723d d3f4 953c
00000350: c4ca 1abe 536d 16be 127e 0cbe 920f b53d
00000360: 42b1 c03d e659 e63c bacd f03d eb90 d2bd
00000370: 2547 2dbe e38d 343c 5c07 023e ea65 37be
00000380: 1c87 5b3d cbee 06bd 5744 f63d fa37 3abe
00000390: 89a8 65be 15a9 d73b e1ab 6fba 832b 8e3b
000003a0: 0039 aabd 8d61 49bd 0e91 79be 310a 7f3e
000003b0: ba02 65be 69f9 94bc 1016 49be 0d46 063e
000003c0: ffa5 2cbe acf3 ebbd 68a3 59bd 97bd 65be
000003d0: 8777 05be 67f9 253e 4069 4e3c 1c21 49ba
000003e0: b0aa 1dbe 758d eebd 7c35 3bbe d9d8 cb3c
000003f0: 554b 903b 7ffa 953e 894c 323d 60b0 17be

fc3/b/read__11 f4 [144]
0.07310872 -0.14462557 -0.06740274 0.15020907 0.117339015 -0.12201489 0.21306983 0.0024054996
0.089063354 0.04559353 0.19352382 0.074135296 0.16786875 -0.03465546 -0.2866683 0.09271154
-0.023669675 0.10327642 0.16948484 0.12365163 -0.10218149 -0.10506125 0.11569101 -0.09481283
-0.076097906 0.00964298 -0.032345768 -0.13496932 0.090150535 -0.08167332 0.08383083 -0.06514691
0.19160016 0.167746 0.12380078 0.11366455 -0.12041289 0.08380036 -0.1540615 0.0097082155
-0.011769158 0.24126342 0.15213042 0.1610189 0.06500569 -0.03328208 0.002028601 -0.21301511
0.11086221 -0.033448547 -0.15490909 -0.15624335 -0.0009044395 0.22297221 0.040959943 0.2573521
-0.16687816 -0.15273999 0.031187259 -0.14918028 -0.08267697 -0.039633594 0.042763103 0.04248353
-0.0907965 0.21633351 0.20669353 0.11251525 0.012340239 -0.064437516 0.28845158 0.25135767
0.04167618 0.18118043 -0.06447815 0.26554972 0.13578206 -0.0855168 -0.03279131 0.031226011
0.05871655 0.42021888 -0.19559874 0.058148883 -0.060858965 -0.09483882 -0.2383715 0.23024242
-0.027777437 -0.009771765 0.28660038 -0.057456307 0.11745199 -0.046814516 -0.10333744 0.14865942
0.38053665 -0.049089424 0.00014048278 0.34945798 0.59132314 0.11722483 0.13032603 0.10422361
0.17710508 -0.043278325 -0.093455195 0.39473268 -0.10623528 0.13056724 0.24513556 -0.14842466
0.32451123 0.2708762 0.14536169 0.0047189575 0.08165 -0.15435445 -0.22151516 0.09994668
0.052625507 0.43478018 0.041089058 0.1903407 -0.08941728 0.11273885 -0.002107412 0.5420722
-0.11164298 0.21224563 0.16905099 -0.11451273 0.24069737 0.16725808 0.27351776 -0.07746891
0.02370149 0.19514875 -0.090939224 -0.011389662 -0.022492608 0.014597951 -0.093046054 0.038961314
00000000: 06ba 953d ba18 14be 730a 8abd 68d0 193e
00000010: 704f f03d f1e2 f9bd fa2e 5a3e 96a5 1d3b
00000020: d966 b63d 48c0 3a3d 1c2b 463e 3fd4 973d
00000030: c9e5 2b3e e2f2 0dbd 30c6 92be 8cdf bd3d
00000040: e8e6 c1bc 9682 d33d 6f8d 2d3e 113d fd3d
00000050: 8744 d1bd 5a2a d7bd 69ef ec3d 3b2d c2bd
00000060: 38d9 9bbd 97fd 1d3c ff7c 04bd 6635 0abe
00000070: d8a0 b83d 5744 a7bd 80af ab3d be6b 85bd
00000080: d532 443e 9cc5 2b3e 438b fd3d f6c8 e83d
00000090: 099b f6bd 869f ab3d 4cc2 1dbe 350f 1f3c
000000a0: 6dd3 40bc c20d 773e 14c8 1b3e 23e2 243e
000000b0: b421 853d ca52 08bd 47f2 043b a220 5abe
000000c0: ba0b e33d 5801 09bd 7da0 1ebe 42fe 1fbe
000000d0: e817 6dba d452 643e 9dc5 273d a8c3 833e
000000e0: 1ce2 2abe df67 1cbe 6c7c ff3c b7c2 18be
000000f0: 8b52 a9bd d656 22bd 5d28 2f3d 3603 2e3d
00000100: 84f3 b9bd 8886 5d3e 78a7 533e 656e e63d
00000110: b72e 4a3c d1f7 83bd edaf 933e f4b1 803e
00000120: a4b4 2a3d 5d87 393e 1f0d 84bd 22f6 873e
00000130: 740a 0b3e 6f23 afbd 2e50 06bd b1cd ff3c
00000140: c480 703d ee26 d73e 094b 48be 862d 6e3d
00000150: 4047 79bd db3a c2bd a917 74be abc4 6b3e
00000160: 828d e3bc c119 20bc 49bd 923e 4e57 6bbd
00000170: ab8a f03d 94c0 3fbd 94a2 d3bd 2d3a 183e
00000180: b3d5 c23e fe11 49bd 8f4e 1339 28ec b23e
00000190: f460 173f 9213 f03d 3074 053e 3073 d53d
000001a0: 095b 353e 9d44 31bd 7065 bfbd 671a ca3e
000001b0: e291 d9bd 6bb3 053e d104 7b3e a2fc 17be
000001c0: 5626 a63e 49b0 8a3e b2d9 143e 7ca1 9a3b
000001d0: 1d38 a73d 180f 1ebe dfd4 62be d8b0 cc3d
000001e0: d88d 573d 829b de3e 004d 283d ace8 423e
000001f0: 6820 b7bd a0e3 e63d 821c 0abb 3ec5 0a3f
00000200: 13a5 e4bd eb56 593e b41b 2d3e a685 eabd
00000210: 5f79 763e b445 2b3e 850a 8c3e 05a8 9ebd
00000220: a129 c23c 13d5 473e 583e babd b49b 3abc
00000230: 6b42 b8bc 3f2c 6f3c ee8e bebd e695 1f3d

fc3/W/read__10 f4 [144, 144]
0.039234716 -0.09408256 -0.09913795 0.15647069 0.022849869 -0.010237843 -0.056588586 -0.011266109
0.085906744 0.013533139 -0.02863727 -0.04402811 -0.0074996874 0.07372334 -0.08313517 -0.0067200046
0.023217795 0.03483237 0.01496912 0.10551069 -0.02684333 0.10592691 -0.036155783 -0.05335389
-0.0763368 0.12953004 -0.12692732 0.1505741 0.0037642927 0.1327326 0.044908803 -0.14515321
-0.19186646 0.012868559 0.17254166 -0.032559834 -0.062317256 -0.11092998 0.007175455 -0.052094754
-0.044707306 -0.07448055 -0.010213443 0.010570701 0.056693126 0.023313029 0.1603668 0.07688719
-0.060977917 0.064163834 0.06988219 0.05399961 -0.20126662 -0.13423498 -0.08482744 -0.098675966
-0.05176787 -0.020280259 -0.057144355 0.03844594 -0.0932607 -0.030505998 -0.088762514 0.07227425
-0.04878961 -0.12090886 -0.09442007 -0.18896893 0.1442326 -0.10958471 0.15044089 0.08361389
0.02991853 0.08090221 -0.045279417 -0.12472243 0.06313924 -0.14511639 0.013629082 0.010242938
0.040206566 -0.17688593 0.13933253 -0.061744213 0.08118157 -0.07914835 -0.07642709 -0.010512288
-0.0049005854 0.05148051 -0.022565564 -0.021498755 0.11024253 -0.0063275537 0.062893875 0.05789097
-0.061729643 0.041317422 0.109570496 -0.02463599 0.108370505 -0.026365273 0.057523564 0.07856013
0.06814778 0.111814074 -0.096642904 0.028092815 0.16354616 0.10936228 0.19468841 -0.21167757
-0.16883592 0.03637797 0.051645547 -0.10097459 -0.126911 0.06959978 -0.073151 -0.15674695
-0.07082048 0.088412546 -0.0788544 0.21817736 -0.08234629 0.015991917 0.08160051 0.009167878
0.10421021 0.017638754 0.17122456 0.08394939 0.059100166 0.13717756 -0.105192006 -0.0065162214
0.06693375 -0.076885216 -0.17554405 0.10273439 -0.08246998 -0.08490495 -0.017989248 -0.033474497
-0.16183627 0.07746541 -0.09209082 -0.08038376 -0.02420225 0.0813525 0.04218054 0.01492339
0.23509797 0.04150103 0.14938384 0.025714772 0.077898696 -0.2263434 -0.060055505 0.23471038
-0.016436925 0.11410963 -0.000707759 -0.14521821 0.05003731 0.008000521 0.15218902 -0.052767515
0.0034134951 0.1768499 -0.048998646 0.0108704185 0.07383804 -0.036673505 0.12040003 0.12843107
0.19946484 -0.07769752 -0.111145265 -0.16205503 0.06958016 -0.09376294 -0.08963765 -0.058151178
0.02203148 -0.052791685 0.12561013 -0.14958952 0.10263845 -0.05124679 -0.10805082 -0.15041499
-0.059775665 -0.11393293 -0.13995953 -0.03505487 -0.14148755 0.10654026 -0.07420656 0.0028689671
-0.1608377 0.16290626 -0.15021916 -0.1270747 0.028966058 -0.021363733 -0.08542597 0.03277911
-0.03822636 0.1457842 0.020649249 -0.0019099852 0.082425654 -0.1146656 0.012565799 0.063895315
0.010570729 0.03555051 0.036516152 0.024359273 -0.028866462 0.0063841557 -0.09664919 0.094916835
-0.18389499 -0.1695924 0.0893159 -0.16986652 -0.09946604 0.115234375 -0.12460407 -0.003357586
0.12417585 -0.047338773 -0.021291608 0.20388544 0.115411595 0.054655198 0.036324553 0.15268014
0.17189185 -0.08322072 -0.20787667 -0.12965749 0.1878206 -0.029151002 -0.16694306 -0.12106846
-0.064488836 -0.102421105 -0.008575719 -0.030483032 -0.05344077 0.06711095 -0.07279157 0.02033234
00000000: 95b4 203d 5bae c0bd d608 cbbd da39 203e
00000010: a62f bb3c a0bc 27bc 6fc9 67bd 7c95 38bc
00000020: e0ef af3d 19ba 5d3c b598 eabc d256 34bd
00000030: f0bf f5bb 43fc 963d c642 aabd 7c33 dcbb
00000040: 3f33 be3c 63ac 0e3d 0a41 753c fd15 d83d
00000050: 8be6 dbbc 35f0 d83d 1618 14bd 9c89 5abd
00000060: 7856 9cbd 86a3 043e 3cf9 01be 1930 1a3e
00000070: 5ab2 763b 0eeb 073e 4bf2 373d 0ba3 14be
00000080: a478 44be a6d6 523c c3ae 303e 765d 05bd
00000090: 6140 7fbd 422f e3bd 1420 eb3b 4f61 55bd
000000a0: 021f 37bd 4289 98bd 4956 27bc bc30 2d3c
000000b0: 0d37 683d f7fa be3c 3237 243e 0877 9d3d
000000c0: fbc3 79bd 5468 833d 651e 8f3d b22e 5d3d
000000d0: d618 4ebe e574 09be 02ba adbd a016 cabd
000000e0: 8c0a 54bd c922 a6bc 3310 6abd 7d79 1d3d
000000f0: 77ff bebd b7e7 f9bc 1fc9 b5bd 8604 943d
00000100: 9dd7 47bd 109f f7bd 4f5f c1bd 1281 41be
00000110: b6b1 133e f36d e0bd 2d0d 1a3e c23d ab3d
00000120: b417 f53c 0fb0 a53d e976 39bd 796e ffbd
00000130: 254f 813d 6499 14be 834c 5f3c ffd1 273c
00000140: a4af 243d 9621 35be 30ad 0e3e 80e7 7cbd
00000150: 8642 a63d 8818 a2bd ce85 9cbd bb3b 2cbc
00000160: 1795 a0bb 3add 523d 6bdb b8bc 281e b0bc
00000170: d6c6 e13d 5e57 cfbb 81ce 803d 151f 6d3d
00000180: 39d8 7cbd 753c 293d 7f66 e03d 6ad1 c9bc
00000190: 5bf1 dd3d fcfb d7bc d49d 6b3d 22e4 a03d
000001a0: 1091 8b3d c7fe e43d b7ec c5bd e722 e63c
000001b0: a578 273e 55f9 df3d 665c 473e 01c2 58be
000001c0: 53e3 2cbe 1101 153d 488a 533d c4cb cebd
000001d0: f5f4 01be 548a 8e3d 31d0 95bd 4682 20be
000001e0: 540a 91bd a311 b53d 6a7e a1bd e369 5f3e
000001f0: 2ca5 a8bd 7b01 833c 2b1e a73d de34 163c
00000200: 2a6c d53d 267f 903c 7e55 2f3e a8ed ab3d
00000210: 0413 723d 4678 0c3e e86e d7bd 0786 d5bb
00000220: 9014 893d ff75 9dbd d2c1 33be 6866 d23d
00000230: 05e6 a8bd a5e2 adbd 305e 93bc 8e1c 09bd
00000240: 68b8 25be 2fa6 9e3d 1d9a bcbd 3ea0 a4bd
00000250: cc43 c6bc 249c a63d 80c5 2c3d 3c81 743c
00000260: 86bd 703e fcfc 293d 14f8 183e c9a7 d23c
00000270: 5a89 9f3d 90c6 67be c3fc 75bd eb57 703e
00000280: bba6 86bc 4fb2 e93d e788 39ba 15b4 14be
00000290: ecf3 4c3d 9e14 033c 70d7 1b3e c022 58bd
000002a0: f2b4 5f3b 2418 353e ceb2 48bd d719 323c
000002b0: 6638 973d f536 16bd 4a94 f63d 6f83 033e
000002c0: 8340 4c3e e11f 9fbd 21a0 e3bd c1f1 25be
000002d0: 0b80 8e3d c906 c0bd f293 b7bd ee2f 6ebd
000002e0: 5d7b b43c 183c 58bd f19f 003e ff2d 19be
000002f0: 1c34 d23d 27e8 51bd c049 ddbd 6306 1abe
00000300: 54d7 74bd ab55 e9bd 8d51 0fbe b295 0fbd
00000310: 1de2 10be c831 da3d 9cf9 97bd 4805 3c3b
00000320: a3b2 24be e6d0 263e 0dd3 19be df1f 02be
00000330: 3a4a ed3c ff02 afbc d0f3 aebd 6343 063d
00000340: 3e93 1cbd 7448 153e 9d28 a93c 7858 faba
00000350: c8ce a83d ccd5 eabd c8e0 4d3c 8cdb 823d
00000360: da30 2d3c 699d 113d f691 153d 198d c73c
00000370: 5c79 ecbc 2e32 d13b 03f0 c5bd c263 c23d
00000380: f84e 3cbe a1a9 2dbe 41eb b63d 7df1 2dbe
00000390: dab4 cbbd 0000 ec3d 6b30 ffbd f20a 5cbb
000003a0: e84f fe3d 4de6 41bd bd6b aebc 58c7 503e
000003b0: ea5c ec3d 21de 5f3d 0ec9 143d 2f58 1c3e
000003c0: 6b04 303e a06f aabd 9fdd 54be efc4 04be
000003d0: 0b54 403e 15ce eebc 1ff3 2abe bef2 f7bd
000003e0: b912 84bd 28c2 d1bd 2c81 0cbc 8db7 f9bc
000003f0: b5e4 5abd 7771 893d bf13 95bd 0290 a63c

fc2/b/read__9 f4 [144]
0.034369245 0.19126385 -0.27020827 0.33806157 0.1186046 0.05431093 0.099311635 0.0314246
-0.21999566 0.33685106 0.31109565 0.10583035 0.060914204 0.20672679 0.038824826 0.028472027
0.22930819 0.09337682 -0.008664469 0.06308215 0.044349387 -0.33261296 0.178228 0.10820902
0.079748765 -0.24815863 0.20191267 0.050454505 0.4459909 -0.09303927 -0.06146776 -0.19387233
-0.46736047 -0.025541287 0.2999824 -0.02219006 0.12786563 0.113617964 -0.1546923 0.15313196
0.1302314 -0.13728334 0.18733802 0.05776926 -0.17267081 -0.22642034 0.07759628 0.06777665
0.19777021 -0.101325296 -0.18750124 0.06771382 0.18728529 -0.24430633 0.120152846 0.49305296
0.46661454 0.18024413 0.08109528 0.27986085 0.17373142 0.19475707 0.06185296 -0.025370141
0.13717686 0.058624893 -0.041451227 -0.083337754 0.3725584 0.24642909 0.022738896 0.011714776
-0.08858882 0.23272005 0.4053628 -0.11695067 -0.04333286 0.009644594 0.07367499 -0.08015907
0.3292066 0.5704554 0.059108634 0.0047207032 -0.17741153 0.11425933 -0.015577136 0.21248612
-0.05215561 0.2647435 -0.10695156 0.041275058 -0.06370345 -0.06883481 0.19527961 0.46054307
-0.072873145 -0.013099487 0.4575942 0.21179014 -0.09831449 0.2538476 0.32918108 -0.086595334
0.023768889 0.19507982 -0.062588446 -0.014499312 0.19002448 -0.1332655 0.0687066 0.12810946
0.057440337 -0.005809616 0.3379634 -0.016990434 -0.094030626 0.04085898 -0.017264362 0.17357275
0.22086099 0.3877174 -0.07580579 0.15736237 0.069494 -0.06931112 0.24719457 0.008695663
0.5423756 -0.05537574 -0.110993505 0.2558805 -0.0539221 0.0067514614 0.10415316 -0.02496834
0.57517874 -0.17504463 -0.10924018 -0.046426386 -0.20493586 -0.014482469 -0.10036139 -0.23776378
00000000: c4c6 0c3d acda 433e bd58 8abe 6816 ad3e
00000010: f8e6 f23d 2375 5e3d e663 cb3d 15b7 003d
00000020: 8b46 61be be77 ac3e ee47 9f3e 95bd d83d
00000030: 2c81 793d 30b0 533e c806 1f3d 2b3e e93c
00000040: c4cf 6a3e 593c bf3d 6bf5 0dbc 3731 813d
00000050: b4a7 353d 3f4c aabe 6781 363e b19c dd3d
00000060: 5253 a33d 4c1d 7ebe 32c2 4e3e 62a9 4e3d
00000070: eb58 e43e 5f8b bebd 9ec5 7bbd 7886 46be
00000080: df49 efbe f63b d1bc 4b97 993e eec7 b5bc
00000090: 35ef 023e 89b0 e83d a967 1ebe a0ce 1c3e
000000a0: 615b 053e 0194 0cbe 8ad5 3f3e 769f 6c3d
000000b0: 9ed0 30be bcda 67be ccea 9e3d 7cce 8a3d
000000c0: 4684 4a3e a383 cfbd 5300 40be 8bad 8a3d
000000d0: b7c7 3f3e 702b 7abe b212 f63d 7071 fc3e
000000e0: 1ae8 ee3e eb91 383e 4815 a63d ec49 8f3e
000000f0: a6e6 313e 666e 473e 8859 7d3d 0bd5 cfbc
00000100: 1778 0c3e a820 703d c3c8 29bd fcac aabd
00000110: f9bf be3e e857 7c3e ec46 ba3c 55ef 3f3c
00000120: 0e6e b5bd 2a4e 6e3e b78b cf3e d583 efbd
00000130: cc7d 31bd 5c04 1e3c eae2 963d 702a a4bd
00000140: c48d a83e 5d09 123f e51b 723d 21b0 9a3b
00000150: 5eab 35be cc00 ea3d 3e37 7fbc f695 593e
00000160: 1fa1 55bd 768c 873e 6b09 dbbd 0910 293d
00000170: f476 82bd 44f9 8cbd 61f7 473e 4dcc eb3e
00000180: 843e 95bd 3b9f 56bc c949 ea3e 84df 583e
00000190: 1b59 c9bd 50f8 813e 6c8a a83e e558 b1bd
000001a0: f9b6 c23c 01c3 473e 5f2e 80bd 868e 6dbc
000001b0: c795 423e c076 08be 0cb6 8c3d 202f 033e
000001c0: 8f46 6b3d 975e bebb 8a09 ad3e 862f 8bbc
000001d0: 2193 c0bd bf5b 273d fe6d 8dbc 0ebd 313e
000001e0: 6229 623e e582 c63e 1140 9bbd 9a23 213e
000001f0: df52 8e3d fdf2 8dbd 9320 7d3e 4178 0e3c
00000200: 21d9 0a3f acd1 62bd 9050 e3bd c502 833e
00000210: 6cdd 5cbd 5d3b dd3b 404e d53d 678a ccbc
00000220: ea3e 133f e63e 33be 51b9 dfbd 9829 3ebd
00000230: b5da 51be e147 6dbc 468a cdbd 5978 73be

fc2/W/read__8 f4 [144, 144]
0.07122718 -0.06569531 -0.007081112 -0.045769155 0.023260532 -0.1042893 -0.003500043 0.1262396
0.08469188 0.095319964 -0.05507692 0.11156414 -0.061563592 -0.04982626 -0.22927113 0.05851114
0.020594014 0.062466312 0.09340901 0.10122004 -0.074690156 0.026738107 -0.22912951 -0.112810336
0.02908791 -0.11300451 0.09277329 0.016543485 0.11225277 -0.27668056 -0.084999524 0.061796717
0.20759718 -0.07435676 -0.020266974 0.052093 0.081902444 0.14845604 0.00092662254 0.14925747
-0.12788072 0.033088334 -0.09868634 -0.19159889 -0.12003512 -0.06897714 -0.050716728 -0.12987499
0.036898397 0.11005026 0.2394446 -0.06703422 0.03670112 0.12367788 -0.060439847 0.0031902387
-0.16863042 0.11234325 -0.08965562 -0.070873015 0.03815753 -0.084907904 0.13182826 0.0879839
0.17238827 -0.15386744 -0.116276875 -0.1316175 -0.011552549 -0.12996969 -0.04244438 0.06294107
-0.049528893 0.033625193 -0.12923226 -0.14526957 -0.03882059 -0.10457993 0.13394134 -0.0152514605
-0.21254557 0.032258745 0.09903921 -0.17598851 -0.09137926 -0.115728945 0.018826209 -0.0042549744
-0.068763435 0.09342134 -0.095739 0.09121863 -0.048168164 0.042721055 0.20417318 0.32135212
0.10818602 0.09720413 -0.003279938 -0.06515388 -0.19161864 0.030061629 0.028868884 -0.21248446
-0.14343151 0.10365524 0.08887695 -0.028148953 0.06649182 0.013003712 0.101891145 0.1126974
0.056419518 -0.054444294 0.046785947 0.0868269 -0.11957294 0.05216845 -0.13590433 -0.03262547
-0.12123262 0.044854935 0.05532862 -0.1648814 -0.23644271 0.006950451 -0.0009583402 0.09276046
0.16078074 0.123588085 0.039511405 0.060033973 -0.118812904 0.16524963 0.12277375 -0.12812655
0.008495634 -0.12002108 -0.046549376 0.23153886 -0.2709074 0.11304308 0.13344166 0.043902908
0.079898216 -0.0069139646 -0.028622475 0.04672638 0.0311842 -0.096181884 -0.04412581 0.048504744
0.022521641 -0.04813075 -0.046481226 0.12572397 0.09779684 0.014978518 -0.17165439 0.098971546
-0.030074194 -0.07506654 -0.19485778 0.010812052 -0.053510938 0.10266053 -0.0034588105 -0.026741618
0.048434284 0.07273988 0.084512524 -0.07504089 0.06833405 -0.1430621 -0.003030181 0.06891301
-0.021431822 0.027041513 0.12871572 -0.06235571 0.13784371 0.05066215 0.1120495 0.014350226
0.03391099 0.019412614 -0.17230397 0.0013381845 0.012816716 0.04371565 -0.064164475 0.036946367
0.10978786 0.020893715 -0.025773074 0.15118238 -0.18013227 0.093352616 0.10592742 0.020163972
-0.07591019 -0.058660876 0.078539096 -0.1510699 0.026434565 0.083870485 -0.03901419 0.06526026
0.082943745 -0.0053989543 -0.15641089 0.106563486 -0.13126525 -0.103071004 0.14231195 -0.032633115
-0.17933844 0.026491636 -0.036818076 0.03492204 0.14405812 -0.13813223 0.11540887 0.05017307
0.01572004 -0.018316757 0.067336895 0.07228336 0.18707183 0.02595061 0.068834856 -0.06581286
-0.040129576 -0.06125959 -0.050255354 -0.033253696 0.12749973 0.066920534 -0.04894687 -0.088532105
0.06799753 0.060229275 -0.1943111 0.08381 -0.08541731 0.046222042 0.0041289115 -0.16346325
0.12164131 -0.07163502 0.097559966 -0.025028918 0.046709593 -0.22058685 -0.10991163 -0.05457472
00000000: 8edf 913d 438b 86bd ac08 e8bb 7078 3bbd
00000010: df8c be3c a195 d5bd fa60 65bb f444 013e
00000020: f072 ad3d 1d37 c33d 5698 61bd bd7b e43d
00000030: 1b2a 7cbd 9f16 4cbd 0dc6 6abe 61a9 6f3d
00000040: c7b4 a83c addc 7f3d 394d bf3d 744c cf3d
00000050: 27f7 98bd e009 db3c eda0 6abe 1b09 e7bd
00000060: c549 ee3c e96e e7bd ecff bd3d 3486 873c
00000070: c8e4 e53d 13a9 8dbe 3b14 aebd 8e1e 7d3d
00000080: 5b94 543e 5b48 98bd ed06 a6bc 785f 553d
00000090: 78bc a73d dc04 183e 96e8 723a f3d6 183e
000000a0: 2af3 02be a287 073d 101c cabd 8032 44be
000000b0: f9d4 f5bd e343 8dbd 58bc 4fbd f3fd 04be
000000c0: c622 173d 0862 e13d f730 753e 3d49 89bd
000000d0: ea53 163d d44a fd3d c68f 77bd 5313 513b
000000e0: 74ad 2cbe 3814 e63d 5e9d b7bd df25 91bd
000000f0: 124b 1c3d 32e4 adbd fdfd 063e e730 b43d
00000100: 8d86 303e 6d8f 1dbe 9222 eebd bdc6 06be
00000110: e746 3dbc c616 05be 28da 2dbd 3fe7 803d
00000120: cfde 4abd 92ba 093d 7655 04be 8cc1 14be
00000130: 5702 1fbd 012e d6bd eb27 093e 43e1 79bc
00000140: 8ca5 59be bf21 043d 12d5 ca3d 5536 34be
00000150: 0d25 bbbd 4c03 edbd 6c39 9a3c 506d 8bbb
00000160: d8d3 8cbd b053 bf3d cf12 c4bd d5d0 ba3d
00000170: fb4b 45bd 46fc 2e3d c612 513e 4488 a43e
00000180: a290 dd3d f512 c73d 3af4 56bb 666f 85bd
00000190: ad37 44be ce43 f63c 707e ec3c 8795 59be
000001a0: b6df 12be 3349 d43d 1e05 b63d a298 e6bc
000001b0: dd2c 883d 850d 553c 4eac d03d e5cd e63d
000001c0: 2718 673d fb00 5fbd 9fa2 3f3d 4dd2 b13d
000001d0: a8e2 f4bd 96ae 553d 812a 0bbe 49a2 05bd
000001e0: cf48 f8bd cfb9 373d 43a0 623d abd6 28be
000001f0: 0a1e 72be 9cc0 e33b 1f39 7bba 32f9 bd3d
00000200: b5a3 243e c01b fd3d b6d6 213d 2fe6 753d
00000210: 2e54 f3bd 3337 293e ce70 fb3d 9b33 03be
00000220: 4631 0b3c 9dcd f5bd 8faa 3ebd 8618 6d3e
00000230: 60b4 8abe 2183 e73d eea4 083e 89d3 333d
00000240: ada1 a33d 8a8e e2bb ae79 eabc 2964 3f3d
00000250: 0276 ff3c 02fb c4bd 44bd 34bd e9ac 463d
00000260: 4e7f b83c c024 45bd 1963 3ebd c9bd 003e
00000270: b649 c83d 7568 753c 2bc6 2fbe 98b1 ca3d
00000280: 285e f6bc 7cbc 99bd cc88 47be 0825 313c
00000290: 492e 5bbd af3f d23d 36ad 62bb 3d11 dbbc
000002a0: 0763 463d a5f8 943d e714 ad3d 0aaf 99bd
000002b0: b9f2 8b3d df7e 12be 0096 46bb 4422 8d3d
000002c0: ca91 afbc 2a86 dd3c 0ece 033e b368 7fbd
000002d0: e726 0d3e 1d83 4f3d 357a e53d 361d 6b3c
000002e0: 40e6 0a3d 3407 9f3c 7470 30be 0566 af3a
000002f0: 34fd 513c 2e0f 333d aa68 83bd 1355 173d
00000300: 75d8 e03d 4c29 ab3c 0e22 d3bc 8ecf 1a3e
00000310: 9874 38be a82f bf3d 7af0 d83d ea2e a53c
00000320: cd76 9bbd 6346 70bd 1bd9 a03d 11b2 1abe
00000330: 4d8d d83c 4ac4 ab3d 58cd 1fbd 2ca7 853d
00000340: 69de a93d b6e9 b0bb 2d2a 20be f53d da3d
00000350: 666a 06be e416 d3bd 39ba 113e 4daa 05bd
00000360: 7fa4 37be fd04 d93c 8dce 16bd 6a0a 0f3d
00000370: f983 133e 8972 0dbe 7c5b ec3d 4782 4d3d
00000380: 50c7 803c 060d 96bc ede7 893d 4c09 943d
00000390: c28f 3f3e 6096 d43c 4af9 8c3d e5c8 86bd
000003a0: e95e 24bd 56eb 7abd 8fd8 4dbd 0735 08bd
000003b0: 4a8f 023e a20d 893d 837c 48bd 5250 b5bd
000003c0: 4a42 8b3d f9b2 763d 7df9 46be 94a4 ab3d
000003d0: 45ef aebd 5353 3d3d d24b 873b e962 27be
000003e0: 141f f93d 62b5 92bd 85cd c73d 7209 cdbc
000003f0: 8f52 3f3d 85e1 61be 5919 e1bd be89 5fbd

fc1/b/read__7 f4 [144]
0.25619987 -0.10821587 0.15094694 0.23957859 0.112985626 0.14442985 -0.074599124 -0.2747084
0.09688474 -0.08627184 -0.17161418 0.09400236 -0.039016653 -0.019548483 -0.2297424 -0.09148604
-0.12117416 0.25997385 0.11717589 -0.048955757 -0.08486568 -0.14754577 0.15020469 0.01622983
0.33177823 0.052348357 0.0016282181 0.0376739 -0.08874924 0.1811887 0.08740151 0.24699356
0.03562404 0.004244325 -0.2043738 0.08465522 0.034520432 0.18786548 0.05113614 -0.09091416
-0.15025926 0.20379202 -0.055802263 -0.24001305 -0.107281394 -0.066879846 -0.29651043 0.5565928
-0.17672591 0.23981528 -0.16366257 0.0118154595 -0.12862687 0.19871129 0.3869903 -0.07701282
-0.08178563 0.0912915 0.07553554 -0.07572241 0.051195722 0.12733673 -0.020259002 0.04485588
0.09135783 -0.031159474 0.15590505 -0.06952466 0.21842746 -0.13675366 0.07863888 0.09253992
-0.19622244 0.019080533 -0.15629303 0.4084159 0.06618454 0.06968893 0.20088172 -0.1056861
-0.17487143 -0.13402689 -0.09627783 -0.0072011654 -0.12996879 0.10945195 0.09915726 0.04942993
0.07514919 0.015156396 0.061792687 0.1803959 -0.048445974 0.05711381 0.049431313 -0.28367254
0.24901469 -0.073555104 -0.21580987 -0.011675497 0.21922049 0.16831562 -0.13710856 0.21959637
0.22591805 -0.09860976 -0.27166492 -0.059836812 0.09463284 -0.05146758 0.19472149 0.42299956
0.13989848 0.14758325 0.07075433 -0.060664628 -0.03908483 0.29122692 -0.1576238 -0.110152654
-0.062279303 0.015649453 -0.008986805 0.017738001 0.008435737 0.35341945 0.3188794 -0.14362013
-0.18892115 -0.07858041 -0.24327908 0.23316427 -0.20880497 -0.1341686 -0.23061876 -0.014249081
0.18931799 0.15826137 -0.19889154 0.4738685 -0.16858432 0.12044167 0.14752227 0.024677357
00000000: a12c 833e 48a0 ddbd d691 1a3e 1754 753e
00000010: 0265 e73d 6be5 133e 6dc7 98bd 94a6 8cbe
00000020: 826b c63d 4aaf b0bd a1bb 2fbe 4f84 c03d
00000030: edcf 1fbd 2424 a0bc 9741 6bbe 085d bbbd
00000040: 282a f8bd 4b1b 853e eaf9 ef3d d585 48bd
00000050: 0fce adbd 3d16 17be 42cf 193e 6cf4 843c
00000060: d6de a93e 3b6b 563d ef69 d53a f34f 1a3d
00000070: 29c2 b5bd 8889 393e 90ff b23d e1eb 7c3e
00000080: 83ea 113d fb13 8b3b 5e47 51be b75f ad3d
00000090: 4c65 0d3d cf5f 403e 2174 513d 3431 babd
000000a0: 90dd 19be dbae 503e ea90 64bd fbc5 75be
000000b0: 59b6 dbbd 4df8 88bd 37d0 97be de7c 0e3f
000000c0: a3f7 34be 2392 753e 2997 27be a195 413c
000000d0: c3b6 03be f97a 4b3e 9823 c63e e6b8 9dbd
000000e0: 397f a7bd 0af7 ba3d 61b2 9a3d 5a14 9bbd
000000f0: 9bb2 513d 8f64 023e 35f6 a5bc cdba 373d
00000100: d019 bb3d 2742 ffbc 93a5 1f3e f262 8ebd
00000110: 73ab 5f3e 2709 0cbe 6c0d a13d 9285 bd3d
00000120: 89ee 48be c74e 9c3c 480b 20be e41b d13e
00000130: c38b 873d 12b9 8e3d f0b3 4d3e f471 d8bd
00000140: 7f11 33be 583e 09be 502d c5bd c1f7 ebbb
00000150: 8a16 05be 5828 e03d f612 cb3d 0a77 4a3d
00000160: d2e7 993d 8852 783c 541a 7d3d b4b9 383e
00000170: 496f 46bd 2cf0 693d 7d78 4a3d 873d 91be
00000180: b5fd 7e3e 0fa4 96bd 43fd 5cbe 954a 3fbc
00000190: 567b 603e ee5a 2c3e 3066 0cbe dfdd 603e
000001a0: 1057 673e eaf3 c9bd aa17 8bbe 7217 75bd
000001b0: ddce c13d abcf 52bd 1265 473e 6693 d83e
000001c0: 8c41 0f3e 1020 173e a5e7 903d 797b 78bd
000001d0: 6a17 20bd b21b 953e 2268 21be b797 e1bd
000001e0: 9518 7fbd 4833 803c 643d 13bc 494f 913c
000001f0: 0c36 0a3c 65f3 b43e 2944 a33e 2811 13be
00000200: 8c74 41be c4ee a0bd 271e 79be 9dc2 6e3e
00000210: f8d0 55be 7e63 09be 5327 6cbe fa74 69bc
00000220: 93dc 413e 450f 223e 39aa 4bbe e49e f23e
00000230: 5ea1 2cbe 1faa f63d 1410 173e 2b28 ca3c

fc1/W/read__6 f4 [250, 144]
0.026471362 -0.016458256 -0.0033501748 -0.006234051 -0.0116203185 0.0031316804 -0.015872423 0.001005434
0.008358643 -0.035496112 -0.0075177304 -0.015156926 -0.00809908 -0.0011716671 -0.0065429653 -0.0010284797
0.10719775 -0.004782496 0.08320248 0.10468761 0.005381996 -0.016459158 -0.022126373 -0.0071327942
0.17465355 -0.002124316 0.006429701 -0.01960528 -0.005365616 -0.0028837908 0.023309506 0.0037514393
-0.0031891603 -0.0003409123 -0.013321894 -0.011958089 -0.023944605 -0.0037434897 0.0061045093 0.0035639417
0.01289639 -0.015952747 0.01320651 0.018909147 -0.008303086 -0.011456325 -0.0059729554 -0.0072375345
0.0057411487 0.0011143705 -0.022584425 0.02507126 -0.002019995 -0.0013143197 -0.009534498 0.084846795
0.0015817598 -0.003741537 0.011609302 0.051736414 -0.0019554761 0.09752781 -0.0072404486 -0.008576407
0.00034026732 0.008675838 -0.0016112735 -0.0054859123 0.095540665 -0.010182284 -0.010960387 -0.042436033
-0.0034789478 -0.009417555 -0.017682448 0.043794446 -0.01166713 0.013557113 -0.020935768 0.021257853
0.0036755365 0.004973291 -0.00949354 -0.04561046 -0.026469572 -0.01705405 -0.007255226 0.051242735
0.024936615 -0.0032932288 -0.009524499 0.01799345 -0.0069063734 -0.011704917 0.0020752172 -0.017144179
1.1284344e-05 -0.00045883056 0.009503818 0.003825693 0.0086121615 0.033473615 0.005589911 -0.0029712843
-0.015652241 -0.03945738 0.011967037 -0.0083118845 -0.0032463057 -0.034257364 0.00018232127 0.005109408
-0.0006610853 -0.0072795292 -0.0008817697 -0.0084967455 0.12786098 -0.0067799026 0.007721268 0.0060465415
-0.0036400002 -0.007255847 0.0054664407 0.0055424348 -0.0031739397 -0.0011644178 -0.00530376 -0.038701683
0.016670713 0.012394144 -0.012373305 0.118657604 -0.009099894 -0.013137856 -0.0007356282 -0.003733294
-0.012341748 -0.0066436804 -0.0003291558 -0.0044463403 0.008957823 -0.008777618 0.024276337 -0.0007768351
-0.1402748 -0.12713398 -0.017715609 0.12467948 -0.013307581 0.06678816 0.08151642 -0.038298853
0.06498485 0.13509597 -0.09211318 0.07051272 -0.02561128 0.03919169 0.054007508 0.057813823
-0.050501805 -0.16025534 -0.07193103 0.06557561 -0.13183825 0.027210606 0.017632602 -0.07225257
0.13446793 -0.058944415 -0.031026376 -0.05559666 0.08413578 -0.024216827 0.08785809 -0.09793046
0.021356178 0.03250686 -0.20977646 0.06353323 -0.18596004 0.03440054 0.12915002 -0.11070138
0.01941846 0.081939094 0.20564742 -0.035497695 0.08144962 -0.016323714 0.2574794 0.05795911
0.027982872 0.045644384 0.05811369 -0.0029900002 -0.06388883 -0.00927001 0.045284804 0.13319927
0.18898362 -0.02545888 0.038013835 -0.18427977 0.0033989598 -0.018034 0.060579624 0.109582
-0.04401746 0.07187238 0.13631518 0.077510655 -0.04869713 0.017720213 -0.09656387 0.0066145146
0.123828575 0.10525705 -0.008812031 -0.14259854 -0.011607315 0.0522523 -0.034393277 0.009298909
0.021428961 0.016841292 0.030564427 -0.07768415 -0.07654524 0.003448197 -0.017099805 -0.22400326
-0.08523966 -0.07596011 -0.038834754 -0.04055973 -0.05159974 -0.057309344 0.03714575 -0.098252356
-0.03245799 -0.0015624402 0.03184471 -0.14990678 -0.051413413 -0.06770619 0.06133453 -0.033287898
0.06896773 0.020198824 0.098248735 0.09788237 -0.04969407 -0.018463096 -0.025576286 0.0970919
00000000: 78da d83c 77d3 86bc 9b8e 5bbb 0347 ccbb
00000010: 2663 3ebc e13c 4d3b e206 82bc c4c8 833a
00000020: b1f2 083c 5f64 11bd 4b57 f6bb c154 78bc
00000030: 01b2 04bc a092 99ba 5f66 d6bb 0dce 86ba
00000040: 7e8a db3d 7cb6 9cbb 1066 aa3d 7566 d63d
00000050: 745b b03b 5bd5 86bc 5e42 b5bc 37ba e9bb
00000060: 61d8 323e 1c38 0bbb 3eb0 d23b 419b a0bc
00000070: 0dd2 afbb fbfd 3cbb 94f3 be3c b5da 753b
00000080: 3b01 51bb 79bc b2b9 1344 5abc dceb 43bc
00000090: 7a27 c4bc 5655 75bb 5608 c83b 0591 693b
000000a0: 614b 533c 56af 82bc 1e60 583c 5be7 9a3c
000000b0: ab09 08bc 4fb3 3bbc c8b8 c3bb d728 edbb
000000c0: 3f20 bc3b 1210 923a f902 b9bc 3e62 cd3c
000000d0: e461 04bb 4045 acba 9536 1cbc 28c4 ad3d
000000e0: 0d53 cf3a 9334 75bb f134 3e3c 90e9 533d
000000f0: 7227 00bb a9bc c73d 4941 edbb 0f84 0cbc
00000100: e865 b239 1a25 0e3c 5e31 d3ba 2bc3 b3bb
00000110: d3aa c33d 98d3 26bc 3293 33bc 68d1 2dbd
00000120: 0fff 63bb 174c 1abc c8da 90bc ce61 333d
00000130: 7d27 3fbc a71e 5e3c 7d81 abbc f324 ae3c
00000140: 45e1 703b fdf6 a23b cb8a 1bbc 09d2 3abd
00000150: b7d6 d8bc efb4 8bbc 3fbd edbb e7e3 513d
00000160: df47 cc3c 36d3 57bb a50c 1cbc 0067 933c
00000170: dc4e e2bb fbc5 3fbc 5e00 083b f371 8cbc
00000180: e351 3d37 328f f0b9 e7b5 1b3c 7ab8 7a3b
00000190: 061a 0d3c a11b 093d 922b b73b e1b9 42bb
000001a0: 2139 80bc 109e 21bd 6411 443c 922e 08bc
000001b0: f9bf 54bb 7351 0cbd 7e2d 3f39 d26c a73b
000001c0: af4c 2dba 1e89 eebb 9026 67ba ef35 0bbc
000001d0: fded 023e f229 debb b102 fd3b 1122 c63b
000001e0: 128d 6ebb 75c2 edbb d41f b33b 509d b53b
000001f0: df01 50bb 619f 98ba 2acb adbb a885 1ebd
00000200: 0591 883c cf10 4b3c 67b9 4abc c202 f33d
00000210: b917 15bc 2940 57bc 2cd7 40ba 48aa 74bb
00000220: 0b35 4abc 3bb3 d9bb 8b92 acb9 9bb2 91bb
00000230: d5c3 123c 00d0 0fbc 2bdf c63c 85a4 4bba
00000240: 32a4 0fbe 692f 02be 5320 91bc f557 ff3d
00000250: 0a08 5abc 3bc8 883d 15f2 a63d 42df 1cbd
00000260: c716 853d 9956 0a3e d6a5 bcbd f968 903d
00000270: bfce d1bc 7787 203d fa36 5d3d 30ce 6c3d
00000280: fbda 4ebd fa19 24be 9350 93bd 814c 863d
00000290: 9b00 07be c7e8 de3c 3f72 903c 28f9 93bd
000002a0: f6b1 093e b36f 71bd 072b febc 53b9 63bd
000002b0: 614f ac3d 5e62 c6bc f1ee b33d c48f c8bd
000002c0: 27f3 ae3c ea25 053d a4cf 56be b61d 823d
000002d0: 4f6c 3ebe 95e7 0c3d e73f 043e 68b7 e2bd
000002e0: 7613 9f3c afcf a73d 3d95 523e 0866 11bd
000002f0: 0fcf a63d 4fb9 85bc 57d4 833e 8866 6d3d
00000300: 563c e53c 9bf5 3a3d 9f08 6e3d e1f3 43bb
00000310: 26d8 82bd 3de1 17bc 8f7c 393d 6465 083e
00000320: ec84 413e 248f d0bc 65b4 1b3d d6b3 3cbe
00000330: 15c1 5e3b 0abc 93bc 5722 783d 876c e03d
00000340: a74b 34bd d431 933d 3596 0b3e e8bd 9e3d
00000350: a476 47bd fb29 913c 47c3 c5bd 92be d83b
00000360: d699 fd3d 0291 d73d 5660 10bc 5a05 12be
00000370: 9c2c 3ebc 8206 563d f7df 0cbd 745a 183c
00000380: ca8b af3c c0f6 893c 4062 fa3c de18 9fbd
00000390: c0c3 9cbd 25fb 613b e414 8cbc 1c61 65be
000003a0: 2292 aebd f990 9bbd 3111 1fbd f621 26bd
000003b0: 405a 53bd 34bd 6abd 2426 183d 8838 c9bd
000003c0: abf2 04bd cbca ccba 996f 023d 2a81 19be
000003d0: df96 52bd 8ba9 8abd eb39 7b3d e458 08bd
000003e0: f43e 8d3d 0178 a53c a236 c93d 8d76 c83d
000003f0: 028c 4bbd eb3f 97bc 5c85 d1bc 1ed8 c63d

Variable/read__13 f4 [12]
0.43433538 -0.016772613 -0.030668138 -0.00087161426 -0.008185106 0.028428474 0.008350714 -0.037451524
-0.00078590837 -0.16300967 -0.007814393 -0.0468208
00000000: 3561 de3e b866 89bc bf3b fbbc 0b7d 64ba
00000010: d31a 06bc d5e2 e83c 6fd1 083c c566 19bd
00000020: 6b05 4eba 02ec 26be f107 00bc 2bc7 3fbd
