dnn-models/kws_kws-single.onnx (onnx, 156656 bytes, 12 tensors)

conv1.conv1.weight f4 [28, 1, 10, 4]
00000000: 46dc d1bd 462e bebd 1977 56be af9e 6c3d
00000010: 8de5 3c3d a7bf e73c c239 8bbe 228a 7e3e
00000020: f2a3 643b e4f3 1dbe 92b2 50bd 5934 963e
00000030: a568 933e db79 54be 65fb 15be 6cb5 763e
00000040: 3694 0f3e 9388 9f3d 4063 02be f9a0 153e
00000050: 551b cc3d 48b2 123e 8b60 003e bd6b 57be
00000060: 6023 74bd e13f 7c3d e55d 693d cb82 56be
00000070: 9c3b 063c a365 033e fdc1 353e c923 84be
00000080: ca9c b63d 1d36 693e 25a9 06ba 848e 4abd
00000090: 47cb 1ebe 1b90 823e afa4 d13d b535 a3bd
000000a0: 0102 023e 8fba 093e df23 673e ddf7 12be
000000b0: 298b 003e 8848 c53c 9911 513d 54ac a93d
000000c0: 7d88 de3d bccc 66bc d14a 573d 2895 a2bc
000000d0: a1e7 26be 9d08 e9bd 60fa 5cbd 6821 663e
000000e0: 02f4 75be 4cb9 8cbd 271a 26be b4d5 21bc
000000f0: 3ea8 a1ba 2546 39bc dc87 b3bd 7f03 7fbd
00000100: e1d1 f43d ca43 3fbe 7cf6 f6bd 6035 3cbe
00000110: 2eea 443e 1bc8 93bd d9ca 52be 4e93 5dbe
00000120: 2676 ac3d 9cf3 a73d 7d7d 12be c763 91bd
00000130: be86 79bc d251 ae3d 54ef 74bd 63e5 233e
00000140: d195 34bc 913e b43d 7392 943d 805a 80bd
00000150: 487f dabd db8d 4f3e 9faa 513e 19fc 943d
00000160: fc7d 12be 2c6d ac3c 67fa 543e cb47 663e
00000170: 5e0d 013e 6eba 3abd 6b44 a6bd 0132 f43d
00000180: fa5b 5e3e 28db 50be 8a85 54bd 14c8 fd3d
00000190: d9d4 273e aeb7 e83d 79a0 8bbe 8a40 f9bd
000001a0: 93cc b33c fb31 20be 3fb5 80be e57c c7bd
000001b0: c98f 8abd 6d9d be3d af38 b03d ae76 ae3c
000001c0: 9d70 08bd d214 1ebe 9063 153e 8027 073e
000001d0: 8918 ba3d 4a4f dabd a777 433e b079 823e
000001e0: 6a78 e6bc e984 45be 9cf1 583e 6be7 073e
000001f0: 9f93 d8bd 8b27 1abe 2c8f 4fbd 3c38 183e
00000200: 1e2a 9a3e 5d3b 533e 83d8 7f3e 5b0c 663e
00000210: a157 8c3d fd7f 293e d920 04bd 4920 0ebe
00000220: a307 b83c 8004 07be 6794 97bd 60d8 97bd
00000230: b244 6bbd e99e bf3d 4af3 a3bd 08f6 553d
00000240: 5f07 d5bb 15a2 26bd 4d04 153e f6f8 55be
00000250: 5d47 0f3c edff f6bd de27 f03d 6ea6 a5bd
00000260: 58ed 98bd 7aaf 1a3e 2bb9 20bb 06b5 53be
00000270: cc52 eb3b 37f5 a3bd f48c 4abe 8e78 31be
00000280: 9300 a43e a993 7dbd 6743 003e 4092 473d
00000290: da5d 353c c231 aabd 33b3 1fbb b2f7 373e
000002a0: 7dc1 8abe 2392 f4bd 11c4 ef3d e1c9 ce3c
000002b0: 7b60 2cbe 661b 4c3d 3949 94bd 6b9e 1a3e
000002c0: 88a2 063e 17c1 a93e 31cd 38be 4a3c 613d
000002d0: 216b 113e 9b0b 893e 3e5a 013e 2946 d8bd
000002e0: d868 94bc 43d5 38bc 2fc2 103d 8e3d 59be
000002f0: e736 8c3d dd12 88bd 07e5 d0bd 3d9b abbe
00000300: e32c abbc d68b 5c3c d7fe 393d 4662 58be
00000310: 6119 5abd af9e 90be 4d78 36be dd73 2ebe
00000320: 6099 b13d 196f d43e ef52 90bd 1eab a7bd
00000330: 3072 833e a6b9 fd3e ed04 babd b457 9dbe
00000340: 02e5 14be 6d8c c83e 846f b13d bd66 d9bd
00000350: 1822 7ebd dbd1 473d 76b5 42be 59a1 9bbe
00000360: 043b 483d f1fc febe 7497 953d 9479 a83d
00000370: 6d77 313e 4493 d1be 58bc a6bd e01b 573e
00000380: 0bf0 dcbd 385f abbe c2a4 9dbe 5397 533e
00000390: d41e 23be 55c9 17be f87d da3c 367e 853e
000003a0: 541a 7fbd 87fe 49be 9cc0 37bd 1a6e 1a3e
000003b0: 0e4f 18bd adb8 00be ae43 303e d3eb 223e
000003c0: 2472 91bd 4341 2b3e 040a c43d f63c 60be
000003d0: 430d f53d 4169 0c3e 112f a1bc 40ec f6bc
000003e0: c45a 30bd a307 213a b0fd a33d bd3d 3abd
000003f0: bde1 ff3c 9ec9 0a3d 0f9a 82bd e789 463c
-0.10247092 -0.0928617 -0.2094387 0.05776852 0.046117354 0.02828963 -0.27192503 0.24857381
0.0034887758 -0.15425068 -0.050951548 0.29336813 0.28790775 -0.20749609 -0.1464668 0.24092644
0.14021382 0.07789721 -0.12733173 0.14612187 0.09966151 0.14325821 0.12536828 -0.21037193
-0.05960405 0.061584357 0.05697431 -0.20948331 0.008192923 0.1283174 0.17749782 -0.25808552
0.08916624 0.22774549 -0.0005136899 -0.04945232 -0.15507232 0.2550057 0.10236489 -0.07969228
0.12696077 0.13450073 0.22572277 -0.14352365 0.12553085 0.024082437 0.051042173 0.08284822
0.10865877 -0.014086898 0.052561585 -0.019846514 -0.16299297 -0.11378596 -0.053949714 0.22473681
-0.24018863 -0.0687128 -0.16220914 -0.009877611 -0.0012333465 -0.011308228 -0.087661475 -0.062259194
0.11954094 -0.18678203 -0.12058732 -0.18379736 0.19229957 -0.072159015 -0.20585193 -0.21638224
0.084209725 0.08200762 -0.14305682 -0.07099109 -0.015229879 0.085117 -0.059798554 0.16005473
-0.011022047 0.08800996 0.072544955 -0.062672615 -0.10668808 0.20268957 0.20475243 0.07274646
-0.14305872 0.021048151 0.20798646 0.22488324 0.12602755 -0.04558795 -0.081185184 0.119236
0.21714774 -0.20396101 -0.051885165 0.123916775 0.16389789 0.11363159 -0.27270868 -0.12170513
0.021948135 -0.15644066 -0.2513828 -0.097406186 -0.06765706 0.0930737 0.086045615 0.021296825
-0.03331052 -0.1543763 0.14588761 0.13198662 0.09086711 -0.106596544 0.19088612 0.25483465
-0.02813359 -0.19288982 0.21185917 0.13271873 -0.105750315 -0.15054147 -0.05067365 0.14865202
0.30110258 0.20628114 0.24984936 0.2246565 0.068526514 0.1655273 -0.03225789 -0.13879503
0.022464579 -0.1318531 -0.074013524 -0.07414317 -0.05743856 0.093564816 -0.08005388 0.052236587
-0.006501123 -0.040681917 0.14552422 -0.20895752 0.008745042 -0.12060533 0.11726354 -0.080883846
-0.07467145 0.15106001 -0.0024524431 -0.20674524 0.007181501 -0.080057554 -0.19780332 -0.17331144
0.32031688 -0.061908398 0.12525712 0.04872346 0.011069739 -0.08310272 -0.0024368286 0.17965582
-0.27100745 -0.11941936 0.117073186 0.025242748 -0.1683368 0.049830817 -0.072405286 0.15099494
0.13147938 0.33155128 -0.18047024 0.054989137 0.14201023 0.26766667 0.12632081 -0.10560257
-0.0181164 -0.011281314 0.035341438 -0.21214887 0.06846409 -0.06644223 -0.101999335 -0.33516875
-0.020895427 0.013461074 0.04540905 -0.21131238 -0.05324686 -0.28246066 -0.17819329 -0.17036386
0.08671832 0.4149101 -0.07047068 -0.08186935 0.25673056 0.495557 -0.09082971 -0.30730975
-0.14540485 0.39169636 0.08663848 -0.10615299 -0.062044233 0.04878412 -0.19014534 -0.30396536
0.048884407 -0.49802354 0.07304278 0.08226314 0.17330714 -0.40932667 -0.081413925 0.21006727
-0.10787972 -0.33471084 -0.30789763 0.20663194 -0.15929729 -0.14822896 0.026671395 0.26072854
-0.062280968 -0.19726 -0.04486142 0.15081063 -0.037184767 -0.12570448 0.17213318 0.15910272
-0.07101849 0.16724114 0.09572223 -0.21898255 0.1196542 0.13712026 -0.019675763 -0.03014195
-0.04305531 0.00061428006 0.080073714 -0.045469034 0.03123557 0.033883683 -0.063770406 0.012117839

conv1.conv1.bias f4 [28]
00000000: 6bcc cebd e015 cd3d f8ea c23d 2397 0fbe
00000010: cf0a 413d 1366 3e3d 0623 96bb f3be 0e3e
00000020: 912d c1bd b847 94be 12de 233d 3185 d13d
00000030: 1424 033c db77 bbbc 4de3 fabd d582 e33b
00000040: 385b 823d f35e 39be 44b9 c53d 5ee3 1b3e
00000050: 4550 edbd ed64 08bd 8554 023e ae1d fc3d
00000060: f575 02be e15b 323d 8bf9 17be 4315 183e
-0.100975834 0.10013938 0.09517473 -0.14022498 0.04712945 0.046484064 -0.004581812 0.13940029
-0.09432519 -0.28960967 0.040006705 0.10230482 0.008004207 -0.0228843 -0.122503854 0.0069430866
0.06365055 -0.18102627 0.09654477 0.15223452 -0.11587576 -0.033299375 0.12727554 0.123103485
-0.1274031 0.043544654 -0.14841287 0.1485186

conv1.conv2.weight f4 [28, 28, 10, 4]
00000000: 5335 563b 40d4 63bc eb33 923c 84d8 d13c
00000010: 2d6e 893c ed91 bf3c 3e7f 62bc 0b50 a13c
00000020: e1ee c93c b87d acbb 3120 ddba f0b5 83bc
00000030: bad4 4abb ee7f 86bc c040 48bc 7af1 ab3c
00000040: c935 b5bc 020e 8f3c 233c d0bc b750 b63c
00000050: a256 6a3c c827 833c 33d4 c13c c87f 333c
00000060: 5cb9 b53c 3be5 853c f01b d0bc 1312 39bc
00000070: 2d81 3dbc a303 c73c 1ef1 d3bc 30fb 9fbc
00000080: 365f 8abc 7eaa 293c ab44 3dbb a95d babc
00000090: 0231 a9bb 162d 343c 00b3 2dbc 2338 b0bc
000000a0: e503 b2bc b347 cc3c 1845 9e3c 9c4d c03c
000000b0: 4d2f cabc 97c9 b53a 089d b2bc de53 8fbc
000000c0: 6c02 68bc e2d6 6ebc 13d6 bdbc 05d7 8c3c
000000d0: 98d6 e0bc 0d83 7f3c bad1 393b 7796 11ba
000000e0: d501 093a 77b7 4cbb 138d fcbb f418 ae3b
000000f0: da3c 32bb e04e e5bc 515d 81bc 1afb ebbc
00000100: 8696 503c adc3 e5bb 8bfa 9bbc ede4 443c
00000110: 41a5 2dbd a95a f83a d0c6 8d3c 452c 9c3c
00000120: e621 eebb 0d3d 563c a588 adba 34ef b1bc
00000130: 779a 5c3b 934d 99bb 8c13 a4bb 9a15 5b3c
00000140: 1d0a a3bc 8cbc f5bc 8e55 afbc e6f0 523b
00000150: 3e1d aabc 9db0 45bc af01 263b 21bc 97bc
00000160: 02d7 d7bc 9ed6 91bb 903f c5bc 8d70 b93b
00000170: 03f0 bcbc 6a59 583c 6e6f 9cbc 15e4 10bc
00000180: e9e0 91bc c664 d4bc bc9f 9b3b e90f 7a3b
00000190: 777c f9bc 5e17 a8bb 7a57 62bc 70f4 df3b
000001a0: 09a6 fcbb 6719 973a 7cb5 1b3c c1ca 303c
000001b0: 472e 7e3c 8c50 223c 9692 b6bc e312 35bc
000001c0: fe0b 28bb 0a96 983c 5bd7 93bc c5f4 80bc
000001d0: 72bd d1bc 0137 d1bc 923f ed3c 42c9 853c
000001e0: 6400 2bbd 3370 5d3c df48 94bb a4b7 ebbc
000001f0: d0c6 29bb db27 3fbc 02bb d9bc f0db 903c
00000200: 4f0f 6abb 1df0 ecbc 8bcd 333c a0e6 90bc
00000210: cebe c6bc c051 89bb 452d 15bc ca6c 87bc
00000220: 07f9 0bbd 6b9f 59bc 713d 283c 0487 17bc
00000230: ffea 163c b9f8 363c b822 ce3c abcf 8e3c
00000240: d585 33bd d3c9 1dbc d50d f03a eadd 02bc
00000250: 3745 22bd 2858 8fbc 6a69 cfbc 0d0a 8bbc
00000260: 1667 a3bb a4a8 d33c c8d6 9f3c 24ff 603c
00000270: 76c4 8bbc 7dc0 993c 2ef2 5abc 7c78 23bc
00000280: e4c3 d73c dd00 753c d8d2 cebc 1ffa 28bc
00000290: 9896 e2ba ff9c 633c c5f3 d2bb bb86 c83b
000002a0: b1a7 3539 64e2 b53c 6f15 033c 856d 833c
000002b0: e36e 993c 1a0e a03c 4021 2cbc 00d5 1fbc
000002c0: b4ed a1ba 0a5b 85bc c807 aebb e43e 953c
000002d0: ea1d c1bc 8f2c 4039 4527 363b a01e af3c
000002e0: 39eb 8fbc 6ba3 c1bb 3c0b 283c 2881 0bbc
000002f0: f940 563c 8bba 233c d22f e83c 59cb d9bc
00000300: e7cc ca3c 0d5c b23c f970 f1bb 64f5 b5bc
00000310: 63aa 8437 e2fc 93bc 51d4 5d3c 8171 afbc
00000320: 985f d2bc bb14 01bd 6cf2 053b 45ac ecbc
00000330: d4f8 8cbc 8d9f af3c 1771 69bc 4a52 973c
00000340: f5fc adbc 5e0c 87bc d18b b5bc d403 e43c
00000350: 0e95 b43c 9248 283c dac9 213b 8ac9 cbbc
00000360: 7a0d babc b1cf 3f3d 07b3 46bb 4e0c a4bc
00000370: 6720 a9bc 3ca4 a83c 71c5 a3bc ba0e 8fbc
00000380: 986c a13c f28a c23c 4c9c 0cbc c76b c5bc
00000390: 16fc 2a3c 3f3d c53b 9856 95b9 1bff b7bc
000003a0: b80e 973c 4a0d 97bc 18df 893b da8b a63c
000003b0: f664 25bd 8dcf b0bc 37d1 81bc 9a62 67bc
000003c0: 56b2 d3bb 1e5e d1bc 338a ae3c 92d8 66bc
000003d0: 9f52 863a 3a7e cc3b 1b19 5bbc deab a93b
000003e0: a997 a9bb 5ddb 473c 65dc 203c a4c1 6ebb
000003f0: 257e 33bc d02e 3bbc 3b3c 9cbc 0b6e ed3c
0.0032685592 -0.013905585 0.017847022 0.025615938 0.016776169 0.023385013 -0.013824282 0.019691488
0.02465004 -0.0052640103 -0.0016870556 -0.016077965 -0.0030949549 -0.016418424 -0.012222469 0.020989168
-0.022120373 0.017462734 -0.0254193 0.022255285 0.014302881 0.01601018 0.023660755 0.010955758
0.022183113 0.016344657 -0.025403947 -0.011295813 -0.011566442 0.024293726 -0.02587181 -0.019528955
-0.016891103 0.01035559 -0.002888004 -0.022749739 -0.005163313 0.010997077 -0.010601759 -0.021511143
-0.021730373 0.024936533 0.019320056 0.023474507 -0.024680758 0.0013869283 -0.021803394 -0.017496046
-0.014160734 -0.014577599 -0.023173368 0.017192373 -0.027446076 0.01559521 0.0028353767 -0.0005553732
0.0005226408 -0.0031237283 -0.007707247 0.0053130332 -0.0027196915 -0.027991712 -0.015791567 -0.028806258
0.0127312 -0.0070118518 -0.019040367 0.012017471 -0.042393927 0.0018947917 0.017306715 0.019064078
-0.0072672246 0.013076079 -0.0013239576 -0.021720506 0.0033661404 -0.004678437 -0.005007213 0.013371849
-0.019902283 -0.029997133 -0.0214031 0.0032187044 -0.020765897 -0.012066034 0.0025330593 -0.018522324
-0.02634764 -0.004450633 -0.02407816 0.005659169 -0.023063665 0.013204912 -0.019096103 -0.0088434415
-0.01780744 -0.025926959 0.0047492664 0.0038156456 -0.030454857 -0.0051297387 -0.013814801 0.006834559
-0.0077102226 0.0011527956 0.009503718 0.010790528 0.015513963 0.009906899 -0.022286694 -0.011051866
-0.0025641914 0.018626232 -0.018047025 -0.015741715 -0.02560303 -0.025538923 0.028960977 0.016331319
-0.04174842 0.01351552 -0.0045252885 -0.02877409 -0.0025905855 -0.011667217 -0.02657843 0.017683
-0.003571469 -0.028923089 0.010974298 -0.017688096 -0.024260905 -0.0041906536 -0.009105031 -0.016531367
-0.034173038 -0.013282637 0.010268555 -0.009248499 0.009211301 0.011167699 0.02516304 0.017433008
-0.043828804 -0.009630638 0.0018314669 -0.007987479 -0.03961679 -0.01749809 -0.02531882 -0.016972566
-0.004986654 0.02583725 0.019511595 0.013732705 -0.017061453 0.018768543 -0.013363404 -0.009977456
0.026338525 0.014953819 -0.025247023 -0.01031354 -0.0017287312 0.013892411 -0.006437751 0.0061195767
0.00017323975 0.022202678 0.008000716 0.016043434 0.018729633 0.019537974 -0.010505974 -0.009755373
-0.0012354166 -0.016278762 -0.005310986 0.018218465 -0.023573834 0.00018327146 0.0027794403 0.021376908
-0.017568218 -0.0059093735 0.010256585 -0.00851468 0.013077014 0.009993206 0.028343115 -0.026586222
0.024755908 0.021772409 -0.0073682037 -0.022211738 1.5814969e-05 -0.01806492 0.01353939 -0.021416428
-0.025680348 -0.03151391 0.0020438684 -0.028890738 -0.017208494 0.021438384 -0.014248154 0.018471856
-0.021238783 -0.01648539 -0.022161396 0.027833857 0.022043731 0.010271208 0.0024686963 -0.024876375
-0.022711504 0.04682893 -0.003031911 -0.020025399 -0.020645333 0.020586126 -0.019991608 -0.017463077
0.019705102 0.023747895 -0.008582186 -0.024099244 0.0104360785 0.006019264 -0.00028484012 -0.022460511
0.018439636 -0.018438954 0.004207503 0.020330358 -0.040379487 -0.021583343 -0.015846832 -0.01412263
-0.0064604683 -0.025557574 0.021306133 -0.01408972 0.0010248012 0.0062406333 -0.013372685 0.005177959
-0.00517555 0.012198296 0.009818171 -0.0036431337 -0.010955368 -0.011424735 -0.019071689 0.028983137

conv1.conv2.bias f4 [28]
00000000: 5582 adbc 88d5 1fbc 134e 08bd ceff a2bd
00000010: e659 0fbd 9247 03bc 0572 e23c 5449 ce3c
00000020: 824d 73bc 2fd2 d73d 1473 5bbd 0f56 913b
00000030: 9e11 c6bd c210 663d 67e5 4a3c 638a 673c
00000040: e2ba 1dbc dc8f 403d a80e 7fbd 23e1 97bd
00000050: e1cb 1e3c f800 513d d949 cf3c 20b5 92bc
00000060: d7d3 ecbc 0f30 483d 0944 4abd 1eb8 be3c
-0.021180311 -0.0097555 -0.033277582 -0.07958947 -0.034997843 -0.008012669 0.02764226 0.02518145
-0.014850022 0.10538136 -0.053576544 0.004435308 -0.09671329 0.056168325 0.012383795 0.014132115
-0.009627076 0.047012195 -0.062269837 -0.07415988 0.009692163 0.051026314 0.025303768 -0.017908633
-0.028909607 0.048873957 -0.04938129 0.023281153

conv1.decision_head.channel_gates f4 [5, 28]
00000000: 78ec f33e 6443 e13e 49a6 f53e 94a3 df3e
00000010: 0626 e73e c4e9 293f 9687 e93e 6223 e93e
00000020: 32b6 e13e b6fb 343f a6a3 e13e c39f e23e
00000030: c008 f93e 24bd dc3e b6cd ea3e 987e d73e
00000040: 9c4f fd3e 5a13 dc3e c710 3d3f 0a6b 323f
00000050: 867c fa3e 9060 e73e b688 dc3e 4065 fb3e
00000060: 0646 f53e acce 073f ba92 e63e 2b85 db3e
00000070: 411d da3e 7baa e73e fc93 e43e d351 e23e
00000080: 4df1 ef3e 2ce8 303f 3d38 de3e 43c0 f13e
00000090: f4be ed3e a131 2f3f 6d2d e83e 4a89 e03e
000000a0: 8a34 f93e 8063 f73e bc72 ea3e 4f4f d83e
000000b0: cd89 da3e fad9 d93e f090 303f 8878 263f
000000c0: 422b f53e 8e56 d93e 45b3 df3e 0d3a f63e
000000d0: bd47 e13e a621 083f ffa2 ec3e 6b22 dd3e
000000e0: 9a86 ef3e 4f72 eb3e 4e10 f33e 5b35 d13e
000000f0: 2da1 ec3e 78b0 253f 2fce e13e 6524 f53e
00000100: 8c75 dd3e 3bcc 333f db7e cd3e 92cb dd3e
00000110: 0031 eb3e a442 e23e 53b5 ef3e 340c d53e
00000120: c79a f53e 5d57 e13e ba0b 2e3f 454c 243f
00000130: b989 e73e 2fd8 ef3e eacf d73e 7ed4 e23e
00000140: 86f9 0e3f 3be8 163f 7101 e63e ab06 ed3e
00000150: 4436 e13e d002 fd3e 3393 e93e 5a50 ef3e
00000160: 9b88 a53f 0996 f23e 7341 e53e 8bd5 ee3e
00000170: c97b f13e 1530 1f3f a882 e73e f18b f53e
00000180: b80e d23e 142d e43e 967a f53e a79c e83e
00000190: b470 6a3f d6f9 e83e c446 e73e 3ecf fe3e
000001a0: 471f f93e 49c6 e93e f950 d33e ab14 493f
000001b0: a5e8 4b3f 1512 f23e 9ec5 f43e 0b7d ee3e
000001c0: edfc eb3e a263 f93e a063 fd3e 91e5 e33e
000001d0: 7291 f53e c5e0 2f3f 5b6b f43e a853 f73e
000001e0: b5c3 e83e ee9a 453f d7a5 df3e 1576 d83e
000001f0: 8ec2 f93e cb59 dc3e 8bc6 e83e 3bab e83e
00000200: e1f5 fc3e e188 f53e f9e2 333f 5506 303f
00000210: a885 ee3e ce68 eb3e b5d8 dc3e b0b2 f43e
00000220: dc68 ee3e 240c 203f be72 f13e e33d ef3e
0.4764135 0.43996727 0.47978428 0.43679488 0.45146197 0.66372323 0.45611256 0.45534807
0.44084316 0.7069658 0.44070166 0.44262514 0.48639488 0.43113053 0.4586007 0.4208877
0.494748 0.42983514 0.73853725 0.6969458 0.4892313 0.4519086 0.43073052 0.49100685
0.47904986 0.5304973 0.45033818 0.42875037 0.42600444 0.45247254 0.44644153 0.44203052
0.46863785 0.69104266 0.4340228 0.47216997 0.46434748 0.684351 0.45347157 0.43854743
0.48672897 0.483181 0.4579066 0.42248008 0.4268326 0.42549115 0.6897116 0.65027666
0.47884566 0.42448848 0.4369146 0.48091164 0.44000044 0.53176343 0.46218106 0.4319032
0.4678238 0.45985648 0.47473377 0.4086102 0.46216717 0.64722395 0.44102618 0.4787933
0.43253744 0.70233506 0.40135846 0.43319374 0.45935822 0.44191468 0.46818027 0.41610873
0.47969648 0.44011965 0.67986643 0.6417888 0.45222262 0.46844622 0.42150813 0.44302744
0.5584949 0.58948106 0.44922975 0.4629415 0.43986714 0.49416208 0.45620117 0.4674099
1.2932314 0.47380093 0.44776496 0.46647295 0.47164753 0.6218274 0.4521687 0.4795833
0.41026855 0.44565642 0.47945088 0.45432016 0.9157822 0.4550311 0.45171177 0.49767488
0.48656675 0.45659092 0.41272715 0.7854716 0.7965186 0.4727942 0.4780702 0.46579775
0.46091405 0.48708826 0.4949007 0.44511083 0.47962528 0.68702346 0.47738156 0.48306012
0.45461813 0.7718953 0.43681213 0.4227759 0.48781246 0.43037257 0.45463976 0.45443138
0.4940634 0.47955993 0.7026821 0.6875966 0.46586347 0.45978397 0.43134084 0.47792578
0.46564376 0.62518525 0.47157854 0.46726903

ip1.weight f4 [16, 112]
00000000: 71d3 ebbb 004b 8b3d df38 1b3c c634 2fbb
00000010: 798e 49be 71aa 223d 8c94 b5bd 5555 403e
00000020: 4eeb 1a3d 2467 273e a9b5 f93d edea 073e
00000030: a969 423c a9f2 603d 9c3d e0bc fa6a 0abe
00000040: 69a2 243e e611 3dbd a5e3 febb 97ec c9bd
00000050: 2ff7 063d 3207 99bd fa8f aebd ff5d 533e
00000060: b71d 7d3c c604 39bd 7582 8bbd ceb8 bbbd
00000070: 8a9c 9dbd 2629 abbd 79d7 31bd 1b40 533c
00000080: 86d7 8e3d 0070 183e f769 923d 404c 003d
00000090: 422d 43bd 9777 463d 83b2 bc3d a043 443c
000000a0: 246f 9abe fbad 0b3d fdbd c0bd 724e 8cbd
000000b0: 8bbe 103c 02fa 47bd e826 223d b17c 49bd
000000c0: fc05 823e 5351 bdbb 0c83 fd3d bd79 9cbd
000000d0: ac8f 51be 0935 b3bb 3e0b ddbc b392 f43b
000000e0: c554 dfbb 662a 1abd 11f1 a1bd 6381 113d
000000f0: 4836 953c a472 a13c 7c3d 433c d893 a03d
00000100: 54c5 4f3e 4a81 42bd 43b7 bf3d dc5e 183e
00000110: e0a0 d13d 8da1 c5bd 34d9 413e 6a90 b8bc
00000120: ea80 56bd 5594 863d 76a6 66be 3f59 523d
00000130: b6a7 e03d 91d6 3dbd ac53 bdbd 8fe4 1ebe
00000140: 749e 383e 9f53 9fbd 9ef1 563e 2aeb 183d
00000150: 6fb8 f0bc 9854 c73d 82f8 bebd d53f 253d
00000160: 0d84 543e 3018 023e 9655 993e a2e4 4b3e
00000170: a20d 483e 80dc 40bd 13c4 5bbd d6f6 be3d
00000180: 7102 bfbc 8471 71bd 4227 22bd c60e 0d3d
00000190: d683 fd3d b2da ab3d 1e11 433e c840 f83c
000001a0: 643e d7bd b240 a73d 6e38 d0bd 2c64 923d
000001b0: a2d3 85bd 98a5 c53c 862a 14be 021a f63d
000001c0: 58d2 6fbc efd8 a13d 03c5 94bd cae3 583d
000001d0: 3897 f33d 5424 053e 13d4 593c 4895 a73c
000001e0: 8f12 1b3e 0d1e e63d 70ca a7bc d0a7 d73c
000001f0: 9a2f c33d a56c 123b 33f9 f23d a51c 053e
00000200: d5ce ae3d ce4a 163e 0cc5 0abd 81eb 653d
00000210: 5085 cdbd cb12 d1bc e5a1 62bd ab2c 7dbd
00000220: e6df 0f3d cdea b9bb e9ba d83d c906 1d3d
00000230: 3888 4ebc af63 e03d f5ad 603d ddfb 08bd
00000240: cc5c 613e faf6 27be 7148 c23b c185 63bd
00000250: 74eb 183e 84d1 a7bc 5842 de3d c3ce 853b
00000260: 4609 d83d eedd 79bd c5f2 efbd 8d6b 7c3d
00000270: bb73 30bd 8072 18bd 704e 23bd fcc0 2bbd
00000280: cc03 a73d 7e10 0d3c 9e94 bc3c feba 06bd
00000290: ae06 013e f0e6 8fbc c49f 193e 6f36 9fbd
000002a0: 62ad 013d 2305 733d a578 c1bc eb24 c43c
000002b0: d197 7dbe 6e76 22bd 7b90 34be dae3 38bd
000002c0: e8d2 00be 1953 c53c c5ea 8dbc ea3a c13c
000002d0: 5ad4 20be 910b 87bc 0ff0 24be f923 50bd
000002e0: da8b 943d f78a a83c 19ab 143e ef97 153e
000002f0: 3c7e d9bd 6754 653d 47b6 37be ccb2 94bd
00000300: d5af 473e 6106 913d fcf3 da3d 1722 e9bc
00000310: 1a0e 2ebe b507 b43d e159 39bd 2d2c a43d
00000320: 5239 a3bd 33d1 04be 8b48 b1bd b7b1 33bd
00000330: 3ac8 0fbd 4649 df38 8420 623d 1324 0a3d
00000340: eb70 e63b c065 43bd c504 a23d 2bfa 273d
00000350: 68a6 a5bd 7aee 3ebd 7f1b 6dbd 9162 873c
00000360: a1ea 24bd 56ec 613c d8e0 d7bd eea9 9abd
00000370: 3f40 7a3d 55f5 96bd c163 b0bb 66c4 ddbd
00000380: 933c 95bc e831 6abc dac7 cc3c eb2a 91bc
00000390: e662 db3c 33da 80bd 83b6 563e 4edc f23c
000003a0: a556 4cbd 4be5 593c 0f9d ec3d 77d8 bd3d
000003b0: 6928 6ebe 14aa 883d a2c2 b2be 7b1d ff3d
000003c0: 18ad 05be 9ec7 1d3d 5820 87bd ea04 dc3d
000003d0: 77fc f7bd 0dc6 d0bd c367 7f3d eaa9 18bb
000003e0: 2e95 4d3d dfaa fe3d 456a bcbc e647 c63d
000003f0: a5d3 d8bc 2d23 95bd 63c3 883d 7afc 4dbd
-0.0071968366 0.068014145 0.009474008 -0.0026734336 -0.19683255 0.039713327 -0.08866224 0.18782552
0.03782206 0.16347939 0.12192852 0.13273211 0.011866012 0.05491892 -0.027373128 -0.13517371
0.1607758 -0.046159647 -0.007778602 -0.09859579 0.032950576 -0.074720755 -0.08523555 0.20641325
0.015448979 -0.045170568 -0.06811992 -0.09166108 -0.07695873 -0.08357458 -0.04341838 0.012893702
0.069747016 0.14886475 0.071491174 0.031322718 -0.047650583 0.048453894 0.09213736 0.011979014
-0.3016292 0.034101468 -0.094112374 -0.068509 0.0088344915 -0.04882241 0.039587885 -0.04919118
0.2539519 -0.005777517 0.12378511 -0.07640407 -0.20464963 -0.005468969 -0.0269829 0.007463777
-0.0068155252 -0.03763809 -0.07907308 0.035523783 0.01821436 0.019707985 0.0119165145 0.07840699
0.20290118 -0.04748658 0.09361126 0.14879936 0.102357626 -0.09649954 0.18930513 -0.0225298
-0.052369036 0.06571261 -0.22524437 0.051354643 0.10969488 -0.046347205 -0.09244475 -0.15516876
0.18029195 -0.07779621 0.20990607 0.037333645 -0.02938482 0.09732932 -0.09324743 0.040344078
0.20753498 0.1270454 0.2994811 0.19911435 0.1953645 -0.047085285 -0.053653788 0.09324424
-0.023316594 -0.058946148 -0.03958822 0.034437917 0.12378661 0.08391322 0.19049498 0.030304328
-0.10509947 0.081666365 -0.10167013 0.071480125 -0.065345064 0.024126813 -0.14469346 0.12016679
-0.014637552 0.07902705 -0.072641395 0.05295161 0.11894077 0.1300214 0.013295191 0.020456925
0.15143798 0.112362005 -0.020482272 0.026325136 0.09530564 0.002234259 0.11863937 0.12999208
0.08535544 0.14676973 -0.033879325 0.056132797 -0.10035193 -0.025521656 -0.055330176 -0.061810177
0.035125636 -0.0056737424 0.10582525 0.03833655 -0.012605719 0.10956513 0.0548534 -0.03344332
0.22008055 -0.16402808 0.005929046 -0.05554748 0.14933568 -0.020485647 0.10852498 0.004083486
0.10548644 -0.061002664 -0.117162265 0.061626006 -0.04307912 -0.03721857 -0.039869726 -0.04193209
0.08155021 0.008609889 0.023020085 -0.032893173 0.12600204 -0.017566174 0.15002352 -0.07774054
0.03165949 0.05933107 -0.023617098 0.023943385 -0.24764945 -0.039663725 -0.1763324 -0.04513917
-0.12580454 0.024087476 -0.01732386 0.023587663 -0.15706006 -0.016485007 -0.161072 -0.050815556
0.07253237 0.020574076 0.14518394 0.1460874 -0.106197804 0.055988695 -0.17940627 -0.07260665
0.19500668 0.07081295 0.106910676 -0.028458638 -0.16997567 0.087905325 -0.04525173 0.08016238
-0.07969917 -0.12970428 -0.086564146 -0.043870654 -0.03510306 0.00010647117 0.05520679 0.03372581
0.007032504 -0.04770446 0.07911066 0.041010063 -0.0808838 -0.046614148 -0.05788755 0.016526492
-0.040262822 0.013789257 -0.105409324 -0.07551943 0.061096426 -0.07371012 -0.0053829853 -0.10828476
-0.01821736 -0.014294125 0.02499764 -0.01772066 0.026780557 -0.06291618 0.2096806 0.029646065
-0.04988732 0.013299297 0.11553394 0.09269803 -0.23257603 0.06673065 -0.34914118 0.12456795
-0.13054311 0.038520448 -0.06597966 0.10743125 -0.12108701 -0.10194025 0.062354814 -0.0023294636
0.050191097 0.12434935 -0.022999892 0.09681682 -0.026468107 -0.072821 0.06677892 -0.05028961

ip1.bias f4 [16]
00000000: ce72 cd3d 9bdb 343d 50b3 f83d a9fc 23be
00000010: 6873 97bd 819d c9bd 9626 dcbd e532 d8bd
00000020: 1843 a7bd ce68 2abe 097c 01be 5d99 4d3d
00000030: c577 a2bd e177 53bb 3459 b13c e58a bb3c
0.10031663 0.044154745 0.12143576 -0.16014351 -0.07395059 -0.098444946 -0.10749547 -0.10556582
-0.08167094 -0.16641542 -0.12644972 0.050195087 -0.079330005 -0.0032267498 0.02164898 0.022893379

ip2.weight f4 [128, 16]
00000000: 75be 85bc 21d2 febd 0231 b83d 3bcd d63c
00000010: ea85 813e c3e4 42be 36d7 273e 2840 e5bd
00000020: f47f 423e 3853 93bd 2d19 543e 1336 20be
00000030: c1e6 e03d 35dd 84be 6121 b03e af47 1ebd
00000040: e9a5 303b 7de2 abbc f8bf 083e 6d25 e03d
00000050: 8a00 d83d d621 09be 47e3 1a3e 3cbc 2f3e
00000060: 5322 cf3d 925d 243d eb76 283e 389b 393d
00000070: 4f6d 913d 1098 7c3e 33ae 033d b4a9 01be
00000080: 5bec 64be d4bb fdbb 50e5 3b3e 74b6 f53d
00000090: e317 62be aab6 333e 3f5c 713e 2ac5 88bd
000000a0: a901 30be 4d55 3cbe 390b 4c3e 8f53 70be
000000b0: 5a40 02be 9d54 03bd b5a4 19be 9f4e acbd
000000c0: 2db4 8e3e 4542 893e 269b ed3d 5edb 3e3e
000000d0: f668 823d aae2 9cbe 07e2 3a3d ea48 39be
000000e0: ecb6 dfbd b42e 663e d07b c2bd 3c52 f73d
000000f0: 4589 553c 3f29 0ebe ce2e 063e 8b5e d53d
00000100: 20b9 593e d648 283e b33a 40be fa32 9abc
00000110: 44fc 51bd f5da f33c e212 50be 8d38 e63d
00000120: 409f 70be 24c8 443e 7cf2 843d 66d5 21bd
00000130: 4bb3 b23c a3df 033e 08c3 aabd 1cb0 b13c
00000140: f787 833e 1e2d 313e 70d2 5b3e f354 6c3d
00000150: ab02 89bd 37a9 6e3e fba5 62bd 5f83 fdbd
00000160: 5b88 4fbe 798b 123e 2c7b 29be f83f 2a3e
00000170: 1bb1 38be d33e f63d 9293 303e 0abd a1bd
00000180: 6738 d0bd e7e4 563e e196 77bd 8b99 0dbd
00000190: ff48 09be 3bb3 72bd 1ddf d53d 2f61 67bc
000001a0: 437f d83d ca36 18bd dfdf 8d3e 713a 393e
000001b0: 5436 c9bd 7f10 d63d 5336 22bd 3955 2abd
000001c0: 0560 7a3d 3aea 3fbe ccf3 553e e47b 08be
000001d0: 2411 c03d 3afe 283e 4670 c2bc e2f9 273d
000001e0: 3517 58be 711f 30bd ce5d 01be d961 8abc
000001f0: d389 7bbe 12c1 003d a381 03bc ae79 c03d
00000200: 2830 18be bf80 723e 14e1 273e dae0 5bbe
00000210: a445 f5bd b2b1 75be 2096 44be 8d19 4a3e
00000220: fcf4 133d 64c8 1bbc 102d 3abe fe47 82bc
00000230: c546 0fbe 97b1 54be f118 4d3e d6d6 0ebe
00000240: ea1e 363e 69fc 16be 928b 28be 3bc8 633e
00000250: 34e8 0ebe 288f 0a3e 6526 03be 6190 4f3e
00000260: fc7a 483e 132d 0e3e 7a6b 71be 086b ffbd
00000270: 7a14 3ebe a50e 5d3e ed93 943d 370e 213d
00000280: a1ce da3c f0d6 f5bd 2830 91bd 612b ec3c
00000290: 7f81 5c3d 0f46 753e 8a4c e63d 1512 37be
000002a0: 4e89 2c3e 4468 243e 96b4 623e bbdd 383e
000002b0: 835e 0cbe 430f 42be 14d6 383e 02aa 5e3e
000002c0: e0b5 e53c 1d8a 173e 6f5b 1bbe bff1 433e
000002d0: d544 c0bd c651 393e 1803 843e 7a31 013d
000002e0: 9be4 e53d 73ca 81be 83fe 773e fa60 d53c
000002f0: bde7 5dbd 329a 09be c506 223d b928 58be
00000300: a9ca 08be 32e6 52be 79ac 2b3d 0f77 bcbd
00000310: dd3c 31be a5de 663d 34dd 57be 65ec 0e3e
00000320: afc2 fabd 9136 0c3e 28f8 a43d 80ac 00be
00000330: ff6b 503d e63c 183e c4fd e6bc 0626 f1bc
00000340: c643 9ebd 09bb 013e 2efa 40be dd48 c63d
00000350: 69a7 2f3e 6a2c 22be ea0b 83bd 9926 b63d
00000360: b609 ee3c bcfe d93c 9725 b9bd 5d8e 633e
00000370: c8c8 71be 5ab0 3bbe 84a6 473e 3abe 673e
00000380: e149 e03d a3c3 af3d d759 4abe b1fe c4ba
00000390: adff 0d3e 5893 cdbd e58c 103d 1fc6 043e
000003a0: e24c 12bd 23ea b7bd d2c7 033e 90d6 863d
000003b0: b713 7a3e 51af d3bd bdfc 5cbe e80b 893e
000003c0: 380b 09be 6469 9abd e5a9 24bd 4a57 2fbe
000003d0: 79b1 d03d c8ff 4e3d 4b8d 8fbd 24d6 82be
000003e0: f0ec 153c fe6d d3bd 628d 8ebe 2d2f 17bd
000003f0: 466b 3abe a25a 80bd 27c2 473e 05b2 8a3e
-0.016326169 -0.12442423 0.089937225 0.026220908 0.2529748 -0.19032578 0.1639069 -0.111938775
0.18994123 -0.07193607 0.20712729 -0.15645628 0.10981513 -0.25950018 0.34400466 -0.03864258
0.002695436 -0.020982021 0.1335448 0.109446384 0.10546978 -0.13391814 0.15125762 0.1716165
0.10113969 0.040128298 0.16451614 0.045314044 0.07100927 0.24667382 0.03214855 -0.12662393
-0.22355787 -0.007743338 0.18349195 0.11997691 -0.22079425 0.1755015 0.23570345 -0.06678231
-0.17188133 -0.18391915 0.19926156 -0.23469375 -0.1271986 -0.032063115 -0.15004237 -0.08413433
0.27871838 0.26808372 0.11601858 0.1863837 0.06367676 -0.3064168 0.045625713 -0.18094221
-0.109235615 0.22478753 -0.094962716 0.12076232 0.013033216 -0.13882922 0.13103792 0.10418423
0.21262026 0.16434035 -0.18772392 -0.018823136 -0.05126597 0.029767493 -0.20319703 0.11241255
-0.23498249 0.19216973 0.06491563 -0.039510153 0.02181401 0.1287828 -0.083379805 0.02169042
0.2568967 0.17302367 0.21466994 0.0576982 -0.06689962 0.23306738 -0.055334073 -0.12378573
-0.20266859 0.14311017 -0.16550893 0.16625965 -0.1803631 0.120237015 0.17243794 -0.078973845
-0.10167008 0.20985757 -0.060446624 -0.034570258 -0.13406752 -0.05925296 0.10442946 -0.0141222915
0.10571148 -0.037161626 0.27709863 0.180887 -0.098248154 0.10452365 -0.03960259 -0.04158518
0.061126728 -0.18741694 0.20893782 -0.1332851 0.09378269 0.1650323 -0.023735177 0.04100979
-0.21102603 -0.042998735 -0.1263344 -0.01689236 -0.24564295 0.031434126 -0.008026513 0.093982086
-0.1486212 0.23681925 0.16394454 -0.21472493 -0.119761735 -0.23993567 -0.19197893 0.1973631
0.036122307 -0.009508226 -0.18181252 -0.01590347 -0.1399184 -0.2077087 0.20029046 -0.13949141
0.1778523 -0.14744724 -0.16459492 0.2224435 -0.13955766 0.13531172 -0.12807615 0.2026992
0.19578165 0.13884382 -0.23576155 -0.124715865 -0.18562499 0.21587618 0.07254777 0.039320197
0.026709856 -0.12003887 -0.07089263 0.028829278 0.053834435 0.23952506 0.112450674 -0.17877991
0.16849253 0.16055399 0.221392 0.18053333 -0.13707928 -0.18951134 0.18050414 0.2174454
0.028040826 0.1479878 -0.15171598 0.19135188 -0.09388129 0.180976 0.2578361 0.031541325
0.11225244 -0.2534977 0.24218182 0.026047219 -0.05417608 -0.13437727 0.039557237 -0.21109284
-0.13358559 -0.20595625 0.04191253 -0.09202396 -0.17308374 0.056364674 -0.21080476 0.13957365
-0.12244164 0.1369269 0.080551445 -0.12565804 0.050884243 0.14866981 -0.028197177 -0.029437076
-0.077277705 0.12669004 -0.18845436 0.09681866 0.17153706 -0.15837255 -0.06398757 0.08894081
0.029057365 0.026610725 -0.09040373 0.22222276 -0.23611748 -0.18328992 0.19497114 0.2263116
0.10951591 0.085822366 -0.19760834 -0.0015029517 0.13867064 -0.10037869 0.035290617 0.12966202
-0.035717852 -0.08980205 0.12869194 0.06583893 0.24421583 -0.10336173 -0.21580787 0.26766896
-0.13383186 -0.07539633 -0.040201087 -0.17123142 0.101901 0.0505369 -0.07009371 -0.25554
0.009150729 -0.10323714 -0.27842242 -0.036910225 -0.18204984 -0.06267287 0.19507657 0.27088943

ip2.bias f4 [128]
00000000: 262e 0fbe 131f 253e e0f2 0a3e 47bf 82bc
00000010: fb53 2f3e 1b08 2ebe b6ff 1fbe 4a69 453d
00000020: a676 513e dd7a 19be a39f a7bb bff8 113e
00000030: 9902 5dbe 04e6 193e 0af2 d13d 4ae7 8b3e
00000040: 3db0 8d3e 1531 fb3d 1029 243e 0608 b73e
00000050: 1cc2 d7bd d5ad f4bd eee5 a3bd cf9b 55be
00000060: bb4c 36be 2f67 bebc de95 393e 6498 08be
00000070: 0b54 63bd 6680 edbd 9654 87bd 414f 81be
00000080: 101c ed3d 0594 db3d cfcd 55bd 0af7 a1bd
00000090: 180b 0b3e 4912 a03c ad37 c1bd 9608 1fbe
000000a0: 2c5e 773e c00d 813c db76 393e 932d 923e
000000b0: 3e17 a03d 2ce7 22be 0bcb 033d 3dd5 203e
000000c0: ce00 3cbe 93f5 d73d 118c 09be 35c4 293e
000000d0: 285d 2dbd d83b 083e 6bef 4abe 394a d8bd
000000e0: f75a 8d3d 3190 15be 2012 5a3e 4fc2 09be
000000f0: 9e47 e13d fe93 c9bd 1e72 3fbd 771b 26be
00000100: c0ef 213e 253c 1ebe 4c94 0fbe 5c82 903e
00000110: 57b8 79be 25b9 223e ce46 053e 9425 1f3e
00000120: c17a 393e c61f 923e 7c58 46be 0a8c 3bbe
00000130: 5524 413d a7ac 373e 9417 babd 2a85 6ebe
00000140: 27cb 12bd fc6b 873e 9cee 0fbd f5d2 ea3d
00000150: 28d3 c5bd d4f0 143e 979c 55be 1d09 6b3c
00000160: 218e d33a 42ed 093d 1593 cf3d 680e 2a3e
00000170: e93a 433e d3a1 923d e376 2d3e 2328 b43d
00000180: 930b 68be 7919 2bbb b160 1ebe 0fb3 303e
00000190: 9ff5 1ebe daec 793e 8107 213e 4d3d 7f3e
000001a0: ec9e 543e 59b7 8f3d 0a7f c6bd 67c7 06be
000001b0: 34cc 3f3e e167 4bbe d856 aebd ccc2 233e
000001c0: f1b8 5c3d 5b1f ba3b 1983 89bd 28e2 713e
000001d0: 74e0 17bb f7df 7e3d fa2c 23be 9eb3 ef3d
000001e0: 0e4c 72be 3f80 99bd 9727 603e 907b 50be
000001f0: d52b 753d 3e5b 833e 9694 253e 515c d3bc
-0.13982448 0.16125135 0.13569212 -0.015960349 0.1712188 -0.1699528 -0.1562489 0.048196115
0.20455417 -0.14988275 -0.0051154657 0.14255045 -0.21583022 0.1502915 0.102512434 0.27324897
0.27673522 0.12265221 0.16031289 0.3574831 -0.1053507 -0.11947218 -0.0800284 -0.20860218
-0.17802708 -0.023242561 0.18123576 -0.13339382 -0.05550007 -0.11596756 -0.0660793 -0.25255778
0.11577618 0.10721592 -0.052198227 -0.07908447 0.1357845 0.019539969 -0.094344474 -0.15530619
0.24157017 0.015753627 0.18111746 0.28550395 0.07816933 -0.15908498 0.03217606 0.15706344
-0.18359682 0.105448864 -0.13432337 0.16578753 -0.04232517 0.13304079 -0.19817893 -0.10561032
0.06902116 -0.14605786 0.21295977 -0.13453029 0.10999988 -0.098426804 -0.04673969 -0.16221415
0.15814114 -0.15452631 -0.14021415 0.28224456 -0.24386726 0.1589094 0.13015291 0.15541679
0.18113233 0.28539866 -0.19369692 -0.1831514 0.04715379 0.17936955 -0.090865284 -0.23292986
-0.035838272 0.26449573 -0.035139665 0.11466018 -0.096594155 0.14544994 -0.20860516 0.0143454345
0.001614038 0.033673532 0.101354755 0.16607058 0.19065441 0.07159772 0.16939883 0.08796718
-0.22660665 -0.0026107712 -0.15466572 0.17255805 -0.15523385 0.24406758 0.15725519 0.24925728
0.20763749 0.07017393 -0.096921995 -0.13162003 0.18730241 -0.19863845 -0.08512658 0.15992278
0.05388731 0.0056800074 -0.06714458 0.23621428 -0.0023174556 0.06222531 -0.15935126 0.11704181
-0.23661825 -0.07495164 0.21890102 -0.20359635 0.059856255 0.2565555 0.16169962 -0.025800856

ip3.weight f4 [12, 128]
00000000: b43f 9fbd 45d6 c139 5503 2abe 9bc3 71bd
00000010: 3b9a 44bd 0be1 8f3c 9b60 503d baec e7bd
00000020: 43de 1cbd 2d0b 6ebd 5194 083c e2cd b0bd
00000030: 9b76 69bd 1e4d 8fbd d0e9 27bd 6909 6bbd
00000040: abe2 35be 1042 20be ef66 563c 0025 58be
00000050: 4626 99bc 86f8 563d 7f02 143d 9dc9 463c
00000060: 2cf7 823d 18c4 173c fc61 db3a 776b b83c
00000070: 59c7 9cbb 5fd0 733d 7533 07bc bd9f b43c
00000080: 6807 5e3d 98d4 b13b 2c00 71bd fc48 0abd
00000090: 11bf 9abb 4cc8 35be 868a ff3c e5c3 63bc
000000a0: 2038 73bd f192 17bc 9575 febd e753 37be
000000b0: 8fd0 03be 9fe5 bfbd 86f4 efbc d355 cfbd
000000c0: 9f25 2abd dc1b a33c 9d89 d53c b645 57bd
000000d0: 8150 2f3d 901a bcbd e217 97bd 0404 83bc
000000e0: b5d0 4ebd 8c2f 883d 70b0 a83c 8137 5e3d
000000f0: f35e a4bd 6b6c 14bd d5a6 12bc 8869 06bd
00000100: 8663 383d 14a7 16bb c4d8 203d 32a5 28be
00000110: fd33 533d 0d71 8ebd 5bc6 aebc 1094 87bd
00000120: ba2b f2bd 37d8 05be ee3b 573c 3b5a 95bd
00000130: 648d 73bd 251c 3dbe ca14 b7bd a220 afbd
00000140: 546a fcbb 1ca9 51be 1eac 483d a64e 623c
00000150: 4bb7 80bc 78be 833c f7fc 6cbc 61e0 44be
00000160: f51c abbd 48a7 08bd a95c 153d a619 0f3d
00000170: fba8 e2bc f1f6 6ebd a2b7 85bd c734 a73c
00000180: da3c 1b3d 9ae1 abbd aab0 8cbd caac 80bd
00000190: 01fe c83c 0f20 0cbc 245b bebd a145 a4bd
000001a0: f3fa 8dbe 1981 753c 6376 5e3d 3a11 bc3c
000001b0: 13dd 71bc f514 1fbd cb47 92bd cf06 1a3d
000001c0: 4569 c0bd 345d 2dbe 50c5 71be dfd5 a2bc
000001d0: 7be6 1d3d 0cb1 b5bd 9e47 e8bd 6945 b8bc
000001e0: c012 09bb e0bc 043d f563 033d f43a c1bd
000001f0: b0fd 3b3d a8b1 a5bc 4acc 5b3d 4f80 83bc
00000200: 8e22 14bc 4cf8 073d 7320 8f3d 8311 8f3d
00000210: 2e3a 8b3d 36cc 963d 8259 cdbd 8526 c03d
00000220: 6042 02bc f29e efbd dc90 af3d dfd3 183d
00000230: 39cd 7dbd 0b7f ce3c 5fa0 db3d 959a 143e
00000240: b362 0d3e aea5 613e 7a99 103e 1905 443e
00000250: d3a7 77bd 66e6 36bd 8759 50bd 6349 21be
00000260: f5f1 ecbb fe61 18be 64de d93d efa7 16be
00000270: 9078 9ebd e6c4 de3d 4bd1 48bd e335 a6bd
00000280: c404 5d3e 235a 60bd 0d32 8abd 2bc0 0bbd
00000290: 137b 8abd d508 cb3d 078d 6abd 24b0 7cbd
000002a0: 5066 6a3e 4a24 23be 4cf6 973d ad82 343e
000002b0: f364 1a3e 4a96 0ebe 2899 11bd f371 683c
000002c0: e600 ccbc 5f10 a4bd 9c6b 20bd 7370 053e
000002d0: edde 0dbd 9648 fcba 1b69 ed3d 6069 83bd
000002e0: 080c 9b3d 8b50 31bd b51f 133e 1bd4 bbbd
000002f0: 2a3e 513e b932 2d3d 18a7 5e3d e26c cd3d
00000300: dc58 0f3c 1b11 88bd 7d8b d4bd 084a 773e
00000310: 88a7 7cbb bba9 3f3d 1250 59be 8f0f 7cbd
00000320: 97db 473e 5f55 653e a73a 7bbe e886 afbd
00000330: 0f15 bdbd bdba 1e3e 971f 453d 8df4 c9bd
00000340: 3413 16be 51ca a43e 15ac aabd e36d 503e
00000350: a849 923d 1242 fa3d f244 673d 77d6 073e
00000360: cd21 6cbc a42c 513d a8c7 f63b a587 4e3c
00000370: 5111 243e 1695 2d3e 7f3f 133d 43a8 6a3e
00000380: 0ef4 4f3e fcd0 0e3e 303a eabd ac30 dc3d
00000390: 6b3f 633d d000 92bc 17e6 bc3d 1cd3 5a3e
000003a0: 637e 1d3e fb5d 51bd ed74 8e3d 37fb 96bd
000003b0: 995d c1bc ac1a 3ebe 66e7 b33d 4c57 d13d
000003c0: 8d79 26be 0801 b83d af19 913d 9a55 7a3e
000003d0: 3983 a93c 3312 033e 126f 06bd 69a9 173e
000003e0: 44b8 843d 6d76 c0bd b3e2 39bd 7668 15be
000003f0: 6f4b e8bd ebcd 0b3e 5f72 ec3d 5701 4a3c
-0.07775822 0.00036971472 -0.16602834 -0.059024435 -0.047998648 0.017563364 0.05087338 -0.11324449
-0.038297903 -0.058116127 0.008336143 -0.08633019 -0.056997877 -0.06997131 -0.040994465 -0.05738202
-0.17762248 -0.15650201 0.013086065 -0.21107864 -0.018695008 0.052483104 0.036135193 0.012133029
0.063948005 0.009263061 0.0016737576 0.02251218 -0.0047845063 0.05952489 -0.008252014 0.022048825
0.054206282 0.0054269545 -0.058838055 -0.03376101 -0.004722484 -0.17752188 0.031193983 -0.013901685
-0.059379697 -0.009251342 -0.12424771 -0.179031 -0.12872528 -0.093699686 -0.029291403 -0.101237915
-0.041539785 0.019910745 0.026066596 -0.052556716 0.042801384 -0.09184754 -0.07377602 -0.015993126
-0.050492007 0.06649694 0.020591944 0.05425215 -0.080259226 -0.036236208 -0.008950909 -0.032815486
0.045016788 -0.002298777 0.039269224 -0.16469267 0.05156325 -0.069551565 -0.021334818 -0.066200376
-0.118247464 -0.1307076 0.013136847 -0.07292601 -0.059461012 -0.18467768 -0.08939512 -0.08551146
-0.007703105 -0.20474666 0.04899227 0.013812697 -0.0157124 0.016082034 -0.014464608 -0.19226219
-0.083551325 -0.033362657 0.03646532 0.03493657 -0.027668467 -0.05834097 -0.06529166 0.020410908
0.03789983 -0.083926395 -0.068696335 -0.06282957 0.024535181 -0.008552565 -0.092947274 -0.08021093
-0.27730522 0.014984393 0.05431212 0.022957433 -0.014762181 -0.038838346 -0.071426 0.03760415
-0.093950786 -0.16930085 -0.23610425 -0.019877372 0.03854988 -0.0887166 -0.11341785 -0.022494035
-0.0020915717 0.032406688 0.03207775 -0.094350725 0.045896232 -0.020226315 0.053661622 -0.016052393
-0.009041442 0.03319578 0.06988611 0.06985762 0.06798206 0.07363169 -0.10026838 0.09382347
-0.007950395 -0.11700238 0.085725516 0.03731143 -0.061963294 0.025207063 0.10723948 0.14512093
0.13807182 0.22035858 0.14121047 0.1914257 -0.060462784 -0.04465332 -0.05086663 -0.15750651
-0.007230992 -0.14881131 0.10638121 -0.14712499 -0.07737839 0.10877399 -0.049027722 -0.08115747
0.21583849 -0.05477346 -0.06747828 -0.034118813 -0.06761756 0.09913794 -0.0572634 -0.06169142
0.22890592 -0.15931812 0.07420024 0.17627974 0.15077572 -0.13924518 -0.03554645 0.014187324
-0.024902772 -0.08010935 -0.039165124 0.13031177 -0.034636427 -0.0019247707 0.11592313 -0.06416583
0.07570654 -0.043289702 0.14367564 -0.09171315 0.2043387 0.0422847 0.05435857 0.100305334
0.008749213 -0.066438876 -0.10378168 0.24149334 -0.0038552005 0.046792727 -0.2122195 -0.061538275
0.1951736 0.22395848 -0.24534093 -0.08570653 -0.09232532 0.15500923 0.04812583 -0.098610975
-0.14655763 0.32185605 -0.08333603 0.20354418 0.07142955 0.12219633 0.056462236 0.13265406
-0.014412356 0.051067963 0.007531125 0.012605582 0.1602223 0.16951403 0.035949226 0.22915749
0.20307943 0.13946909 -0.1143688 0.10751471 0.055480402 -0.017822653 0.09223574 0.21369594
0.15380244 -0.051115017 0.069558956 -0.07372134 -0.023604201 -0.18564862 0.0878437 0.10221729
-0.16257305 0.08984572 0.07084977 0.24446717 0.020692455 0.12799911 -0.03282077 0.14810719
0.064804584 -0.09397588 -0.045382213 -0.1459063 -0.11342513 0.1365277 0.11545252 0.012329421

ip3.bias f4 [12]
00000000: 81a8 65be 705e 1f3f d73c 90bd 8dfa a3bb
00000010: bb9f fc3d 91db 06be 6fc9 ce3d 5999 d2bd
00000020: 1496 71be 1013 243c 880c f23d 64fb 05be
-0.2242756 0.62253475 -0.07042854 -0.005004233 0.12335154 -0.13169695 0.10097014 -0.10283155
-0.23592407 0.0100143105 0.118187964 -0.13084179

onnx::MatMul_47 f4 [1, 5]
00000000: 0000 803f 0000 803f 0000 803f 0000 80bf
00000010: 0000 80bf
1.0 1.0 1.0 -1.0 -1.0
