dnn-models/squeezenet_cifar10-cp.onnx (onnx, 120782 bytes, 60 tensors)

squeezenet/fire4/squeeze1x1/BiasAdd/ReadVariableOp:0 f4 [32]
00000000: e1c6 b23e b562 17bd 2bf8 b9be c264 c73d
00000010: fa0a c0be 989a bfbe dcf6 e23e 01a8 093f
00000020: 45f3 143f d346 f1be 04cd 763f 9c96 a33f
00000030: 755e 37bf 9997 efbe cb3e 453f 7a22 093f
00000040: b538 893e 36ec bb3e 43d5 113d 10e9 98be
00000050: d8b1 a7be ecd9 413f d289 4a3e 7fea 1fbf
00000060: 5173 313e f3e0 dbbe 9e40 b83e 81ac 6d3f
00000070: 91d2 19c0 ff79 923e cdc2 c9bd c5a3 e9bd
0.34917358 -0.03695937 -0.3632215 0.09736015 -0.37508374 -0.37422633 0.44328964 0.5377198
0.581837 -0.47124347 0.9640658 1.2780337 -0.71628505 -0.46795347 0.7704894 0.5356823
0.26801077 0.36703652 0.035603773 -0.29865313 -0.32752872 0.7572315 0.19779137 -0.6246719
0.17329146 -0.4294506 0.359868 0.92841345 -2.403477 0.286087 -0.098516084 -0.1140819

squeezenet/fire4/expand3x3/BiasAdd/ReadVariableOp:0 f4 [128]
00000000: 003a 813e 8751 2ebe fb80 03be 17f3 023d
00000010: f121 a7bc 9b46 bc3d 6a9f dfbd 61ab 31bf
00000020: 898a 6fbe 17d2 72bd 4ba4 83be f8ae 423e
00000030: 0809 b0be 8375 5e3c 1fa4 8dbe b521 6fbd
00000040: c5d9 31be 1712 963e d5d1 f5bb 66dc a9be
00000050: 3c35 14be d21e 2d3e 7afd bbbc 9dea 9cbc
00000060: e64e 5dbe 0542 d23d acd3 183d f275 3cbc
00000070: c591 7cbe 803e 833f 09d3 193f 993b 2dbe
00000080: 79e5 6b3c 11f2 31be 63cb 093f 0946 c73d
00000090: 26f3 22be 6815 b1be 90c0 9fbe 5717 a73d
000000a0: 2f32 6bbe 6f48 1a3e f74e 57ba 50c3 0ebf
000000b0: 7f26 4fbb 51f0 4abe a3ac 0abd 7daf 6dbe
000000c0: b46c 93be face 123f a45a d8bd 561e f5be
000000d0: 9772 2cbe 7aaf 6cbe a4ec 183f 2a27 5dbf
000000e0: c697 563d 588a 6cbe 23f8 8bbd 77af eebe
000000f0: 0fb6 55be a481 c13f e7fa 98be c1e2 d73e
00000100: e47b 1ebd 26d2 1ebd 547a babc ee6e cebd
00000110: 8f0e b4be ab8f 8cbd c1e5 52be 5b86 e2be
00000120: 246f 31be 24e7 313f c865 20be 916b 4fbe
00000130: da2c fabd 1fc8 293d 5619 28be b43f e43e
00000140: 7940 7cbd c157 c3bc 9f2e 03be 0397 4dbe
00000150: 5019 8d3e 62e9 8d3d 6733 a53d ac34 e1be
00000160: a378 7bbe 677a b5be 8110 13be 1d6c 0f3d
00000170: f92a be3e a746 bf3f 84bb 11bf ae3f 743d
00000180: 1308 42be 2295 a6bd 7a4b 1ebf 51ea 19bf
00000190: a664 0bbf ce2b a7be e7d3 7b3e de92 553f
000001a0: 8476 5a3f 67d0 0dbe 08d4 bf3e ee64 1f3f
000001b0: 5da7 b7be bf2e 4dbf e122 98be 5481 82be
000001c0: 9143 e43e 05a6 c83e 7f74 62bd 1762 d6be
000001d0: 6d54 bd3e 7227 c8bd 5879 52be 457d 083f
000001e0: f033 8a3d 405a 8a3f e81f 81bf 0c77 76be
000001f0: 6c37 5abd 7a44 64bf fef2 6d3f 4c32 bdbe
0.25239563 -0.17023288 -0.12842171 0.03197011 -0.020401927 0.091931544 -0.10919078 -0.6940213
-0.2339269 -0.05928239 -0.25711283 0.19012058 -0.3438189 0.013577822 -0.27664277 -0.058381755
-0.17368229 0.29310676 -0.0075018206 -0.33175963 -0.14473432 0.16906288 -0.022948015 -0.019154841
-0.21612129 0.102664985 0.03731124 -0.01150273 -0.24664982 1.0253448 0.6008764 -0.16917266
0.014397972 -0.17377497 0.5382597 0.09730155 -0.15913066 -0.34586644 -0.312016 0.081587486
-0.22968362 0.15066694 -0.0008213366 -0.55766773 -0.0031608639 -0.19818236 -0.033856045 -0.23211475
-0.2879387 0.5734707 -0.10564163 -0.47874707 -0.16840588 -0.23113814 0.59736085 -0.86387885
0.052390836 -0.23099649 -0.06834438 -0.46618244 -0.20870231 1.5117688 -0.29878923 0.42165187
-0.03869237 -0.038774632 -0.022763409 -0.10079752 -0.35167357 -0.0686334 -0.20595457 -0.4424313
-0.17327553 0.6949332 -0.15663826 -0.20255877 -0.12215586 0.041450616 -0.16415915 0.44579852
-0.061584923 -0.023845555 -0.12810753 -0.20077138 0.27558374 0.0692928 0.08066445 -0.43985498
-0.24557738 -0.35444948 -0.14361764 0.035015214 0.3714216 1.4943436 -0.5692675 0.059631042
-0.18948393 -0.081339136 -0.6183392 -0.60123163 -0.5445045 -0.32650608 0.24592553 0.83427227
0.8533709 -0.1384903 0.37466455 0.6226338 -0.35869876 -0.80149454 -0.2971411 -0.25489295
0.445828 0.39189163 -0.05528688 -0.41871712 0.36978474 -0.097731486 -0.20554101 0.53316146
0.067481875 1.0808792 -1.0087862 -0.2406885 -0.05327551 -0.89166987 0.929489 -0.36952436

squeezenet/fire4/expand1x1/BiasAdd/ReadVariableOp:0 f4 [128]
00000000: 717f 4ebf 600f fdbd 855e 3f3e 0fab 7abe
00000010: 3cb1 113f 7658 0abe cfed 2f3f 3037 85bf
00000020: ec40 b83e 88fc acbe a70b 883e e8d1 7b3e
00000030: 11ad 62bf 0140 0cbf c40b c4be 6361 e93e
00000040: c720 0cbf f175 ccbd 8663 953e 819c 5fbe
00000050: 106c d63e e4f6 38bf 660e 5fbe 67ed abbf
00000060: dbda 08bf 2228 593f e240 5fbe 1804 023d
00000070: 6546 1f3f 3d28 073e 69ac cb3d e04c 273e
00000080: b958 a63e 5135 cb3d 43f0 67bc cb12 fabd
00000090: 690e 433e 1435 0fbf 624d 08bf 4053 2bbf
000000a0: 48eb c0be 88b9 303f b7cf a03e 23db 2ebe
000000b0: 3160 5abd 9f64 f83e a5b1 cfbe 815b 1b3f
000000c0: a5c0 f2be 3bb6 68bf 19ad 1a3d 38c2 b43d
000000d0: 94eb dabe dd66 78bf 0b53 3f3e 2a0d 39be
000000e0: ec03 92be 1bc9 aa3e 26a1 653e d40b c3be
000000f0: d921 043d d4b5 34bd b80f e2be 204a 913e
00000100: 3cf2 9dbe 6fc1 adbe be08 edbd b748 8b3d
00000110: de09 babe 3b4a df3e 237a 893e fffd e53e
00000120: 4b32 7e3e 5d96 ca3e 78cf 3cba 355d 39be
00000130: ddc5 44bf a285 19bf 3d31 0dbe 9ad1 033c
00000140: e93e fabc a06f 5bbc 1a9e ba3e f456 a73e
00000150: 7aca 493e cd1a 16be f429 3ebf e41b 3dbe
00000160: 9395 953d b62b f4bc 1acd 66be 885a b8be
00000170: 5b83 63be 8a0c 3c3e 1b4b 303f 4950 953e
00000180: 1d21 7c3e 0d79 6cbf 2e2b 1bbf 22c9 e4be
00000190: 686d fcbd 1fca 10be a562 03be 702b dcbe
000001a0: 9f6a 42be 63d3 51be ec70 c5bc cff2 8e3e
000001b0: ba8a e5be b70c 073e 59bc 42be c4b4 5cbe
000001c0: f947 2a3f d606 ef3e 1757 64bf df93 7c3e
000001d0: aac1 04bf dfec 763f 15cd 71bf ecf0 273f
000001e0: 6d9b 77be b013 88be d13e 94bd 3c07 8fbf
000001f0: ade1 1d3f 287c 57be 6640 53bf 546c ba3e
-0.8066321 -0.12356448 0.186884 -0.24479316 0.56911063 -0.13510308 0.6872224 -1.0407467
0.3598703 -0.33786416 0.2657139 0.24591792 -0.8854533 -0.5478516 -0.38290226 0.45582113
-0.54737514 -0.09983433 0.29177493 -0.21837045 0.4187932 -0.72251725 -0.21782836 -1.3431824
-0.53458947 0.8482686 -0.21802095 0.031742185 0.6221679 0.13198943 0.09944994 0.16337919
0.32489565 0.09922279 -0.014156404 -0.12210616 0.19048466 -0.55940366 -0.53243077 -0.66923904
-0.37679505 0.690331 0.31408474 -0.17075782 -0.05331439 0.48514268 -0.4056522 0.606865
-0.474126 -0.9090306 0.037762735 0.08826107 -0.42757857 -0.97031957 0.18684022 -0.18071428
-0.28518617 0.33356556 0.22424755 -0.38094962 0.032258842 -0.044118717 -0.44152617 0.28376865
-0.30848873 -0.3393664 -0.11573933 0.06800979 -0.36335653 0.4361132 0.26850995 0.44920346
0.24823873 0.39567843 -0.0007202546 -0.18101962 -0.76864415 -0.5996953 -0.13788314 0.008045578
-0.030547576 -0.013393313 0.36448747 0.32683527 0.19706145 -0.14658661 -0.74282765 -0.1846767
0.0730392 -0.029806 -0.22539178 -0.3600657 -0.22218077 0.18364158 0.688646 0.29162815
0.24622007 -0.9237221 -0.6061276 -0.44684702 -0.12325555 -0.14139603 -0.12830599 -0.4300189
-0.18985985 -0.20490794 -0.024101697 0.27919623 -0.44832402 0.13188444 -0.19017161 -0.21553332
0.6651607 0.46684903 -0.8919539 0.24665783 -0.5185801 0.96455187 -0.94453555 0.6560199
-0.24180384 -0.2657752 -0.07238544 -1.1174083 0.6167248 -0.21043456 -0.8252014 0.36410773

squeezenet/fire3/squeeze1x1/BiasAdd/ReadVariableOp:0 f4 [16]
00000000: 77e2 d13e 18ee 2c3f 584b 053e 2e93 35be
00000010: 66d4 193e 04a8 bf3e 31ed debe 39c7 413e
00000020: 185a f83e 1119 a0be c6d8 ed3e e91b 713f
00000030: 7c20 643e 1217 9c3e ece5 333f 48de 6d3e
0.4099309 0.675508 0.13017023 -0.17731926 0.1502243 0.37432873 -0.43540338 0.18923654
0.48506236 -0.31269124 0.46454448 0.9418321 0.22278017 0.3048635 0.7027271 0.23229325

squeezenet/fire3/expand3x3/BiasAdd/ReadVariableOp:0 f4 [64]
00000000: a817 883d a632 f6be 60a2 6cbf 9042 bc3b
00000010: 6154 6ebe 2e16 a7bf d15b ccbd c5e4 09be
00000020: de87 2ebf a173 3f3e 3382 82be 1380 b13e
00000030: bbc2 40bf 82a7 9cbd 62d8 c1bd 97b6 69bf
00000040: e34c acbe c469 58be 112c a0be 8ab2 2abf
00000050: 008a 793e 40c0 acbe 7b6b f53e 79bf 04bf
00000060: a7bf 843e 7828 c7be 65b7 cb3e 7636 0fbf
00000070: 8c92 2c3e 8173 643d 062c b43e 5c29 d23d
00000080: 5338 c83e 50d6 79be 142c e0bf a64a f3be
00000090: 4512 49bf b748 a7be 0ff0 673f 309b 12be
000000a0: 9b61 48be 1aec 1b39 1a20 6abf 5d58 72bf
000000b0: 3b31 033e 3d58 febe 6d73 68bf 70a5 01bf
000000c0: da4f 5e3f 8660 e2be 4059 16be 3133 683e
000000d0: 3207 f9be 4ad0 2bbf 370f 4dbf 4419 e4be
000000e0: 26a2 47bf 3564 9fbd 9e3b 233f 079b 87bd
000000f0: f543 8cbe 77d4 b83e 4365 ebbd c12a e83d
0.06645137 -0.48085517 -0.92435265 0.0057452396 -0.23274375 -1.3053644 -0.0997845 -0.13466175
-0.68176067 0.18696453 -0.2548996 0.34668025 -0.75297135 -0.07649137 -0.094651 -0.91294235
-0.3365241 -0.21134096 -0.3128362 -0.6667868 0.24369049 -0.33740425 0.47933564 -0.51854664
0.2592747 -0.38898063 0.39788356 -0.55942476 0.16852778 0.055774216 0.35189837 0.10261795
0.39105472 -0.2439816 -1.7513452 -0.4751789 -0.785435 -0.32672665 0.90600675 -0.14317012
-0.19568484 0.00014869907 -0.91455233 -0.9466608 0.12811749 -0.49676695 -0.90801126 -0.5064306
0.86840594 -0.44214267 -0.14682484 0.22675778 -0.48638302 -0.671147 -0.8010134 -0.44550526
-0.77981794 -0.07782785 0.63762844 -0.06621366 -0.27395597 0.36099598 -0.114939235 0.1133628

squeezenet/fire3/expand1x1/BiasAdd/ReadVariableOp:0 f4 [64]
00000000: c224 9b3e cf97 14bd 5dff e5bd 72ae 49bf
00000010: 8611 92bf dc11 f6be 5a50 a63e 9c2b fbbe
00000020: c24a 1ac0 9ad0 0abf 4aab a5be d6a0 dabe
00000030: efd4 98bf 5948 83bd 4ec2 a33e c526 c63e
00000040: 4bf7 6e3e e4c7 66be 0bb4 27bf 09d8 9ebf
00000050: 27ae d7be ce0d 0e3e d116 92be 2a2c f63e
00000060: 383d a33e 3bf5 6bbf 280d 013f 018f aabe
00000070: c441 1dbe b92e 313e 2227 093f ebdd 3f3e
00000080: f100 46bf 7dae 4abf c875 a2be 36c4 4fbe
00000090: fabd 9dbe 90bb ea3d 40da 04bf 5a6a 50bd
000000a0: 9b0a 4a3f 42b9 85bf ca0e 1ebe 1c34 183e
000000b0: 1d87 8d3e 76b6 ba3f fd0a c9bf a0b4 f03e
000000c0: 234d 083f f5b3 1abf 1a01 273f cad3 cfbd
000000d0: 834c c7bf 268d cdbe 27e4 bcbc aa2a 923f
000000e0: 58ae 22bf 2de3 6c3f 35d8 65bf cd20 81bf
000000f0: c222 eebe 39c3 433f 3218 213d 2df6 11bc
0.3030148 -0.03627759 -0.11230347 -0.7878181 -1.1411598 -0.480605 0.32483178 -0.4905671
-2.4108129 -0.5422455 -0.32357246 -0.42700833 -1.1939982 -0.064102836 0.3198418 0.38701454
0.23336522 -0.2253719 -0.655091 -1.2409679 -0.42125055 0.13872454 -0.28533033 0.4808057
0.31882644 -0.92171067 0.504107 -0.33312228 -0.15357119 0.1730298 0.53575337 0.18736999
-0.77345186 -0.791725 -0.31730485 -0.20289692 -0.30809003 0.11461556 -0.51895523 -0.050882675
0.7892243 -1.0447161 -0.15435329 0.14863628 0.27642146 1.4586933 -1.5706478 0.47012806
0.532427 -0.6043084 0.65236056 -0.101478174 -1.5570225 -0.4014675 -0.02305801 1.141927
-0.6354728 0.9253414 -0.8978303 -1.0088135 -0.46510893 0.7646976 0.039329715 -0.008908791

squeezenet/fire2/squeeze1x1/BiasAdd/ReadVariableOp:0 f4 [16]
00000000: c7b1 5c3f 89f1 b13d 53e7 7c3e a2a2 6dbf
00000010: d9c4 093f 442c 16bf fd6b 7abd 8393 8cbe
00000020: 48f1 b23e ff9b 9bbe 109a ca3e d60a 193e
00000030: 5d8c ebbe 42a1 bf3e 83d2 26bd ec2d 2b3f
0.86208767 0.08688647 0.24697618 -0.9282628 0.5381599 -0.58661294 -0.061138142 -0.27456293
0.34949708 -0.30392453 0.39570665 0.1494554 -0.46005526 0.37427717 -0.040728103 0.66866946

squeezenet/fire2/expand3x3/BiasAdd/ReadVariableOp:0 f4 [64]
00000000: b4fd b9be 7351 15be 40de 643f c55e a73d
00000010: e672 633e 0ac7 473e 1e4b b8be 63a3 3e3e
00000020: f5f4 813e acbe 44bf 2a5a e2bd 32fd a9be
00000030: ae89 173f f0d3 073f 5234 083f c3fe 953e
00000040: 769f 71be 5e67 02bd ae54 83be 165a 95be
00000050: f38e ddbd 9dd1 95be dbcb 70be 1616 853e
00000060: 243f 71be 604a 043d 46e9 82ba 34e1 94bc
00000070: 7504 943e 907b 9cbe d7fa b9bd da9b d4be
00000080: 1133 003f be69 063f 33b6 56be cfb7 84be
00000090: 7ff7 98be 2736 d6be 2928 b2be af83 19bf
000000a0: 211e af3e 2763 e7bd 6a62 c23d 613c 9dbc
000000b0: 5de3 1a3e 2c75 be3e 7e63 fabd e835 30be
000000c0: a24b 553d 5830 e4bd aac2 2ebf 6e3e 9b3e
000000d0: da6e 5b3e 0839 c63d 223f f23d 4b5c 033e
000000e0: 6574 89be 857b fa3e 739b a93e c321 45be
000000f0: 94d5 5ebe 10f2 743d e1b1 cabe 95ed c93e
-0.36326373 -0.14581852 0.89401627 0.08172373 0.22211799 0.19509521 -0.3599481 0.18617015
0.253822 -0.7685344 -0.11052354 -0.33200985 0.5919446 0.53057766 0.53204834 0.2929593
-0.23595986 -0.03183686 -0.25650543 -0.29170293 -0.10818281 -0.29261485 -0.23515265 0.25993413
-0.23559242 0.032297492 -0.0009987734 -0.018173791 0.2890965 -0.3056302 -0.09081047 -0.41525155
0.5007792 0.525051 -0.20967941 -0.25921485 -0.29876325 -0.4183819 -0.34796265 -0.5996656
0.34202674 -0.11298209 0.09491427 -0.01919383 0.15125795 0.3719877 -0.12226008 -0.17208064
0.052074082 -0.11142033 -0.68265784 0.30321068 0.21429005 0.096788466 0.11828448 0.12828176
-0.26846614 0.48922363 0.3312641 -0.1925116 -0.21761161 0.05980116 -0.39588836 0.39439073

squeezenet/fire2/expand1x1/BiasAdd/ReadVariableOp:0 f4 [64]
00000000: d41f ab3e b72e 9abd bfb6 8b3d c9be 34bf
00000010: f968 b33e cd41 363f 50c7 a0be 5f1f eb3e
00000020: 75a9 863d 9a8f 05bf 246e 1dbe 5f51 6a3e
00000030: 284a db3e 4ef8 bdbe 8a55 56be 2222 0d3f
00000040: ed2a 2cbd 5170 de3b c40d bbbe 30cc 9b3e
00000050: 15d5 803d f6ca 39bf 2451 083e 45cf 083f
00000060: e33a 9fbe 9a2f 1f3e 384e f63d beee 2c3f
00000070: 8555 933e 6e5c c33e 1869 173e 673d 81be
00000080: 7480 e7be 4711 1cbe 431a 853e dd31 ed3e
00000090: 1140 66be f587 a33e 7fa7 0ebf 9276 6d3e
000000a0: 45e1 41bf 8e7d 93be 40ef bc3e a030 ca3e
000000b0: 2ad8 2dbf 2cf1 093f 1cdb c73c 6a74 85be
000000c0: 73c4 f83d 44fc 5bbf f18b 18bf e764 b73e
000000d0: 40b3 5f3f 0755 44be 4d09 d4bd eb46 db3d
000000e0: 1975 abbe d46f ffbe 2da9 213f 1375 be3e
000000f0: e55d 26be 1c26 81be 8074 17be b3c7 f33d
0.3342272 -0.075284414 0.068219654 -0.70603615 0.35041025 0.71194154 -0.31402063 0.45922372
0.0657529 -0.52172244 -0.15374047 0.22882603 0.42830014 -0.37103504 -0.20931068 0.5513021
-0.042033125 0.0067882915 -0.3653394 0.3042922 0.06290642 -0.7257532 0.13312203 0.5344127
-0.31099615 0.15545502 0.12026638 0.6755179 0.28776184 0.38156456 0.14786184 -0.2524216
-0.4521519 -0.15240966 0.259966 0.46327105 -0.22485377 0.31939664 -0.5572433 0.23189762
-0.7573436 -0.28806728 0.36901283 0.39490223 -0.67907965 0.53883624 0.024396472 -0.2606538
0.12146845 -0.859318 -0.59588534 0.3581917 0.8738289 -0.1917306 -0.103533365 0.10706886
-0.33487776 -0.49890006 0.63148767 0.37198696 -0.16246755 -0.25224388 -0.14790535 0.11903324

squeezenet/conv10/BiasAdd/ReadVariableOp:0 f4 [10]
00000000: 8a83 fa3e 4f04 a83d b1a6 1b3f c5eb 463e
00000010: 9eaf 183f fe53 2b3f b454 0c3f 465f 623d
00000020: 5417 5b3f edc9 423f
0.4892848 0.08203947 0.60801226 0.19425876 0.5964297 0.66925037 0.54816747 0.05526664
0.8558247 0.76089364

squeezenet/conv/BiasAdd/ReadVariableOp:0 f4 [64]
00000000: 75b7 30bf 2e81 3a3e 72ed 293c 0223 703d
00000010: 22b9 823d 2d35 2fbe 88bb 913d 4e39 bebd
00000020: 7013 22be 265a 0e3d 695a 0ebd e84f f13d
00000030: acaa f2bd c4cb bfbd 956f fabc 6f8d 87bc
00000040: f342 493c b8cd 003f ce26 9d3e 23c5 27bc
00000050: 505e 14be 1809 d93c 0a3f 97bb acc9 26be
00000060: 43f6 6c3c 6299 e4bd 8001 b03d 45d2 3cbe
00000070: 8518 63bd 83e6 94be 57bb 5e3d 28b2 14be
00000080: 43d0 c4bd 6dd3 50bb 9c11 ee3c 56f0 5ebd
00000090: a8ac 06bd 4e93 adbb 1ab2 ff3d 4289 803e
000000a0: 9be6 5abe 6bef c2bc 8be7 d03d 1a03 cc3c
000000b0: ecf3 7f3e 20cf 7cbe 33b0 133c e872 3ebe
000000c0: cddb a13d 3a80 45be b340 5d3d 4618 36be
000000d0: bb51 dbbe 0774 3fbe bde5 fdbd 9e4e 9fbd
000000e0: d674 fcbd 667c b73e a036 1b3d f844 01b9
000000f0: 3a9e ef3a 7e8e b9bd 709c 86bd 14ce a9bd
-0.69029933 0.1821334 0.010371553 0.058627136 0.063829675 -0.17110129 0.07115847 -0.09288274
-0.15827727 0.03475394 -0.03475419 0.11782819 -0.11848959 -0.09365037 -0.030570785 -0.016546933
0.012284028 0.503139 0.30693668 -0.010239872 -0.14489102 0.026493594 -0.004615669 -0.16287869
0.01446301 -0.11162068 0.08594036 -0.18439586 -0.055443306 -0.29082116 0.05437788 -0.14521086
-0.09610035 -0.00318643 0.029061131 -0.05442842 -0.0328795 -0.005297101 0.12485142 0.2510472
-0.21377032 -0.023795804 0.10200413 0.024903823 0.24995393 -0.24688387 0.009014177 -0.18598521
0.07903252 -0.19287196 0.05401678 -0.17782697 -0.42835793 -0.18696605 -0.12397335 -0.07778667
-0.12326972 0.35837096 0.03789389 -0.00012328092 0.0018281408 -0.09060381 -0.06572807 -0.082912594

Zero_0 f4 [2]
00000000: 2910 6b3e 3018 66be
0.22955383 -0.22470164

squeezenet/fire4/expand3x3/Conv2D/ReadVariableOp:0_cp0 f4 [2, 32, 1, 1]
00000000: 1faa d2bd 97ff 9dbe dcd0 e53d 6283 bfbd
00000010: 5426 b1be e835 99bf 99f7 78be a6d8 59bf
00000020: a55c acbe e835 19bc 6283 3f3d 5426 b1be
00000030: 2b0f 86bd 2b0f 86bd 5426 b13e dcd0 65be
00000040: 8aa2 8fbe 1faa 52be dcd0 65bd e835 19bc
00000050: e835 993c e835 19be b3b9 3abf 0000 0000
00000060: 04f0 35be 99f7 78be 1faa 52be 97ff 9dbe
00000070: 99f7 f8bd 3a64 6fbe e835 993d c016 49be
00000080: c016 49be 6283 3f3d 70e0 cdbe dcd0 e53d
00000090: e835 993c 46c9 223e 3a64 6fbe dcd0 653e
000000a0: 2b0f 86bd 99f7 f83d dcd0 e53c dcd0 e5bd
000000b0: a55c ac3d 7c45 013f e835 19bc 8b9a eabe
000000c0: 46c9 22be dcd0 65be c016 c9be a55c acbd
000000d0: c016 c93e 04f0 b5be 8aa2 0fbe 46c9 a2be
000000e0: 7c45 01bf 6283 bfbd 6283 3f3d 7e3d 5cbe
000000f0: a55c acbd 7c45 81be e835 193d 396c 94be
-0.10286354 -0.30859062 0.112214774 -0.09351231 -0.34599555 -1.1969576 -0.24313201 -0.85096204
-0.33664432 -0.009351231 0.046756156 -0.34599555 -0.06545862 -0.06545862 0.34599555 -0.22442955
-0.28053695 -0.20572709 -0.056107387 -0.009351231 0.018702462 -0.1496197 -0.72939605 0.0
-0.1776734 -0.24313201 -0.20572709 -0.30859062 -0.121566005 -0.23378077 0.07480985 -0.19637585
-0.19637585 0.046756156 -0.40210295 0.112214774 0.018702462 0.15897092 -0.23378077 0.22442955
-0.06545862 0.121566005 0.028053693 -0.112214774 0.08416108 0.5049665 -0.009351231 -0.45821032
-0.15897092 -0.22442955 -0.3927517 -0.08416108 0.3927517 -0.3553468 -0.14026847 -0.31794184
-0.5049665 -0.09351231 0.046756156 -0.21507832 -0.08416108 -0.25248325 0.037404925 -0.28988817

Zero_1 f4 [2]
00000000: 86dc 1d3e 01ea bcbe
0.15416154 -0.3689728

squeezenet/fire4/expand3x3/Conv2D/ReadVariableOp:0_cp1 f4 [2, 1, 3, 1]
00000000: 9746 fd3e 6872 833e ad85 2b3f b9fa 49bf
00000010: fbc5 463e 1e7a 133f
0.49467918 0.25673223 0.6700085 -0.788982 0.19411461 0.5760821

Zero_2 f4 [2]
00000000: 8f62 fcbd ac04 853e
-0.12323486 0.25980127

squeezenet/fire4/expand3x3/Conv2D/ReadVariableOp:0_cp2 f4 [2, 1, 1, 3]
00000000: d2b8 01bf bf52 d6be 9497 0bbf 937b 34bf
00000010: 79d2 0fbf 21ec 1dbf
-0.5067264 -0.41860005 -0.54528165 -0.7050106 -0.5618053 -0.6168843

squeezenet/fire4/expand3x3/Conv2D/ReadVariableOp:0_cp3 f4 [128, 2, 1, 1]
00000000: 4420 00c0 b1a9 87be fbe4 03c0 0000 0000
00000010: f707 d3bf ad2d f13c aecc d6bf f707 533e
00000020: 4143 cfbf 8cbc 163e 6630 c0bf ad2d 71be
00000030: d17b fcbf 1df5 c3be d21a e2bf 8cbc 963e
00000040: e6ff 32c0 ad2d f13c b1a9 87bf f707 53be
00000050: 4420 00c0 ad2d 713d 8cbc 96bf ad2d f13c
00000060: c350 0dc0 8a7e 4b3f af6b bcbf b1a9 87be
00000070: d3b9 c7bf ad2d f13c fbe4 03c0 b1a9 873e
00000080: 89df e5bf ad2d 713d 4143 cfbf 0000 0000
00000090: b1a9 87bf 42e2 b4bd 6591 dabf 8cbc 963e
000000a0: 1f33 8fbf ad2d f13c 2f9c 49c0 aecc d63f
000000b0: 1b56 debf ad2d f1bc d3b9 c7bf ad2d f13d
000000c0: aecc d6bf ad2d f13c 64f2 f4bf 1f33 0fbf
000000d0: 4420 80bf 42e2 34be af6b bcbf 42e2 b43d
000000e0: af6b bcbf 42e2 b43d fa45 9ebf b1a9 87be
000000f0: 1f33 0fbf ad2d 713d 78d7 45c0 b1a9 073f
00000100: 4381 1ac0 1ab7 783f 4381 1ac0 ad2d f1be
00000110: b00a a2bf 8cbc 16be 8b1d b1bf f707 53be
00000120: 4381 9abf ad2d 713d f707 53bf 0000 0000
00000130: d21a e2bf f707 533e 89df e5bf 42e2 343e
00000140: 8cbc 96bf ad2d f13c 4381 9abf 42e2 34be
00000150: 524b 6fc0 d458 ad3f 1ab7 78bf 42e2 b43e
00000160: 40a4 69bf 8cbc 16be f668 edbf ad2d f13d
00000170: af6b bcbf b1a9 87be 4420 00c0 ad2d 71be
00000180: d458 2dc0 ad2d 71be fbe4 83bf fbe4 833f
00000190: e560 4dc0 8cbc 16bf 1ab7 78bf 0000 0000
000001a0: 67cf 25c0 42e2 34be f668 edbf 8cbc 16be
000001b0: 6630 c0bf ad2d 713d 64f2 f4bf ad2d 713e
000001c0: 67cf a5bf f707 53be d17b fcbf ad2d 713d
000001d0: c2b1 27c0 42e2 b43e 1b56 debf 0000 0000
000001e0: fa45 1ec0 ad2d f13d 8cbc 16be 42e2 b43d
000001f0: 1b56 debf 42e2 b43d 1f33 8fbf ad2d f1bc
00000200: 303b 2fc0 ad2d 71bd f707 d3bf 42e2 b4bd
00000210: 1b56 debf 8cbc 16be c2b1 27c0 ad2d f13d
00000220: 1b56 debf 42e2 343f b00a a2bf 42e2 343e
00000230: b1a9 87bf 8cbc 16be f707 d3bf 67cf a53e
00000240: 2f9c 49c0 ad2d 71be fbe4 03c0 67cf a5be
00000250: 42e2 b4bf ad2d 713d 686e 8bbf ad2d 713d
00000260: f8a6 b8bf b1a9 87be d3b9 c7bf b1a9 87be
00000270: 40a4 69c0 d21a e2be b00a a2bf 42e2 34be
00000280: d17b fcbf 42e2 b4be ad2d 71bf f707 53be
00000290: 686e 8bbf 0000 0000 f668 edbf ad2d 713d
000002a0: 4381 9abf 42e2 34be 4420 80bf 42e2 34be
000002b0: 42e2 b4bf ad2d 71bd b1a9 07bf b1a9 873e
000002c0: 67cf 25bf ad2d f13c 5528 20c0 ad2d 71be
000002d0: 6591 dabf ad2d 713d 6591 5abf ad2d 713d
000002e0: 1ab7 78bf ad2d f1bd f707 53bf 8cbc 963e
000002f0: 4381 1ac0 8cbc 16bf 1ab7 f8bf f707 533e
00000300: 1ab7 78bf ad2d 713d fa45 9ebf 0000 0000
00000310: 1f33 8fbf 8cbc 96be f707 d3bf f707 533e
00000320: 31da 14c0 6591 5a3f f668 edbf ad2d 713d
00000330: 64f2 f4bf b1a9 87be d3b9 c7bf b1a9 07bf
00000340: af6b 3cc0 d21a e2be 4381 9abf 42e2 b43d
00000350: b1a9 87bf ad2d f1bd 8cbc 96bf ad2d f1bd
00000360: e79e 18c0 ad2d 713d e6ff 32c0 b1a9 073f
00000370: c350 0dc0 fa45 1e3f 40a4 69c0 b1a9 07bf
00000380: 4381 9abf 42e2 b4bd f707 d3be fa45 1ebf
00000390: d21a 62bf ad2d f13c 4381 1ac0 ad2d 713d
000003a0: d17b fcbf b00a a2bf 56c7 05c0 42e2 b43d
000003b0: 1f33 8fbf f707 533e 8cbc 96bf 42e2 b43e
000003c0: 686e 8bbf 42e2 34be ad2d 71be 0000 0000
000003d0: 42e2 b4bf f707 533e af6b bcbf ad2d f13c
000003e0: fa45 9ebf ad2d f1bc 89df e5bf ad2d 713e
000003f0: b1a9 07bf ad2d 713f aecc 56c0 4381 9a3f
-2.0019693 -0.26496652 -2.0608509 0.0 -1.6486806 0.029440725 -1.6781213 0.20608507
-1.6192399 0.14720362 -1.501477 -0.2355258 -1.9725286 -0.38272944 -1.7664435 0.29440725
-2.7968688 0.029440725 -1.0598661 -0.20608507 -2.0019693 0.05888145 -1.177629 0.029440725
-2.2080543 0.7948996 -1.4720362 -0.26496652 -1.5603584 0.029440725 -2.0608509 0.26496652
-1.7958843 0.05888145 -1.6192399 0.0 -1.0598661 -0.08832218 -1.7075621 0.29440725
-1.1187476 0.029440725 -3.1501577 1.6781213 -1.7370027 -0.029440725 -1.5603584 0.1177629
-1.6781213 0.029440725 -1.9136472 -0.5593738 -1.0009847 -0.17664436 -1.4720362 0.08832218
-1.4720362 0.08832218 -1.2365105 -0.26496652 -0.5593738 0.05888145 -3.0912762 0.52993304
-2.4141395 0.9715439 -2.4141395 -0.4710516 -1.2659512 -0.14720362 -1.3837141 -0.20608507
-1.2070698 0.05888145 -0.8243403 0.0 -1.7664435 0.20608507 -1.7958843 0.17664436
-1.177629 0.029440725 -1.2070698 -0.17664436 -3.7389722 1.3542733 -0.9715439 0.3532887
-0.9126625 -0.14720362 -1.8547657 0.1177629 -1.4720362 -0.26496652 -2.0019693 -0.2355258
-2.7085466 -0.2355258 -1.0304254 1.0304254 -3.209039 -0.5888145 -0.9715439 0.0
-2.5907838 -0.17664436 -1.8547657 -0.14720362 -1.501477 0.05888145 -1.9136472 0.2355258
-1.2953919 -0.20608507 -1.9725286 0.05888145 -2.6202245 0.3532887 -1.7370027 0.0
-2.473021 0.1177629 -0.14720362 0.08832218 -1.7370027 0.08832218 -1.1187476 -0.029440725
-2.7379875 -0.05888145 -1.6486806 -0.08832218 -1.7370027 -0.14720362 -2.6202245 0.1177629
-1.7370027 0.7065774 -1.2659512 0.17664436 -1.0598661 -0.14720362 -1.6486806 0.32384798
-3.1501577 -0.2355258 -2.0608509 -0.32384798 -1.4131548 0.05888145 -1.0893068 0.05888145
-1.4425955 -0.26496652 -1.5603584 -0.26496652 -3.65065 -0.44161087 -1.2659512 -0.17664436
-1.9725286 -0.3532887 -0.9421032 -0.20608507 -1.0893068 0.0 -1.8547657 0.05888145
-1.2070698 -0.17664436 -1.0009847 -0.17664436 -1.4131548 -0.05888145 -0.52993304 0.26496652
-0.64769596 0.029440725 -2.5024617 -0.2355258 -1.7075621 0.05888145 -0.85378104 0.05888145
-0.9715439 -0.1177629 -0.8243403 0.29440725 -2.4141395 -0.5888145 -1.9430878 0.20608507
-0.9715439 0.05888145 -1.2365105 0.0 -1.1187476 -0.29440725 -1.6486806 0.20608507
-2.3258173 0.85378104 -1.8547657 0.05888145 -1.9136472 -0.26496652 -1.5603584 -0.52993304
-2.9440725 -0.44161087 -1.2070698 0.08832218 -1.0598661 -0.1177629 -1.177629 -0.1177629
-2.3846986 0.05888145 -2.7968688 0.52993304 -2.2080543 0.61825526 -3.65065 -0.52993304
-1.2070698 -0.08832218 -0.41217014 -0.61825526 -0.88322175 0.029440725 -2.4141395 0.05888145
-1.9725286 -1.2659512 -2.0902915 0.08832218 -1.1187476 0.20608507 -1.177629 0.3532887
-1.0893068 -0.17664436 -0.2355258 0.0 -1.4131548 0.20608507 -1.4720362 0.029440725
-1.2365105 -0.029440725 -1.7958843 0.2355258 -0.52993304 0.9421032 -3.3562427 1.2070698

Zero_3 f4 [6]
00000000: ded7 a2bd bd76 1fbf 60c9 0fbd 67d3 79bf
00000010: ea5c 18be f27f 17bf
-0.0795133 -0.62290555 -0.035104156 -0.975882 -0.14879194 -0.59179604

squeezenet/fire3/expand3x3/Conv2D/ReadVariableOp:0_cp0 f4 [6, 16, 1, 1]
00000000: 8899 fd3d 4e8f d7bd 8899 fdbd 092e ab3e
00000010: 6b94 6a3e ffd6 24be 8899 fd3e 4e8f 57be
00000020: 3ae1 4a3c 613d 643d 4438 513e 308a 443e
00000030: 3ae1 4a3d 3ae1 cabd 613d 64bd f57f 9e3e
00000040: d87a 8b3d ec28 18be 8899 7d3d 2633 be3d
00000050: 613d e43d 2633 be3d dc11 e1be 613d 643e
00000060: 6b94 6a3e ec28 18be d3ba dabe ec28 98bd
00000070: 3ae1 cabd 3ae1 4abc 3ae1 cabb 092e abbe
00000080: ec28 183e 1385 313d 7f42 77be 308a c43e
00000090: 7054 1b3f 4e8f d73d e2d1 913e 2633 be3e
000000a0: c26c 263f 6b94 6abe 4438 51be 8899 7d3e
000000b0: d87a 8bbd ce23 85be 613d e43d 7054 9b3e
000000c0: 613d 643e 4438 51be 2633 be3d 092e 2bbe
000000d0: 8e59 2ebf f0bf edbe 0000 0000 8e59 aebe
000000e0: ec28 98bc ec28 18bd 613d 643d ffd6 a4be
000000f0: 1385 31bd ce23 053e ec28 18be ec28 98bd
00000100: 3ae1 cabb 3ae1 cabb 3ae1 ca3d f57f 1e3f
00000110: b5b5 c73e ec28 98bd a467 133f 092e 2b3e
00000120: 1385 313e 308a 443e 8899 7dbd 3ae1 4abd
00000130: 1385 313d e2d1 11be e2d1 11be 784b 493f
00000140: 4e8f d7be ffd6 a4bd 2633 3ebe 6b94 6a3e
00000150: 0000 0000 d87a 8bbd 092e 2bbe 6b94 6a3e
00000160: 75eb f03d 613d 643e 3ae1 4abe ce23 05be
00000170: 3ae1 cabe 4438 51be 308a c4be ffd6 243e
0.123827994 -0.1052538 -0.123827994 0.3343356 0.2290818 -0.1609764 0.49531198 -0.2105076
0.0123828 0.055722598 0.2043162 0.1919334 0.0495312 -0.0990624 -0.055722598 0.30956998
0.0681054 -0.1485936 0.061913997 0.092870995 0.111445196 0.092870995 -0.43958938 0.22289039
0.2290818 -0.1485936 -0.4272066 -0.0742968 -0.0990624 -0.0123828 -0.0061914 -0.3343356
0.1485936 0.0433398 -0.2414646 0.3838668 0.60675716 0.1052538 0.2848044 0.37148398
0.650097 -0.2290818 -0.2043162 0.24765599 -0.0681054 -0.2600388 0.111445196 0.30337858
0.22289039 -0.2043162 0.092870995 -0.1671678 -0.681054 -0.464355 0.0 -0.340527
-0.0185742 -0.0371484 0.055722598 -0.3219528 -0.0433398 0.1300194 -0.1485936 -0.0742968
-0.0061914 -0.0061914 0.0990624 0.61913997 0.3900582 -0.0742968 0.5758002 0.1671678
0.1733592 0.1919334 -0.061913997 -0.0495312 0.0433398 -0.1424022 -0.1424022 0.7863078
-0.4210152 -0.0804882 -0.18574199 0.2290818 0.0 -0.0681054 -0.1671678 0.2290818
0.1176366 0.22289039 -0.1981248 -0.1300194 -0.3962496 -0.2043162 -0.3838668 0.1609764

Zero_4 f4 [6]
00000000: 7f98 32be aa2e 5a3e dbe9 f7bd b19d 62be
00000010: 916c cf3d 7500 84bc
-0.17440985 0.21306863 -0.12105151 -0.22130467 0.10128129 -0.0161135

squeezenet/fire3/expand3x3/Conv2D/ReadVariableOp:0_cp1 f4 [6, 1, 3, 1]
00000000: ab0c 6cbf 2caa af3d 9bfb 0b3f b794 dbbd
00000010: ab0c ecbe 44ba 8ebe b794 dbbe fc89 71be
00000020: 4e07 773f d84a aebf 9f84 7c3e 4e07 773f
00000030: 9bfb 0b3f e6b4 193e a1bf 833d 2caa afbe
00000040: 2caa 2fbc d568 323f
-0.9220683 0.085773796 0.54680794 -0.107217245 -0.46103415 -0.27876484 -0.42886898 -0.23587793
0.9649552 -1.361659 0.24659966 0.9649552 0.54680794 0.15010414 0.06433035 -0.34309518
-0.0107217245 0.6969121

Zero_5 f4 [6]
00000000: 1921 d83d 60f5 ccbc dfcf a53d 37ee 59be
00000010: a502 813e 5d85 293d
0.10553188 -0.025019348 0.08096289 -0.21282278 0.2519733 0.04138695

squeezenet/fire3/expand3x3/Conv2D/ReadVariableOp:0_cp2 f4 [6, 1, 1, 3]
00000000: 0b71 5fbe e879 5abe d93b 7dbe 83a6 1d3f
00000010: 7256 6ebd 4657 02bf e879 5abe 91d2 a8be
00000020: 7256 6ebe d6c0 b23d 5f9d 463e b744 f83d
00000030: f8b7 b73e 0f95 833e d6c0 b23e d6c0 323e
00000040: 2d68 643e 8194 4b3e
-0.21820466 -0.21335566 -0.24729861 0.615822 -0.05818791 -0.5091442 -0.21335566 -0.3297315
-0.23275164 0.08728187 0.1939597 0.12122481 0.35882545 0.2569966 0.34912747 0.17456374
0.22305365 0.19880868

squeezenet/fire3/expand3x3/Conv2D/ReadVariableOp:0_cp3 f4 [64, 6, 1, 1]
00000000: 407e a2be 407e 22bd 407e a2bd 782e 0e3f
00000010: 0000 0000 407e 22bd 2b1c aa3f d01d cbbd
00000020: 407e a2bd d01d 4b3f d793 c8bf 986d 5fbe
00000030: 986d 5f3e d01d cb3d d01d cbbe 407e a2bc
00000040: 5c56 983e d01d 4b3e 407e a23c 60bd 733d
00000050: b445 d53e 407e a23e 44e5 fdbe 407e 22bf
00000060: 986d df3e fae1 bb3f 986d 5f3e 407e a23c
00000070: d793 c8bf 0158 b93f 60bd f33e 407e a23c
00000080: b445 55bf 24a6 ac3f 9fe3 dcbf 986d 5f3e
00000090: 0f44 b4bf 60bd 733d 08ce 363f 9b7c 81bf
000000a0: 407e a23c 08ce 363e ecf5 c0be d01d cb3d
000000b0: 5c56 18bf 55e0 9a3f 782e 0ebf 52d1 78bf
000000c0: 60bd 73be 60bd 73bd 08ce 363e 60bd f3be
000000d0: 782e 0ebe 47f4 9f3f 9406 04bf 7c95 e93e
000000e0: ecf5 c03e 9406 84be 4e6a 1dbf 08ce 36be
000000f0: 5c56 983e d793 c8bf 782e 0e3e 08ce b63e
00000100: 3292 a7bf ecf5 403f 5c56 983e 9406 84be
00000110: 9406 04bf de09 463f 6a42 13c0 d01d cb3d
00000120: 407e 223f b445 d53e 1d30 afbf 9b7c 813f
00000130: 407e 22c0 5c56 98be 782e 0e3e 24a6 2c3f
00000140: 407e a23e 986d 5fbe 60bd f3be 782e 0ebe
00000150: 44e5 fdbe 407e 22bd ecf5 403f 782e 8ebe
00000160: 16ba b1bf a659 5abf 407e 22bd 16ba 31bf
00000170: 782e 8ebe b445 d53e 91f7 e1bf 5c56 983e
00000180: 60bd f3be d01d cbbd 407e a2bc 44e5 fd3e
00000190: 986d 5fbf d01d 4b3e 6a42 93bf 407e a23c
000001a0: 782e 0ebe 0000 0000 9406 043f 986d 5f3f
000001b0: 63cc 95bf 60bd 733d f36b be3f 44e5 fdbe
000001c0: 986d 5f3e 6011 1740 d01d 4b3e d01d cb3f
000001d0: 60bd 73be 9406 843e d01d 4bbe 08ce 363e
000001e0: 60bd f3be 407e a2bd d01d 4bbe 407e 223d
000001f0: 60bd 73bd 7c95 e9be 407e a2bd 407e 223e
00000200: 24a6 ac3e 407e a2be 782e 0ebe 407e a23d
00000210: 55e0 9a3f 60bd 733d 08ce b6be b445 d53e
00000220: 9406 84bf 5c56 98bf 407e 223e 6ea9 eebf
00000230: 407e a23d d01d 4b3e 08ce 36be 08ce 363e
00000240: 9b7c 813f 407e a23e de09 463f 44e5 7dbf
00000250: 1d30 afbf 407e a2bc 60bd 733d 6a42 133f
00000260: 986d 5f3e 986d 5f3e 9406 04bf 08ce 36be
00000270: b445 d53e ecf5 c0be 60bd 73be 4e6a 1d3f
00000280: d01d 4bbf 60bd f3be 407e a2bd 6ea9 6ebf
00000290: 60bd 73be 60bd 733f 71b8 90bf 44e5 fd3e
000002a0: 407e 22be 08ce 363e 60bd 733e 24a6 2cbf
000002b0: 407e 22bd d01d 4b3f 16ba 313f 3292 273f
000002c0: 407e a23c 60bd f3bd 782e 0ebf 6ea9 6ebf
000002d0: 782e 8e3f 407e a2be ecf5 c03e 782e 0ebe
000002e0: 60bd 73bf ecf5 c03e 1d30 af3f 9406 04bf
000002f0: 407e 223e 08ce 36bf 91f7 e1bf 407e 223f
00000300: 861a 09bf 16ba 313f 08ce 363e d01d 4b3e
00000310: 7c95 69bf 5c56 183f 6ea9 6e3f 407e a2bd
00000320: 6a42 13bf 9b7c 813f b445 d5be 08ce 363f
00000330: 44e5 7dbf 407e a2bd 782e 0e3e 782e 0e3e
00000340: a659 5a3f 16ba 31bf 407e 22be 9406 84be
00000350: 861a 09bf 4e6a 1d3f 24a6 acbe 9406 043f
00000360: d01d cbbf d01d cbbd b445 d53e 60bd 73bd
00000370: 6a42 13bf 782e 8ebe b445 553f 407e 223e
00000380: 60bd f33e 60bd 73bd d01d 4bbe b445 d5be
00000390: ecf5 403f 9406 843e 407e a2be 24a6 ac3e
000003a0: 9b7c 81bf 60bd f3bd 407e a2bf 407e a2bd
000003b0: 44e5 fd3e d01d cbbe 782e 0e3e b445 553f
000003c0: 782e 0e3f 407e 223d 24a6 acbf 5c56 983f
000003d0: 986d 5fbf 986d dfbe 6a42 933f 407e a23c
000003e0: 24a6 ac3e 782e 0ebe f36b bebf 60bd 733f
000003f0: 55e0 9a3f 0000 0000 6a42 133f 986d dfbe
-0.31736946 -0.039671183 -0.079342365 0.55539656 0.0 -0.039671183 1.3289846 -0.09917796
-0.079342365 0.79342365 -1.5670117 -0.2181915 0.2181915 0.09917796 -0.39671183 -0.019835591
0.29753387 0.19835591 0.019835591 0.059506774 0.41654742 0.31736946 -0.49588978 -0.6347389
0.436383 1.4678338 0.2181915 0.019835591 -1.5670117 1.4479982 0.4760542 0.019835591
-0.83309484 1.3488202 -1.7256964 0.2181915 -1.408327 0.059506774 0.7140813 -1.0116152
0.019835591 0.17852032 -0.37687624 0.09917796 -0.59506774 1.2099711 -0.55539656 -0.971944
-0.2380271 -0.059506774 0.17852032 -0.4760542 -0.13884914 1.2496423 -0.5157254 0.4562186
0.37687624 -0.2578627 -0.61490333 -0.17852032 0.29753387 -1.5670117 0.13884914 0.35704064
-1.309149 0.75375247 0.29753387 -0.2578627 -0.5157254 0.77358806 -2.3009286 0.09917796
0.6347389 0.41654742 -1.3686558 1.0116152 -2.5389557 -0.29753387 0.13884914 0.6744101
0.31736946 -0.2181915 -0.4760542 -0.13884914 -0.49588978 -0.039671183 0.75375247 -0.27769828
-1.3884914 -0.8529304 -0.039671183 -0.6942457 -0.27769828 0.41654742 -1.7653676 0.29753387
-0.4760542 -0.09917796 -0.019835591 0.49588978 -0.872766 0.19835591 -1.1504643 0.019835591
-0.13884914 0.0 0.5157254 0.872766 -1.1702999 0.059506774 1.4876693 -0.49588978
0.2181915 2.3604355 0.19835591 1.5868473 -0.2380271 0.2578627 -0.19835591 0.17852032
-0.4760542 -0.079342365 -0.19835591 0.039671183 -0.059506774 -0.4562186 -0.079342365 0.15868473
0.33720505 -0.31736946 -0.13884914 0.079342365 1.2099711 0.059506774 -0.35704064 0.41654742
-1.0314507 -1.1901355 0.15868473 -1.8645456 0.079342365 0.19835591 -0.17852032 0.17852032
1.0116152 0.31736946 0.77358806 -0.99177957 -1.3686558 -0.019835591 0.059506774 0.57523215
0.2181915 0.2181915 -0.5157254 -0.17852032 0.41654742 -0.37687624 -0.2380271 0.61490333
-0.79342365 -0.4760542 -0.079342365 -0.9322728 -0.2380271 0.9521084 -1.1306287 0.49588978
-0.15868473 0.17852032 0.2380271 -0.6744101 -0.039671183 0.79342365 0.6942457 0.6545745
0.019835591 -0.11901355 -0.55539656 -0.9322728 1.1107931 -0.31736946 0.37687624 -0.13884914
-0.9521084 0.37687624 1.3686558 -0.5157254 0.15868473 -0.7140813 -1.7653676 0.6347389
-0.53556097 0.6942457 0.17852032 0.19835591 -0.9124372 0.59506774 0.9322728 -0.079342365
-0.57523215 1.0116152 -0.41654742 0.7140813 -0.99177957 -0.079342365 0.13884914 0.13884914
0.8529304 -0.6942457 -0.15868473 -0.2578627 -0.53556097 0.61490333 -0.33720505 0.5157254
-1.5868473 -0.09917796 0.41654742 -0.059506774 -0.57523215 -0.27769828 0.83309484 0.15868473
0.4760542 -0.059506774 -0.19835591 -0.41654742 0.75375247 0.2578627 -0.31736946 0.33720505
-1.0116152 -0.11901355 -1.2694778 -0.079342365 0.49588978 -0.39671183 0.13884914 0.83309484
0.55539656 0.039671183 -1.3488202 1.1901355 -0.872766 -0.436383 1.1504643 0.019835591
0.33720505 -0.13884914 -1.4876693 0.9521084 1.2099711 0.0 0.57523215 -0.436383

Zero_6 f4 [32]
00000000: 5da8 fabd 836d 32be 7213 6abd 342a b83b
00000010: f4b2 703d 1de7 66bd 1998 93bc f8a2 173e
00000020: 01bd 373d 0a0f 37be 95d7 23bc d4fc d8bb
00000030: 3b7d ab3d 49e3 2c3e 5a63 b9bc a25a 76bd
00000040: 0841 78bd a611 85bd ff04 433d 3920 49bd
00000050: 3cf5 6ebe ece9 963d 6e0a f8bc 8c0c 8fbc
00000060: 3cb3 75be 58e7 3fbe d740 d0be 8ed9 743e
00000070: 726b cbbc f4dc 8c3d 558d 86be fb35 c1bc
-0.12239144 -0.17424588 -0.05714745 0.0056202654 0.058764413 -0.05637275 -0.018016862 0.14808261
0.044857983 -0.1787683 -0.010000129 -0.0066219363 0.08373495 0.16883577 -0.022630382 -0.060145028
-0.060608894 -0.06497507 0.047612187 -0.049102996 -0.23335737 0.07368836 -0.03027841 -0.017462038
-0.23994154 -0.18740594 -0.4067447 0.23911116 -0.024831507 0.06878081 -0.26279703 -0.02358531

squeezenet/fire2/expand3x3/Conv2D/ReadVariableOp:0_cp0 f4 [32, 16, 1, 1]
00000000: 12f5 6abe 39cc c33d f50e 09bf f50e 893e
00000010: 12f5 6abf f50e 093f db2a 613f 48bf f43e
00000020: 61a3 1c3e 39cc 433e f50e 093e 39cc c3bd
00000030: 39cc 433e 7e89 7ebe 1ee7 3e3f 61a3 1cbe
00000040: 61a3 9c3e 12f5 ea3d 0000 0000 2bd9 12bf
00000050: 61a3 9c3d a560 57be 12f5 6abd 12f5 6a3f
00000060: f50e 09bf 0000 0000 a560 57be b252 2b3f
00000070: 7c88 213f 2bd9 92be f50e 093e 61a3 9c3c
00000080: 12f5 eabd a560 573e 1ee7 3e3f 61a3 9cbc
00000090: 4cb7 813f 61a3 9cbd 8281 8bbf 976d a6be
000000a0: 12f5 6a3d 976d a6be b252 2bbf a560 573e
000000b0: 2bd9 92be db2a e13e da29 04bf 6f96 cd3e
000000c0: 7e89 fe3e 7e89 febe 61a3 9c3c 7e89 fe3e
000000d0: 7e89 7e3e 12f5 6abd 39cc 433e 39cc c3be
000000e0: 2bd9 923e 39cc c33e 61a3 9cbe db2a e1be
000000f0: 61a3 1cbd 0000 0000 f50e 893e da29 04bf
00000100: 7e89 7e3e db2a 613f 6f96 4d3f 61a3 1c3e
00000110: 10f4 0d3f 39cc c33d cd37 30be 8281 8bbf
00000120: 12f5 6a3e 4cb7 81bf 1ee7 3ebf f50e 89be
00000130: f50e 093f db2a e13e 0302 3abf f50e 893e
00000140: 54b1 48bf 39cc c3bd b252 abbf 61a3 1c3f
00000150: 61a3 9c3c 46be 173f 6f96 cdbe 61a3 9c3d
00000160: 12f5 ea3d 8a7b 523f 7e89 7e3e a560 57be
00000170: 61a3 1cbe 6f96 cd3e cd37 30bf 976d 26bf
00000180: 6f96 cdbe 39cc c3bd 12f5 6abe 39cc 433f
00000190: 61a3 1c3d 7e89 7e3e a560 d73e 39cc 43bf
000001a0: 679c 863f 39cc 433e f50e 093f 6f96 cdbe
000001b0: f50e 09bf 12f5 eabd a560 573e 12f5 ea3d
000001c0: cd37 30be cd37 303e 61a3 9c3c db2a e1be
000001d0: 8482 e8bf f50e 89be 39cc c3bd 7e89 7e3e
000001e0: 2bd9 923e 12f5 6a3d 61a3 9cbd 0302 ba3e
000001f0: da29 04bf 7e89 febe 2bd9 123f 61a3 1c3d
00000200: f50e 093e 7e89 7ebe 0302 3abf 2bd9 12bf
00000210: 0302 babf 7e89 7ebf 0000 0000 39cc 433f
00000220: 12f5 eabe 7e89 7ebe 2bd9 923e f50e 093f
00000230: cd37 303e a560 d7be 61a3 9c3e a560 573f
00000240: 39cc 433e f50e 09be 61a3 9cbe cd37 303e
00000250: 61a3 9cbe 976d a6be 61a3 9c3d 39cc c33e
00000260: cd37 b03e 61a3 9c3d cd37 30be 7e89 fe3e
00000270: 63a4 793f 12f5 6abe 2bd9 123f 12f5 6abe
00000280: 39cc c33d 61a3 9cbc f50e 893e 0302 babe
00000290: 61a3 9c3c 0302 babe 0302 3abf 2bd9 12bf
000002a0: 12f5 6abd b252 2bbf 39cc c3be 6f96 cdbe
000002b0: 61a3 1cbd 61a3 1c3e a560 d7be a560 573e
000002c0: 2bd9 923e f50e 09be 7c88 21bf f50e 093f
000002d0: b252 ab3f 12f5 6a3f 61a3 1cbf 7e89 fe3e
000002e0: 48bf f4be 61a3 9c3c 39cc 433f 61a3 9cbe
000002f0: da29 04bf f50e 093e f50e 89be 2bd9 92bf
00000300: 39cc c3be 2bd9 12bf f50e 093f f50e 89be
00000310: 39cc 433f 61a3 9cbd 39cc 43bf 10f4 8dbf
00000320: 61a3 9c3d 12f5 ea3d 39cc c3bd 39cc 43be
00000330: 61a3 9cbc 2bd9 923e 6f96 4dbf 61a3 9cbc
00000340: 6f96 4d3f 61a3 9cbc 12f5 ea3d a560 d73e
00000350: 12f5 ea3e db2a 61bf 61a3 9cbd 46be 17bf
00000360: 12f5 6abe cd37 b03e 61a3 1c3d cd37 b0be
00000370: 12f5 6abe db2a e13e 0302 babe 12f5 eabd
00000380: f50e 09be 2bd9 123f 39cc c3bd cd37 303e
00000390: 12f5 6a3d 0302 ba3e 0302 ba3e b252 2b3f
000003a0: 61a3 1cbe 0302 babe 61a3 9c3d db2a e1be
000003b0: 61a3 9cbc 976d a63e 54b1 483f 12f5 ea3e
000003c0: cd37 30bf e81c 35bf 46be 17bf 2bd9 12bf
000003d0: 976d a6be 39cc 433e 2bd9 92be 976d a63e
000003e0: 61a3 9cbe f50e 093f 12f5 ea3e 12f5 ea3e
000003f0: cd37 30be 39cc 43be 12f5 6a3d 61a3 9c3e
-0.2294505 0.09560437 -0.5353845 0.26769224 -0.917802 0.5353845 0.8795602 0.47802186
0.15296699 0.19120874 0.13384612 -0.09560437 0.19120874 -0.24857137 0.74571407 -0.15296699
0.30593398 0.11472525 0.0 -0.5736262 0.076483496 -0.2103296 -0.057362624 0.917802
-0.5353845 0.0 -0.2103296 0.6692306 0.63098884 -0.2868131 0.13384612 0.019120874
-0.11472525 0.2103296 0.74571407 -0.019120874 1.0134063 -0.076483496 -1.0898898 -0.32505485
0.057362624 -0.32505485 -0.6692306 0.2103296 -0.2868131 0.4397801 -0.5162636 0.40153834
0.49714273 -0.49714273 0.019120874 0.49714273 0.24857137 -0.057362624 0.19120874 -0.38241747
0.2868131 0.38241747 -0.30593398 -0.4397801 -0.038241748 0.0 0.26769224 -0.5162636
0.24857137 0.8795602 0.8030767 0.15296699 0.55450535 0.09560437 -0.17208786 -1.0898898
0.2294505 -1.0134063 -0.74571407 -0.26769224 0.5353845 0.4397801 -0.7265932 0.26769224
-0.7839558 -0.09560437 -1.3384612 0.61186796 0.019120874 0.5927471 -0.40153834 0.076483496
0.11472525 0.82219756 0.24857137 -0.2103296 -0.15296699 0.40153834 -0.68835145 -0.6501097
-0.40153834 -0.09560437 -0.2294505 0.76483494 0.038241748 0.24857137 0.4206592 -0.76483494
1.051648 0.19120874 0.5353845 -0.40153834 -0.5353845 -0.11472525 0.2103296 0.11472525
-0.17208786 0.17208786 0.019120874 -0.4397801 -1.816483 -0.26769224 -0.09560437 0.24857137
0.2868131 0.057362624 -0.076483496 0.3632966 -0.5162636 -0.49714273 0.5736262 0.038241748
0.13384612 -0.24857137 -0.7265932 -0.5736262 -1.4531864 -0.99428546 0.0 0.76483494
-0.458901 -0.24857137 0.2868131 0.5353845 0.17208786 -0.4206592 0.30593398 0.8413184
0.19120874 -0.13384612 -0.30593398 0.17208786 -0.30593398 -0.32505485 0.076483496 0.38241747
0.34417573 0.076483496 -0.17208786 0.49714273 0.9751646 -0.2294505 0.5736262 -0.2294505
0.09560437 -0.019120874 0.26769224 -0.3632966 0.019120874 -0.3632966 -0.7265932 -0.5736262
-0.057362624 -0.6692306 -0.38241747 -0.40153834 -0.038241748 0.15296699 -0.4206592 0.2103296
0.2868131 -0.13384612 -0.63098884 0.5353845 1.3384612 0.917802 -0.61186796 0.49714273
-0.47802186 0.019120874 0.76483494 -0.30593398 -0.5162636 0.13384612 -0.26769224 -1.1472524
-0.38241747 -0.5736262 0.5353845 -0.26769224 0.76483494 -0.076483496 -0.76483494 -1.1090107
0.076483496 0.11472525 -0.09560437 -0.19120874 -0.019120874 0.2868131 -0.8030767 -0.019120874
0.8030767 -0.019120874 0.11472525 0.4206592 0.458901 -0.8795602 -0.076483496 -0.5927471
-0.2294505 0.34417573 0.038241748 -0.34417573 -0.2294505 0.4397801 -0.3632966 -0.11472525
-0.13384612 0.5736262 -0.09560437 0.17208786 0.057362624 0.3632966 0.3632966 0.6692306
-0.15296699 -0.3632966 0.076483496 -0.4397801 -0.019120874 0.32505485 0.7839558 0.458901
-0.68835145 -0.7074723 -0.5927471 -0.5736262 -0.32505485 0.19120874 -0.2868131 0.32505485
-0.30593398 0.5353845 0.458901 0.458901 -0.17208786 -0.19120874 0.057362624 0.30593398

Zero_7 f4 [32]
00000000: 7186 5dbc 963c 1b3e 8642 823d f2ae cfba
00000010: b449 c33d 6f99 d73d 259a 00bd 5b53 2b3e
00000020: cbf6 0fbe 2fe8 a83c ac50 b63d 6fae 8abb
00000030: 99ee d1bc 4006 5c3d 88d0 3a3d 4190 873c
00000040: 5c76 863d 0437 f7bd 1ba2 06be 4228 48bc
00000050: f7ed a93c 7674 abbd 7fb3 873d b992 4f3b
00000060: d290 7abd 57ea 49be 0a86 b2be 375f ae3e
00000070: f1e4 d73d 7306 ddbd 5fcb 08be 720d fbbd
-0.013520823 0.1515983 0.063603446 -0.0015844984 0.09535542 0.10527312 -0.031397004 0.16731016
-0.14058988 0.020618526 0.08902106 -0.00423222 -0.025626468 0.053716898 0.045609027 0.016548278
0.06565544 -0.1207104 -0.13147776 -0.012216629 0.020743353 -0.083718225 0.06626033 0.0031673147
-0.061173268 -0.197183 -0.3486789 0.34057018 0.10541714 -0.10792246 -0.1335883 -0.12258424

squeezenet/fire2/expand3x3/Conv2D/ReadVariableOp:0_cp1 f4 [32, 1, 3, 1]
00000000: 88d3 cdbe 47ff 093f 88d3 cd3e 8e6b 2fbf
00000010: ac89 60bd ac89 603f 0000 0000 c37c 4b3f
00000020: e732 5e3f 3437 e53e bde4 e93e 82a8 07bf
00000030: e19a 7c3e 7678 c43e bde4 e93e bb85 943f
00000040: 1db1 153d 23dc dbbe 88d3 cd3d 1db1 953e
00000050: cf3f 733e f9fa 02be 1db1 153e edca bf3e
00000060: cf3f 73be 641d 3b3d e732 5e3f f9fa 02be
00000070: 9a2e d7be 641d 3b3f 6ab5 1c3f f9fa 02be
00000080: 3437 e53e 82a8 07bf db6f b63e 1db1 953e
00000090: ac89 60be ac89 e0bd db6f 363f ff25 49bf
000000a0: ff25 c93e 58ed 773f d5d7 543f f9fa 023e
000000b0: 23dc dbbe 0000 0000 641d 3b3e 2974 3d3f
000000c0: 641d 3b3e e107 183f 52c2 313e 1db1 15bd
000000d0: ac89 60bd 4c2a 503f f362 21bf 7678 c43e
000000e0: e19a fc3e ca14 ad3e 52c2 b13e 9a2e 573e
000000f0: 1db1 95bd ac89 e03d cf3f 733f 47ff 09bf
00000100: 88d3 cdbd 88d3 4d3f ac89 e03d f9fa 823e
00000110: 2f0c 1f3e 1db1 953e f9fa 823e 58ed f7be
00000120: 1db1 953c 4692 ee3e 4167 28be 88d3 4d3e
00000130: cf3f f33e db6f b63e 8e6b 2f3f 641d bb3e
00000140: 1db1 15be 7678 c43e 1719 343f f362 213f
00000150: b8b9 a33e f362 213f ca14 2d3f 1181 d2be
00000160: 0b56 0c3e 7678 c43e ac89 60bd 1181 d23e
00000170: cf3f 73be 8e6b 2f3f a65e 9abe cf3f f33d
-0.40200448 0.5390515 0.40200448 -0.6852349 -0.054818794 0.8771007 0.0 0.79487246
0.8679642 0.4476868 0.45682326 -0.529915 0.24668457 0.38373154 0.45682326 1.1603311
0.03654586 -0.42941388 0.10050112 0.2923669 0.2375481 -0.12791051 0.14618345 0.37459508
-0.2375481 0.045682326 0.8679642 -0.12791051 -0.42027742 0.7309172 0.61214316 -0.12791051
0.4476868 -0.529915 0.35632214 0.2923669 -0.21927518 -0.10963759 0.7126443 -0.785736
0.392868 0.9684653 0.83141834 0.12791051 -0.42941388 0.0 0.1827293 0.7400537
0.1827293 0.5938702 0.17359284 -0.03654586 -0.054818794 0.8131454 -0.6304161 0.38373154
0.49336913 0.33804923 0.34718567 0.21013871 -0.07309172 0.10963759 0.9501924 -0.5390515
-0.10050112 0.80400896 0.10963759 0.25582102 0.15531991 0.2923669 0.25582102 -0.48423266
0.01827293 0.46595973 -0.16445638 0.20100224 0.4750962 0.35632214 0.6852349 0.3654586
-0.14618345 0.38373154 0.70350784 0.6304161 0.3197763 0.6304161 0.67609847 -0.41114095
0.13704698 0.38373154 -0.054818794 0.41114095 -0.2375481 0.6852349 -0.30150336 0.11877405

Zero_8 f4 [32]
00000000: f53e b33c 6035 ce3c 6afe 5bbe 590f 243c
00000010: 8793 e5bd f0f6 32bd c956 c93c 5312 0cbe
00000020: a4e6 afbd e362 853c 615c 473e 645d 9ebd
00000030: c75a b4ba 37a7 9abd 5822 afbc e47a 353d
00000040: e598 b6bd a46a c2bd 7675 2f3d 55dc a23d
00000050: 12c4 92bd b912 1d3c 3e76 9439 dede aa3c
00000060: ab45 86bb ff82 b63d 5605 75be 1094 73be
00000070: eac8 81bd 8eaa a1bc 5990 c9bd dbf5 d3bd
0.021880606 0.025171936 -0.2148377 0.010013425 -0.11209779 -0.04369253 0.024577515 -0.13678865
-0.08588913 0.016282504 0.19468834 -0.077326566 -0.0013759964 -0.07551425 -0.021378681 0.04430665
-0.08915881 -0.09492996 0.04283663 0.07952181 -0.07166304 0.009586983 0.00028316857 0.020858224
-0.0040976605 0.08911704 -0.23927817 -0.2378695 -0.063371494 -0.019734647 -0.09841985 -0.103496276

squeezenet/fire2/expand3x3/Conv2D/ReadVariableOp:0_cp2 f4 [32, 1, 1, 3]
00000000: e4bc 0d3c 4ad2 56bf 4f50 28be 36be 2c3f
00000010: e4bc 0d3d ad1a 45bf bae3 c23e e4bc 8dbf
00000020: 4287 2a3f 8f0a 783d bae3 c23d 8f0a 783d
00000030: 68e2 233f e4bc 8dbc eb07 ba3e 8f0a 783e
00000040: eb07 ba3e b298 963e 74ab 21bf 1d2c b13d
00000050: 88bf 4b3f f8d0 373f 0000 0000 bae3 42be
00000060: 2477 5d3e 569b d43e 16e1 043f 2f73 803e
00000070: 4f50 283f 8074 1f3e 4ad2 563f a6cf 183f
00000080: 2f73 803e f252 663e 88bf 4b3e cb2a 923e
00000090: c12e 6f3e 1d2c b13d cb2a 923e 4f50 283e
000000a0: 9906 1b3f 4f50 a83e cb2a 123f 6f2d d03e
000000b0: 6264 523f 1d2c 31be e4bc 8d3d d275 3e3f
000000c0: 0be5 e13e 16e1 843e 049a b5be 8f0a f83d
000000d0: 2f73 803e 569b 543e 1d2c b13d 8074 9f3d
000000e0: eb07 3a3e 569b d4bc 74ab 213f 569b d43d
000000f0: b298 163f 8f0a f83e 36be acbe f252 e63d
00000100: e4bc 8d3e 8f0a 783e 1163 33bf b298 963e
00000110: f252 663f 2477 5d3e 569b 543e eb07 3a3e
00000120: 569b 543e cb2a 923e cb2a 923e eb07 3abe
00000130: d8f3 0f3f 569b 54be 569b 543d b465 713f
00000140: 1d2c b13e eb07 3a3f 0be5 61bf 049a b53e
00000150: 4287 2a3f 36be 2cbf 569b d43e cb2a 123f
00000160: b298 963e fd4e 093f e4bc 8d3d 68e2 233f
00000170: 4f50 283e 569b 543e 2f73 803e 1d2c b13e
0.008650992 -0.83914626 -0.16436885 0.6747774 0.03460397 -0.7699383 0.38064367 -1.107327
0.6661264 0.060556944 0.09516092 0.060556944 0.64017344 -0.017301984 0.36334166 0.24222778
0.36334166 0.29413372 -0.6315224 0.08650992 0.7958913 0.71803236 0.0 -0.19032183
0.2162748 0.41524762 0.51905954 0.25087878 0.6574754 0.15571785 0.83914626 0.59691846
0.25087878 0.22492579 0.19897282 0.28548273 0.23357679 0.08650992 0.28548273 0.16436885
0.6055694 0.3287377 0.57096547 0.40659663 0.8218442 -0.17301984 0.06920794 0.7439853
0.44120058 0.25952977 -0.35469067 0.12111389 0.25087878 0.20762381 0.08650992 0.077858925
0.18167083 -0.025952976 0.6315224 0.103811905 0.58826745 0.48445556 -0.3373887 0.11246289
0.27683175 0.24222778 -0.7007304 0.29413372 0.89970315 0.2162748 0.20762381 0.18167083
0.20762381 0.28548273 0.28548273 -0.18167083 0.5623145 -0.20762381 0.051905952 0.9429581
0.34603968 0.7266833 -0.88240117 0.35469067 0.6661264 -0.6747774 0.41524762 0.57096547
0.29413372 0.5363615 0.06920794 0.64017344 0.16436885 0.20762381 0.25087878 0.34603968
