dnn-models/squeezenet_cifar10-tucker2.onnx (onnx, 223280 bytes, 26 tensors)

squeezenet/fire4/squeeze1x1/Conv2D/ReadVariableOp:0 f4 [32, 128, 1, 1]
000000 61 aa 4c 3f 17 ad 6d 3d 0f 0c 20 bf 52 c4 c6 bc
       0.7994748 0.0580264 -0.625184 -0.024263535
000010 7b 3c 43 be fd d2 55 be 25 3d 07 3d a8 72 b4 be
       -0.1906604 -0.20881267 0.033017296 -0.35243726
000020 16 2d 13 bf 35 5b 0c 3e 5a e8 e1 bd 30 17 e0 3e
       -0.5749067 0.13706668 -0.11030646 0.4376769
000030 00 c1 20 bf 98 2e 6a 3d 52 c6 29 3f 19 86 cd 3b
       -0.62794495 0.05717334 0.6631824 0.006272089
000040 f4 84 d7 bd ee 3b 2a be 3a 84 cf be 8b 40 2e 3d
       -0.10523406 -0.16624424 -0.40530568 0.04254202
000050 13 89 17 3f 3e e8 62 3f b7 c9 05 bf 0f ed 8c 3e
       0.59193534 0.88635623 -0.5226092 0.2752461
000060 74 1f e7 be c6 fe d3 3e 07 e9 ea bd c5 05 04 3e
       -0.45141184 0.41405314 -0.11470228 0.12892826
000070 ca df ea be c5 96 ce bd c7 5f 02 3f c5 46 1e 3e
       -0.45873863 -0.10087351 0.50927395 0.15456684
000080 86 f6 fa be 01 d9 93 3d 49 cc 02 bf d7 bb 26 bf
       -0.49016207 0.072191246 -0.51092964 -0.6513037
000090 89 57 18 3f 06 af da 3e 84 de a3 bf 6b 48 f9 be
       0.5950857 0.42711657 -1.2802281 -0.48688063
0000a0 fb c9 49 3e 4f ad 7e 3e f9 f0 2f be 17 fd e2 3e
       0.19705956 0.248708 -0.17181768 0.44333717
0000b0 9c cf 5a 3d 78 2c 10 bc 07 44 13 3f 2a 3b b7 3e
       0.053420648 -0.008799665 0.57525676 0.35787326
0000c0 be e1 54 3c 32 b2 80 3e 2d f4 a3 3d 00 9f 40 3f
       0.012993274 0.25135952 0.08005557 0.75242615
0000d0 d1 e5 03 3e 11 8f 9c be c4 aa 43 be db 6f 61 3f
       0.12880637 -0.305779 -0.1910811 0.880613
0000e0 71 b0 4c 3f 88 fe 4d bd c3 46 da 3e 13 2b f2 bc
       0.7995673 -0.050291568 0.42632112 -0.029561555
0000f0 b2 60 0f 3e 8e f6 80 3d ac 1f 04 bf 2f 23 ff 3e
       0.1400173 0.062970266 -0.5161083 0.4983153
000100 0c dd 41 bd f6 62 03 3e f9 3c 5f be e2 fd 74 3e
       -0.047329947 0.1283072 -0.21800603 0.23924974
000110 65 3f 55 3c 3f 06 c8 be 23 f6 25 bf 5d 5e 49 be
       0.013015603 -0.39067265 -0.648287 -0.19664903
000120 db 45 c2 bd 79 7b 81 bc 27 e1 96 3d 42 60 b9 3e
       -0.0948598 -0.015805947 0.07367163 0.3620625
000130 e8 db 66 bc e3 16 18 be f5 f2 58 3e b4 a2 91 be
       -0.014090516 -0.1485248 0.21186431 -0.28444445
000140 5e 8c 7b be c7 26 13 bd 5c c5 7f bf 83 2c a9 be
       -0.24565265 -0.035925653 -0.9991052 -0.33041772
000150 2f 4a 26 3e d2 40 94 3e 22 6a 5c be 12 be ad be
       0.16239236 0.28955704 -0.21524861 -0.33934075
000160 87 72 e4 3e 74 ca 84 3d 34 b6 e6 bc e7 e0 22 3f
       0.44618627 0.06483927 -0.028163053 0.63624424
000170 95 8d 5f be 34 38 5b be 43 db d3 be b9 d1 ee 3c
       -0.21831353 -0.21408159 -0.4137822 0.029152738
000180 6c e4 03 3f 59 56 d8 3d af 42 a8 3d c2 3c 94 be
       0.5152042 0.105633445 0.08215844 -0.28952605
000190 10 d5 cb 3d 32 0a d2 3d 76 6c 93 3d 94 38 e6 be
       0.09952748 0.10255851 0.07198422 -0.4496504
0001a0 46 41 b9 be 8b 04 43 3e f4 1b 04 3e d8 25 1e be
       -0.36182612 0.19044702 0.12901288 -0.15444124
0001b0 5d c2 97 3d a3 4a ce be 1c e1 6a 3e b9 cf 44 3e
       0.07410119 -0.40291318 0.22937435 0.19219865
0001c0 66 0f 98 be d9 10 43 be 50 95 95 be 54 8f 5a be
       -0.29699248 -0.19049396 -0.2921548 -0.21343738
0001d0 9e fe 2a be f0 54 96 be b1 14 33 bf 67 fa e8 bc
       -0.16698691 -0.29361677 -0.6995345 -0.028439714
0001e0 b3 7b 22 be 2a c6 85 3e 5e 41 1b bf d2 69 94 3d
       -0.158675 0.2612775 -0.6064662 0.07246746
0001f0 48 ee f1 3e 0e c1 2c 3e f7 d8 0e be 28 ef 27 be
       0.47252107 0.1687052 -0.13949953 -0.16399825
000200 3a 96 17 bf 69 d4 8a 3c f5 ea c9 be 1d 6a 9d 3c
       -0.592136 0.016946988 -0.3943707 0.019215638
000210 df bd 21 be 8c c2 c0 3d 65 ac 11 3d eb eb 7b 3e
       -0.15795086 0.09412107 0.0355648 0.24601714
000220 dd 5e 9e 3e 82 0a 7c 3e 04 e3 2a 3e 43 1c 09 3e
       0.3093175 0.24613383 0.16688162 0.13389687
000230 bd 94 5f bf 08 4f 71 3d 70 bc f9 3d d0 ca 82 bf
       -0.8733633 0.05891326 0.12194145 -1.0218143
000240 e6 63 68 be 88 67 52 bf 3d da 47 be 19 6d ce 3d
       -0.22694358 -0.82189226 -0.19516845 0.100794025
000250 41 66 02 bf 8f 8d c3 be 4e a6 9e be 51 28 05 bf
       -0.5093728 -0.38193938 -0.30986255 -0.5201464
000260 92 27 2a bc 81 b3 65 bc 22 e7 48 3d 58 13 54 be
       -0.010385411 -0.014019848 0.04904855 -0.20710504
000270 5c f6 f1 3c 7f 58 14 be e4 9b 63 be 89 68 43 be
       0.029536419 -0.14486884 -0.22227436 -0.19082846
000280 f9 d0 2c 3d b3 0f db be 81 13 4c bf 6b 93 01 be
       0.04219148 -0.42785415 -0.7971726 -0.12653892
000290 34 ae 9d be 6f d3 8f bd de 39 37 bf 57 d2 28 bd
       -0.3079697 -0.0702275 -0.71572673 -0.04121622
0002a0 4d 89 13 be ad 0a 70 bb 51 35 05 3e 80 f7 4c 3d
       -0.14407845 -0.0036627457 0.1300862 0.050040722
0002b0 e4 3c 1b bf c8 96 a4 3c 7e d2 07 3d b0 09 bd be
       -0.60639787 0.02009143 0.033159725 -0.36921453
0002c0 00 c7 ea be 85 0d 4d 3e b3 1f 8e 3d a1 7f 17 bf
       -0.4585495 0.20024689 0.0693964 -0.5917912
0002d0 30 63 a7 be 32 85 75 be e1 41 4e bd 0c fc 6e 3e
       -0.32692862 -0.23976591 -0.050355796 0.23338336
0002e0 be ac 1b be c2 9a f1 be 6a 1e 60 3e 49 d9 1b bd
       -0.15202615 -0.47188383 0.21886602 -0.038049016
0002f0 81 e3 1d be d3 84 34 3e d4 3f 23 bf d2 84 13 3e
       -0.15418817 0.17628793 -0.6376927 0.14406136
000300 d7 2a 12 bf e3 ff a2 3e a3 3a e8 3e 3c 9b 01 bf
       -0.5709662 0.3183585 0.45357236 -0.50627494
000310 a3 8f e1 3c 9e db b9 3d 89 f5 36 bd ae cf 8c bf
       0.027534312 0.09075092 -0.044667754 -1.1000879
000320 54 70 20 3f f1 26 50 be a8 f6 80 3e 73 21 aa 3e
       0.626714 -0.20327355 0.25188184 0.33228645
000330 0d 9c 74 bd 07 0e 76 3e a8 9d 14 be 94 70 a8 3c
       -0.059719134 0.24028789 -0.14513266 0.020561494
000340 11 ad b1 be e8 f9 5f be 77 dc 21 be b9 a7 67 3d
       -0.34702352 -0.21872675 -0.15806757 0.056556437
000350 45 61 c6 3d d5 a6 e8 be ed 07 c1 3e 4c 22 40 bd
       0.096865214 -0.45439783 0.3770136 -0.046907708
000360 03 a5 87 be d8 85 1b bd 18 b7 46 3e c7 d2 9c be
       -0.2649308 -0.03796944 0.19405782 -0.3062956
000370 46 74 0f be 1b f8 75 3e 9e cd 23 bf 1d 46 a6 3e
       -0.14009199 0.24020426 -0.6398562 0.32475367
000380 df c4 17 bf 5c 0f d9 3e 20 d4 23 3e c0 f9 05 3f
       -0.59284776 0.4239453 0.15998888 0.52334213
000390 90 75 23 bf 37 f0 0f bf 80 6b f8 bd 92 6b fc be
       -0.6385126 -0.56225914 -0.12129879 -0.4930082
0003a0 f5 14 b8 be 6d 3f 18 bf bd ab df 3d 26 28 66 be
       -0.3595349 -0.5947178 0.10921428 -0.22476253
0003b0 81 b7 b7 3e 54 a0 af be 1c e2 4a 3d 58 4c b8 3d
       0.3588219 -0.34302008 0.04953204 0.089989364
0003c0 01 af c7 3e 88 8b a5 3e 0c f5 69 3e fb 8d ea 3d
       0.39000705 0.32333016 0.22847384 0.11452862
0003d0 85 07 02 be ad cb 3b bd a6 b9 a6 3d 71 c1 ec 3e
       -0.12698181 -0.045848537 0.081408784 0.46241334
0003e0 ec cc 95 3e 4c c8 fe bc de 86 0a 3d bb 45 8f be
       0.29257905 -0.031101368 0.033820026 -0.27982888
0003f0 25 ea 9f 3c 23 6a 70 bb 35 06 e9 3c 74 47 96 be
       0.019520829 -0.0036684356 0.028445343 -0.2935139

squeezenet/fire4/squeeze1x1/BiasAdd/ReadVariableOp:0 f4 [32]
000000 24 fc 50 3e de 05 22 3e de c5 4a be fc 67 64 3d
       0.20408684 0.1582255 -0.19802043 0.05576323
000010 e2 92 53 be 03 ae fe bc ea e1 46 3e 74 c3 c8 3e
       -0.206615 -0.031088835 0.19422117 0.3921162
000020 0a 4e e8 3e 0b 94 e7 bd 0f 19 3d 3f 85 cd 25 3f
       0.4537204 -0.11307534 0.7386636 0.6476672
000030 c4 fa 01 bf 7a 44 76 be a8 91 f3 3e f5 eb 5c 3e
       -0.5077326 -0.24049559 0.47572064 0.21574385
000040 dc e0 0d 3e 07 57 ea 3e ed 18 46 3d 9c f1 fb bc
       0.13855308 0.45769522 0.048363615 -0.030754857
000050 b8 db 83 be ae 91 16 3f 50 63 2b 3d 8b f5 dd bd
       -0.2575357 0.5881604 0.04184276 -0.10837849
000060 30 aa 2b bc 71 22 b2 bd 73 fe e1 bb 04 ba f4 3e
       -0.010477588 -0.086979754 -0.006896788 0.4779817
000070 18 ff 9c bf 0e c3 cf 3e e8 08 5f 3d d4 ce 14 3e
       -1.2265348 0.40578502 0.054451853 0.14532024

squeezenet/fire4/expand1x1/Conv2D/ReadVariableOp:0 f4 [128, 32, 1, 1]
000000 b5 c7 1f be 1a ec 9e be 7e e6 07 bf 9e cb 6b bf
       -0.15603526 -0.31039506 -0.5308608 -0.9210757
000010 be e7 c0 bd 73 85 73 3e 53 77 9e 3b e9 25 a9 be
       -0.09419201 0.23781376 0.004836002 -0.33036736
000020 e0 02 5d bf 31 a7 80 3e c2 0d 57 be b2 65 fb be
       -0.8633251 0.25127557 -0.21001342 -0.49101025
000030 16 38 91 3d ed 19 2d bf 68 f9 ca bd da 37 1f bf
       0.07090776 -0.67617685 -0.09910852 -0.621946
000040 c8 ac d7 3c bb 36 5c bf f2 29 38 3e 23 69 de bc
       0.026327506 -0.8602101 0.17984751 -0.027149742
000050 41 39 d0 be 22 9e 5b bf 8b 4d de be c8 b4 36 bf
       -0.4066868 -0.85788167 -0.43418536 -0.713696
000060 78 12 b8 be eb 0e 39 3e 7b 90 b7 bd ef 45 d8 3e
       -0.3595159 0.18072097 -0.08963104 0.42240855
000070 35 bf 89 3e df 5b 49 3e 6b 87 3b bf 13 a4 da 3e
       0.26903692 0.19663952 -0.73253506 0.42703304
000080 ac 38 6f be 18 2e a2 be 6e 83 c1 bd 00 71 d3 be
       -0.23361462 -0.31675792 -0.09448896 -0.4129715
000090 a9 28 41 be c8 24 ad 3d 62 87 49 be ac 9a 98 be
       -0.18863167 0.08454281 -0.1968055 -0.29805505
0000a0 24 98 5d be fb 63 7d bc 30 d8 b8 be fa 79 da be
       -0.21640068 -0.015465732 -0.36102438 -0.42671186
0000b0 ee 1c a2 3e b0 13 d0 3e 61 1c 0b be 22 7c 70 be
       0.31662697 0.4064002 -0.13585044 -0.23484853
0000c0 45 a0 28 bf 6b d3 6f be ee 8c dc be 0f 12 87 bc
       -0.6586955 -0.23420493 -0.4307627 -0.016488103
0000d0 61 08 df be a4 34 b4 be 2d d7 cc 3e 77 ef 34 3e
       -0.4356108 -0.35196412 0.40007916 0.17669474
0000e0 fe b1 cf be 11 2e ce bd f7 c4 8f 3c 4b 31 24 bf
       -0.40565485 -0.1006738 0.017549975 -0.64137715
0000f0 7a 0a 16 be 67 36 24 bf 7f 5a c1 be af 37 4d bf
       -0.14652434 -0.6414551 -0.37764356 -0.8016309
000100 00 fc 29 be fc 98 ab be e0 b5 8e 3e 3d c8 85 bf
       -0.16600037 -0.33515155 0.27873135 -1.0451733
000110 76 67 48 bf d9 94 45 3e fc 69 0e 3e 8e d2 8c 3e
       -0.7828287 0.19295062 0.13907617 0.2750439
000120 88 2d 9a be 9e 37 60 be 42 22 a9 bd 5c 2f c9 be
       -0.30112863 -0.21896216 -0.08258487 -0.39293945
000130 da 7b ec bd 00 e1 47 3e 32 e0 0d be f2 8c fa be
       -0.1154706 0.19519424 -0.13855055 -0.48935658
000140 4d 56 00 3e b2 58 54 bd 4c 64 3f 3d 88 e7 06 3e
       0.12532921 -0.0518424 0.04672651 0.1317426
000150 f5 aa 53 be 79 67 fe 3d 7d d5 22 bf 80 d1 e5 bd
       -0.20670684 0.124220796 -0.6360701 -0.112215996
000160 e7 20 f3 be 49 3b 28 3e d3 c8 ef 3d aa d9 8d 3d
       -0.4748604 0.16428865 0.11708226 0.06926282
000170 bc d1 1a 3e 60 e0 cd be f0 0c 82 3e 7b eb 79 3e
       0.1511907 -0.40210247 0.25400496 0.24406235
000180 ef 97 ec be 21 e4 fd be 04 2b ac 3e b0 da 87 bc
       -0.46209666 -0.4958811 0.33626568 -0.01658377
000190 a6 17 09 be d5 21 97 be e7 cb 17 3e a7 e2 8a 3e
       -0.13387927 -0.29518 0.14823876 0.27126047
0001a0 f7 81 5f 3e f7 ce f4 be f9 04 f2 bd df 37 b2 3c
       0.21826921 -0.47814152 -0.11817355 0.021755157
0001b0 9a 56 d7 3c b3 56 e9 3e de 11 85 bd 8b e8 ed be
       0.026286412 0.4557396 -0.064975485 -0.4646648
0001c0 0a 5b 33 3e 88 c0 f8 3e c1 c0 8d be 14 04 32 3e
       0.17515197 0.4858439 -0.27686122 0.17384368
0001d0 00 7b 1c bf e7 e4 92 be 0e a0 02 bd c8 39 0c bf
       -0.61125183 -0.28690264 -0.03189092 -0.5477567
0001e0 49 74 00 3e af 37 e9 be f9 50 88 be d6 c8 39 bf
       0.1254436 -0.45550296 -0.26624277 -0.72572076
0001f0 47 1e 5f bd d2 d4 8d bd 2e 5e a7 bd 1e 6f 57 bf
       -0.054472234 -0.06925358 -0.0817226 -0.84153926
000200 96 9d f7 be 7b 2d 89 bf 99 7f 92 3c de 35 7a 3d
       -0.48362416 -1.0717005 0.017883109 0.061086528
000210 4e 51 5d 3d 93 bd 91 3d b3 2c 70 bf 8b 77 d7 bd
       0.054032616 0.071162365 -0.93818206 -0.10520848
000220 9f 3f 30 3f 24 8d 78 be 4b 9f 9f 3e cc 80 9a be
       0.6884708 -0.24272591 0.31176218 -0.3017639
000230 a9 81 f3 bd d0 98 1e be fa 49 9c 3d e3 f9 07 3e
       -0.11889965 -0.15487981 0.076312974 0.13278918
000240 1e ca d7 be d7 cc b8 3d 74 56 f6 be f9 67 00 3e
       -0.4214639 0.09023445 -0.48112833 0.12539662
000250 9c 18 65 3e 18 65 17 3e db 92 80 bd 3b e4 0f bf
       0.22372669 0.14784658 -0.062780105 -0.5620763
000260 64 6e 07 3d 6c 6d 29 bf 49 e7 d7 bd 18 2c 46 be
       0.03306426 -0.6618259 -0.10542161 -0.19352758
000270 33 c4 c3 bd f5 46 b6 bd f5 18 a5 3c 24 4a 95 3b
       -0.095589064 -0.08900253 0.020153502 0.0045559574
000280 a6 40 a5 3e 1a 20 87 be ab ef 45 be 7f 7b 0f be
       0.32275885 -0.2639168 -0.19329707 -0.14011954
000290 58 72 40 bd d0 4d 5d bf 0d 0f 99 3d df a5 c7 be
       -0.046984047 -0.8644686 0.07473574 -0.38993737
0002a0 ea 17 06 3e 20 e6 c8 be f4 95 d3 be d5 80 7e be
       0.1309506 -0.3923807 -0.41325343 -0.24853833
0002b0 12 59 51 3e d3 86 9a 3e 49 81 05 bd ad 30 a0 3e
       0.20444134 0.30180988 -0.032594 0.31287137
0002c0 3d 6e 82 bb b5 e9 82 be 2e ac 12 3e 59 6b 55 be
       -0.0039804266 -0.2556893 0.14323494 -0.20841731
0002d0 ba 98 4a be de 3e f3 bd cb c2 ed be 05 eb f5 bd
       -0.19784823 -0.11877225 -0.46437678 -0.12007717
0002e0 c8 f1 9d 3d ea 47 ac 3e 29 fa 15 bf a8 12 2c 3e
       0.07712132 0.33648616 -0.5858484 0.16803992
0002f0 30 3f 1b be 0d 78 39 3d 2f fa 0c be e0 09 aa 3e
       -0.15160823 0.045280505 -0.13767312 0.3321066
000300 ab 15 64 be 69 d7 8e be 0a 0f 06 3e c8 dd 4e 3d
       -0.2227389 -0.2789872 0.13091674 0.050504476
000310 2f 75 a3 be 0a ad f9 be 3c 40 b2 3e ae f1 a2 3d
       -0.3192534 -0.4876483 0.34814632 0.07956253
000320 62 59 d2 3e 07 2a fa be 90 cf 2c 3e 50 97 34 3e
       0.4108382 -0.4886019 0.16876054 0.17635846
000330 1e 80 11 bf d7 14 3f 3e f3 8a aa 3e ab 67 95 be
       -0.56836116 0.18660294 0.33309135 -0.29180655
000340 6e 60 f9 3d c4 ca 1c be bc 16 74 be 4a 46 bc be
       0.12176596 -0.15311724 -0.23836797 -0.36772376
000350 08 8f aa 3b cb d0 c7 3d d3 f2 a2 be f4 5f e2 3d
       0.005205039 0.09756621 -0.31825885 0.11053458
000360 c3 a1 0e be 68 b4 e8 ba ae e4 4f 3e 63 57 91 be
       -0.13928895 -0.001775396 0.20302078 -0.28386983
000370 f0 a1 bf 3e 84 7a 95 3d 92 fa 19 3e 40 1b 15 bb
       0.37428236 0.072987586 0.15036991 -0.0022751838
000380 29 ff 8e bd 8a 6e ee be be 3f 09 3e 7c 82 1d 3e
       -0.06982262 -0.4656871 0.13403222 0.15381807
000390 65 55 4b bf c1 d1 1e be 7d 64 3b bf 0c 4f bc be
       -0.79427177 -0.15509702 -0.7320021 -0.36779058
0003a0 65 3d d6 3c 21 76 24 be bb 0a 12 3e 38 3a 8b be
       0.026152322 -0.16060688 0.14261906 -0.27192855
0003b0 7f 40 9c be 92 c4 5d bf 3e 4c da bd a2 c6 71 be
       -0.30517957 -0.8662807 -0.10659073 -0.23610929
0003c0 20 e5 fc 3d ee 98 c2 be 10 c9 d4 bd 2a 8a 80 bf
       0.123483896 -0.380073 -0.10389912 -1.0042164
0003d0 f3 dd c8 be 84 04 ad be c9 f6 1a 3c f7 e1 8a 3e
       -0.39231834 -0.33792508 0.009458252 0.27125522
0003e0 97 2c 21 3f 0a 66 09 be 98 89 85 bd 54 ce 98 be
       0.62958664 -0.13417831 -0.065203846 -0.29844916
0003f0 d6 0e a3 be 2f c1 6a 3d 74 81 d8 be ef f0 c1 3e
       -0.31847256 0.05731314 -0.42286265 0.3787913

squeezenet/fire4/expand1x1/BiasAdd/ReadVariableOp:0 f4 [128]
000000 10 c2 c7 be c9 7d ca be 6c d6 94 bc b9 7f cd bc
       -0.39015245 -0.3954909 -0.01816865 -0.025085317
000010 4a 34 ec 3e 4b e1 d2 bd e6 b2 c2 3e 3a 70 99 be
       0.46133643 -0.102968775 0.38027114 -0.29968435
000020 4d 84 8e 3e 76 a9 5b be 7d 92 83 bd 64 0f 81 3e
       0.27835312 -0.21451363 -0.06424425 0.25207055
000030 6d 07 19 bf 97 c3 ca be a9 54 7f bd 54 3f 19 3e
       -0.59776956 -0.39602348 -0.062336598 0.14965564
000040 31 a8 26 be 5a ca 00 3e b0 63 85 3e b6 6e c9 3d
       -0.16275097 0.12577191 0.26052618 0.098355696
000050 7f 0b 23 3e 8b 53 09 bf 44 83 d9 be b7 75 47 bf
       0.15922354 -0.536431 -0.4248296 -0.77913994
000060 ec 38 fb be a4 2b 76 3e 14 fc 01 3d e1 53 de 3d
       -0.49066865 0.24040085 0.03173454 0.108558424
000070 0b 64 52 3d af 18 6a 3e 47 93 50 3d 6d e2 f8 bd
       0.05136494 0.22860979 0.050921705 -0.12152562
000080 bc eb 2d 3e 9d 42 92 bd 0e 2d 82 be 2c 26 83 3e
       0.16984457 -0.07141612 -0.25425 0.2561506
000090 80 37 be 3d 9e bb 5c be fb f5 68 be 85 4d e2 be
       0.092879295 -0.21555945 -0.22750084 -0.44199768
0000a0 fc 44 89 be d5 ea 71 be 0a 73 0e 3e 34 de 51 be
       -0.26810443 -0.23624738 0.13911071 -0.2049492
0000b0 8c 72 85 be 99 7b 94 3e 4a 71 5f be dc 29 cc 3e
       -0.26063955 0.29000548 -0.2182056 0.39875686
0000c0 86 2c 73 be e8 40 0d bf e1 5e b0 bd 73 39 36 3e
       -0.23747453 -0.55177164 -0.08611847 0.17795353
0000d0 e9 00 8f be b0 98 18 bf d0 61 8e 3e 70 d8 82 bd
       -0.27930382 -0.5960798 0.27809 -0.063889384
0000e0 75 97 c4 be 63 b4 52 3e 47 31 05 3e 0b ce d7 be
       -0.38396803 0.20576625 0.13007079 -0.42149386
0000f0 35 b2 9a bd 6a 8b c4 3d 18 ad 67 bb a6 7d 87 3e
       -0.075535215 0.095969036 -0.0035350975 0.2646305
000100 fd 08 bd bd 8e d8 a6 be cb 8b c5 be e6 16 99 3d
       -0.0923023 -0.32587093 -0.38583216 0.07475071
000110 56 30 8e 3d 57 8e e2 bd 29 73 ea 3d c7 6d 04 3e
       0.06942813 -0.110623054 0.11447746 0.12932502
000120 2f b3 5f 3d c0 bc 0b 3e 38 28 bf bd 1b ad 0f be
       0.054614242 0.13646221 -0.09333843 -0.14030878
000130 40 06 16 bf fd f9 8a bd 0e af 81 be a0 46 d6 bd
       -0.58603287 -0.06785963 -0.2532887 -0.104626894
000140 e8 c1 6d 3e 3b 53 5c be 9e 49 ab 3e af f7 f2 3c
       0.232185 -0.21516125 0.33454603 0.02965912
000150 4f 91 29 3d 1a cb 0f be f9 ba c0 be e7 e5 8d bd
       0.041398343 -0.14042321 -0.3764265 -0.06928616
000160 33 1e 55 bd 59 47 3b be a4 95 f4 bd 62 36 d2 be
       -0.052030753 -0.18288936 -0.11942604 -0.41057116
000170 98 40 5b be 77 6d 88 3d a2 ed 8f 3e 9c 0b 5b 3e
       -0.2141136 0.06661504 0.28110987 0.21391147
000180 cc f8 d9 3d aa 8c b5 be 43 a6 b8 be af d3 80 be
       0.10643157 -0.3545888 -0.36064348 -0.25161502
000190 94 cf 83 bd 6d 1e b2 bd d9 c4 21 be 69 b4 4c be
       -0.06436077 -0.086972095 -0.15797748 -0.19990696
0001a0 32 9b c1 bd a2 ab db bb 1c 80 8c be 48 56 ee 3c
       -0.09453429 -0.00670381 -0.2744149 0.029093876
0001b0 ef b8 c4 be 77 11 50 be ac 54 b0 be 2e b5 8e bd
       -0.38422343 -0.20319162 -0.344396 -0.06968151
0001c0 86 47 0d 3f 13 42 e4 3c 09 4d 89 be 3b 63 86 3e
       0.5518726 0.027863538 -0.26816586 0.26247582
0001d0 34 39 1e be d7 76 e8 3e 19 e1 cb be 2c 5e a3 3e
       -0.15451509 0.45403168 -0.39820173 0.31907785
0001e0 7c fb 0e 3e b2 3c 7a be 29 27 13 bd cf af e4 be
       0.13963121 -0.24437216 -0.035926018 -0.4466538
0001f0 78 dc e0 3e ed 1a d0 be de 54 cb be b6 31 8c 3d
       0.43918204 -0.40645543 -0.39713186 0.06845419

squeezenet/fire3/squeeze1x1/Conv2D/ReadVariableOp:0 f4 [16, 128, 1, 1]
000000 b5 38 24 be ea 6b c2 3e 60 e6 e1 be 28 89 b9 be
       -0.16037257 0.37972957 -0.44121075 -0.36237454
000010 5d 94 bf be e3 14 7a 3d 23 a9 e5 3d 78 89 32 3e
       -0.3741788 0.061055075 0.11213901 0.17435253
000020 2a 46 54 be 0b c0 05 be 4b ad b9 3d 65 97 1f bf
       -0.2072989 -0.1306154 0.09066256 -0.62340385
000030 eb 3d 7d 3d 3c 30 0e bf 5c fc 13 3d 65 94 bf 3e
       0.061826628 -0.5554235 0.03612934 0.37417904
000040 f9 5d c3 3c 5f fd a6 3d e6 9b 03 bf 66 50 f5 3c
       0.02384852 0.081537955 -0.5140976 0.029945564
000050 b7 fa 8b be 74 9a ea 3d c2 67 23 3e 4a 1b bb bd
       -0.27339718 0.11455241 0.15957549 -0.09136064
000060 ff 3b e6 3d fb 26 dd 3e c3 4c 97 3c b3 02 3d be
       0.11241912 0.43193802 0.01846922 -0.18458061
000070 4e 01 d4 3d 8c f9 d8 3d b4 60 f1 be b7 3d 48 be
       0.10351811 0.10594472 -0.4714409 -0.19554792
000080 3b fd 82 bd 6f 69 a5 bd 07 25 90 3e ca da 5d be
       -0.06395956 -0.080767505 0.2815325 -0.21665493
000090 6e b1 97 bb c7 8c d7 3d 48 86 14 be 9c c7 13 3e
       -0.0046293056 0.10524898 -0.14504349 0.14431614
0000a0 24 dd 1a 3e 24 6a d6 3b ab 3f 8e 3e 09 b7 71 3d
       0.15123421 0.0065434147 0.2778295 0.059012447
0000b0 56 3f 1a bb 62 4c 04 3e 93 f1 c5 3d 40 0e fd bd
       -0.0023536286 0.12919763 0.09665217 -0.123562336
0000c0 ae 84 8f 3e 9a 81 a1 3d ae d1 01 bf 0e 70 45 3e
       0.28030914 0.07886048 -0.5071057 0.19281027
0000d0 35 63 be 3e 90 bb 44 be 5f 07 37 be 77 6a 95 bd
       0.37185064 -0.19212174 -0.17873906 -0.07295697
0000e0 f5 bf 9c 3c 1e ba 3c bd 9d fd ee bc e0 2f 20 3e
       0.019134501 -0.046075933 -0.029173667 0.15643263
0000f0 fc 0c 08 3e 75 53 47 bf d1 9e 8b 3d 1e 33 43 bf
       0.13286203 -0.7786172 0.06817401 -0.76249874
000100 23 bd 15 ba 29 eb 1a be a1 dd dc bd 28 90 d4 bb
       -0.00057120825 -0.15128769 -0.1078446 -0.0064869113
000110 83 96 ac 3e 69 dc 05 3f f5 85 82 bd 8e 8c 21 be
       0.3370858 0.52289444 -0.063732065 -0.15776274
000120 87 d2 ee 3d 85 1d 84 3e d8 b8 df 3d f2 71 a1 bd
       0.11661249 0.25803772 0.10923928 -0.078830615
000130 f5 0e 8e 3e 99 3f e1 bb 15 30 33 3d 26 df 14 3e
       0.27745786 -0.0068740365 0.043747026 0.1453825
000140 a6 18 87 bc 86 a5 b7 bd 07 d1 93 3c c5 65 69 bd
       -0.016491245 -0.08967118 0.018044008 -0.05698182
000150 b9 00 dc be 69 af 46 be e0 15 2e 3d d7 b2 4d 3f
       -0.429693 -0.19402851 0.04250133 0.8035101
000160 48 e4 2a 3e 53 a9 75 be f5 24 ab 3e f6 7f 52 3d
       0.16688645 -0.23990373 0.33426633 0.051391564
000170 b1 30 27 3e 20 a7 2e 3d 25 da 5e 3d 17 1d 07 bf
       0.16327168 0.04263985 0.054407258 -0.5277876
000180 5c 65 c5 bd c2 b7 9a 3e 69 6a 7e 3e 5b 7d 9d bd
       -0.096384734 0.3021832 0.2484528 -0.07689925
000190 5b ce ba be f7 55 9d 3d 37 80 e3 bc 0c 23 ba be
       -0.36485562 0.07682412 -0.027771099 -0.36354864
0001a0 ae 9d 1f bd d4 c3 fd be be 3c a7 bd 42 ff 08 3f
       -0.038968734 -0.49563468 -0.081658825 0.5351449
0001b0 df 74 8b bd 49 95 e9 3d 72 57 a3 3e b8 ab 9d 3d
       -0.06809401 0.11405427 0.31902653 0.076987684
0001c0 66 28 23 3f 71 05 9d bb 72 5b bd 3e 5c 6b 32 bf
       0.6373352 -0.0047919084 0.3698383 -0.6969507
0001d0 eb 82 e3 3c 8f 85 cf 3e 26 84 9a bd ab 3d 88 3d
       0.027772387 0.40531585 -0.075447366 0.06652387
0001e0 93 fe 55 be a0 16 5c be e1 e6 d2 3b fb de 4e 3b
       -0.20897894 -0.21493006 0.0064362143 0.0031566012
0001f0 ca e4 17 3e 94 b8 38 be cb 00 07 bf 8d 27 cf bc
       0.1483337 -0.18039161 -0.52735585 -0.025287414
000200 e2 39 af 3d a5 99 36 bf 38 af f1 3e 6b 4e 87 be
       0.08555962 -0.7132819 0.47203994 -0.26427016
000210 21 d5 fe 3d e4 a1 71 be d8 35 7b 3e 03 a8 b3 bd
       0.12442995 -0.23596913 0.24532259 -0.0877228
000220 8e ba cc 3e da ff 99 3d 76 a6 87 3d b0 b6 09 3e
       0.3998608 0.07519503 0.06623547 0.13448596
000230 de 5f e2 be bd 81 83 3e 13 44 2e 3f a4 d5 10 bf
       -0.44213766 0.2568492 0.68072623 -0.5657599
000240 04 5f 98 3e 6d 41 b7 3e 45 51 13 bc 70 3b fe 3d
       0.2975999 0.35792103 -0.008991544 0.124136806
000250 07 6d 7f bd b0 dc 51 be 04 1e 83 3d 3a 31 06 3f
       -0.062359836 -0.20494342 0.064022094 0.52418864
000260 37 38 00 3e 2a 50 d3 bd ef d7 15 be 24 1d 81 3e
       0.12521444 -0.103180245 -0.14633153 0.25217545
000270 4a d4 a1 be 3c b7 3d 3c 01 ac bc be 06 14 93 bd
       -0.31607276 0.011579331 -0.3684998 -0.071815535
000280 3e a8 fd bd dd a3 a8 3d 0e 6d 90 3e e2 76 a0 bd
       -0.12385605 0.082343794 0.28208202 -0.07835175
000290 9e fe c3 3e fe af fa bd 74 56 0c bf 9b 0d 77 bf
       0.38280195 -0.12240599 -0.54819417 -0.96505135
0002a0 87 9a 0a be 62 c6 b6 3e 78 43 dd 3d d2 a7 e0 3e
       -0.1353551 0.3569823 0.10803884 0.43878037
0002b0 26 68 e0 be d6 25 ce bd 2c 93 46 bf c2 36 5f 3d
       -0.4382946 -0.100658104 -0.77568316 0.05449558
0002c0 fc b7 bb 3e ce 9d 13 3e ba 45 68 be 38 4c 72 be
       0.36663806 0.14415666 -0.22682849 -0.23661888
0002d0 e6 93 98 3e 78 6f 27 be 98 fd 48 bc e7 11 3c 3a
       0.29800338 -0.16351116 -0.012267493 0.00071742985
0002e0 e0 05 f2 3d f1 71 47 bf 19 bb dc 3e 50 74 68 be
       0.11817527 -0.77908236 0.43111494 -0.2270062
0002f0 99 e1 94 bd ec 16 69 3c 13 c3 f2 3d 3d 93 27 bf
       -0.07269592 0.014226656 0.11853614 -0.6545904
000300 18 f2 f6 3d c7 1c 40 3b be d4 88 bd 98 67 0b 3c
       0.120578945 0.0029314028 -0.06681202 0.008508585
000310 54 ac 12 3d 00 db 68 be 27 4e 51 be 71 ad 32 3c
       0.035808876 -0.22739792 -0.20439969 0.0109056095
000320 fe 95 4f 3c dc 82 8e be c1 5a 58 3e e7 0d 0f bd
       0.012670038 -0.27834213 0.2112837 -0.034925368
000330 3c 26 81 3e f5 8a 8e be 44 77 e6 3b be 57 7c bd
       0.25224483 -0.2784039 0.0070332605 -0.061607115
000340 0b 67 4a be 64 82 45 3d 9d cc 1d be 42 20 11 bc
       -0.1976587 0.048220053 -0.15410085 -0.0088577885
000350 9d 56 d5 3e aa 6e 12 3d 0c f5 4a 3e 46 5b e7 3d
       0.41667643 0.03575007 0.1982004 0.11296706
000360 69 30 19 be 65 fd 11 3e f8 2f 9a be a2 03 58 3d
       -0.14959873 0.14256819 -0.30114722 0.05273784
000370 2c 45 83 bc a1 7f 5e be e8 9a f2 3c 73 80 05 3d
       -0.016024195 -0.21728374 0.02961488 0.0325932
000380 ad d9 c7 bd 47 9c 03 3d f9 f1 66 3d 75 4e 81 bd
       -0.09758315 0.03213146 0.056383107 -0.063137926
000390 54 3a 7e 3e f7 d2 c8 3d b7 2c f2 bd 8b 0b 61 be
       0.24826938 0.09805863 -0.11824935 -0.2197706
0003a0 4e de a2 3d af be 28 3e e3 be 1b 3f da 15 d0 be
       0.079525575 0.1647899 0.60838145 -0.4064167
0003b0 42 00 af 3e 50 98 72 be 18 00 82 bd cf 42 91 3d
       0.34179884 -0.23690915 -0.06347674 0.07092821
0003c0 1d bb 2c be 40 17 70 bd f6 1f 27 3e ce 69 1b 3f
       -0.16868253 -0.058615923 0.16320786 0.6070832
0003d0 4c 50 92 3b 4b af 54 3e f7 a3 c9 3c f7 36 2c 3e
       0.0044651385 0.20769994 0.024614317 0.16817842
0003e0 b8 0c 54 be 00 ca 38 be 57 19 54 3e 61 5a 04 be
       -0.20707977 -0.18045807 0.20712791 -0.12925102
0003f0 d7 73 02 bf 10 fd c2 3e 55 c2 16 3e cc 06 30 3f
       -0.5095801 0.38083696 0.1472257 0.6876037

squeezenet/fire3/squeeze1x1/BiasAdd/ReadVariableOp:0 f4 [16]
000000 e0 11 57 3e a8 17 9f 3e ea c9 dd 3b 64 a2 93 3d
       0.21002913 0.31072736 0.006768455 0.07208708
000010 d0 1d 69 bc 60 35 3f 3e 1c e3 30 be b3 2a 8e 3d
       -0.014228299 0.18672705 -0.17274135 0.06941738
000020 f9 3f a5 3e 25 7f 27 be d2 ff 87 3e 89 be d8 3e
       0.3227537 -0.16357096 0.26562363 0.42332867
000030 cb 54 e6 3c 5e 48 23 3e 81 dc e1 3e 29 26 2b 3d
       0.028116604 0.15945575 0.44113544 0.04178444

squeezenet/fire3/expand1x1/Conv2D/ReadVariableOp:0 f4 [64, 16, 1, 1]
000000 d7 be 1f bf 8e 91 b7 3e 94 02 44 3e 95 af 71 3e
       -0.62400573 0.35853237 0.19141608 0.23602135
000010 92 8b 1d bd a8 36 d2 bc cb 95 9e 3d 15 93 80 bf
       -0.038463183 -0.025660828 0.077434145 -1.0044886
000020 36 38 0d bf 4b 8e 3d 3c 30 5b d1 be 3e 62 c7 be
       -0.55163896 0.01156957 -0.40889883 -0.3894214
000030 42 08 87 bf d8 81 8a 3e 6a 33 26 3f 2a ba 76 3b
       -1.0549395 0.27052188 0.649222 0.0037647584
000040 e0 f8 ec be 87 25 ea bb eb 55 83 bf ba 91 98 3d
       -0.46283627 -0.007145587 -1.0260595 0.0744967
000050 3b 9e 8d ba 7f 7a 45 3c 40 3b ed 3e 97 2e 71 bf
       -0.0010804603 0.012053131 0.46334267 -0.94211715
000060 2e 6d b4 bb 1d 49 24 3e bf b5 9a 3e d2 af 02 bf
       -0.0055061793 0.16043516 0.30216786 -0.5104953
000070 a1 4a 1d bf 75 31 ce be db ea 0a 3d 38 33 f3 3d
       -0.61442 -0.40272108 0.033915382 0.118750036
000080 7a b2 ba be f3 d4 e3 bb 51 ab 23 bf 87 4b ca 3e
       -0.36464292 -0.0069528758 -0.63933283 0.39510748
000090 ea d7 2e bf 2d 1b 21 3e 45 10 e7 be 77 58 8c be
       -0.6829821 0.15733023 -0.451296 -0.27411243
0000a0 65 7d b3 be 56 72 69 3e 67 66 0d 3f 84 82 16 3d
       -0.35056606 0.22797522 0.5523438 0.036745563
0000b0 30 ff 2f 3f 20 a3 32 be 06 28 03 be 5c cb 15 3d
       0.6874876 -0.1744504 -0.12808236 0.03657089
0000c0 4d fb 15 3f ac 21 b0 bd 09 d4 73 bf 3c 03 bd 3c
       0.5858658 -0.086001724 -0.95245415 0.023072831
0000d0 6c 2a 8d 3e 41 a7 7f bf c8 cf ea 3d eb 5b 46 3d
       0.27571428 -0.99864584 0.114654124 0.048427504
0000e0 56 90 47 3d 1d e7 25 3c 64 5a 92 be 5c 72 7a bd
       0.048721634 0.0101259025 -0.28584588 -0.061144218
0000f0 fc 6a f1 bd 2c 97 0c be 6c 3c 67 bc a2 34 62 3e
       -0.11787984 -0.13729542 -0.014113527 0.2209039
000100 98 7f 14 bc f7 1d 33 3e 12 01 05 3e 4f 95 d3 3e
       -0.009063624 0.174919 0.1298869 0.4132485
000110 f6 2f 09 bf 2e 50 98 bc 33 bd b5 3e cf 69 b1 be
       -0.5358881 -0.01859292 0.3549591 -0.34651038
000120 2a 36 a6 3e 46 58 bc bd f0 c6 f4 3d cb 25 9c be
       0.324632 -0.09196524 0.11952007 -0.30497584
000130 9a 64 45 bf 61 65 eb bd d2 32 2b be 8e 8f 4d bd
       -0.7710663 -0.11493946 -0.16718605 -0.050185733
000140 62 2b 53 3d d0 e3 76 bc 79 1b e7 3e 6f d5 8f be
       0.051555045 -0.015068963 0.45138147 -0.28092524
000150 27 49 28 3e 65 3a ce be 4a 26 99 be b4 2c 2a bf
       0.16434155 -0.40278926 -0.29912025 -0.6647446
000160 3f eb 8b 3d 56 19 18 be c1 30 0b be 84 2b d8 be
       0.06831979 -0.14853415 -0.13592817 -0.422207
000170 88 44 2c 3e f1 be a2 be 72 d1 3a bf 43 6f 1a 3f
       0.16823018 -0.31786302 -0.7297584 0.6032602
000180 46 5e 9a be 92 df 83 be 60 c3 8a be 4f 41 df 3d
       -0.3015005 -0.25756508 -0.27102184 0.109011285
000190 1f 2e 5d bd 18 4a ca be 30 15 b4 bd 0b 01 17 ba
       -0.053999063 -0.39509654 -0.08793104 -0.0005760348
0001a0 24 af b2 3d de 76 2b 3e 6a ff 64 3e 5e c8 ab 3c
       0.08724812 0.16744563 0.22363058 0.020969566
0001b0 31 0e 30 be 1d 25 85 bd b6 90 23 3f fe e8 23 3e
       -0.17192914 -0.065012194 0.63892686 0.16006848
0001c0 cc b7 b2 3d cb 44 b5 be e3 ba 8e 3d 89 d9 d5 be
       0.08726463 -0.35404047 0.069692396 -0.4176753
0001d0 7d b2 8a 3e 5e 21 4a be 63 da 45 bd b1 3a e0 be
       0.270893 -0.19739291 -0.048303973 -0.43794778
0001e0 b6 66 a4 bd 83 73 b4 bd de 94 f0 3e b2 80 ac bd
       -0.08027403 -0.088110946 0.46988577 -0.08422984
0001f0 96 66 29 bf 67 cf c5 3d e1 8b bd 3e c7 9e db 3c
       -0.6617216 0.096586995 0.37020782 0.02680911
000200 8c a4 c1 3b 95 42 12 3d 3c 28 38 3d 32 7b 65 be
       0.005909508 0.03570803 0.044960245 -0.22410277
000210 c2 7f 94 3e 89 fc 63 be f0 e4 44 3e 73 97 ce bd
       0.2900372 -0.22264303 0.19227958 -0.100874804
000220 18 a1 e0 3e b6 17 e0 bd 18 0b 70 3c 36 9e 34 be
       0.43872905 -0.109420225 0.014651082 -0.17638478
000230 0b 77 45 be a9 d1 03 3f c1 4f 00 bf d0 ee 87 3e
       -0.19283693 0.5149179 -0.50121695 0.26549387
000240 46 6a 03 bf b4 a0 c6 3e db 76 37 bf c9 2b b8 bb
       -0.51334035 0.38794482 -0.71665734 -0.005620454
000250 6a 30 6b 3e ca 89 70 be d8 33 fc bd 5f ed f9 be
       0.22967687 -0.23490062 -0.12314576 -0.48813912
000260 65 83 2c be 49 8d 5f be 21 55 93 3e ae de fd be
       -0.16846998 -0.2183124 0.28775886 -0.49583954
000270 d2 f6 8f 3e 36 c2 0c be 74 8f de 3e ad 8c 15 3e
       0.28117996 -0.1374596 0.4346882 0.14604445
000280 46 dc 21 3d 8b c7 61 3e b1 79 7f 3e af b6 eb be
       0.03951671 0.22048776 0.24948765 -0.46037814
000290 a1 38 d8 be 10 76 c1 be 1a 36 96 bd 97 7a a1 bf
       -0.42230704 -0.37785387 -0.07334538 -1.2615536
0002a0 d6 d7 c6 be e8 21 a6 3d a9 bd 9a bd c7 87 81 bf
       -0.38836545 0.08111936 -0.07555706 -1.0119561
0002b0 18 0c d3 3e ac 0e ba be 04 ab 8f be c7 01 9d 3e
       0.41220164 -0.3633932 -0.28060162 0.30665419
0002c0 14 08 72 bf f8 83 9f 3e 18 12 1e 3e 49 27 dc 3d
       -0.94543576 0.31155372 0.1543659 0.107496805
0002d0 fd f5 d0 be 8b 60 88 3e 3a f0 bb 3e 80 12 19 bf
       -0.40812674 0.26636156 0.36706716 -0.59793854
0002e0 de ca db bd 30 35 df bd 9e 2a 63 be 10 b6 dc be
       -0.10732053 -0.108988166 -0.22184226 -0.43107653
0002f0 6f f1 9a 3e 28 cf 8b 3b 41 6b 2c bf c9 4a a5 3c
       0.30262324 0.0042666383 -0.67351156 0.020177262
000300 3e 77 3f 3e 77 41 55 be 35 ea e4 3e d7 a0 af 3d
       0.18697831 -0.20825754 0.44709936 0.085756
000310 db 17 66 be 1b 45 b9 be db 5e 36 3f 0b 46 9c 3e
       -0.22470038 -0.36185536 0.7123849 0.3052219
000320 f1 f3 ac bd 71 df 8a 3e 9f b5 68 3e 77 26 88 be
       -0.08444966 0.27123597 0.22725533 -0.26591846
000330 39 9a 9a be c8 a6 bd be 43 0d 36 3a f6 03 34 bf
       -0.30195788 -0.37041306 0.0006944725 -0.70318544
000340 7a 6b c4 3e 1c 1b f2 3d 90 94 c7 be aa 2f 53 3e
       0.38363248 0.11821577 -0.38980532 0.20623651
000350 35 eb 79 bf 9d 1f 18 be a1 12 2d be 5e cc c8 3d
       -0.9762452 -0.1485581 -0.16901638 0.09804605
000360 5d 1f 8b bd bb b3 05 3e bf 33 14 3e e3 f3 7b 3c
       -0.067930914 0.13056843 0.14472865 0.015377971
000370 f1 92 49 be b7 a9 13 3f 3b 34 b6 be 7c 11 25 be
       -0.1968496 0.5768084 -0.35586724 -0.16119951
000380 27 f3 fb be b4 97 98 3e 2e fc b7 be 2d 47 ec bd
       -0.49208948 0.2980324 -0.35934585 -0.11537013
000390 56 fe 04 be 59 7a fa bb 6a f7 65 bf a1 2d 14 3f
       -0.12987646 -0.0076439795 -0.8983065 0.57882124
0003a0 50 3d 02 3c 0f ca c8 be d0 61 d9 3d be 0f 75 be
       0.007949188 -0.39216658 0.106143594 -0.23931786
0003b0 80 97 e1 be bb 02 0d bc 6e 14 13 3c 22 f3 23 be
       -0.44060898 -0.008606608 0.008977039 -0.16010717
0003c0 fb e7 91 3e 89 98 8f be 60 8c b2 3e ca e4 a4 3d
       0.284973 -0.28046063 0.34872723 0.080514506
0003d0 bc 28 70 3d 84 f0 50 3d 25 fa 88 bd 4d b6 8a be
       0.058632597 0.051010624 -0.06688336 -0.2709221
0003e0 c4 c4 59 3e 28 dc 96 3c b9 37 c1 be 5c cd 6d bd
       0.21266466 0.018415526 -0.37737826 -0.058057174
0003f0 71 ab 0c bf 64 8e ad be fa 97 d9 3e c0 15 5b be
       -0.549491 -0.33897698 0.4249876 -0.21395016

squeezenet/fire3/expand1x1/BiasAdd/ReadVariableOp:0 f4 [64]
000000 4d 20 07 3e 5d 61 f6 bd f4 09 b3 bd b5 eb d4 be
       0.13195916 -0.12030289 -0.08742133 -0.4158608
000010 98 cd 17 bf a4 f9 62 be 74 c9 64 3e 2b a6 3a be
       -0.59298086 -0.22165543 0.22342473 -0.1822745
000020 ed 98 a6 bf 25 a5 c8 be ae 18 8e be b0 7f 81 be
       -1.3015419 -0.39188495 -0.27753204 -0.2529273
000030 03 89 02 bf 36 a3 de 3d 88 2b 36 3e 4e d4 6b 3e
       -0.50990313 0.10870974 0.17790043 0.23030207
000040 6c 6f 7a 3d ab 28 21 3d 51 0c ec be 88 68 13 bf
       0.061141416 0.039345425 -0.46103147 -0.5758138
000050 f4 e0 cc bd 0d b5 03 bd 15 a7 9f be 1f 07 97 3e
       -0.10003844 -0.032155085 -0.3118216 0.2949762
000060 20 67 3d bd f0 cb 1b bf e6 e9 af 3e 4c 41 37 be
       -0.046240926 -0.6085806 0.34358138 -0.17896003
000070 01 8d 86 bd 38 f1 80 3e 21 fb 2b 3e 95 ff 98 bc
       -0.06569863 0.25184035 0.16795017 -0.018676559
000080 df 3b d0 be b2 6d 12 bf 45 64 67 bc 9e 4b 07 be
       -0.40670678 -0.5719863 -0.014123027 -0.1321244
000090 30 63 53 be 8b b0 b5 bd bf 20 9f be 61 76 05 3e
       -0.20643306 -0.088715635 -0.3107967 0.13033439
0000a0 b1 ce 17 3f c2 5b fe be 11 8e ef bc 59 14 28 3e
       0.5929976 -0.4967938 -0.029242547 0.16414012
0000b0 2b 9d 67 3e 4c 8b f1 3e 4b af 68 bf 45 ad a1 3e
       0.22618549 0.47176588 -0.90892476 0.31577507
0000c0 f9 0b d9 3e 66 f4 0c bf 5c 46 74 3e 91 49 a5 3d
       0.42391947 -0.5506042 0.23854965 0.08070672
0000d0 02 2a 68 bf 10 98 bc bc 16 fe ca 3d e7 bc 01 3f
       -0.906891 -0.023021728 0.09911744 0.5067887
0000e0 38 b0 3b be 9e cd 25 3f 89 a7 01 bf bc 70 fb be
       -0.18328941 0.6476687 -0.50646263 -0.49109447
0000f0 76 6d a4 be 47 be 28 3f 27 d8 e4 bd a2 2f 0d 3e
       -0.32114762 0.6591534 -0.1117404 0.13787702

squeezenet/fire2/squeeze1x1/Conv2D/ReadVariableOp:0 f4 [16, 64, 1, 1]
000000 a7 f4 83 3e 34 cc b6 be d8 b5 82 bd c3 d2 9e 3c
       0.25772592 -0.3570267 -0.0638234 0.019387608
000010 4a db 85 be c2 ca b8 bd e1 2b 7a bc 31 cf 3a 3c
       -0.26143867 -0.09023048 -0.015269251 0.011401937
000020 7f cf 39 bf 82 a7 9a bc ba 26 51 3e d5 a0 e4 3e
       -0.7258224 -0.018878702 0.2042493 0.44653955
000030 0e da f6 3d f8 b6 cd 3d da 43 06 3e 4a a9 28 3d
       0.120533094 0.10044664 0.13111821 0.04117707
000040 95 66 eb 3d 29 c9 5e be 80 cb ee 3d 7f 0b 2a be
       0.11494175 -0.21756424 0.11659908 -0.16605948
000050 6a 7a 70 be f3 5d 5d 3d 6a a4 91 bd 31 dc c2 bd
       -0.23484197 0.054044675 -0.071114376 -0.095146544
000060 4f e2 bb 3d f9 55 29 3e a3 1a 45 3e 9b 98 b8 3d
       0.09174024 0.16536702 0.19248442 0.09013482
000070 ff 9d 23 3d e3 bc 5a be 72 31 18 bf 2e 49 8e bd
       0.0399456 -0.21361117 -0.5945045 -0.06947552
000080 39 ef 24 bf 87 38 00 3c c2 2d 53 3e a3 cd 89 be
       -0.64427525 0.007825977 0.20622924 -0.269147
000090 0e f5 12 3e 36 9b 8f 3d 58 b6 45 3e 21 67 16 3e
       0.14351293 0.07012026 0.1930784 0.14687778
0000a0 1a 85 13 3e 74 84 e5 3d bd 83 6f bf b2 43 e5 3e
       0.14406243 0.11206904 -0.9356039 0.4477821
0000b0 88 4d 5e 3e ae f2 17 be 5b 7f 3e bc 68 43 43 be
       0.21709263 -0.14838669 -0.011627044 -0.19068682
0000c0 64 ef d1 3d 8e 8f 4d 3e 63 e4 9a be 4b aa db 3d
       0.10250738 0.20074293 -0.3025237 0.1072584
0000d0 9a 25 48 3e dd 77 55 bd 65 47 8a be e8 6b 77 3e
       0.19545594 -0.052116264 -0.27007595 0.24162257
0000e0 94 a9 8f 3e 25 b1 c6 bd 18 fb b8 bd d4 b5 fd 3c
       0.28059065 -0.097017564 -0.09032267 0.030970491
0000f0 e4 d0 84 be b3 55 99 be a0 12 56 be 33 ad 6d be
       -0.2594062 -0.29948196 -0.20905542 -0.23210602
000100 f1 69 80 bd b1 0d 9c be 16 88 0a be a2 5e 88 be
       -0.06270207 -0.30479196 -0.13528475 -0.266347
000110 d0 b3 a6 be a3 26 c9 bd 82 79 c1 3d 73 d7 2d bd
       -0.3255906 -0.098218225 0.09447004 -0.042441797
000120 b7 be e2 bc 8a cc 80 3e c7 e0 8c 3c 97 21 37 bd
       -0.02767883 0.2515605 0.017197026 -0.04470977
000130 69 4c ff 3c a7 9d 9e 3d 6f a8 21 be f3 43 2c be
       0.031164365 0.077449135 -0.15786909 -0.16822796
000140 ab 4c e2 3d d2 9a c1 3d 83 c0 21 3f e6 e9 93 be
       0.110497795 0.09453358 0.63184375 -0.28889388
000150 3a 0c d3 3d dc 19 9e 3e 5f 7d 87 3e 08 7c 8a 3c
       0.103050664 0.30879104 0.26462838 0.016904846
000160 cd e3 05 3f b4 1e 97 3d 9c fe 5e 3e 80 26 8e bd
       0.5230072 0.07378903 0.21776813 -0.06940937
000170 78 81 43 be d5 6d 52 3f 10 0c 43 3d 33 10 c2 bd
       -0.19092357 0.8219884 0.047618926 -0.09475746
000180 c3 b0 bf bd 6a 42 cf bb 34 fa a6 3d 33 98 9a bd
       -0.093598865 -0.006325056 0.08153191 -0.07548561
000190 65 f8 73 bd 7b 17 3f ba f5 6a df 3e a3 ca 5e bc
       -0.05956306 -0.00072895706 0.4363629 -0.013598117
0001a0 97 19 2a be b0 8b c9 3e 95 12 85 be 12 49 53 bd
       -0.16611324 0.39364386 -0.2599074 -0.051583357
0001b0 b7 0b d3 bd 6b 7a 6c bc 1d eb 62 be a5 fa 46 be
       -0.10304969 -0.014433484 -0.22160001 -0.19431551
0001c0 f0 3c 5a be a9 eb be bd 5c 5a ed be 3d 3d 6d 3c
       -0.21312308 -0.09322292 -0.46358 0.014479932
0001d0 87 fb bf 3c b8 e6 08 3e ab b9 28 be d0 ee 9b bc
       0.023435367 0.13369262 -0.16477077 -0.019034773
0001e0 41 34 06 be e0 e4 37 3f 2d 27 3d bd cc c5 da 3d
       -0.13105871 0.7183361 -0.04617994 0.10682258
0001f0 85 af 2d 3e 57 4e 08 be 6c c8 af 3a be 0f 79 3e
       0.16961487 -0.13311134 0.0013411171 0.24322411
000200 fb 20 39 3e 51 59 f6 3d 47 c9 25 3e 2b f1 bc 3b
       0.18078987 0.120287545 0.16190062 0.005766054
000210 a6 ba cc be 92 21 61 3e 62 68 13 3f e5 c1 1b 3f
       -0.3998615 0.21985462 0.5758115 0.60842735
000220 07 78 49 be 65 0a 50 bc d7 4a a5 bc 1d 4d b6 be
       -0.19674693 -0.012697791 -0.020177288 -0.35605708
000230 de 97 63 be 51 69 e6 bd 71 a7 42 be 5c b2 f6 3d
       -0.22225901 -0.11250556 -0.19009186 0.12045738
000240 34 35 d1 bd 10 64 71 bf 8e 38 ff 3e 27 85 87 be
       -0.10215226 -0.9429331 0.49847835 -0.26468775
000250 95 62 ef bd b3 fb 9e bd 4a 1d 0c be 2c 0a 4a 3e
       -0.11688725 -0.077628516 -0.13683048 0.19730443
000260 4d ee c1 3e 7b 92 ae bd 3d cb a0 bd 00 83 4f bd
       0.37877122 -0.08524033 -0.078512646 -0.05066204
000270 87 c7 8b bd 62 98 ef 3e e7 23 8c be 7a 38 a3 bd
       -0.06825166 0.46795946 -0.2737114 -0.079697564
000280 18 30 6d bd 71 46 f9 bc 82 35 9c be 86 4a 1c 3e
       -0.057907194 -0.030429097 -0.30509573 0.15262803
000290 24 9b a4 3d e8 bc 92 3e d0 25 40 bf 06 cc 5c bb
       0.08037403 0.2865975 -0.750577 -0.0033690943
0002a0 26 8a 31 be 0a d2 80 3e b9 36 cb be 2d 00 46 bd
       -0.17337856 0.25160247 -0.39690188 -0.04834001
0002b0 ca 2e 2a 3e 9b 4a 35 3e 7c 6f e9 be a8 8d 27 be
       0.16619411 0.17704241 -0.45592868 -0.16362631
0002c0 63 13 7a be da d3 6c be 06 82 1c bc 27 ac 50 be
       -0.24421458 -0.2312769 -0.009552484 -0.20378171
0002d0 dd 6f 77 3e c9 97 1c 3e 4f b7 6c 3d b3 8b 81 be
       0.24163766 0.15292276 0.057792004 -0.25301895
0002e0 66 75 66 bd 21 d2 58 3e 2c 77 9c bd cd 66 22 be
       -0.056264304 0.21173908 -0.07639918 -0.15859528
0002f0 18 ed 18 3e 47 fa ed bb ac ec 15 3e 66 0a 3f 3d
       0.14934194 -0.0072625014 0.14641064 0.046640776
000300 ae 08 39 be cd 59 39 3d 69 f2 d8 3d e5 7e 0a 3e
       -0.18069717 0.045251656 0.10593111 0.13524969
000310 9a e3 fc 3d d7 87 24 3e d0 bb 8f 3d c1 29 91 3c
       0.12348099 0.16067444 0.07018244 0.017720105
000320 a9 e0 76 be 79 79 40 3e 90 01 06 3e 6b e0 8e 3e
       -0.24109139 0.18796338 0.13086534 0.27905592
000330 11 8d 36 3e 0e 55 5f be b6 f1 3e be 19 f2 6f 3d
       0.1782725 -0.2180979 -0.18646893 0.05858049
000340 c3 da 84 3e c1 ac 0d 3f e2 59 01 3f e1 8b 52 3e
       0.25948152 0.55341727 0.50527775 0.20561172
000350 11 b7 6c be 46 07 36 3e f5 2a 8a 3d bd 47 c0 bd
       -0.2311671 0.17776212 0.06746475 -0.09388683
000360 97 88 cd be 7b 65 fd bd 2e dd 0f 3e f6 2f 9b 3d
       -0.40143272 -0.123728715 0.14049217 0.07577507
000370 8e 58 b6 bd 1b 0e a6 be 4d 35 b6 bd 1a ed 08 3e
       -0.08903609 -0.32432637 -0.08896885 0.13371697
000380 4c 1e 19 be d3 db da 3d c3 04 86 3d 0a 2f e8 bc
       -0.14952964 0.106864594 0.06543877 -0.028342742
000390 33 06 85 3e 74 98 18 3e cc f5 c6 3d f0 55 05 be
       0.25981292 0.14901906 0.09714851 -0.13021064
0003a0 73 f7 88 3e d9 88 b4 3d 03 7a f8 bd b5 73 7e bd
       0.2675129 0.08815164 -0.12132647 -0.062122066
0003b0 7e 99 a6 3e 39 9a ce bd 5c cb 1e 3e dc 47 3e be
       0.3253898 -0.100880094 0.15507263 -0.185821
0003c0 de d3 78 be 3e 8e 5c be c5 92 98 3e 24 f2 3f be
       -0.24299571 -0.21538636 0.29799476 -0.18744713
0003d0 72 50 d1 3e e3 e4 25 3e ad f6 7d bd 42 52 05 be
       0.40881687 0.16200595 -0.062002826 -0.1301966
0003e0 6a 4a 4c be 1d 01 ab 3e 81 b8 60 be 39 29 57 bd
       -0.19950262 0.33399287 -0.21945383 -0.052529547
0003f0 55 15 39 be e4 8a ce 3d 22 84 5d be d8 d9 97 bd
       -0.18074544 0.10085085 -0.21632436 -0.07414597

squeezenet/fire2/squeeze1x1/BiasAdd/ReadVariableOp:0 f4 [16]
000000 ed 30 ea 3e 0d d5 f1 3d a1 75 f9 3d d9 80 2d bf
       0.45740452 0.11808214 0.12180639 -0.6777473
000010 15 f7 a6 3e 42 5b c8 be 17 9f 1b be 8a 8d 80 be
       0.32610384 -0.39132124 -0.15197407 -0.25107986
000020 7c 2b 40 bc 71 9c 81 be a0 e4 69 3e 14 65 d3 3d
       -0.0117291175 -0.25314668 0.2284112 0.103220135
000030 d0 f8 b3 be 71 e4 5d 3e 65 f2 bc bd 1e c0 f6 3e
       -0.35150766 0.21669175 -0.092259206 0.4819345

squeezenet/fire2/expand1x1/Conv2D/ReadVariableOp:0 f4 [64, 16, 1, 1]
000000 03 66 d7 bd ca 40 20 3e 14 bc 33 be f6 a2 65 be
       -0.10517504 0.15649715 -0.17552215 -0.22425446
000010 05 9d cd bd c6 ba 0d 3f 73 09 5d bf c4 c8 72 3e
       -0.10039715 0.5536312 -0.86342543 0.23709399
000020 b1 25 ac 3e 00 66 09 3e f2 81 81 3e 1f 0e 2f 3e
       0.33622506 0.13417816 0.25294453 0.1709523
000030 60 26 a2 3d 64 bf 57 3e e0 92 d2 be 35 29 11 3d
       0.07917476 0.21069103 -0.41127682 0.03543969
000040 86 d8 94 3d ed 92 ae bc ee 90 63 3e 02 23 e7 3e
       0.07267861 -0.021310294 0.22223255 0.45143896
000050 36 04 ef 3d 47 9e 15 3e e3 8f d4 3e e9 42 48 bf
       0.11670725 0.1461116 0.41516027 -0.78227097
000060 3c 91 93 3e 35 a1 05 bd 84 67 4a be 85 97 9d bf
       0.28821743 -0.032624442 -0.1976605 -1.2311865
000070 b6 f9 b6 be 37 bd 3d 3d 0f 24 5a bd b0 a3 d3 3d
       -0.3573739 0.046323027 -0.053257044 0.10333955
000080 93 85 0e be ea 49 18 3f 98 e7 24 be 31 b4 16 be
       -0.13918142 0.59487784 -0.16103971 -0.14717175
000090 56 d7 0a 3d fe 00 84 bd 92 1a 12 3e 35 bc 97 be
       0.033896767 -0.06445502 0.14267948 -0.29635778
0000a0 be 00 99 bd ec 04 45 be 59 0b 87 bf 10 c7 12 bf
       -0.07470845 -0.19240159 -1.0550338 -0.57334995
0000b0 13 9b 3f 3e 15 1d 03 bf 45 de e8 bd 56 e9 0e c0
       0.187115 -0.5121625 -0.113705195 -2.2329917
0000c0 21 2b a9 3e 7f 87 78 be 48 e6 0b 3e 97 3f 96 3e
       0.33040717 -0.24270438 0.13662064 0.2934539
0000d0 f9 07 58 3f be 6b 5d 3e 3d 87 a2 bd 4e 41 fa bd
       0.84387165 0.21623132 -0.07935951 -0.12219487
0000e0 8c d0 a9 3e 33 c5 f8 3c e9 08 91 3e 2a 30 34 bd
       0.3316692 0.03036747 0.2832711 -0.043991245
0000f0 47 9b 2a 3f 48 fe 26 bf f1 12 05 be 49 e6 ae 3d
       0.66643184 -0.6523175 -0.12995507 0.08540017
000100 55 d8 5c be 21 ba e6 3d 18 39 ab bf 62 0d 3d bf
       -0.21566899 0.1126597 -1.3376799 -0.73848546
000110 7c d3 1c bf cd e8 e0 3e a8 25 2b 3d 3c cd 16 3f
       -0.612602 0.43927613 0.04178396 0.5890691
000120 9d c0 a5 bd 18 b9 33 bf 48 ee c9 3e c9 8e 14 bf
       -0.08093379 -0.70204306 0.39439607 -0.5803037
000130 33 b4 5e bd 3e 1b 33 be aa 1b 04 bd f4 a5 86 be
       -0.05437107 -0.17490861 -0.032252945 -0.26298487
000140 14 e7 1d bd 01 ef e4 3d 19 74 3f 3f ce cc 42 bf
       -0.03855045 0.11178399 0.74786526 -0.7609376
000150 07 c0 c0 3e 3c 1d c4 be d8 fa e0 3e d3 ce 04 be
       0.37646505 -0.38303554 0.4394138 -0.12969522
000160 4f 87 1f bd 0f c1 70 be c2 67 14 be 2a d3 06 be
       -0.0389474 -0.23511146 -0.14492705 -0.1316649
000170 49 ec 59 be f3 ce 00 bf 3a 2e 16 3e 76 18 9a 3e
       -0.21281542 -0.5031578 0.14666072 0.30096787
000180 c4 85 10 3e b0 e4 2d 3e 1b 5a 6d 3d d4 1b 2a 3e
       0.14113528 0.16981769 0.05794726 0.16612178
000190 dc 5a 8c be 3e 41 2e be fe 96 5e be 40 fe 87 be
       -0.2741307 -0.17017075 -0.21737286 -0.26561165
0001a0 0d ca 89 3d 35 fe 24 3f 9a 59 9b 3d 86 cb d2 3e
       0.06727991 0.6445039 0.075854495 0.411709
0001b0 ff f6 0a bd 48 34 30 3e 78 77 1e bf 6d c7 a8 be
       -0.03392696 0.17207444 -0.61901045 -0.3296465
0001c0 17 3c ce be 84 bb 2d be 3b 04 01 3c 40 cb 23 3f
       -0.4028022 -0.16966063 0.007874544 0.6398201
0001d0 a9 c0 65 be 92 ee 04 be fd 34 39 bf 7a 74 ab be
       -0.22436775 -0.12981632 -0.7234648 -0.33487302
0001e0 b4 34 0c 3f 69 ea 8c be ab 99 39 3d aa 48 3f bd
       0.5476792 -0.2752259 0.045312565 -0.046700157
0001f0 58 c4 8d bd 12 82 13 bf 72 c8 80 bc 8d d2 eb 3d
       -0.06922215 -0.57620347 -0.01572058 0.11514769
000200 57 22 ff bc 5f 96 42 3e 34 53 4a bf de b5 c6 be
       -0.031144304 0.19002675 -0.7903321 -0.3881063
000210 58 cd 82 bb ef 60 f5 bd fe 67 f1 3d 34 90 46 bd
       -0.003991764 -0.11981379 0.11787413 -0.048477367
000220 52 27 df be 39 b4 0a 3f e0 44 37 3e e0 d9 cb bd
       -0.43584687 0.5418125 0.17897367 -0.09953666
000230 0f 78 9a 3d 7a cb 87 3e 8d 9e c7 be 3d 50 b9 bf
       0.075424306 0.26522428 -0.38988152 -1.4477612
000240 f7 98 f7 be 08 de a6 3e c2 38 ba 3d f0 46 c0 3e
       -0.4835889 0.3259127 0.09092857 0.3755412
000250 eb 47 a2 be 23 25 21 be 37 91 5b 3c 9d 5f 97 3d
       -0.31695494 -0.15736823 0.013401321 0.07391284
000260 d3 65 7e be a6 a1 30 be 25 d1 88 3e bb 6d 38 bf
       -0.2484353 -0.17249164 0.26722065 -0.72042435
000270 32 d5 0b 3f 3f 0d 21 3f 7c db 22 be 8f bc be bd
       0.54622185 0.62910837 -0.15904039 -0.093133084
000280 cf a8 13 3d 34 ba 8c be 14 f9 30 3e c7 34 7b 3d
       0.03604966 -0.27485812 0.17282516 0.06132963
000290 50 27 ac be 85 60 99 bd d4 1e 10 be 3a 47 24 be
       -0.33623743 -0.07489113 -0.1407426 -0.16042796
0002a0 3f 6d a1 be d5 00 9b be 41 2c 42 3d ca f4 7c 3c
       -0.3152866 -0.30274072 0.047405485 0.015439222
0002b0 f4 a3 dd bd 7d fe 25 3e e7 f4 8c be 77 2d fd bd
       -0.10822287 0.16210361 -0.27530596 -0.12362187
0002c0 3f da 06 3e a6 f6 ec 3e 50 e6 45 3f 6e 03 f6 be
       0.13169192 0.46281928 0.77304554 -0.48049492
0002d0 ad 66 9e 3d dd a7 33 be f5 8d c7 be f5 45 77 3c
       0.077344276 -0.17544504 -0.38975492 0.015092363
0002e0 e3 45 70 bf 0b ba ad bd 77 ea 4e 3f da ae 05 bf
       -0.9385664 -0.084827505 0.80826515 -0.5221993
0002f0 01 18 8b bf 68 a1 34 bf 0d 90 ef 3d 7a 80 06 be
       -1.08667 -0.70558786 0.116973974 -0.13134947
000300 c2 9d f6 3d 09 47 42 3d 99 87 4d 3e af 73 2a be
       0.12041809 0.047431026 0.20071258 -0.16645692
000310 01 49 99 be a9 7c 35 3d 2f be 8f 3e 25 3a 0a 3f
       -0.2993851 0.04430834 0.28074786 0.5399497
000320 d8 1b 15 be 85 59 51 be dc 5f d2 be 94 a2 1f bd
       -0.14561403 -0.20444305 -0.4108876 -0.038973406
000330 6b 7d 0b bf 7f 73 71 be 15 21 d5 3e ff b4 10 3e
       -0.5448825 -0.23579215 0.41626802 0.14131545
000340 bd ed 5e bd 23 22 1d 3e d8 e0 2c bf c9 30 f4 bc
       -0.054425944 0.15345053 -0.67530584 -0.029808419
000350 30 f8 a5 3e 42 bc 60 3c 12 b3 b4 3d 36 69 2b bd
       0.32415915 0.013716759 0.088232175 -0.041848384
000360 e6 d1 b8 3e b5 83 69 3e e6 c1 17 3f 4e cf bb be
       0.3609764 0.22804148 0.5928024 -0.36681598
000370 06 da c7 3e 5a af 5f be 59 41 71 bd 12 c5 57 bf
       0.39033526 -0.21844235 -0.05890021 -0.8428508
000380 e4 1d a5 bd 96 04 eb be 4b ed d5 bf 81 e7 40 3f
       -0.08062342 -0.45901936 -1.6713041 0.75353247
000390 53 62 5a 3c da 9c b3 bf b9 87 05 be dd 2b b9 be
       0.013329106 -1.4032242 -0.13040055 -0.36166278
0003a0 b7 e5 6a be fa c7 72 3e fd d5 39 3e a9 8e cf bd
       -0.22939192 0.23709098 0.18148036 -0.10134632
0003b0 50 41 b7 3d bc 92 a8 3d d4 5c ee 3e 91 27 ad be
       0.08948004 0.08231112 0.46555197 -0.3381925
0003c0 b2 93 81 3e 77 90 b4 bd 82 e8 0e bf 76 73 28 bf
       0.25307995 -0.08816617 -0.5582353 -0.6580118
0003d0 c6 dc 38 3e 18 44 12 bd 1d 7f 62 bd eb 9a e8 3d
       0.18052968 -0.03570947 -0.055297006 0.11357673
0003e0 1e fa 60 be 54 15 97 3e a5 af df be ec 25 0a 3e
       -0.21970412 0.2950846 -0.43688694 0.13491029
0003f0 07 ce 77 bf 2c 30 76 be bb b8 ab bd dc 0a 2a 3f
       -0.9679875 -0.24041814 -0.08384844 0.6642282
