dnn-models/squeezenet_cifar10-cp-fractal.onnx (onnx, 103953 bytes, 60 tensors)

squeezenet/fire4/squeeze1x1/BiasAdd/ReadVariableOp:0 f4 [32]
0	0x3dbefd56	0.09325664
1	0x3d11653f	0.035496946
2	0xbf5272ed	-0.8220661
3	0x3e0f971f	0.14022492
4	0xbf28a393	-0.65874594
5	0xbe5cb312	-0.21552685
6	0x3e053eea	0.13012281
7	0x3f833938	1.0251837
8	0x3f1bf141	0.60915
9	0xbee19012	-0.4405523
10	0x3f9db195	1.2319819
11	0x3f9ad0f1	1.2095014
12	0xbf86e632	-1.0539
13	0xbe87620c	-0.2644199
14	0x3ef5ebef	0.48031566
15	0x3f38ab7d	0.7213667
16	0x3ec51cb5	0.38498464
17	0x3f40601b	0.75146645
18	0xbd9b6280	-0.07587147
19	0xbf414a1c	-0.75503707
20	0xbf28383e	-0.6571082
21	0x3f0c8762	0.5489408
22	0x3e8a46a9	0.27007034
23	0xbf42c1ee	-0.76077163
24	0x3ebda0e0	0.370368
25	0xbf5bf7cf	-0.85925
26	0xbd7c05cd	-0.06152897
27	0x3f892025	1.0712935
28	0xc02160ea	-2.5215402
29	0x3dd6f3d7	0.104957275
30	0xbe40f4c2	-0.18843368
31	0xbea20d74	-0.3165089

squeezenet/fire4/expand3x3/BiasAdd/ReadVariableOp:0 f4 [128]
0	0x3eb1a9f1	0.34699968
1	0xbf21b8f1	-0.63172823
2	0xbec1d10d	-0.37854806
3	0x400286ec	2.039485
4	0xbe915d68	-0.28391576
5	0xbed0e9b6	-0.40803307
6	0xbf10cab1	-0.5655928
7	0xbf466c78	-0.7750926
8	0xbf4cfc88	-0.8007283
9	0xbef17aad	-0.47163907
10	0xbe540bfc	-0.20707697
11	0x3e840240	0.25782967
12	0xbf869e9f	-1.0517157
13	0x3ebb586a	0.36590892
14	0xbf1378b6	-0.57606065
15	0xbd9a48b5	-0.07533399
16	0xbe7be5c8	-0.24599373
17	0xbe87f806	-0.26556414
18	0xbe8fe0fe	-0.28101343
19	0xbf0b35c4	-0.54378915
20	0xbef07693	-0.46965465
21	0xbdd0991a	-0.10185452
22	0x3e4524d7	0.19252335
23	0x3e963b52	0.29342133
24	0xbf22a83a	-0.63537943
25	0xbdde84af	-0.10865151
26	0xbee1333d	-0.43984404
27	0x3e45ff8a	0.19335762
28	0xbedc2ebf	-0.43004414
29	0xbe9ad535	-0.3024079
30	0x3d3a557f	0.04549169
31	0xbeb88710	-0.36040545
32	0xbf1c0cea	-0.60957205
33	0xbf0912ab	-0.5354411
34	0xbde19328	-0.11014396
35	0x3dc83da3	0.09777381
36	0xbf0ae0a0	-0.54249
37	0x3d6388c1	0.05555034
38	0x3e5e3b5c	0.21702331
39	0x3f10f74a	0.56627333
40	0xbeb7c1ea	-0.35890132
41	0xbec60321	-0.38674262
42	0xbf3bd9f3	-0.7337944
43	0xbf39fb95	-0.7264951
44	0xbe9c8a7a	-0.305744
45	0x3e07a072	0.13244799
46	0xbf1e0a39	-0.6173435
47	0xbf1be899	-0.6090179
48	0x3d83b534	0.06431046
49	0x3f024678	0.50888777
50	0xbef759de	-0.4831075
51	0xbe1d1475	-0.15339835
52	0x3ea56b1c	0.3230828
53	0xbf657de9	-0.8964525
54	0x3eca37a2	0.3949557
55	0xbeaac3be	-0.33352464
56	0xbde5d161	-0.112215765
57	0xbdd0bd99	-0.10192413
58	0x3dffd18a	0.12491138
59	0xbf338fd1	-0.7014132
60	0xbf1bcc3a	-0.608585
61	0x3ea994c0	0.331213
62	0xbec8fb39	-0.39254168
63	0xbc95e431	-0.018297287
64	0x3eecd321	0.4625483
65	0xbe88c0e6	-0.2670967
66	0xbf22aff3	-0.6354973
67	0x3f5467cc	0.8297088
68	0xbf292cfc	-0.66084266
69	0x3d7acf57	0.06123289
70	0xbed4eadb	-0.4158543
71	0xbf41fffc	-0.75781226
72	0xbeed5df3	-0.4636074
73	0x3e0c2dc9	0.1368934
74	0xbebc10cd	-0.36731568
75	0xbe98483c	-0.2974261
76	0xbefbe825	-0.4920055
77	0xbcb85397	-0.022500796
78	0xbf25e2a1	-0.64798933
79	0x3fdd03a6	1.7266738
80	0xbf08857d	-0.53328687
81	0xbe81c9b7	-0.2534921
82	0x3eb91f6c	0.36156785
83	0x3e36170e	0.17782232
84	0x3db85c1c	0.090019435
85	0xbea92c55	-0.33041635
86	0x3f5b765f	0.85727495
87	0xbf05cd61	-0.5226651
88	0xbee73705	-0.45159164
89	0xbf3d1c8a	-0.7387167
90	0xbf188370	-0.5957556
91	0xbeb828e7	-0.35968706
92	0xbe8e943d	-0.27847472
93	0x3f2920c1	0.66065603
94	0xbf8a3abe	-1.0799177
95	0x3f27532e	0.653613
96	0xbf0825a3	-0.5318243
97	0xbe811aa2	-0.25215632
98	0xbf7bafbc	-0.98315024
99	0xbe916471	-0.28396943
100	0xbe3f93b0	-0.18708682
101	0xbf0ca8bd	-0.54944974
102	0xbea7ad93	-0.32749614
103	0x3f7a286f	0.97717947
104	0xbe1f3fd7	-0.15551697
105	0x3f6f66a7	0.9351601
106	0xbeea2484	-0.45730984
107	0xbe923846	-0.28558558
108	0xbe013622	-0.12618306
109	0xbea5c461	-0.32376388
110	0xbd94ec93	-0.072716855
111	0xbf555570	-0.8333349
112	0xbecac536	-0.39603585
113	0x3ec9b6ad	0.39397183
114	0xbe9b5b6f	-0.30343196
115	0xbf5087fe	-0.8145751
116	0x3d3791cf	0.04481679
117	0x3e9115d1	0.28336957
118	0x3eac6026	0.33667105
119	0x3e3ea4c0	0.18617535
120	0xbebc7103	-0.3680497
121	0xbed51af1	-0.41622117
122	0xbf2c1ea8	-0.6723428
123	0xbf0c3ab9	-0.54777104
124	0xbed7a57f	-0.4211845
125	0xbf36a5ba	-0.7134663
126	0x3f6821cf	0.9067659
127	0xbe8aa06b	-0.27075514

squeezenet/fire4/expand1x1/BiasAdd/ReadVariableOp:0 f4 [128]
0	0xbf8b30f1	-1.0874311
1	0xbeeecbbf	-0.4663982
2	0x3db9ac5d	0.09066079
3	0xbe5d3afd	-0.21604533
4	0x3f6755b3	0.9036514
5	0xbe2d9ded	-0.16954775
6	0x3ecdf79d	0.40227976
7	0xbf2d723f	-0.6775245
8	0x3ed2044f	0.41018912
9	0xbf04db66	-0.51897275
10	0x3dda886b	0.10670551
11	0x3eaa7e7d	0.33299628
12	0xbf5841db	-0.8447549
13	0xbf0ee596	-0.5581907
14	0xbed9995c	-0.42499816
15	0x3ee4dcb2	0.44699627
16	0xbf8fa54d	-1.1222321
17	0xbb938fe0	-0.004503235
18	0x3ee1883a	0.44049245
19	0xbda9b633	-0.08286705
20	0x3ef51722	0.4786921
21	0xbf5d9e9c	-0.86570144
22	0xbf058563	-0.52156657
23	0xbfc95a68	-1.5730715
24	0xbe830d86	-0.25596255
25	0x3f6eaff7	0.9323725
26	0x3ef9e100	0.48804474
27	0x3e2be3eb	0.16786163
28	0x3ead388b	0.338322
29	0x3e14d542	0.14534476
30	0x3e1af2aa	0.15131631
31	0x3e877841	0.26458934
32	0x3c8d59ac	0.017254673
33	0x3e271d8c	0.16319865
34	0xbd57b1ad	-0.05265968
35	0x3e8af027	0.27136347
36	0x3e152557	0.14565025
37	0xbe966b3f	-0.29378697
38	0x3dd5409d	0.10412715
39	0xbf2df21e	-0.67947567
40	0xbe2a6eb8	-0.16643798
41	0x3ebc656b	0.36796126
42	0x3eff4ceb	0.4986337
43	0x3e75e4ce	0.24013063
44	0x3e2bfb11	0.16794993
45	0x3eeafe47	0.45897123
46	0xbe1dc690	-0.15407777
47	0x3ef17442	0.4715901
48	0xbed910e5	-0.42395702
49	0xbf816740	-1.0109634
50	0xbad03c11	-0.0015887042
51	0xbde77b2c	-0.1130279
52	0xbf1a2942	-0.60219204
53	0xbf79c80c	-0.9757087
54	0x3e9c2136	0.30494088
55	0xbe319e51	-0.17345549
56	0xbe438294	-0.1909278
57	0xbc15bf8b	-0.009139906
58	0xbd6887d6	-0.05677017
59	0xbf430852	-0.7618457
60	0x3ea0ae95	0.31383196
61	0x3ed72b73	0.42025337
62	0xbebdf8a1	-0.3710375
63	0x3f41b0bd	0.75660306
64	0xbeba38e5	-0.36371532
65	0xbf3b1ebb	-0.73093766
66	0xbdea23e8	-0.1143263
67	0x3df03beb	0.117301784
68	0xbce5ff23	-0.02807576
69	0x3de19b90	0.11015999
70	0x3e50e10a	0.20398346
71	0x3f0d8306	0.5527805
72	0x3ee702be	0.4511928
73	0x3eb59e7c	0.35472476
74	0x3c5b5314	0.013386507
75	0x3c394906	0.011308914
76	0xbf7f4f3f	-0.99730295
77	0xbf44ad88	-0.7682729
78	0xbe3b631c	-0.18299526
79	0xbe3cf850	-0.18454099
80	0x3ebfbf76	0.3745076
81	0xbeca8718	-0.39556193
82	0x3e87c37a	0.26516324
83	0xbdaf4cab	-0.08559545
84	0x3dbf6b0a	0.09346588
85	0x3df1bda3	0.118037485
86	0xbf783dc6	-0.9696926
87	0xbeab5809	-0.33465603
88	0xbe2d18d2	-0.16904
89	0xbee5bcbe	-0.4487056
90	0xbec5b583	-0.38615045
91	0xbdd36513	-0.10322013
92	0xbd83ccb1	-0.06435526
93	0x3e7dbe2c	0.24779576
94	0x3f07914b	0.52956074
95	0x3f1aa4ee	0.6040791
96	0x3f1580bc	0.5839956
97	0xbf5caf46	-0.86204946
98	0xbf65499a	-0.8956543
99	0xbea3ef6e	-0.32018608
100	0xbddf81a9	-0.109134026
101	0xbd223a26	-0.039606236
102	0xbe8233e0	-0.25430202
103	0xbef55ed4	-0.4792391
104	0x3daf201a	0.08551045
105	0xbf11c982	-0.569481
106	0x3c4a8cff	0.012362718
107	0x3e80f9fa	0.25190717
108	0xbf2a05d0	-0.6641512
109	0xbe86c830	-0.26324606
110	0xbea9e54d	-0.33182755
111	0xbe47c5ef	-0.195091
112	0x3f6f0acb	0.93375844
113	0x3ed797a6	0.42107886
114	0xbf86551c	-1.0494723
115	0x3f0a3b8a	0.539971
116	0xbeae83b0	-0.34084845
117	0x3f1a41cc	0.6025665
118	0xbf46ddd8	-0.77682257
119	0x3f1a5556	0.6028646
120	0xbe4e3403	-0.20137028
121	0xbede4cb5	-0.43417898
122	0x3de125b2	0.10993518
123	0xbf543895	-0.8289884
124	0x3f15df9c	0.58544326
125	0xbeee6e4e	-0.4656853
126	0xbf309951	-0.6898394
127	0x3f0c0375	0.54692775

squeezenet/fire3/squeeze1x1/BiasAdd/ReadVariableOp:0 f4 [16]
0	0x3efb8d3f	0.491312
1	0x3f23ff8e	0.6406182
2	0x3db70e7f	0.08938312
3	0x3ede0e88	0.4337046
4	0x3dc5e45d	0.096626975
5	0x3e3e0f7f	0.18560599
6	0xbf0581d8	-0.5215125
7	0x3e6687a7	0.22512685
8	0x3eebd168	0.46058202
9	0xbeebcb3a	-0.46053487
10	0x3f0a3327	0.539843
11	0x3f600fe1	0.8752423
12	0x3e8f39e4	0.27973855
13	0x3e9f6279	0.31129816
14	0x3f432b38	0.7623782
15	0x3e99425d	0.29933444

squeezenet/fire3/expand3x3/BiasAdd/ReadVariableOp:0 f4 [64]
0	0xbe94ea68	-0.29085088
1	0xbe62737f	-0.22114371
2	0xbf4c5b13	-0.7982647
3	0xbcbc2866	-0.022968482
4	0xbea3f6bb	-0.32024178
5	0xbf36737d	-0.7126997
6	0xbf102a84	-0.56314874
7	0xbe914813	-0.283753
8	0xbf24d73b	-0.64390916
9	0xbddb7c1e	-0.10717033
10	0xbf06bbae	-0.52630126
11	0x3edb0994	0.42780745
12	0xbf9def97	-1.2338742
13	0xbef3884f	-0.47564933
14	0xbd1f3720	-0.03887093
15	0xbea03fb3	-0.312986
16	0xbcb8dc9b	-0.02256613
17	0xbf1cc1d3	-0.6123325
18	0xbedd6821	-0.43243507
19	0xbeb5e864	-0.35528862
20	0xbd47bd83	-0.048764717
21	0xbe2dae92	-0.16961125
22	0x3cbc46ce	0.022982981
23	0xbefad8e1	-0.4899359
24	0xbe6fbf9d	-0.23412938
25	0xbe1f0602	-0.15529636
26	0x3e132d5a	0.14372769
27	0xbf5d8ea0	-0.86545753
28	0x3f1e1a58	0.6175895
29	0xbe751326	-0.23933086
30	0x3ef75c1a	0.48312455
31	0x3eda8e0e	0.42686504
32	0x3f057108	0.52125597
33	0xbf02547c	-0.5091016
34	0xbfdfc10c	-1.7480788
35	0x3c2cded6	0.010551175
36	0xbf0eb56b	-0.5574557
37	0xbed8716a	-0.42274028
38	0x3f79030d	0.9727028
39	0xbeb1acc1	-0.34702113
40	0x3dc5ef97	0.09664839
41	0x3e58e3b9	0.2118062
42	0x3c261cbf	0.01013869
43	0xbf867dd8	-1.0507154
44	0xbed52130	-0.41626883
45	0xbe7edc20	-0.24888659
46	0xbf5df7c3	-0.8670618
47	0xbf203611	-0.625825
48	0x3eb931a1	0.36170676
49	0xbeef04e0	-0.46683407
50	0xbe6e4dbf	-0.23271845
51	0x3f05d520	0.5227833
52	0x3e3041ed	0.17212649
53	0xbe99dcd0	-0.3005128
54	0xbebf89ca	-0.37409812
55	0xbf1351fd	-0.5754698
56	0xbea103b4	-0.31448138
57	0xbf0dba28	-0.55362177
58	0x3e9660ce	0.2937073
59	0x3f2db0de	0.67848
60	0xbec98704	-0.3936082
61	0x3f283819	0.657106
62	0x3e8181fb	0.2529448
63	0x3de08bad	0.10964141

squeezenet/fire3/expand1x1/BiasAdd/ReadVariableOp:0 f4 [64]
0	0x3e49394d	0.19650765
1	0x3e069542	0.13142875
2	0x3c1d6b1b	0.009608055
3	0xbf4e1909	-0.8050695
4	0xbf6e91d2	-0.93191254
5	0xbe60a97c	-0.21939653
6	0x3ec3b471	0.38223603
7	0xbe9efefc	-0.31053913
8	0xc014ffcf	-2.3281133
9	0xbec47250	-0.38368464
10	0xbe74b725	-0.23897989
11	0xbe5d4dc4	-0.21611696
12	0xbf84b5d8	-1.0367994
13	0xbeb293a3	-0.34878263
14	0x3ecc7f4d	0.39940873
15	0x3ece6bda	0.4031666
16	0x3e28ce73	0.16485004
17	0xbe3f974b	-0.18710057
18	0xbf8b5458	-1.0885115
19	0xbf9034c3	-1.1266102
20	0xbf027ade	-0.5096873
21	0x3e1e6a60	0.15470266
22	0xbf1a7b58	-0.6034446
23	0x3f219b96	0.6312803
24	0x3ecc47c4	0.39898503
25	0xbf889906	-1.0671699
26	0x3e7736ee	0.24142048
27	0xbe78b108	-0.24286282
28	0x3e3b055e	0.18263766
29	0xbc32c850	-0.010912016
30	0x3e6b0877	0.22952448
31	0x3d812eab	0.06307729
32	0xbec96c6a	-0.39340526
33	0xbf8a9347	-1.0826195
34	0xbe4a66f0	-0.1976583
35	0x3e022982	0.12711146
36	0xbe5e272c	-0.2169463
37	0xbce15bdc	-0.027509622
38	0xbefb0a66	-0.4903137
39	0x3e78cb11	0.24296214
40	0x3f551218	0.83230734
41	0xbf6a6044	-0.9155314
42	0xbe36ece2	-0.17863801
43	0xbdc34688	-0.09534937
44	0x3d21e92e	0.039529018
45	0x3faa04e9	1.3282748
46	0xbfcc5303	-1.5962833
47	0x3ed9da8a	0.42549545
48	0x3f5d9f1e	0.8657092
49	0xbf8a606b	-1.0810674
50	0x3f484016	0.7822279
51	0x3ea3dfed	0.3200678
52	0xbfc8ec35	-1.5697085
53	0xbed24c22	-0.4107371
54	0xbdc93cfa	-0.098260835
55	0x3f3d41f0	0.7392874
56	0xbf1ad982	-0.6048814
57	0x3f4a8e8c	0.7912376
58	0xbf61b6cc	-0.8816955
59	0xbf85f403	-1.0465091
60	0xbf1c6c48	-0.61102724
61	0x3f7ee581	0.99568945
62	0xbbca8738	-0.00618067
63	0x3eb8f13d	0.3612155

squeezenet/fire2/squeeze1x1/BiasAdd/ReadVariableOp:0 f4 [16]
0	0x3f4531d7	0.77029175
1	0x3e3a95e0	0.18221235
2	0x3eeb6ae7	0.45979998
3	0xbf7f9dd9	-0.9985023
4	0x3f19d660	0.60092735
5	0xbef711a6	-0.48255652
6	0xbdedf5cb	-0.11619147
7	0xbe766e72	-0.24065569
8	0x3e7d0225	0.2470785
9	0xbe9e0683	-0.30864343
10	0x3edf659c	0.4363221
11	0x3e623173	0.22089176
12	0xbef37b2c	-0.4755491
13	0x3ecac342	0.39602095
14	0xbd91020c	-0.070804685
15	0x3f4dfdd8	0.8046546

squeezenet/fire2/expand3x3/BiasAdd/ReadVariableOp:0 f4 [64]
0	0xbe386964	-0.18008953
1	0xbd99f456	-0.075173065
2	0x3f613891	0.8797694
3	0xbe22d7e5	-0.1590267
4	0x3d2bde29	0.041959915
5	0xbe9e7952	-0.30951935
6	0xbe783ceb	-0.24241988
7	0x3da2dcc0	0.07952261
8	0x3d3a89f0	0.045541704
9	0xbf428094	-0.75977445
10	0xbcaef7ca	-0.02135839
11	0xbe6ebbdc	-0.2331385
12	0x3e8d2bbf	0.27572438
13	0x3ef3c6fd	0.47612754
14	0x3f0c2a79	0.5475231
15	0x3e83f71b	0.25774464
16	0xbea60262	-0.32423693
17	0xbedcb666	-0.4310791
18	0xbe4a5dc8	-0.19762337
19	0xbe5cbaf8	-0.21555698
20	0xbc6c5741	-0.0144251
21	0xbec7b63b	-0.39006218
22	0xbe767874	-0.24069387
23	0x3f19b7e7	0.6004624
24	0xbe69ea64	-0.22843319
25	0x3e45ad0a	0.1930429
26	0x3ec0e800	0.37677002
27	0xbe82796c	-0.25483263
28	0xbbd0c537	-0.006371166
29	0xbecbcc81	-0.39804462
30	0xbeaaf5e4	-0.33390725
31	0xbb16dca6	-0.00230197
32	0x3ebc8de7	0.36827013
33	0x3ebfabbd	0.37435713
34	0xbed61ea4	-0.41820252
35	0xbf10db95	-0.56585056
36	0xbe47fced	-0.19530077
37	0xbe7175ef	-0.23580144
38	0x3d28ecb4	0.041241363
39	0xbf3c8328	-0.7363763
40	0x3e63abc3	0.2223349
41	0xbe35d29c	-0.17756122
42	0x3dc0f4f2	0.094217196
43	0x3de92199	0.11383361
44	0x3f2c1e38	0.6723361
45	0x3eecdfe1	0.46264556
46	0xbd5bdccb	-0.05367736
47	0xbeda7bf9	-0.4267271
48	0x3e108e4e	0.14116785
49	0xbd70fd7e	-0.0588355
50	0xbe9528ed	-0.29132786
51	0x3dc72c1b	0.09725209
52	0x3cc7eb68	0.024404243
53	0xbe5b19fd	-0.21396632
54	0x3ef59519	0.47965315
55	0x3da98bdb	0.082786284
56	0x3d36a225	0.044588227
57	0x3e9e9dcd	0.30979767
58	0x3f1379f5	0.57607967
59	0xbe5c8e82	-0.21538737
60	0xbe791cb0	-0.2432735
61	0x3c2fe0e3	0.0107347695
62	0xbe867c55	-0.26266733
63	0x3ee84902	0.453682

squeezenet/fire2/expand1x1/BiasAdd/ReadVariableOp:0 f4 [64]
0	0x3e745fff	0.23864745
1	0xbe81ed75	-0.25376478
2	0x3dd6d345	0.10489515
3	0xbf743249	-0.9538923
4	0x3eb9ca9c	0.3628739
5	0x3f242a0c	0.6412666
6	0xbe86389c	-0.26215065
7	0x3f284a39	0.65738255
8	0xbda51de0	-0.08062339
9	0xbed77ef6	-0.4208905
10	0xbd861479	-0.065468736
11	0x3e8a9fb4	0.2707497
12	0x3f072f58	0.52806616
13	0xbe76c7be	-0.24099633
14	0xbe90487f	-0.2818031
15	0x3f38147d	0.7190626
16	0xbced189d	-0.0289424
17	0x3dc50316	0.09619729
18	0xbe87ad87	-0.26499578
19	0x3efb2e8b	0.49058947
20	0x3d898bc8	0.06716114
21	0xbf4fd0e7	-0.81178135
22	0x3dc2eea6	0.09518175
23	0x3ef7761a	0.48332292
24	0xbead50cc	-0.33850706
25	0x3e387e86	0.18017015
26	0x3ddff39c	0.10935137
27	0x3f518783	0.818474
28	0x3eb6c98c	0.35700643
29	0x3e795c40	0.24351597
30	0x3e65fe15	0.22460206
31	0xbe57dabc	-0.21079534
32	0xbeec0621	-0.46098426
33	0xbe246911	-0.16055705
34	0x3eb05855	0.34442392
35	0x3f00e515	0.5034955
36	0xbecb3458	-0.39688373
37	0x3edf7c70	0.43649626
38	0xbeebaeec	-0.46031892
39	0x3ea61a29	0.32441834
40	0xbf5909cc	-0.84780574
41	0xbe52bcb4	-0.20579797
42	0x3e87625c	0.2644223
43	0x3ec1713c	0.37781703
44	0xbf257eb7	-0.64646477
45	0x3f245672	0.64194405
46	0x3dc981e6	0.09839229
47	0xbd2a61a2	-0.041597016
48	0x3e590a7f	0.2119541
49	0xbf67b6cf	-0.9051332
50	0xbf375f28	-0.7162957
51	0x3defaefb	0.11703297
52	0x3f2df788	0.6795583
53	0xbd3438d9	-0.043999527
54	0xbdf2f1b9	-0.11862511
55	0x3e1cb3b8	0.15302932
56	0xbf1d9b76	-0.6156534
57	0xbf10ca6f	-0.5655889
58	0x3f138eff	0.5764007
59	0x3e1d11e9	0.15338863
60	0xbeabd985	-0.33564392
61	0xbea0d1d6	-0.31410092
62	0xbe08f6a1	-0.13375331
63	0x3bebc01c	0.007194532

squeezenet/conv10/BiasAdd/ReadVariableOp:0 f4 [10]
0	0x3e2c49f3	0.16825084
1	0x3e88df6d	0.2673296
2	0x3f0a9ff9	0.5415035
3	0x3f8749ec	1.0569434
4	0x3f503dc2	0.81344235
5	0xbe0bc0d8	-0.13647783
6	0x3f0ca773	0.5494301
7	0x3e6865f7	0.22695147
8	0x3ef336f3	0.4750286
9	0x3f35844f	0.7090501

squeezenet/conv/BiasAdd/ReadVariableOp:0 f4 [64]
0	0xbf1c42f4	-0.6103966
1	0xbe76dcb8	-0.24107635
2	0xbe33ab8c	-0.17545909
3	0x3e3be660	0.183496
4	0xbcdcf76d	-0.02697345
5	0xbdd14504	-0.10218242
6	0xbd10f591	-0.03539044
7	0xbd96be19	-0.07360477
8	0xbd2f8dc0	-0.042859793
9	0xbe4f4b31	-0.20243527
10	0xbc8f9250	-0.017525822
11	0x3e081666	0.13289794
12	0xbeae4245	-0.34034935
13	0xbec703fe	-0.38870233
14	0xbd937abc	-0.07201144
15	0xbe5a7d9a	-0.21336976
16	0x3c1bef51	0.009517507
17	0x3efaf359	0.49013785
18	0x3eb44860	0.35211468
19	0xbc73a80f	-0.014871611
20	0xbe388da6	-0.18022785
21	0xbe24fc96	-0.16111979
22	0xbe45fed0	-0.19335485
23	0xbe9eae26	-0.3099224
24	0xbe881757	-0.26580307
25	0xbe5681dd	-0.20947976
26	0x3df82b4b	0.121176325
27	0xbe1ea5b0	-0.15492892
28	0xbea30a11	-0.31843618
29	0xbec6755c	-0.38761413
30	0x3d3c4bf4	0.045970872
31	0xbe7245b8	-0.23659408
32	0xbd7fe523	-0.06247438
33	0xbeaa7b01	-0.3329697
34	0x3d6b7758	0.057486862
35	0xbd8f37fa	-0.069930986
36	0xbd07bf32	-0.033141322
37	0xbc9f0a67	-0.01941414
38	0xbe254b75	-0.16142066
39	0x3cd68983	0.026188618
40	0xbe7bb717	-0.24581562
41	0xbd66854f	-0.056279477
42	0x3dd8199e	0.10551761
43	0xbcca0409	-0.024660127
44	0x3ebe6c1b	0.37191853
45	0xbe06eb56	-0.13175711
46	0xbd8aabc1	-0.06771041
47	0xbe383a8d	-0.17991085
48	0x3d800106	0.06250195
49	0xbf26356c	-0.64925265
50	0x3dc1673d	0.09443519
51	0xbe8d8c62	-0.27646166
52	0xbf02f3b2	-0.511531
53	0xbe822dbb	-0.25425515
54	0xbd651244	-0.055925623
55	0xbe328d45	-0.17436703
56	0xbe8dbdae	-0.27683777
57	0x3efad0b7	0.48987362
58	0x3e176af9	0.147869
59	0xbe8f37c4	-0.27972233
60	0xbd02dbc7	-0.031947877
61	0xbb5a5ca0	-0.003331937
62	0xb99f750d	-0.00030414053
63	0xbe7c1a16	-0.24619326

Zero_0 f4 [2]
0	0xbe3b9872	-0.18319872
1	0x3f06ac38	0.52606535

squeezenet/fire4/expand3x3/Conv2D/ReadVariableOp:0_cp0 f4 [2, 32, 1, 1]
0	0xbe5ad727	-0.21371137
1	0xbef8aeac	-0.48570764
2	0x3e755dd6	0.23961577
3	0xbd1f281c	-0.03885661
4	0xbe988670	-0.29790068
5	0xbeca42f9	-0.3950422
6	0xbec3a14d	-0.38209
7	0xbf50e4a5	-0.81598884
8	0xbe330d20	-0.17485476
9	0xbe330d20	-0.17485476
10	0xbd39aecc	-0.045332715
11	0xbede27fd	-0.43389884
12	0xbeb9aecc	-0.36266172
13	0xbc9f281c	-0.019428305
14	0x3e7bff82	0.24609187
15	0x3d9f281c	0.07771322
16	0x3e330d20	0.17485476
17	0xbe9bd746	-0.30437678
18	0xbd6ebc2a	-0.058284916
19	0xbbd4357b	-0.006476102
20	0xbe7bff82	-0.24609187
21	0xbe8e93ef	-0.2784724
22	0xbf20d087	-0.6281819
23	0x3e0b4319	0.13599814
24	0xbe1f281c	-0.15542644
25	0xbebcffa2	-0.36913782
26	0xbed4357b	-0.41447052
27	0xbe6178d3	-0.22018747
28	0xbe4d93cf	-0.20075916
29	0xbf1bd746	-0.60875356
30	0x3e39aecc	0.18133086
31	0xbde178d3	-0.110093735
32	0x3e6ebc2a	0.23313966
33	0xbe988670	-0.29790068
34	0x3ef20d00	0.47275543
35	0xbe11e4c5	-0.14247425
36	0x3c54357b	0.012952204
37	0xbd04a16d	-0.03238051
38	0xbe0b4319	-0.13599814
39	0x3e755dd6	0.23961577
40	0xbd04a16d	-0.03238051
41	0xbdac6b74	-0.084189326
42	0x00000000	0.0
43	0x3eafbc4a	0.3432334
44	0xbe11e4c5	-0.14247425
45	0xbf07f243	-0.5310404
46	0x3d04a16d	0.03238051
47	0x3ed4357b	0.41447052
48	0x3d54357b	0.051808815
49	0x3e0b4319	0.13599814
50	0x3d6ebc2a	0.058284916
51	0x3dd4357b	0.10361763
52	0xbe330d20	-0.17485476
53	0x3f1d7fb1	0.61522967
54	0x3e84a16d	0.25904408
55	0x3e6178d3	0.22018747
56	0x3e6ebc2a	0.23313966
57	0xbd04a16d	-0.03238051
58	0xbe9bd746	-0.30437678
59	0x3dc6f223	0.09714153
60	0xbe84a16d	-0.25904408
61	0xbd84a16d	-0.06476102
62	0xbde178d3	-0.110093735
63	0x3ea91a9e	0.3302812

Zero_1 f4 [2]
0	0xbe92b7f8	-0.28655982
1	0x3da963c7	0.08270984

squeezenet/fire4/expand3x3/Conv2D/ReadVariableOp:0_cp1 f4 [2, 1, 3, 1]
0	0x3f29b195	0.66286594
1	0x3e391ed1	0.18078162
2	0x3eed9237	0.46400616
3	0xbf42605b	-0.75928277
4	0x3dacc76e	0.08436476
5	0x3f2385e3	0.6387617

Zero_2 f4 [2]
0	0x3e7607c8	0.24026406
1	0xbd8ac7dc	-0.067764014

squeezenet/fire4/expand3x3/Conv2D/ReadVariableOp:0_cp2 f4 [2, 1, 1, 3]
0	0xbefa58ae	-0.48895782
1	0xbec7ae5a	-0.39000207
2	0xbefa58ae	-0.48895782
3	0xbf1af9f2	-0.60537636
4	0xbee280fe	-0.44239038
5	0xbf3bc282	-0.7334367

squeezenet/fire4/expand3x3/Conv2D/ReadVariableOp:0_cp3 f4 [128, 2, 1, 1]
0	0xbfe2b429	-1.771123
1	0x3ea1ee66	0.31627196
2	0xbfdea7cd	-1.7394959
3	0xbd818b85	-0.06325439
4	0xbf95c952	-1.1702063
5	0xbef2e599	-0.47440794
6	0xbf818b85	-1.0120703
7	0xbf2a071f	-0.66417116
8	0xbfb21fd7	-1.3915967
9	0xbe62b429	-0.22139038
10	0xbfa1ee66	-1.2650878
11	0xbea1ee66	-0.31627196
12	0xbfe6c085	-1.8027502
13	0xbdc25148	-0.094881594
14	0xbfeacce1	-1.8343774
15	0xbec25148	-0.37952638
16	0xc019d5ae	-2.403667
17	0xbe21ee66	-0.15813598
18	0xbf425148	-0.75905275
19	0xbe425148	-0.18976319
20	0xbfc25148	-1.5181055
21	0xbf19d5ae	-0.60091674
22	0xbf818b85	-1.0120703
23	0xbdc25148	-0.094881594
24	0xc019d5ae	-2.403667
25	0xbf2a071f	-0.66417116
26	0xbfc65da4	-1.5497327
27	0x3e425148	0.18976319
28	0xbf9de20a	-1.2334607
29	0x3d018b85	0.031627197
30	0xbfff0aae	-1.9925134
31	0xbeb21fd7	-0.34789917
32	0xbfc25148	-1.5181055
33	0xbeb21fd7	-0.34789917
34	0xbfa5fac2	-1.296715
35	0xbe91bcf6	-0.28464478
36	0xbf11bcf6	-0.56928957
37	0xbe818b85	-0.25301757
38	0xbfb62c33	-1.4232239
39	0xbe425148	-0.18976319
40	0xbf72e599	-0.9488159
41	0xbdc25148	-0.094881594
42	0xc0589542	-3.38411
43	0xbfbe44eb	-1.4864782
44	0xbfdea7cd	-1.7394959
45	0xbe818b85	-0.25301757
46	0xbfba388f	-1.454851
47	0xbe62b429	-0.22139038
48	0xbf91bcf6	-1.1385791
49	0xbd818b85	-0.06325439
50	0xc013c324	-2.3087854
51	0xbdc25148	-0.094881594
52	0xbf5a9b70	-0.8539343
53	0xbe62b429	-0.22139038
54	0xbfbe44eb	-1.4864782
55	0xbd818b85	-0.06325439
56	0xbfa1ee66	-1.2650878
57	0xbe62b429	-0.22139038
58	0xbfaa071f	-1.3283423
59	0xbd018b85	-0.031627197
60	0xbf6acce1	-0.9171887
61	0xbe21ee66	-0.15813598
62	0xc0425148	-3.036211
63	0xbf11bcf6	-0.56928957
64	0xc02a071f	-2.6566846
65	0xbf425148	-0.75905275
66	0xc02e137b	-2.719939
67	0x00000000	0.0
68	0xbf99d5ae	-1.2018335
69	0xbe91bcf6	-0.28464478
70	0xbfaa071f	-1.3283423
71	0xbe818b85	-0.25301757
72	0xbf321fd7	-0.69579834
73	0xbd818b85	-0.06325439
74	0xbf5282b8	-0.8223071
75	0xbe018b85	-0.12650879
76	0xbfd68f14	-1.6762414
77	0xbe818b85	-0.25301757
78	0xbfdea7cd	-1.7394959
79	0xbdc25148	-0.094881594
80	0xbf72e599	-0.9488159
81	0xbe425148	-0.18976319
82	0xbf5282b8	-0.8223071
83	0xbe018b85	-0.12650879
84	0xc080886e	-4.016654
85	0xbf8db099	-1.1069518
86	0xbf5a9b70	-0.8539343
87	0xbe818b85	-0.25301757
88	0xbf4a6a00	-0.79067993
89	0xbe425148	-0.18976319
90	0xbfeacce1	-1.8343774
91	0xbea1ee66	-0.31627196
92	0xbf89a43d	-1.0753247
93	0xbe818b85	-0.25301757
94	0xbfe2b429	-1.771123
95	0xbd018b85	-0.031627197
96	0xc02800f0	-2.6250572
97	0x3ea1ee66	0.31627196
98	0xbf72e599	-0.9488159
99	0xbf91bcf6	-1.1385791
100	0xc02a071f	-2.6566846
101	0x3f21ee66	0.6325439
102	0xbf818b85	-1.0120703
103	0xbe425148	-0.18976319
104	0xc015c952	-2.3404126
105	0x3eb21fd7	0.34789917
106	0xbfba388f	-1.454851
107	0x3d018b85	0.031627197
108	0xbfb21fd7	-1.3915967
109	0xbe018b85	-0.12650879
110	0xbfd68f14	-1.6762414
111	0xbef2e599	-0.47440794
112	0xbfbe44eb	-1.4864782
113	0xbe21ee66	-0.15813598
114	0xbfe6c085	-1.8027502
115	0xbeb21fd7	-0.34789917
116	0xc0362c33	-2.8464477
117	0xbdc25148	-0.094881594
118	0xbfae137b	-1.3599695
119	0xbe018b85	-0.12650879
120	0xbff2e599	-1.8976318
121	0xbec25148	-0.37952638
122	0xbf62b429	-0.8855615
123	0xbdc25148	-0.094881594
124	0xbfa1ee66	-1.2650878
125	0xbf09a43d	-0.5376623
126	0xbf8597e1	-1.0436975
127	0xbe21ee66	-0.15813598
128	0xc01fe838	-2.4985485
129	0xbe018b85	-0.12650879
130	0xbfba388f	-1.454851
131	0xbe91bcf6	-0.28464478
132	0xbfa5fac2	-1.296715
133	0xbe21ee66	-0.15813598
134	0xbfdea7cd	-1.7394959
135	0xbf4a6a00	-0.79067993
136	0xc00597e1	-2.087395
137	0xbef2e599	-0.47440794
138	0xbfba388f	-1.454851
139	0xbe818b85	-0.25301757
140	0xbf4a6a00	-0.79067993
141	0xbdc25148	-0.094881594
142	0xbfce765c	-1.612987
143	0xbe425148	-0.18976319
144	0xc0362c33	-2.8464477
145	0xbd818b85	-0.06325439
146	0xc00391b3	-2.0557678
147	0xbea1ee66	-0.31627196
148	0xbf818b85	-1.0120703
149	0xbe62b429	-0.22139038
150	0xbf321fd7	-0.69579834
151	0xbe62b429	-0.22139038
152	0xbf9de20a	-1.2334607
153	0x3dc25148	0.094881594
154	0xbfb21fd7	-1.3915967
155	0xbe62b429	-0.22139038
156	0xc05282b8	-3.2892284
157	0xbdc25148	-0.094881594
158	0xbf3a388f	-0.7274255
159	0x3e62b429	0.22139038
160	0xbfd68f14	-1.6762414
161	0xbdc25148	-0.094881594
162	0xbf5a9b70	-0.8539343
163	0x3e018b85	0.12650879
164	0xbfa5fac2	-1.296715
165	0xbe425148	-0.18976319
166	0xbfeed93d	-1.8660046
167	0xbea1ee66	-0.31627196
168	0xbf8db099	-1.1069518
169	0xbe818b85	-0.25301757
170	0xbf4a6a00	-0.79067993
171	0xbe425148	-0.18976319
172	0xbf2a071f	-0.66417116
173	0x3f19d5ae	0.60091674
174	0xbf4a6a00	-0.79067993
175	0xbe018b85	-0.12650879
176	0xbf3a388f	-0.7274255
177	0xbd818b85	-0.06325439
178	0xc0079e0f	-2.1190221
179	0x3e91bcf6	0.28464478
180	0xbfbe44eb	-1.4864782
181	0xbe91bcf6	-0.28464478
182	0xbf2a071f	-0.66417116
183	0xbdc25148	-0.094881594
184	0xbf62b429	-0.8855615
185	0xbdc25148	-0.094881594
186	0xbfa1ee66	-1.2650878
187	0xbe018b85	-0.12650879
188	0xc00fb6c8	-2.245531
189	0x3f21ee66	0.6325439
190	0xc0018b85	-2.0241406
191	0xbe018b85	-0.12650879
192	0xbee2b429	-0.44278076
193	0xbe425148	-0.18976319
194	0xbf7afe52	-0.9804431
195	0xbd818b85	-0.06325439
196	0xbf3a388f	-0.7274255
197	0x3f11bcf6	0.56928957
198	0xbfd68f14	-1.6762414
199	0xbec25148	-0.37952638
200	0xc01fe838	-2.4985485
201	0xbf425148	-0.75905275
202	0xbfc65da4	-1.5497327
203	0xbea1ee66	-0.31627196
204	0xbfc65da4	-1.5497327
205	0xbe018b85	-0.12650879
206	0xbfba388f	-1.454851
207	0x3f11bcf6	0.56928957
208	0xc03a388f	-2.909702
209	0xbe62b429	-0.22139038
210	0xbf818b85	-1.0120703
211	0x3e425148	0.18976319
212	0xbf62b429	-0.8855615
213	0xbe818b85	-0.25301757
214	0xbf95c952	-1.1702063
215	0xbe62b429	-0.22139038
216	0xc019d5ae	-2.403667
217	0xbd818b85	-0.06325439
218	0xc019d5ae	-2.403667
219	0xbf72e599	-0.9488159
220	0xc013c324	-2.3087854
221	0xbf19d5ae	-0.60091674
222	0xc0321fd7	-2.7831933
223	0xbd818b85	-0.06325439
224	0xbf62b429	-0.8855615
225	0xbe425148	-0.18976319
226	0xbeb21fd7	-0.34789917
227	0x3f2a071f	0.66417116
228	0xbf425148	-0.75905275
229	0xbd818b85	-0.06325439
230	0xc00fb6c8	-2.245531
231	0xbe21ee66	-0.15813598
232	0xc00db099	-2.2139037
233	0x3f8597e1	1.0436975
234	0xbff2e599	-1.8976318
235	0xbea1ee66	-0.31627196
236	0xbf95c952	-1.1702063
237	0xbe21ee66	-0.15813598
238	0xbfc25148	-1.5181055
239	0xbe62b429	-0.22139038
240	0xbf5282b8	-0.8223071
241	0xbe425148	-0.18976319
242	0xbf19d5ae	-0.60091674
243	0xbdc25148	-0.094881594
244	0xbfbe44eb	-1.4864782
245	0xbe62b429	-0.22139038
246	0xbfb21fd7	-1.3915967
247	0x3e425148	0.18976319
248	0xbf62b429	-0.8855615
249	0xbe018b85	-0.12650879
250	0xbfdea7cd	-1.7394959
251	0xbec25148	-0.37952638
252	0xbf09a43d	-0.5376623
253	0xbf6acce1	-0.9171887
254	0xc04863d2	-3.1310925
255	0xbfca6a00	-1.5813599

Zero_3 f4 [8]
0	0xbd4b1fe3	-0.049590956
1	0x3f2a2315	0.6645978
2	0xbdbac08a	-0.09118755
3	0x3f70adb0	0.94015026
4	0x3dd72f65	0.10507087
5	0x3e73fa5f	0.23825978
6	0x3eb110c4	0.34583104
7	0xbec829e6	-0.39094466

squeezenet/fire3/expand3x3/Conv2D/ReadVariableOp:0_cp0 f4 [8, 16, 1, 1]
0	0x3cf79fce	0.030227568
1	0x3dd8abd4	0.105796486
2	0x3dd8abd4	0.105796486
3	0xbf1306e2	-0.5743238
4	0xbecd1057	-0.4005153
5	0x3cb9b7da	0.022670675
6	0xbeb9b7da	-0.3627308
7	0x3db9b7da	0.0906827
8	0xbe1306e2	-0.14358094
9	0xbeaa3dde	-0.33250326
10	0xbe4931d7	-0.19647919
11	0xbe58abd4	-0.21159297
12	0xbe038ce5	-0.12846716
13	0xbe1306e2	-0.14358094
14	0xbc779fce	-0.015113784
15	0xbf0f2863	-0.55921
16	0xbe0b49e4	-0.13602406
17	0x3e4931d7	0.19647919
18	0x3e038ce5	0.12846716
19	0xbdaa3dde	-0.083125815
20	0x3d58abd4	0.052898243
21	0xbd39b7da	-0.04534135
22	0x3e9306e2	0.2871619
23	0xbe31fadc	-0.17380852
24	0xbeae1c5d	-0.34006014
25	0x3ec931d7	0.39295837
26	0x3ee825d1	0.45341352
27	0x3bf79fce	0.007556892
28	0x3e038ce5	0.12846716
29	0xbcb9b7da	-0.022670675
30	0x3bf79fce	0.007556892
31	0x3e6068d3	0.21914987
32	0xbdb9b7da	-0.0906827
33	0xbbf79fce	-0.007556892
34	0x3f2a3dde	0.6650065
35	0xbf1306e2	-0.5743238
36	0xbeefe2d0	-0.46852732
37	0xbe1306e2	-0.14358094
38	0xbe96e562	-0.2947188
39	0xbe838ce5	-0.25693431
40	0xbeec0450	-0.4609704
41	0x3eae1c5d	0.34006014
42	0xbd779fce	-0.060455136
43	0xbebd965a	-0.37028772
44	0xbd779fce	-0.060455136
45	0x3e9306e2	0.2871619
46	0xbe2a3dde	-0.16625163
47	0xbe838ce5	-0.25693431
48	0xbe2a3dde	-0.16625163
49	0x3d8b49e4	0.06801203
50	0x3e6068d3	0.21914987
51	0xbcf79fce	-0.030227568
52	0x3e779fce	0.24182054
53	0x3e31fadc	0.17380852
54	0xbeb9b7da	-0.3627308
55	0x3edc8a53	0.43074283
56	0x3e1306e2	0.14358094
57	0xbed0eed6	-0.40807217
58	0xbe6068d3	-0.21914987
59	0x3df79fce	0.12091027
60	0x3e779fce	0.24182054
61	0x3dd8abd4	0.105796486
62	0x3cb9b7da	0.022670675
63	0xbd779fce	-0.060455136
64	0xbe6825d1	-0.22670676
65	0xbd8b49e4	-0.06801203
66	0x3eb9b7da	0.3627308
67	0x3e8b49e4	0.27204812
68	0x3e9ea260	0.30983257
69	0xbd1ac3e1	-0.03778446
70	0xbee825d1	-0.45341352
71	0xbe838ce5	-0.25693431
72	0x3e6825d1	0.22670676
73	0xbf076b65	-0.52898246
74	0x3f019da6	0.5063118
75	0xbeaa3dde	-0.33250326
76	0x3e1306e2	0.14358094
77	0x3f75b08e	0.95972526
78	0xbe9ac3e1	-0.3022757
79	0x3ed4cd55	0.41562906
80	0x3ec931d7	0.39295837
81	0xbd39b7da	-0.04534135
82	0x3e8f2863	0.279605
83	0xbe2a3dde	-0.16625163
84	0xbeb9b7da	-0.3627308
85	0xbed8abd4	-0.42318594
86	0xbe1ac3e1	-0.15113784
87	0x3df79fce	0.12091027
88	0x3f095aa4	0.5365393
89	0x3eb1fadc	0.34761703
90	0xbe39b7da	-0.1813654
91	0xbdd8abd4	-0.105796486
92	0xbd1ac3e1	-0.03778446
93	0x3ecd1057	0.4005153
94	0xbcf79fce	-0.030227568
95	0x3dc931d7	0.09823959
96	0x3d58abd4	0.052898243
97	0x3d39b7da	0.04534135
98	0xbe0b49e4	-0.13602406
99	0xbf4174d9	-0.7556892
100	0xbf1306e2	-0.5743238
101	0xbc779fce	-0.015113784
102	0xbf2e1c5d	-0.6801203
103	0xbe58abd4	-0.21159297
104	0xbe6825d1	-0.22670676
105	0xbec931d7	-0.39295837
106	0x3e2280df	0.15869473
107	0xbd39b7da	-0.04534135
108	0xbd779fce	-0.060455136
109	0x3dc931d7	0.09823959
110	0x3d8b49e4	0.06801203
111	0xbf54cd55	-0.8312581
112	0xbec174d9	-0.3778446
113	0xbdaa3dde	-0.083125815
114	0xbe7f5ccc	-0.24937743
115	0x3e8f2863	0.279605
116	0xbe50eed6	-0.20403609
117	0xbe2a3dde	-0.16625163
118	0xbd1ac3e1	-0.03778446
119	0x3e838ce5	0.25693431
120	0xbc779fce	-0.015113784
121	0x3eb9b7da	0.3627308
122	0xbd779fce	-0.060455136
123	0xbe9306e2	-0.2871619
124	0xbe9ac3e1	-0.3022757
125	0xbe6825d1	-0.22670676
126	0xbf16e562	-0.5894376
127	0x3de825d1	0.11335338

Zero_4 f4 [8]
0	0x3d18fbc6	0.037349485
1	0xbeb828d7	-0.35968658
2	0x3ce293cb	0.027658364
3	0xbeaeb95e	-0.341258
4	0x3e7952b5	0.24347956
5	0xbe173dfd	-0.1476974
6	0xbcf35fe3	-0.029708808
7	0x3e14d6a6	0.14535007

squeezenet/fire3/expand3x3/Conv2D/ReadVariableOp:0_cp1 f4 [8, 1, 3, 1]
0	0xbf7f5cf7	-0.9975123
1	0x3dee0224	0.11621502
2	0x3f0d5145	0.5520213
3	0x3c1eac18	0.009684585
4	0xbedf2202	-0.43580633
5	0xbe99b6b7	-0.30022213
6	0xbe94c156	-0.29053754
7	0xbec6571e	-0.3873834
8	0x3f690cc3	0.910351
9	0x3f14c156	0.5810751
10	0x3c1eac18	0.009684585
11	0xbeda2ca1	-0.42612174
12	0xbee90cc3	-0.4551755
13	0x3e85e134	0.2614838
14	0x3f553740	0.8328743
15	0xbf19b6b7	-0.60044426
16	0x3e14c156	0.14526877
17	0x3f0fcbf6	0.56170595
18	0x3f5041e0	0.8135052
19	0x3e1eac18	0.15495336
20	0xbd1eac18	-0.03873834
21	0xbeee0224	-0.46486008
22	0xbd9eac18	-0.07747668
23	0x3f9d6ec0	1.2299423

Zero_5 f4 [8]
0	0x3e1c808f	0.15283416
1	0x3da6fb16	0.081533596
2	0xbd23bf14	-0.03997715
3	0xbea9baa8	-0.3315022
4	0x3e3b052e	0.18263695
5	0xbdcfef2e	-0.10153042
6	0xbe8d61fb	-0.27613816
7	0x3e9e0674	0.30864298

squeezenet/fire3/expand3x3/Conv2D/ReadVariableOp:0_cp2 f4 [8, 1, 1, 3]
0	0xbe1c829e	-0.15284202
1	0xbe4d6b6f	-0.20060514
2	0xbe39db1c	-0.1814999
3	0x3efe5441	0.49673656
4	0x3d6ac3ed	0.057315756
5	0xbf18d78e	-0.5970391
6	0xbe840e35	-0.2579209
7	0xbea166b3	-0.31523666
8	0xbe819c2b	-0.2531446
9	0x3e79702c	0.24359196
10	0x3ec1313b	0.37732872
11	0x3e573399	0.21015777
12	0x3e264ac8	0.16239464
13	0x3e92ba74	0.28657877
14	0x3e6fa802	0.23403934
15	0x3e88f24a	0.26747352
16	0x3ec3a346	0.38210505
17	0x3e8dd65f	0.27702615
18	0x3e2166b3	0.15761833
19	0x3e0dd65f	0.13851307
20	0x3e264ac8	0.16239464
21	0x3df48c17	0.119407825
22	0x3e48875a	0.19582883
23	0x3e264ac8	0.16239464

squeezenet/fire3/expand3x3/Conv2D/ReadVariableOp:0_cp3 f4 [64, 8, 1, 1]
0	0x3f517f46	0.8183483
1	0x3e4387db	0.19094793
2	0xbea79905	-0.32733932
3	0x3d5f76b1	0.054556552
4	0xbf84ae79	-1.0365745
5	0x3f587afb	0.84562653
6	0xbf12a5e4	-0.5728438
7	0xbe5f76b1	-0.21822621
8	0xc02957f2	-2.6459928
9	0x3e4387db	0.19094793
10	0x3f4387db	0.76379174
11	0x3efb6587	0.49100897
12	0x3f359070	0.7092352
13	0xbd5f76b1	-0.054556552
14	0x3ffb6587	1.9640359
15	0x3ddf76b1	0.109113105
16	0x3f8f2809	1.1184093
17	0xbe8baa2f	-0.27278277
18	0x3ddf76b1	0.109113105
19	0xbddf76b1	-0.109113105
20	0xbf12a5e4	-0.5728438
21	0x3f04ae79	0.51828724
22	0xbf9d1f74	-1.2275224
23	0x3edf76b1	0.43645242
24	0xbf3c8c25	-0.73651344
25	0x3f0baa2f	0.54556555
26	0xbe8baa2f	-0.27278277
27	0x3fbc8c25	1.4730269
28	0xbe4387db	-0.19094793
29	0x3cdf76b1	0.027278276
30	0x3f517f46	0.8183483
31	0xbf3c8c25	-0.73651344
32	0xbda79905	-0.08183483
33	0xbfae94ba	-1.3639138
34	0xbd5f76b1	-0.054556552
35	0x3cdf76b1	0.027278276
36	0x3eb59070	0.3546176
37	0x3e4387db	0.19094793
38	0x3fab16e0	1.3366356
39	0x3f2e94ba	0.6819569
40	0xbfae94ba	-1.3639138
41	0xbddf76b1	-0.109113105
42	0x3f4a8390	0.79107
43	0x3ea79905	0.32733932
44	0x3e0baa2f	0.13639139
45	0x3e99a19a	0.30006105
46	0x3fa79905	1.3093573
47	0x3f12a5e4	0.5728438
48	0x402b16e0	2.6732712
49	0x3e99a19a	0.30006105
50	0xbf4387db	-0.76379174
51	0xbfb59070	-1.4184704
52	0xbeb59070	-0.3546176
53	0x3e279905	0.16366966
54	0xbf209d4f	-0.62740034
55	0x3e5f76b1	0.21822621
56	0x3cdf76b1	0.027278276
57	0xbe0baa2f	-0.13639139
58	0x3e8baa2f	0.27278277
59	0x3fa09d4f	1.2548007
60	0x3d5f76b1	0.054556552
61	0x3f882c54	1.0638528
62	0x3e99a19a	0.30006105
63	0x3da79905	0.08183483
64	0x3edf76b1	0.43645242
65	0xbf2e94ba	-0.6819569
66	0xbddf76b1	-0.109113105
67	0xbe99a19a	-0.30006105
68	0xbe279905	-0.16366966
69	0xbe4387db	-0.19094793
70	0x3ed17f46	0.40917414
71	0x3e0baa2f	0.13639139
72	0xbf12a5e4	-0.5728438
73	0x00000000	0.0
74	0x3cdf76b1	0.027278276
75	0x3eb59070	0.3546176
76	0x3f19a19a	0.6001221
77	0xbeb59070	-0.3546176
78	0x3f0baa2f	0.54556555
79	0xbea79905	-0.32733932
80	0x3e8baa2f	0.27278277
81	0x3fd87afb	1.6912531
82	0xbe99a19a	-0.30006105
83	0x3e279905	0.16366966
84	0xbe279905	-0.16366966
85	0x3ddf76b1	0.109113105
86	0x3f517f46	0.8183483
87	0x3f19a19a	0.6001221
88	0xbea79905	-0.32733932
89	0x3e0baa2f	0.13639139
90	0x3e5f76b1	0.21822621
91	0x3f19a19a	0.6001221
92	0xbe7b6587	-0.24550448
93	0x3f4387db	0.76379174
94	0x3fc387db	1.5275835
95	0xbe5f76b1	-0.21822621
96	0xc0321295	-2.7823842
97	0x3d5f76b1	0.054556552
98	0x3fa41b2a	1.282079
99	0x3f7469d2	0.9547397
100	0xbeed6e1c	-0.4637307
101	0x3e5f76b1	0.21822621
102	0x405db7c4	3.4643412
103	0xbed17f46	-0.40917414
104	0xbf0baa2f	-0.54556555
105	0xbefb6587	-0.49100897
106	0x3d5f76b1	0.054556552
107	0xbda79905	-0.08183483
108	0xbe279905	-0.16366966
109	0xbd5f76b1	-0.054556552
110	0x3f92a5e4	1.1456876
111	0xbedf76b1	-0.43645242
112	0xbfc00a00	-1.5003052
113	0x3da79905	0.08183483
114	0xbefb6587	-0.49100897
115	0x3f0baa2f	0.54556555
116	0x3f0baa2f	0.54556555
117	0xbf2e94ba	-0.6819569
118	0x400baa2f	2.1822622
119	0xbfae94ba	-1.3639138
120	0x3eb59070	0.3546176
121	0x3e8baa2f	0.27278277
122	0xbd5f76b1	-0.054556552
123	0x3e8baa2f	0.27278277
124	0x3f12a5e4	0.5728438
125	0x3f6d6e1c	0.9274614
126	0x3f7b6587	0.98201793
127	0x3f4387db	0.76379174
128	0xbf667267	-0.90018314
129	0xbda79905	-0.08183483
130	0x3eb59070	0.3546176
131	0xbd5f76b1	-0.054556552
132	0x3e7b6587	0.24550448
133	0x3e279905	0.16366966
134	0x3fd87afb	1.6912531
135	0x3ddf76b1	0.109113105
136	0x3f359070	0.7092352
137	0x3cdf76b1	0.027278276
138	0x3e4387db	0.19094793
139	0x3e7b6587	0.24550448
140	0x3e279905	0.16366966
141	0x3e0baa2f	0.13639139
142	0xbefb6587	-0.49100897
143	0x3f81309e	1.0092962
144	0x3f99a19a	1.2002442
145	0xbcdf76b1	-0.027278276
146	0xbfa09d4f	-1.2548007
147	0x3edf76b1	0.43645242
148	0xbf517f46	-0.8183483
149	0xbe7b6587	-0.24550448
150	0xbe7b6587	-0.24550448
151	0x3f7b6587	0.98201793
152	0xbe0baa2f	-0.13639139
153	0xbfe2f48c	-1.773088
154	0x3e0baa2f	0.13639139
155	0x00000000	0.0
156	0xbe7b6587	-0.24550448
157	0x3e7b6587	0.24550448
158	0x3e7b6587	0.24550448
159	0xbda79905	-0.08183483
160	0xbec387db	-0.38189587
161	0x00000000	0.0
162	0x3e5f76b1	0.21822621
163	0x3f92a5e4	1.1456876
164	0x3e99a19a	0.30006105
165	0xbe4387db	-0.19094793
166	0x3e7b6587	0.24550448
167	0xbe8baa2f	-0.27278277
168	0xbf7469d2	-0.9547397
169	0xbcdf76b1	-0.027278276
170	0x00000000	0.0
171	0x3f209d4f	0.62740034
172	0x3e7b6587	0.24550448
173	0xbf9623bf	-1.1729659
174	0x3fa41b2a	1.282079
175	0xbf0baa2f	-0.54556555
176	0xbf6d6e1c	-0.9274614
177	0xbe7b6587	-0.24550448
178	0x3ed17f46	0.40917414
179	0xbf0baa2f	-0.54556555
180	0xbf209d4f	-0.62740034
181	0x3ec387db	0.38189587
182	0x3f8f2809	1.1184093
183	0xbf3c8c25	-0.73651344
184	0x3f12a5e4	0.5728438
185	0x3fd4fd21	1.6639749
186	0xbda79905	-0.08183483
187	0xbe279905	-0.16366966
188	0xbeb59070	-0.3546176
189	0x3f209d4f	0.62740034
190	0xbe0baa2f	-0.13639139
191	0xbcdf76b1	-0.027278276
192	0xc001309e	-2.0185924
193	0xbd5f76b1	-0.054556552
194	0xbe0baa2f	-0.13639139
195	0xbefb6587	-0.49100897
196	0x3ed17f46	0.40917414
197	0xbf7469d2	-0.9547397
198	0x402e94ba	2.7278275
199	0xbefb6587	-0.49100897
200	0x3e279905	0.16366966
201	0xbd5f76b1	-0.054556552
202	0xbea79905	-0.32733932
203	0x3ed17f46	0.40917414
204	0xbd5f76b1	-0.054556552
205	0xbf04ae79	-0.51828724
206	0x3f209d4f	0.62740034
207	0xbe5f76b1	-0.21822621
208	0xbfe67267	-1.8003663
209	0x3ddf76b1	0.109113105
210	0x3e99a19a	0.30006105
211	0x3f882c54	1.0638528
212	0x3e99a19a	0.30006105
213	0x3d5f76b1	0.054556552
214	0x4001309e	2.0185924
215	0xbeb59070	-0.3546176
216	0xbf04ae79	-0.51828724
217	0x3f359070	0.7092352
218	0x3e279905	0.16366966
219	0x3f84ae79	1.0365745
220	0xbe4387db	-0.19094793
221	0x3f279905	0.65467864
222	0x3f99a19a	1.2002442
223	0x3ec387db	0.38189587
224	0x3f5f76b1	0.87290484
225	0x3d5f76b1	0.054556552
226	0x3d5f76b1	0.054556552
227	0xbe5f76b1	-0.21822621
228	0xbf6d6e1c	-0.9274614
229	0xbe279905	-0.16366966
230	0xbf0baa2f	-0.54556555
231	0x3ea79905	0.32733932
232	0xbf6d6e1c	-0.9274614
233	0xbe279905	-0.16366966
234	0x3e279905	0.16366966
235	0xbec387db	-0.38189587
236	0xbe0baa2f	-0.13639139
237	0xbf517f46	-0.8183483
238	0x3f279905	0.65467864
239	0xbf6d6e1c	-0.9274614
240	0xbf5f76b1	-0.87290484
241	0x3e0baa2f	0.13639139
242	0xbeb59070	-0.3546176
243	0xbf2e94ba	-0.6819569
244	0xbec387db	-0.38189587
245	0xbe5f76b1	-0.21822621
246	0x3fb21295	1.3911921
247	0xbf279905	-0.65467864
248	0xbfb90e4b	-1.4457487
249	0xbcdf76b1	-0.027278276
250	0x3ec387db	0.38189587
251	0xbf9d1f74	-1.2275224
252	0x3e0baa2f	0.13639139
253	0xbf209d4f	-0.62740034
254	0x40390e4b	2.8914974
255	0x3e4387db	0.19094793

Zero_6 f4 [32]
0	0x3d4686a6	0.048468255
1	0xbeda93ba	-0.4269083
2	0x3ec5d2f4	0.38637507
3	0xbbffeec9	-0.007810448
4	0x3e9535f3	0.29142722
5	0x3e3625e8	0.17787898
6	0xbdc68504	-0.096933395
7	0xbe27dcad	-0.16392775
8	0x3cbd5837	0.023113353
9	0x3edf75c5	0.4364454
10	0xbe508d1f	-0.20366333
11	0xbd95a092	-0.07306017
12	0xbd107746	-0.035269998
13	0x3e72f261	0.23725273
14	0x3d74d0f2	0.05976958
15	0x3e264ba5	0.16239794
16	0xbc0ed7ea	-0.00871847
17	0x3e31817b	0.17334549
18	0xbe93cd49	-0.28867558
19	0xbe73f5dc	-0.23824257
20	0xbe60beed	-0.21947832
21	0x3b70e1dc	0.0036755716
22	0xbddfbbf9	-0.10924525
23	0xbdbf1b59	-0.09331388
24	0xbe9944e7	-0.2993538
25	0x3d067c9f	0.03283369
26	0xbe47903d	-0.19488616
27	0x3d25e293	0.04049928
28	0x3e083fb1	0.13305546
29	0xbe419dc9	-0.18907847
30	0xbcfa4f3c	-0.03055536
31	0xbe5d9cb2	-0.21641806

squeezenet/fire2/expand3x3/Conv2D/ReadVariableOp:0_cp0 f4 [32, 16, 1, 1]
0	0x3d2caf08	0.04215911
1	0x3e8c4e36	0.2740342
2	0xbf91b3af	-1.138296
3	0x3f06e8be	0.52698886
4	0xbea1e418	-0.31619334
5	0x3e4244e9	0.189716
6	0x3f2caf08	0.67454576
7	0x3f11b3af	0.569148
8	0x3cacaf08	0.021079555
9	0x3eed70ab	0.4637502
10	0x3cacaf08	0.021079555
11	0x3e6d70ab	0.2318751
12	0xbe57daca	-0.21079555
13	0xbe971927	-0.29511377
14	0x3f06e8be	0.52698886
15	0xbe8c4e36	-0.2740342
16	0x3e4244e9	0.189716
17	0x3dd7daca	0.105397776
18	0xbd818346	-0.063238665
19	0xbed7daca	-0.4215911
20	0xbe57daca	-0.21079555
21	0xbee2a5ba	-0.44267064
22	0xbe4244e9	-0.189716
23	0x3f11b3af	0.569148
24	0xbf06e8be	-0.52698886
25	0xbdd7daca	-0.105397776
26	0xbe171927	-0.14755689
27	0x3f4244e9	0.758864
28	0x3f21e418	0.6323867
29	0xbecd0fda	-0.40051156
30	0x3dd7daca	0.105397776
31	0xbe2caf08	-0.16863644
32	0xbf899b7a	-1.0750573
33	0x3e4244e9	0.189716
34	0x3e171927	0.14755689
35	0xbe4244e9	-0.189716
36	0xbf274990	-0.6534662
37	0x3e971927	0.29511377
38	0xbf1c7e9f	-0.6113071
39	0x3d2caf08	0.04215911
40	0xbea1e418	-0.31619334
41	0x3f3779f8	0.71670485
42	0x3f4244e9	0.758864
43	0x3e4244e9	0.189716
44	0xbe2caf08	-0.16863644
45	0x3ed7daca	0.4215911
46	0xbf783b9c	-0.96965957
47	0x3f2caf08	0.67454576
48	0x3ef83b9c	0.48482978
49	0x3eacaf08	0.33727288
50	0x3f3cdf71	0.73778445
51	0x3dd7daca	0.105397776
52	0x3f171927	0.59022754
53	0xbdacaf08	-0.08431822
54	0xbe8c4e36	-0.2740342
55	0xbf171927	-0.59022754
56	0x3e818346	0.25295466
57	0xbec244e9	-0.379432
58	0xbea1e418	-0.31619334
59	0xbe4244e9	-0.189716
60	0x3e171927	0.14755689
61	0x3ecd0fda	0.40051156
62	0x3cacaf08	0.021079555
63	0xbcacaf08	-0.021079555
64	0xbe8c4e36	-0.2740342
65	0x3fa496d4	1.2858529
66	0x3f018346	0.5059093
67	0xbdacaf08	-0.08431822
68	0xbe971927	-0.29511377
69	0x3ed7daca	0.4215911
70	0xbf321480	-0.6956253
71	0x00000000	0.0
72	0xbe2caf08	-0.16863644
73	0xbe6d70ab	-0.2318751
74	0xbeacaf08	-0.33727288
75	0x3ef83b9c	0.48482978
76	0xbf21e418	-0.6323867
77	0x3ea1e418	0.31619334
78	0xbecd0fda	-0.40051156
79	0x3f4244e9	0.758864
80	0x3dd7daca	0.105397776
81	0xbe2caf08	-0.16863644
82	0x3ed7daca	0.4215911
83	0x3e171927	0.14755689
84	0x3f971927	1.1804551
85	0xbdacaf08	-0.08431822
86	0xbf1c7e9f	-0.6113071
87	0xbf47aa61	-0.7799435
88	0x3f171927	0.59022754
89	0x3e8c4e36	0.2740342
90	0x3ea1e418	0.31619334
91	0x00000000	0.0
92	0xbe8c4e36	-0.2740342
93	0xbcacaf08	-0.021079555
94	0xbeed70ab	-0.4637502
95	0xbe171927	-0.14755689
96	0x3f171927	0.59022754
97	0x3ed7daca	0.4215911
98	0xbea1e418	-0.31619334
99	0x3f527552	0.82210267
100	0xbe818346	-0.25295466
101	0xbdacaf08	-0.08431822
102	0xbd818346	-0.063238665
103	0x3eed70ab	0.4637502
104	0xbe4244e9	-0.189716
105	0x3f274990	0.6534662
106	0xbf11b3af	-0.569148
107	0xbe171927	-0.14755689
108	0xbeacaf08	-0.33727288
109	0xbe171927	-0.14755689
110	0x00000000	0.0
111	0xbf47aa61	-0.7799435
112	0x3f274990	0.6534662
113	0x3e018346	0.12647733
114	0x3e818346	0.25295466
115	0x3ee2a5ba	0.44267064
116	0x3cacaf08	0.021079555
117	0xbd818346	-0.063238665
118	0xbd2caf08	-0.04215911
119	0x3e818346	0.25295466
120	0xbf018346	-0.5059093
121	0x3ee2a5ba	0.44267064
122	0x3cacaf08	0.021079555
123	0xbf0c4e36	-0.5480684
124	0x00000000	0.0
125	0xbd818346	-0.063238665
126	0x3fb21480	1.3912506
127	0xbe818346	-0.25295466
128	0xbf680b33	-0.9064209
129	0xbea1e418	-0.31619334
130	0xbd818346	-0.063238665
131	0xbed7daca	-0.4215911
132	0x3d2caf08	0.04215911
133	0x3e57daca	0.21079555
134	0x3d818346	0.063238665
135	0x3e57daca	0.21079555
136	0x3e4244e9	0.189716
137	0x3f0c4e36	0.5480684
138	0x3ee2a5ba	0.44267064
139	0x3f4d0fda	0.8010231
140	0xbe8c4e36	-0.2740342
141	0xbdacaf08	-0.08431822
142	0x3dd7daca	0.105397776
143	0x3ee2a5ba	0.44267064
144	0x3ee2a5ba	0.44267064
145	0x3ec244e9	0.379432
146	0x3cacaf08	0.021079555
147	0x3eed70ab	0.4637502
148	0x3cacaf08	0.021079555
149	0xbe018346	-0.12647733
150	0xbe818346	-0.25295466
151	0xbf0c4e36	-0.5480684
152	0x3ec244e9	0.379432
153	0xbf171927	-0.59022754
154	0x3f274990	0.6534662
155	0xbeacaf08	-0.33727288
156	0x3f783b9c	0.96965957
157	0x3e971927	0.29511377
158	0xbe971927	-0.29511377
159	0x3e171927	0.14755689
160	0xbf86e8be	-1.0539777
161	0x3eed70ab	0.4637502
162	0xbd2caf08	-0.04215911
163	0xbe6d70ab	-0.2318751
164	0xbe971927	-0.29511377
165	0x3eb779f8	0.35835242
166	0x3e8c4e36	0.2740342
167	0x3e171927	0.14755689
168	0x3dacaf08	0.08431822
169	0xbe171927	-0.14755689
170	0xbf21e418	-0.6323867
171	0x3dacaf08	0.08431822
172	0x3e818346	0.25295466
173	0xbd818346	-0.063238665
174	0xbd818346	-0.063238665
175	0xbf0c4e36	-0.5480684
176	0xbdd7daca	-0.105397776
177	0xbec244e9	-0.379432
178	0x3d2caf08	0.04215911
179	0x3eed70ab	0.4637502
180	0x3d818346	0.063238665
181	0x3f21e418	0.6323867
182	0x3ef83b9c	0.48482978
183	0xbe2caf08	-0.16863644
184	0x3eacaf08	0.33727288
185	0x3eed70ab	0.4637502
186	0xbd818346	-0.063238665
187	0xbf321480	-0.6956253
188	0xbf21e418	-0.6323867
189	0x3f3779f8	0.71670485
190	0x00000000	0.0
191	0xbe171927	-0.14755689
192	0xbf62a5ba	-0.8853413
193	0xbdd7daca	-0.105397776
194	0xbf4244e9	-0.758864
195	0x3d818346	0.063238665
196	0x3eb779f8	0.35835242
197	0x3e818346	0.25295466
198	0x3d818346	0.063238665
199	0xbea1e418	-0.31619334
200	0x3eb779f8	0.35835242
201	0x3ef83b9c	0.48482978
202	0x3e8c4e36	0.2740342
203	0x3ee2a5ba	0.44267064
204	0x3cacaf08	0.021079555
205	0xbecd0fda	-0.40051156
206	0xbef83b9c	-0.48482978
207	0xbf2caf08	-0.67454576
208	0x3f11b3af	0.569148
209	0xbdd7daca	-0.105397776
210	0xbcacaf08	-0.021079555
211	0x3d818346	0.063238665
212	0x3e57daca	0.21079555
213	0xbed7daca	-0.4215911
214	0x3eacaf08	0.33727288
215	0xbe4244e9	-0.189716
216	0xbcacaf08	-0.021079555
217	0x3ed7daca	0.4215911
218	0xbdd7daca	-0.105397776
219	0x3e6d70ab	0.2318751
220	0xbe171927	-0.14755689
221	0xbea1e418	-0.31619334
222	0x3e6d70ab	0.2318751
223	0xbdacaf08	-0.08431822
224	0xbe971927	-0.29511377
225	0x3f7da114	0.9907391
226	0x3ec244e9	0.379432
227	0x3dacaf08	0.08431822
228	0xbd2caf08	-0.04215911
229	0xbe171927	-0.14755689
230	0xbd2caf08	-0.04215911
231	0xbe971927	-0.29511377
232	0xbd2caf08	-0.04215911
233	0x3dd7daca	0.105397776
234	0xbf3779f8	-0.71670485
235	0xbcacaf08	-0.021079555
236	0xbe018346	-0.12647733
237	0xbe018346	-0.12647733
238	0x3e171927	0.14755689
239	0x3d2caf08	0.04215911
240	0xbe018346	-0.12647733
241	0x3eb779f8	0.35835242
242	0x3f62a5ba	0.8853413
243	0xbe818346	-0.25295466
244	0xbf018346	-0.5059093
245	0xbeacaf08	-0.33727288
246	0x3f11b3af	0.569148
247	0x3f06e8be	0.52698886
248	0xbe971927	-0.29511377
249	0xbee2a5ba	-0.44267064
250	0xbe2caf08	-0.16863644
251	0xbe57daca	-0.21079555
252	0x3dd7daca	0.105397776
253	0xbe8c4e36	-0.2740342
254	0xbcacaf08	-0.021079555
255	0x3d2caf08	0.04215911

Zero_7 f4 [32]
0	0xbd29a576	-0.04141756
1	0x3dc0b0cb	0.094087206
2	0x3d673927	0.05645099
3	0x3d50bd4b	0.050961774
4	0x3e01fb3c	0.12693495
5	0x3e0cc5db	0.13747351
6	0xbdf1b26e	-0.11801611
7	0xbb967cdc	-0.004592521
8	0xbde298d3	-0.11064305
9	0x3eb79335	0.35854498
10	0x3da555ee	0.080730304
11	0xbdd18987	-0.102313094
12	0xbcca9c06	-0.0247326
13	0xbdfdacb2	-0.12386455
14	0x3d19675b	0.037452083
15	0xbe073858	-0.13205087
16	0xbdd46c1e	-0.10372184
17	0x3e6ba31a	0.23011437
18	0xbe0bb71a	-0.13644066
19	0xbdcd8b5e	-0.10036348
20	0xbdbe531e	-0.09293197
21	0xbd66b227	-0.056322243
22	0xbc39fd67	-0.01135192
23	0xbe0679bb	-0.13132374
24	0xbe6a9d56	-0.22911581
25	0x3cc9ccb8	0.02463375
26	0x3d9583f2	0.07300557
27	0xbda2d466	-0.07950668
28	0xbe16feec	-0.14745682
29	0xbd62d572	-0.05537934
30	0x3d576688	0.052588016
31	0xbe414440	-0.18873692

squeezenet/fire2/expand3x3/Conv2D/ReadVariableOp:0_cp1 f4 [32, 1, 3, 1]
0	0xbe6cc619	-0.23122443
1	0xbc1dd966	-0.009634351
2	0x3f590aec	0.8478229
3	0xbf253f97	-0.64550155
4	0xbd454fc0	-0.04817176
5	0x3f7e09e0	0.9923382
6	0xbe93fbd0	-0.28903055
7	0xbf1b6200	-0.6069641
8	0x3f9c9db3	1.2235626
9	0x3f0c959f	0.54915804
10	0x3ea2c831	0.3179336
11	0xbe590aec	-0.21195573
12	0xbe8040a3	-0.25049314
13	0x3f4060f4	0.7514794
14	0xbef6a3af	-0.48171756
15	0x3e6cc619	0.23122443
16	0x3efb927b	0.49135193
17	0x3f11846a	0.5684267
18	0x3ee7d74e	0.45281452
19	0x3f13fbd0	0.5780611
20	0xbf27b6fc	-0.65513587
21	0x3ec54fc0	0.38537407
22	0x3ee7d74e	0.45281452
23	0x3e8040a3	0.25049314
24	0x3dd90aec	0.10597786
25	0x3ecf2d56	0.40464276
26	0x3e9dd966	0.30829924
27	0x3ee7d74e	0.45281452
28	0x3f4cb5f0	0.79965115
29	0x3f5b8252	0.8574573
30	0xbf42d85a	-0.76111376
31	0x3ebb7229	0.36610535
32	0x3f7b927b	0.98270386
33	0x3f742c4a	0.9538008
34	0x3f67d74e	0.90562904
35	0xbe8f0d04	-0.27939618
36	0x3dd90aec	0.10597786
37	0x3ebb7229	0.36610535
38	0x3eaca5c8	0.3372023
39	0x3f0a1e39	0.53952366
40	0xbe13fbd0	-0.14451528
41	0x3eaca5c8	0.3372023
42	0xbf866b21	-1.0501443
43	0x3e454fc0	0.19268703
44	0x3f67d74e	0.90562904
45	0x3f967335	1.1753908
46	0xbe76a3af	-0.24085878
47	0xbee2e883	-0.44318017
48	0xbf569387	-0.8381886
49	0x3f4cb5f0	0.79965115
50	0x3e8a1e39	0.26976183
51	0x3eaca5c8	0.3372023
52	0x3f1dd966	0.6165985
53	0x3f590aec	0.8478229
54	0x3dc54fc0	0.09634352
55	0x3eb19493	0.34683666
56	0x3f3b7229	0.7322107
57	0xbe0040a3	-0.12524657
58	0x3f60711d	0.876726
59	0xbeb6835e	-0.356471
60	0x3e0a1e39	0.13488092
61	0x3f319493	0.6936733
62	0x3eb6835e	0.356471
63	0x3f590aec	0.8478229
64	0x3e6cc619	0.23122443
65	0xbe852f6e	-0.26012748
66	0x3e319493	0.17341833
67	0x3f11846a	0.5684267
68	0xbd9dd966	-0.07707481
69	0x3f742c4a	0.9538008
70	0x3e590aec	0.21195573
71	0xbf11846a	-0.5684267
72	0x3dd90aec	0.10597786
73	0x3eb6835e	0.356471
74	0x3f454fc0	0.77074814
75	0x3eb19493	0.34683666
76	0x3ef1b4e4	0.4720832
77	0xbed90aec	-0.42391145
78	0x3dd90aec	0.10597786
79	0x3e3b7229	0.18305267
80	0x3e319493	0.17341833
81	0xbf4cb5f0	-0.79965115
82	0x3f02b808	0.5106206
83	0x3ec54fc0	0.38537407
84	0xbe590aec	-0.21195573
85	0xbea7b6fc	-0.32756793
86	0x3f4a3e8b	0.79001683
87	0x3ee7d74e	0.45281452
88	0x3f0a1e39	0.53952366
89	0x3f0c959f	0.54915804
90	0x3e8a1e39	0.26976183
91	0x3f13fbd0	0.5780611
92	0x3eb19493	0.34683666
93	0x3dc54fc0	0.09634352
94	0x3d6cc619	0.05780611
95	0x3f2050cc	0.62623286

Zero_8 f4 [32]
0	0x3d6e7bdf	0.0582236
1	0xbda51670	-0.0806092
2	0xbd30fc48	-0.043209344
3	0x3bbba1ce	0.0057260757
4	0x3da3ccda	0.07998057
5	0x3d84d2ec	0.06485543
6	0xbe378e77	-0.1792544
7	0x3da15fdb	0.07879611
8	0xbc7f29de	-0.015573947
9	0xbcb2b587	-0.021815075
10	0x3d3aa55f	0.045567866
11	0xbd41cf02	-0.04731656
12	0x3d7d31bc	0.06181501
13	0xbe26f5dc	-0.16304725
14	0x3df65de9	0.12029631
15	0x3d9f62e4	0.07782534
16	0xbe1aeeef	-0.15130208
17	0x3dca234b	0.09870013
18	0x3d5a0d9b	0.05323563
19	0xbcff1325	-0.031137059
20	0x3de9178a	0.11381443
21	0xbd81af05	-0.063322105
22	0x3bd995b8	0.0066401623
23	0xbadf05f4	-0.0017015324
24	0xbdc77127	-0.09738379
25	0xbe50d4e2	-0.20393708
26	0x3b3f031e	0.0029146145
27	0x3cffe956	0.031239193
28	0xbe5ddd6a	-0.21666494
29	0xbcf2af1d	-0.029624516
30	0xbe818313	-0.25295314
31	0xbe00405a	-0.12524548
