dnn-models/transformers_single.onnx (onnx, 16682 bytes, 11 tensors)

attn.out_proj.weight f4 [12, 12]
-0.11771482 0.009562238 -0.14337297 0.10886331 -0.2459671 0.21161154 -0.2098207 -0.22950883
-0.18241009 0.1307391 -0.1066632 0.10802609 -0.24500707 -0.17514603 -0.1059946 -0.05673036
-0.22021969 0.18902181 -0.068078585 0.092661165 0.20413475 0.053781908 0.078938425 0.27864617
-0.1301952 0.091438204 -0.12843622 0.20630158 0.23055226 -0.26615047 0.24642631 0.13784653
0.12579511 0.11884029 0.23997536 -0.038116533 -0.24413212 -0.08283502 -0.20330657 0.019083353
-0.05389781 -0.15484099 -0.026246747 0.27349192 -0.022769373 0.009165459 -0.045021936 0.045381755
0.2572132 0.17652279 0.10246856 0.06273215 0.068067536 0.1115248 -0.0373036 -0.2682972
-0.17852013 0.24640897 0.017255107 -0.23384807 0.045532 0.23852408 -0.2727979 -0.19434746
-0.11496937 0.011586706 -0.06732753 -0.03172285 -0.28142652 0.13518053 0.25338265 0.17644931
-0.20442021 -0.23270199 0.11987302 0.0064832256 0.11833687 -0.2820793 -0.017211678 0.20358633
0.13391969 0.01054166 0.056759026 -0.027331783 -0.15872326 -0.10909013 -0.1757973 0.23977622
0.15885407 0.100956224 -0.22137125 0.22274803 0.090511985 0.1997039 -0.11356193 0.061198235
0.2818573 0.19417997 0.23151651 -0.060617384 0.219935 -0.22609966 0.024967212 -0.16253996
-0.06732343 -0.07392896 0.02159841 0.26273468 0.14291842 -0.0012228917 0.20491475 -0.14793319
0.14877492 -0.026769616 -0.05023261 0.033796184 -0.22115307 0.03335852 0.09706356 0.24679752
-0.089877 0.103931 0.28853428 -0.12383269 0.2744124 -0.1433249 0.12724654 0.11308851
0.08063508 0.22828518 -0.11667222 0.07586932 0.0016200838 -0.21712457 -0.07009435 -0.1927839
0.12763925 0.02595073 0.028279956 -0.08757558 0.0013881074 -0.08979042 0.08294679 0.28035253
00000000: 7814 f1bd efaa 1c3c 5dd0 12be baf3 de3d
00000010: cdde 7bbe b2b0 583e 3ddb 56be 5d04 6bbe
00000020: b6c9 3abe 78e0 053e 3c72 dabd c83c dd3d
00000030: 22e3 7abe 7b59 33be b213 d9bd 185e 68bd
00000040: 4581 61be ef8e 413e c96c 8bbd 23c5 bd3d
00000050: b308 513e 6b4a 5c3d 78aa a13d b6aa 8e3e
00000060: e451 05be f443 bb3d c984 03be b940 533e
00000070: e415 6c3e e044 88be 2e57 7c3e a427 0d3e
00000080: 6fd0 003e 8a62 f33d 1abc 753e 1520 1cbd
00000090: c5fd 79be 68a5 a9bd 992f 50be b154 9c3c
000000a0: f3c3 5cbd a38e 1ebe 6b03 d7bc 2207 8c3e
000000b0: d686 babc b92a 163c ec68 38bd 38e2 393d
000000c0: 73b1 833e 64c2 343e 09db d13d b779 803d
000000d0: fe66 8b3d 1d67 e43d a9cb 18bd 405e 89be
000000e0: fbcd 36be a252 7c3e 955a 8d3c de75 6fbe
000000f0: c37f 3a3d a83f 743e 2bac 8bbe 0503 47be
00000100: 1075 ebbd 2bd6 3d3c 04e3 89bd d2ef 01bd
00000110: 2317 90be c46c 0a3e 5fbb 813e 21af 343e
00000120: 8853 51be 6e49 6ebe fc7f f53d 3d71 d43b
00000130: 9a5a f23d b36c 90be 81ff 8cbc ef78 503e
00000140: 3e22 093e edb6 2c3c 277c 683d e7e6 dfbc
00000150: 5a88 22be a56a dfbd 3504 34be e687 753e
00000160: a4aa 223e 23c2 ce3d 25af 62be 0f18 643e
00000170: 595e b93d 2e7f 4c3e 2893 e8bd 00ab 7a3d
00000180: 9a4f 903e 1dd7 463e aa12 6d3e ef49 78bd
00000190: a436 613e ab86 67be 0a88 cc3c e070 26be
000001a0: dee0 89bd 1168 97bd 26ef b03c 2985 863e
000001b0: 3559 123e 7049 a0ba 2cd5 513e cc7b 17be
000001c0: 7458 183e f44b dbbc b6c0 4dbd de6d 0a3d
000001d0: f375 62be f2a2 083d 42c9 c63d 7db8 7c3e
000001e0: 6f11 b8bd c7d9 d43d c4ba 933e fe9b fdbd
000001f0: c87f 8c3e c3c3 12be eb4c 023e f39a e73d
00000200: 0124 a53d 97c3 693e d8f1 eebd 6061 9b3d
00000210: fe58 d43a e755 5ebe a08d 8fbd 2569 45be
00000220: ddb3 023e a096 d43c 5eab e73c d35a b3bd
00000230: 28f1 b53a 0ae4 b7bd 02e0 a93d 5e8a 8f3e

attn.out_proj.bias f4 [12]
0.0 0.0 0.0 0.0 0.0 0.0 0.0 0.0
0.0 0.0 0.0 0.0
00000000: 0000 0000 0000 0000 0000 0000 0000 0000
00000010: 0000 0000 0000 0000 0000 0000 0000 0000
00000020: 0000 0000 0000 0000 0000 0000 0000 0000

w_q.bias f4 [12]
-0.12696046 0.00014041702 -0.08171582 -0.05130038 -0.12785675 -0.10501157 0.08293281 -0.018341674
0.065592356 -0.10802746 -0.015337066 0.09176001
00000000: ec01 02be e83c 1339 a05a a7bd 5920 52bd
00000010: e1ec 02be 4e10 d7bd add8 a93d 4741 96bc
00000020: 4955 863d 803d ddbd 5148 7bbc acec bb3d

w_k.bias f4 [12]
-0.045341615 -0.05164102 0.09856815 0.0121397 -0.09099393 0.06985739 0.080842085 -0.08031367
0.0061974167 -0.12383779 0.016422158 0.045418397
00000000: 21b8 39bd 8985 53bd 19de c93d 98e5 463c
00000010: 075b babd 6411 8f3d 8990 a53d 7e7b a4bd
00000020: b313 cb3b ab9e fdbd c387 863c a408 3a3d

w_v.bias f4 [12]
-0.12715843 -0.12358355 -0.10359777 -0.0167953 0.053408053 0.09150235 0.08639444 0.10571236
-0.066671304 0.011149194 0.12757218 -0.081238955
00000000: d235 02be 5f19 fdbd 112b d4bd 4c96 89bc
00000010: 67c2 5a3d 9665 bb3d 91ef b03d b97f d83d
00000020: f78a 88bd 1cab 363c 48a2 023e 9c60 a6bd

onnx::MatMul_170 f4 [60, 12]
-0.10661557 -0.042517763 -0.11515653 -0.07130605 -0.017567625 -0.0600322 0.05760716 0.08508515
-0.062172636 -0.07812294 0.021211958 -0.016672444 -0.0044090236 0.107284 0.054648615 -0.050439026
0.050109006 0.04226332 -0.07618591 -0.037617218 -0.1197658 0.00346718 -0.10836185 -0.08264591
0.03806568 -0.09414044 -0.11111372 -0.05116126 0.042892583 -0.12062131 -0.026406817 -0.10171989
0.09361232 -0.0506354 -0.06723996 -0.08339261 -0.060871653 -0.029262513 0.026082462 0.07156987
-0.09040235 0.07653714 -0.038530298 -0.016767753 0.013696154 0.10898723 0.0868301 0.123002954
-0.08382491 -0.042990632 -0.08068303 -0.0009501695 0.06962956 -0.049845394 -0.043747656 -0.10831761
0.059995912 0.12096377 0.08483021 -0.12293919 -0.013668698 -0.03158247 0.02157205 -0.029803004
-0.0892551 0.058121227 -0.079075344 -0.040497445 0.062331937 -0.12085133 -0.055289615 -0.007688278
0.023247927 -0.01776857 0.02572731 -0.10463475 -0.0627403 0.09988638 0.10511134 -0.06571832
-0.052120645 0.0676089 0.03866345 0.05954017 -0.022958413 0.074128196 0.06304384 0.010583741
0.105293155 0.02879643 0.121583745 -0.12813407 -0.046089638 -0.08218162 0.058777466 -0.06979579
0.057911493 0.080673166 -0.038564138 0.07978172 0.032331925 -0.12579127 0.029389663 0.055070788
-0.09489642 0.045126818 -0.11593406 0.05263573 0.0675959 -0.04626236 -0.0017053034 0.08151214
0.04716328 -0.03785448 0.06888329 0.12682764 0.10658946 -0.10867834 0.060990494 0.009469023
0.05180646 0.015028114 -0.069200225 0.011138437 -0.12433362 0.11014182 0.10406171 0.0029966969
0.07963153 0.115122825 -0.08494623 0.109446265 0.119261555 -0.11977067 0.010499527 0.11865296
-0.11227407 -0.1191042 0.06339163 0.102403745 -0.02643886 -0.10806007 -0.03442187 0.109513946
-0.0783698 -0.048756238 0.0077478522 -0.031918187 -0.024053385 0.10775373 0.12831402 0.085399374
-0.035278007 -0.0978333 0.012421812 0.00085972337 -0.10342189 -0.01206486 0.11247708 0.10030218
0.11901954 -0.09819035 0.05561179 0.10624834 0.10608615 0.07987448 0.08236975 -0.07959541
0.03180992 -0.0046852715 0.12443749 0.07215312 -0.12734711 -0.028059872 -0.12829201 0.015196849
-0.03466272 0.0049842964 -0.092753395 -0.025834253 0.023441948 0.023558894 -0.022968356 0.11403693
0.07129151 0.090204835 0.12906276 0.08362186 -0.045789044 -0.0253144 0.08682292 0.065251514
0.12414292 0.0070855035 -0.054764178 0.06650665 -0.06082721 -0.12186393 0.011853988 -0.095563956
0.036623187 0.08897391 0.063108355 0.102420084 0.12516584 -0.038396206 -0.016786944 -0.11621595
-0.092215106 -0.11912565 -0.061105736 -0.122641735 -0.04831652 -0.056090657 0.123224415 0.01302668
0.05538431 0.09296358 -0.085362114 0.06319738 0.10000525 -0.025965929 0.023857703 0.042723432
0.00042849968 -0.060187113 -0.016421773 -0.061746567 0.07646231 -0.042294256 -0.059258953 -0.0932686
-0.09806213 -0.09568153 -0.08312827 -0.059825975 0.09786309 -0.030923216 -0.0072998074 0.06615128
0.05876452 0.10308145 -0.084162414 -0.0864644 0.046819028 -0.010497234 -0.05508861 0.12692484
-0.09655619 0.08782586 0.08346955 -0.115854904 -0.00963317 0.076207906 -0.083603665 -0.090609856
00000000: 4459 dabd 1b27 2ebd 30d7 ebbd e808 92bd
00000010: fbe9 8fbc 53e4 75bd 7cf5 6b3d 2041 ae3d
00000020: bca8 7ebd ecfe 9fbd b3c4 ad3c a694 88bc
00000030: 9279 90bb b7b7 db3d 3ad7 5f3d 2799 4ebd
00000040: 1a3f 4d3d 4e1c 2d3d 5c07 9cbd 8314 1abd
00000050: c647 f5bd a139 633b d1ec ddbd 4242 a9bd
00000060: c2ea 1b3d b4cc c0bd 978f e3bd 788e 51bd
00000070: 22b0 2f3d 4e08 f7bd 1c53 d8bc 8552 d0bd
00000080: d1b7 bf3d 1167 4fbd 1bb5 89bd bfc9 aabd
00000090: 8e54 79bd f0b7 efbc e3aa d53c 3993 923d
000000a0: de24 b9bd 81bf 9c3d f2d1 1dbd 875c 89bc
000000b0: d565 603c b234 df3d fbd3 b13d f9e8 fb3d
000000c0: 65ac abbd f216 30bd 253d a5bd cc14 79ba
000000d0: f199 8e3d af2a 4cbd be30 33bd a0d5 ddbd
000000e0: 46be 753d dabb f73d 76bb ad3d 8bc7 fbbd
000000f0: adf2 5fbc 9f5c 01bd deb7 b03c 6e25 f4bc
00000100: 61cb b6bd 8610 6e3d 41f2 a1bd a6e0 25bd
00000110: c64f 7f3d e780 f7bd 5d77 62bd f3ed fbbb
00000120: 7072 be3c 648f 91bc 14c2 d23c be4a d6bd
00000130: fd7d 80bd 3b91 cc3d 9d44 d73d 5497 86bd
00000140: 757c 55bd 8976 8a3d 915d 1e3d 65e0 733d
00000150: 4813 bcbc 86d0 973d 211d 813d 6d67 2d3c
00000160: f0a3 d73d 7ee6 eb3c e600 f93d 9435 03be
00000170: 7dc8 3cbd d64e a8bd a4c0 703d 18f1 8ebd
00000180: 9a34 6d3d f937 a53d 6ef5 1dbd 9964 a33d
00000190: 7b6e 043d 6dcf 00be 97c2 f03c e891 613d
000001a0: 0e59 c2bd e6d6 383d d66e edbd 9098 573d
000001b0: b86f 8a3d 9a7d 3dbd 7d84 dfba d6ef a63d
000001c0: 492e 413d 4d0d 1bbd af12 8d3d 1bdf 013e
000001d0: 934b da3d c092 debd 2bd1 793d f623 1b3c
000001e0: 0333 543d 7b38 763c d9b8 8dbd fe7d 363c
000001f0: a0a2 febd 0992 e13d 4e1e d53d 3b64 443b
00000200: db15 a33d 84c5 eb3d 4af8 adbd 5d25 e03d
00000210: 673f f43d 534a f5bd 3506 2c3c 5300 f33d
00000220: f3ef e5bd e7ec f3bd 79d3 813d 0eb9 d13d
00000230: 4f96 d8bc 994e ddbd f2fd 0cbd d948 e03d
00000240: 5880 a0bd 9fb4 47bd b2e1 fd3b a5bc 02bd
00000250: 9b0b c5bc fdad dc3d c064 033e dee5 ae3d
00000260: ac7f 10bd d35c c8bd db84 4b3c 0f5f 613a
00000270: dbce d3bd b1ab 45bc 625a e63d 3b6b cd3d
00000280: 84c0 f33d 0618 c9bd 30c9 633d bb98 d93d
00000290: b243 d93d 3b95 a33d 79b1 a83d eb02 a3bd
000002a0: 1e4b 023d e886 99bb 15d9 fe3d 04c5 933d
000002b0: 4867 02be d1dd e5bc fb5e 03be 34fc 783c
000002c0: 7ffa 0dbd 4f53 a33b 7ef5 bdbd 5ba2 d3bc
000002d0: 5409 c03c 95fe c03c 2228 bcbc 328c e93d
000002e0: 4801 923d 50bd b83d 0729 043e f041 ab3d
000002f0: 4b8d 3bbd 2560 cfbc 37d0 b13d 96a2 853d
00000300: a53e fe3d 832d e83b 6750 60bd a334 883d
00000310: f425 79bd cc93 f9bd 3b37 423c 09b7 c3bd
00000320: 3202 163d f437 b63d f43e 813d 9fc1 d13d
00000330: 792b 003e 5745 1dbd c684 89bc a102 eebd
00000340: 46db bcbd 26f8 f3bd 024a 7abd 972b fbbd
00000350: 8be7 45bd 51bf 65bd 155d fc3d db6d 553c
00000360: a9da 623d b063 be3d 55d2 aebd a16d 813d
00000370: 8dcf cc3d 80b6 d4bc 3b71 c33c c4fe 2e3d
00000380: 41a8 e039 c386 76bd f486 86bc f8e9 7cbd
00000390: 4698 9c3d be3c 2dbd 84b9 72bd 9c03 bfbd
000003a0: ccd4 c8bd aef4 c3bd 283f aabd 150c 75bd
000003b0: 726c c83d af52 fdbc 3933 efbb 537a 873d
000003c0: 11b3 703d 5e1c d33d 585d acbd 3f14 b1bd
000003d0: 4fc5 3f3d 97fc 2bbc 98a4 61bd 96f8 013e
000003e0: 40bf c5bd 0bde b33d 15f2 aa3d 5645 edbd
000003f0: 72d4 1dbc e412 9c3d 6638 abbd a991 b9bd

onnx::MatMul_171 f4 [60, 12]
0.08119021 0.00049313705 -0.117728956 -0.114078455 -0.06603444 0.03301145 -0.022352377 -0.0846919
-0.0038805513 0.082611635 -0.061757002 0.030877432 0.116514295 0.11161246 -0.12720132 0.046863686
-0.10820512 0.04537855 0.0039267824 0.09071923 -0.049175583 0.07965711 0.032211717 -0.07518842
0.112791754 0.11883895 -0.075318724 0.033434626 0.0004929216 -0.08181812 -0.040815476 -0.0816983
-0.08850001 -0.106292084 -0.026653394 0.11542697 -0.11825894 0.07974905 0.069494836 0.006821029
0.06924053 0.010295858 -0.109053604 0.049110007 -0.10644723 -0.08667828 0.12890042 0.084679544
-0.04716559 0.03215659 -0.09167745 0.046472587 -0.056153603 0.12509462 -0.023165544 -0.0065949215
0.036109783 -0.070199415 0.026373206 0.10237823 -0.104769655 -0.07871511 0.095338136 0.049732465
0.031999245 0.08504559 0.025556836 0.048626717 0.016727863 -0.006045257 -0.031176856 -0.012691104
0.10078813 -0.0829247 0.00035056545 -0.03588398 -0.010181727 -0.01437677 0.010218862 0.057617746
0.075251274 -0.12113887 0.039564602 -0.029654477 -0.017516023 0.019724436 0.061547406 0.084341995
-0.012001284 -0.026980922 -0.030208327 -0.05636015 0.1001069 0.018779438 0.09928306 -0.08683575
-0.018168645 0.09367736 0.06169755 -0.12890972 0.033312228 -0.050385024 0.090600446 -0.114238
0.046546225 0.052665 -0.086382076 -0.045001607 0.04364099 0.012411147 0.096603535 -0.11250149
0.09422719 0.04230701 -0.018865898 -0.002065226 -0.042480458 0.09257237 0.07964785 -0.021398343
0.037346464 0.08129365 0.072103925 -0.09701773 0.027004914 -0.07791311 -0.09840492 0.02200432
0.08010933 0.07988762 0.12868287 0.047960613 0.092338935 0.103601106 0.12257375 0.0073889764
0.009289685 0.12787399 -0.05177222 -0.014494148 0.04005206 -0.064638704 -0.055085164 -0.045530632
-0.03540802 0.10847701 -0.026762353 -0.114040285 0.020901406 0.0018234667 -0.030729504 0.046960026
0.09651189 -0.0857094 -0.038071603 0.09665411 -0.073854536 -0.057478745 -0.07069846 0.009228725
0.02375273 -0.08341546 0.084768385 0.1277358 0.068400204 0.07761946 -0.023518497 0.07588711
0.06080354 -0.057319507 0.04368259 -0.0017096126 -0.041841656 -0.06264466 0.10085297 -0.052812528
0.029620342 -0.010793766 0.013298233 0.09537623 -0.09460815 0.10972439 0.10390693 -0.11844799
-0.014721841 -0.049719274 0.044757508 0.042636387 0.06371184 -0.075592265 -0.065059975 0.05154851
0.07895213 0.02268846 -0.0402806 0.12675124 0.03146431 -0.10250641 0.124613486 0.040586673
-0.12694818 0.07724969 -0.11448237 -0.11176547 -0.02919152 0.111226544 0.123398796 -0.030164866
-0.101700656 -0.04035247 0.12330707 0.07379665 0.06699625 0.063858226 0.049948644 0.11523488
0.06515127 0.11892418 0.10726629 0.092823654 8.5305954e-05 -0.12393935 0.029183947 -0.054986805
0.08624146 0.07341326 0.023429343 -0.0017958111 -0.090336345 -0.12328936 0.047584765 0.11380155
-0.11939754 0.043706227 0.088495515 -0.12502705 -0.017230326 -0.059265662 -0.062047917 0.12248571
-0.09033165 0.1240846 0.112515986 -0.050563823 -0.1192394 -0.042045664 0.055669084 -0.07541754
-0.11194006 -0.020599764 0.043929104 0.12005629 -0.04108926 0.01596277 0.002083309 -0.038047627
00000000: 0e47 a63d de45 013a e11b f1bd f7a1 e9bd
00000010: 113d 87bd 0437 073d 551c b7bc f272 adbd
00000020: d950 7ebb 4a30 a93d e9f4 7cbd abf2 fc3c
00000030: 0c9f ee3d 1395 e43d 1041 02be 23f4 3f3d
00000040: a59a ddbd dcde 393d 3dac 803b 01cb b93d
00000050: 566c 49bd 4423 a33d 6ff0 033d 63fc 99bd
00000060: 5dff e63d d661 f33d b440 9abd bff2 083d
00000070: 6937 013a 4290 a7bd 212e 27bd 7051 a7bd
00000080: 7e3f b5bd aaaf d9bd 3858 dabc fa64 ec3d
00000090: be31 f2bd 7853 a33d 4f53 8e3d f082 df3b
000000a0: fbcd 8d3d f5af 283c 7f57 dfbd 9327 493d
000000b0: 0101 dabd 6284 b1bd 79fe 033e 786c ad3d
000000c0: b530 41bd a1b6 033d 63c1 bbbd 0a5a 3e3d
000000d0: 5201 66bd ce18 003e abc5 bdbc 361a d8bb
000000e0: dae7 133d b6c4 8fbd 9f0c d83c adab d13d
000000f0: 7991 d6bd 6335 a1bd a440 c33d 45b4 4b3d
00000100: a411 033d 622c ae3d 925c d13c cf2c 473d
00000110: df08 893c 4b17 c6bb 9b66 ffbc 59ee 4fbc
00000120: 026a ce3d 6dd4 a9bd 19cc b739 15fb 12bd
00000130: 42d1 26bc 8b8c 6bbc 046d 273c 9600 6c3d
00000140: 571d 9a3d a817 f8bd 7e0e 223d f2ed f2bc
00000150: c37d 8fbc 2495 a13c 2219 7c3d 7fbb ac3d
00000160: 09a1 44bc 1807 ddbc 7477 f7bc e7d9 66bd
00000170: d904 cd3d 56d7 993c eb54 cb3d f1d6 b1bd
00000180: 69d6 94bc ead9 bf3d 92b6 7c3d e900 04be
00000190: 6772 083d 8760 4ebd ba8c b93d 9df5 e9bd
000001a0: 41a7 3e3d 41b7 573d 16e9 b0bd 9b53 38bd
000001b0: e5c0 323d 2058 4b3c 13d8 c53d 2e67 e6bd
000001c0: 2ffa c03d 1e4a 2d3d a88c 9abc be58 07bb
000001d0: fdff 2dbd 9596 bd3d 691e a33d 944b afbc
000001e0: 9bf8 183d 497d a63d 39ab 933d 3bb1 c6bd
000001f0: 6939 dd3c e990 9fbd 8588 c9bd 6742 b43c
00000200: 5c10 a43d 1f9c a33d 71c5 033e 5972 443d
00000210: 321c bd3d d12c d43d f207 fb3d 3a1f f23b
00000220: c333 183c 66f1 023e 1b0f 54bd dd78 6dbc
00000230: a10d 243d 4c61 84bd fba0 61bd 547e 3abd
00000240: 0008 11bd 3229 de3d b93c dbbc f48d e9bd
00000250: 6d39 ab3c 6401 ef3a 71bc fbbc 2859 403d
00000260: 07a8 c53d 6988 afbd f8f0 1bbd 97f2 c53d
00000270: 0c41 97bd d56e 6bbd 5bca 90bd 1434 173c
00000280: 1695 c23c bad5 aabd 0c9b ad3d 2ccd 023e
00000290: 6815 8c3d f4f6 9e3d dda9 c0bc b36a 9b3d
000002a0: 220d 793d dcc7 6abd 84ec 323d 1415 e0ba
000002b0: 2862 2bbd d84b 80bd 008c ce3d f351 58bd
000002c0: 5ca6 f23c 56d8 30bc d5e0 593c 9d54 c33d
000002d0: ebc1 c1bd 2eb7 e03d 28cd d43d dc94 f2bd
000002e0: e033 71bc 70a6 4bbd a653 373d 7ea3 2e3d
000002f0: 5a7b 823d 1ed0 9abd 2a3e 85bd 8824 533d
00000300: a8b1 a13d 26dd b93c 45fd 24bd 14cb 013e
00000310: b8e0 003d e1ee d1bd 5b35 ff3d 363e 263d
00000320: b4fe 01be 1635 9e3d bc75 eabd 4be5 e4bd
00000330: 0e23 efbc beca e33d 82b8 fc3d 4f1c f7bc
00000340: 6f48 d0bd a248 25bd 6b88 fc3d b322 973d
00000350: 5435 893d 1ac8 823d f396 4c3d 4400 ec3d
00000360: 076e 853d 858e f33d 6eae db3d 541a be3d
00000370: 49e6 b238 ead3 fdbd 2c13 ef3c d839 61bd
00000380: 5d9f b03d b159 963d e5ee bf3c 6c61 ebba
00000390: 4302 b9bd 227f fcbd 3ee8 423d c910 e93d
000003a0: b386 f4bd 4d05 333d 233d b53d 1707 00be
000003b0: 9d26 8dbc 8dc0 72bd f525 7ebd cad9 fa3d
000003c0: cdff b8bd 1120 fe3d c86e e63d 031c 4fbd
000003d0: c933 f4bd 1338 2cbd 4405 643d 8374 9abd
000003e0: d540 e5bd d6c0 a8bc 01ef 333d 12e0 f53d
000003f0: 364d 28bd 5bc4 823c 2088 083b d4d7 1bbd

onnx::MatMul_172 f4 [60, 12]
0.1155366 0.01851133 0.039294466 -0.033634186 -0.011763403 0.090055354 0.12579879 -0.059611563
0.09454661 -0.029370457 0.0033157591 0.04865616 -0.04184487 0.08948613 0.09374441 -0.067197345
0.058636356 0.062010996 0.07347217 -0.072302945 -0.11070209 -0.10932551 -0.049564715 0.08971464
0.046564877 -0.096533656 0.07762154 0.101625785 0.04368256 -0.08925882 0.07217404 0.017913619
-0.0008959049 0.10937858 -0.050983768 -0.07408521 -0.04326026 0.1265897 -0.122871295 -0.091848165
0.11734032 0.060135297 0.06616064 -0.06830112 0.044159044 0.057289314 -0.01526538 -0.12171273
-0.04539805 -0.120090164 0.034686465 -0.093851306 0.09996265 0.031425294 0.003667479 -0.09610654
-0.08324397 -0.03503089 0.072668225 0.12269748 -0.11439395 -0.09498545 -0.121471405 0.0677749
0.021284843 -0.058797304 -0.06299162 0.09382565 0.07665713 -0.11784309 0.028859176 -0.09378732
0.027249474 -0.022764008 0.095668204 -0.08695647 0.035605717 -0.10725541 -0.08275372 -0.09829845
-0.015037025 0.020186424 0.049648434 0.0029272423 0.086625926 -0.112131394 0.08415119 0.042378914
-0.055878125 0.016167318 -0.08412066 -0.1204774 0.05629493 -0.028994575 -0.0871948 0.063477494
-0.07181756 0.08708114 -0.11905058 -0.089719445 0.045294337 0.011713448 0.12780945 -0.108548604
-0.036605936 -0.10497402 0.0078193685 -0.047655266 0.05278044 -0.022608664 0.0008960588 0.12470195
0.09909634 -0.064650476 0.060564365 -0.07878524 0.112467475 0.05673026 0.12889865 0.004429123
-0.020137792 0.005005842 0.040222812 0.024179583 -0.0026400369 -0.09740858 -0.02941672 -0.11642998
-0.043518286 0.040267903 -0.08384042 -0.06904039 -0.09165879 0.04178385 0.005300296 0.10637148
0.024863338 -0.04736141 -0.052442387 -0.0015590383 -0.026398154 0.040750574 0.033156514 0.10898977
0.013765731 0.014601077 -0.11654703 -0.12534149 -0.10611859 0.029432585 0.06863861 -0.084322944
-0.10028835 -0.1276629 -0.023861459 0.03242559 -0.12580751 0.110183634 0.12087987 0.03414827
0.07240852 0.09877894 -0.016483488 -0.0097724795 -0.08912836 0.07182594 -0.016671274 0.092247136
0.06920581 0.0926501 -0.06357482 -0.006637428 0.10903734 0.094603285 -0.12682347 -0.103710175
0.09494368 -0.07846994 -0.027357003 -0.12839502 -0.028524954 0.04393349 0.040139306 0.063696355
0.11890491 -0.05716173 0.12041852 0.005719008 0.05716687 0.03270958 0.088559985 -0.05624765
0.11889773 -0.12384932 0.080734074 -0.0375801 0.05420528 0.123642616 0.01701322 -0.07424542
-0.010527536 0.0820713 0.031006645 -0.025036551 0.004765822 0.048550107 -0.11806318 0.1289416
-0.04970995 -0.07256737 -0.045659818 0.047791157 0.038041946 0.07169025 -0.0036615846 0.072390854
-0.12516071 -0.021302866 -0.03825502 0.12432299 0.0058329543 -0.11955586 0.037482634 0.12387474
0.012000238 -0.0900679 0.085908405 -0.025881285 0.10018291 0.021944238 -0.059670184 0.061945405
-0.05471713 -0.109809645 0.012575064 -0.06382237 -0.082759134 0.12893139 -0.053017274 0.12770353
-0.028238071 0.09898569 0.12647156 -0.07599946 -0.06157908 0.04440385 -0.060687855 -0.028588714
-0.04027172 -0.027599992 -0.047723535 -0.04701323 -0.088430636 -0.060874563 -0.052334856 0.09661744
00000000: 749e ec3d 13a5 973c 3cf3 203d 00c4 09bd
00000010: 4abb 40bc f16e b83d 66d1 003e 412b 74bd
00000020: a7a1 c13d 509a f0bc 354d 593b ae4b 473d
00000030: 8765 2bbd 8144 b73d 12fd bf3d c39e 89bd
00000040: ad2c 703d 3eff 7d3d 9478 963d 9113 94bd
00000050: c7b7 e2bd 0ee6 dfbd 5f04 4bbd 4fbc b73d
00000060: d0ba 3e3d 70b3 c5bd 0bf8 9e3d 2e21 d03d
00000070: 7cec 323d 54cd b6bd fccf 933d 95bf 923c
00000080: 29db 6aba e001 e03d 5bd4 50bd fdb9 97bd
00000090: ac31 31bd bba0 013e f2a3 fbbd e41a bcbd
000000a0: 1f50 f03d 6e50 763d 3b7f 873d 75e1 8bbd
000000b0: 1de0 343d 33a8 6a3d a51b 7abc 8644 f9bd
000000c0: 4ef3 39bd d5f1 f5bd 6513 0e3d 1d35 c0bd
000000d0: 38b9 cc3d cfb7 003d 165a 703b 81d3 c4bd
000000e0: d17b aabd 8d7c 0fbd 14d3 943d d148 fb3d
000000f0: 6047 eabd bb87 c2bd 00c6 f8bd 91cd 8a3d
00000100: 8d5d ae3c 71d5 70bd c001 81bd aa27 c03d
00000110: 6afe 9c3d b857 f1bd 146a ec3c 9113 c0bd
00000120: 4a3a df3c 967b babc b1ed c33d 3c16 b2bd
00000130: 4dd7 113d b9a8 dbbd c87a a9bd b350 c9bd
00000140: db5d 76bc 005e a53c 285c 4b3d fad6 3f3b
00000150: ef68 b13d 25a5 e5bd 7657 ac3d 8395 2d3d
00000160: 76e0 64bd 5371 843c 7447 acbd dbbc f6bd
00000170: 8395 663d 0886 edbc 3093 b2bd 7d00 823d
00000180: 1615 93bd 9957 b23d cad0 f3bd d4be b7bd
00000190: 8e86 393d c3e9 3f3c 7be0 023e bb4e debd
000001a0: 1bf0 15bd 9efc d6bd cf1c 003c 2b32 43bd
000001b0: 4d30 583d ce35 b9bc 7de5 6a3a bc63 ff3d
000001c0: 06f3 ca3d 7867 84bd 5712 783d 285a a1bd
000001d0: 5955 e63d fd5d 683d 02fe 033e 2d22 913b
000001e0: 03f8 a4bc 0c08 a43b adc0 243d 4314 c63c
000001f0: 7804 2dbb 267e c7bd 55fb f0bc d772 eebd
00000200: 3b40 32bd f5ef 243d 87b4 abbd 0c65 8dbd
00000210: 9bb7 bbbd 8b25 2b3d 1bae ad3b 4ad9 d93d
00000220: 33ae cb3c 0afe 41bd d4cd 56bd a558 ccba
00000230: f140 d8bc 13ea 263d 20cf 073d 0736 df3d
00000240: a989 613c 5b39 6f3c 36b0 eebd 8559 00be
00000250: b454 d9bd 9b1c f13c 6692 8c3d 82b1 acbd
00000260: fa63 cdbd 10ba 02be 1b79 c3bc b2d0 043d
00000270: afd3 00be f5a7 e13d de8f f73d 0edf 0b3d
00000280: eb4a 943d 9d4c ca3d 6108 87bc c01c 20bc
00000290: ee88 b6bd 7a19 933d 3292 88bc 11ec bc3d
000002a0: c7bb 8d3d 56bf bd3d 8433 82bd c87e d9bb
000002b0: f84e df3d 5ebf c13d 03de 01be 0066 d4bd
000002c0: d571 c23d d9b4 a0bd cb1b e0bc fc79 03be
000002d0: 2aad e9bc 9af3 333d 1d69 243d 3c73 823d
000002e0: 6b84 f33d 6b22 6abd fc9d f63d 8466 bb3b
000002f0: cf27 6a3d 7bfa 053d f05e b53d f063 66bd
00000300: a780 f33d b6a4 fdbd e857 a53d 97ed 19bd
00000310: 5b06 5e3d 5738 fd3d 4f5f 8b3c fc0d 98bd
00000320: b07b 2cbc ff14 a83d a601 fe3c 7419 cdbc
00000330: 9d2a 9c3b 7adc 463d 1ccb f1bd 4409 043e
00000340: a99c 4bbd 349e 94bd ca05 3bbd a9c0 433d
00000350: dfd1 1b3d 56d2 923d 32f7 6fbb a841 943d
00000360: 212a 00be 5983 aebc 4cb1 1cbd 0d9d fe3d
00000370: 5e22 bf3b b4d9 f4bd 6487 193d 0ab2 fd3d
00000380: a59c 443c 8575 b8bd bff0 af3d fd04 d4bc
00000390: b32c cd3d 67c4 b33c b968 74bd 77ba 7d3d
000003a0: 121f 60bd e1e3 e0bd a407 4e3c 4db5 82bd
000003b0: 9f7d a9bd 9706 043e a428 59bd b7c4 023e
000003c0: 8753 e7bc 02b9 ca3d c381 013e 9ba5 9bbd
000003d0: 583a 7cbd d0e0 353d d493 78bd e132 eabc
000003e0: f6f3 24bd 6119 e2bc c179 43bd f290 40bd
000003f0: 1f1b b5bd 9b57 79bd 135d 56bd 5ddf c53d

onnx::MatMul_193 f4 [12, 12]
-0.22199525 0.23611532 -0.021595076 0.1333796 -0.2739529 0.16959019 0.14123447 0.18911113
0.30459842 0.1971646 -0.0969155 -0.2846306 0.029835712 0.26377887 0.014198009 0.28455904
0.00237645 -0.19179012 -0.010249987 -0.06661305 -0.2906442 0.20820783 -0.14322948 -0.14455219
-0.3142668 -0.022967124 0.22045667 -0.27412412 0.006439954 0.013066745 -0.065945275 -0.24410674
-0.017030276 0.11405793 -0.19270386 0.2847187 0.20281842 -0.2713162 -0.3122101 -0.16367981
0.0071294764 0.034587894 -0.058821153 0.014195185 0.007340801 -0.035198644 -0.3193359 -0.1335052
0.07368403 -0.004399625 -0.27279812 0.11250798 -0.05159415 -0.28446782 -0.2763546 0.26678425
0.059385583 0.19907263 0.27692991 0.29465878 0.34196204 0.06630479 -0.117546044 -0.23086518
0.22700727 -0.2570836 0.10026596 0.32362148 -0.2667857 0.006020382 -0.31596768 -0.06088774
-0.25145146 -0.24082962 -0.20347638 0.30033636 -0.09866232 0.13559243 0.008812611 -0.26686245
0.32437336 -0.1289463 0.35097757 -0.04508992 0.28352502 -0.20281206 0.18235756 0.08243494
-0.034221385 -0.102904014 -0.24399176 -0.1596891 0.34746277 0.1825425 -0.1854468 0.14110748
0.29847914 -0.33896804 0.24981499 -0.098423466 0.14537679 0.20997417 0.13303779 0.2752853
-0.2441666 0.11094728 -0.027176624 -0.05194911 0.28585413 -0.123937234 -0.3430266 0.0229635
-0.2225397 -0.34926215 -0.007106085 0.1728092 0.013060549 -0.09161085 0.28840834 -0.0029775063
0.05045024 0.3079692 -0.30005357 0.11022682 0.094666965 -0.17477156 -0.34193832 0.21885413
-0.18832451 -0.09689345 0.116641276 0.24486864 0.32147878 0.06045624 -0.34429657 -0.12502111
-0.07817621 -0.29120845 0.19018352 -0.17597565 0.33901688 -0.31266126 -0.10093926 0.11815696
00000000: b952 63be 37c8 713e 28e8 b0bc a994 083e
00000010: 8e43 8cbe 0da9 2d3e c59f 103e 59a6 413e
00000020: 53f4 9b3e 84e5 493e a27b c6bd 1abb 91be
00000030: 066a f43c 060e 873e c49e 683c b9b1 913e
00000040: 37be 1b3b a164 44be 90ef 27bc 6c6c 88bd
00000050: 51cf 94be 6f34 553e c0aa 12be 7d05 14be
00000060: 94e7 a0be 8d25 bcbc 65bf 613e ff59 8cbe
00000070: 4006 d33b e715 563c 510e 87bd 1ef7 79be
00000080: 1483 8bbc 3497 e93d 2954 45be a6c6 913e
00000090: a2af 4f3e f5e9 8abe 01da 9fbe ae9b 27be
000000a0: 629e e93b 09ac 0d3d 73ee 70bd ec92 683c
000000b0: 1a8b f03b 742c 10bd ff7f a3be 96b5 08be
000000c0: a7e7 963d bb2a 90bb 32ac 8bbe 956a e63d
000000d0: 6354 53bd c4a5 91be 5a7e 8dbe f297 883e
000000e0: 4c3e 733d b2d9 4b3e c2c9 8d3e 84dd 963e
000000f0: a615 af3e ceca 873d fbbb f0bd ec67 6cbe
00000100: 9874 683e 76a0 83be 3d58 cd3d b7b1 a53e
00000110: 2398 88be a046 c53b 84c6 a1be 6c65 79bd
00000120: 3fbe 80be 0a9c 76be 1d5c 50be b0c5 993e
00000130: 780f cabd bed8 0a3e c562 103c 32a2 88be
00000140: 4414 a63e 800a 04be 55b3 b33e 35b0 38bd
00000150: 312a 913e f7ad 4fbe f1bb 3a3e a6d3 a83d
00000160: b92b 0cbd 57bf d2bd fad8 79be 8a85 23be
00000170: a4e6 b13e 6cec 3a3e c4e5 3dbe 7b7e 103e
00000180: 42d2 983e 388d adbe 80cf 7f3e 3e92 c9bd
00000190: a7dd 143e 7803 573e 0f3b 083e 32f2 8c3e
000001a0: cf06 7abe 5438 e33d 83a1 debc 97c8 54bd
000001b0: 795b 923e ced2 fdbd 2fa1 afbe f31d bc3c
000001c0: 72e1 63be 7dd2 b2be 29da e8bb e5f4 303e
000001d0: eafb 553c 789e bbbd 42aa 933e 4422 43bb
000001e0: e9a4 4e3d 24ae 9d3e 9fa0 99be 99be e13d
000001f0: c1e0 c13d 51f7 32be 8a12 afbe 4c1b 603e
00000200: 24d8 40be 1370 c6bd 9fe1 ee3d d8be 7a3e
00000210: de98 a43e f6a0 773d a447 b0be 8905 00be
00000220: d91a a0bd 4619 95be 78bf 423e f632 34be
00000230: 9f93 ad3e 2315 a0be 3eb9 cebd 47fc f13d

onnx::MatMul_194 f4 [12, 12]
-0.014073001 -0.20693655 0.21520951 -0.2237625 0.3020365 0.30257517 0.28365764 -0.33914515
-0.30707648 0.32931313 0.23237029 -0.0021329254 0.13464347 0.3342266 -0.3017442 -0.21141154
0.11648339 0.26520398 0.22248065 0.23262809 0.16879968 0.28089926 0.020644916 -0.102354586
0.30792516 -0.14754578 0.16649838 0.32550952 0.30376476 -0.1454172 -0.20666033 -0.27839503
-0.2339714 0.27306467 0.20608464 -0.17137583 0.08910969 0.075398095 0.088268355 0.13157807
-0.08143529 0.034292698 -0.03721419 -0.20778164 -0.19898176 0.10486772 -0.25551227 0.16586968
-0.103680275 -0.17275724 -0.23773086 -0.05595934 0.3080886 0.04120478 0.052771185 0.0041362075
0.29330653 -0.15936275 -0.33790523 -0.030796574 0.115849294 -0.17052998 0.0111760795 0.2153856
-0.168583 0.2896027 0.101042934 0.10765211 -0.23297054 0.22260359 -0.28803793 -0.07006964
-0.030932203 0.15834671 0.07070269 -0.16819686 -0.046395715 0.1986644 -0.32744843 0.20540835
-0.28690296 -0.24216744 0.19510151 0.24562095 -0.2764165 -0.09869135 -0.19100116 -0.3084136
0.2349646 0.2862748 0.015817711 -0.04965126 0.2687249 -0.20598084 0.32509536 -0.26848772
-0.13651705 -0.22423594 -0.14920367 -0.3510052 -0.1831753 0.21553893 0.18420622 -0.1819595
-0.16871147 -0.1704312 -0.09777677 0.2308795 0.16080089 -0.14451298 0.28839 0.14365652
0.2697836 -0.3076362 0.19958724 -0.0304374 0.02295094 0.15291092 0.19561288 0.31399685
0.0115944715 0.2578114 -0.028563762 -0.13784906 0.0866599 0.23488742 0.17390291 0.11585764
0.35220945 0.048694994 -0.25263047 -0.21719922 0.1304415 0.21282746 -0.0037341686 0.2171009
-0.0069259494 -0.09388568 0.055906318 -0.19889855 -0.14108121 0.22494148 -0.006672141 -0.3349914
00000000: 7292 66bc 2de7 53be e25f 5c3e ff21 65be
00000010: 87a4 9a3e 22eb 9a3e 933b 913e 6fa4 adbe
00000020: 2139 9dbe bb9b a83e 7af2 6d3e 8dc8 0bbb
00000030: fadf 093e c01f ab3e 377e 9abe 447c 58be
00000040: d88e ee3d d1c8 873e f8d1 633e 0f36 6e3e
00000050: d3d9 2c3e 07d2 8f3e 871f a93c 489f d1bd
00000060: 5ea8 9d3e 3e16 17be 8d7e 2a3e 2fa9 a63e
00000070: 0e87 9b3e 3fe8 14be c49e 53be cb89 8ebe
00000080: 3396 6fbe 22cf 8b3e da07 533e 257d 2fbe
00000090: 247f b63d 516a 9a3d 0ac6 b43d 67bc 063e
000000a0: 8cc7 a6bd 8076 0c3d e86d 18bd b6c4 54be
000000b0: e0c1 4bbe e3c4 d63d 81d2 82be bed9 293e
000000c0: 5356 d4bd 46e7 30be b86f 73be 9f35 65bd
000000d0: cabd 9d3e 58c6 283d 9926 583d 0689 873b
000000e0: 462c 963e fd2f 23be ea01 adbe 1949 fcbc
000000f0: 6542 ed3d 699f 2ebe e01b 373c 0b8e 5c3e
00000100: 06a1 2cbe ce46 943e 99ef ce3d b678 dc3d
00000110: d48f 6ebe 32f2 633e b579 93be ac80 8fbd
00000120: 8865 fdbc a425 223e 92cc 903d cc3b 2cbe
00000130: 6f09 3ebd ae6e 4b3e 52a7 a7be 9156 523e
00000140: f2e4 92be befa 77be b1c8 473e 0f84 7b3e
00000150: 7786 8dbe b11e cabd cf95 43be 63e8 9dbe
00000160: 8f9a 703e 9c92 923e 2594 813c 1f5f 4bbd
00000170: 4f96 893e a4ec 52be e672 a63e 3977 89be
00000180: 20cb 0bbe 1b9e 65be d9c8 18be f4b6 b3be
00000190: 4e92 3bbe 3db6 5c3e 8ea0 3c3e 9753 3abe
000001a0: b3c2 2cbe 8485 2ebe 303f c8bd ad6b 6c3e
000001b0: fda8 243e 36fb 13be dba7 933e b21a 133e
000001c0: 1321 8a3e 7e82 9dbe 9960 4c3e db57 f9bc
000001d0: 9c03 bc3c ae94 1c3e be4e 483e 32c4 a03e
000001e0: bdf6 3d3c dbff 833e 8dfe e9bc 4e28 0dbe
000001f0: bf7a b13d 5486 703e 9b13 323e c546 ed3d
00000200: cc54 b43e 6774 473d c858 81be 7969 5ebe
00000210: 7592 053e 71ef 593e f4b8 74bb b34f 5e3e
00000220: 13f3 e2bb 2347 c0bd 06fe 643d 10ac 4bbe
00000230: 9877 10be 0f57 663e faa1 dabb fe83 abbe

onnx::MatMul_195 f4 [12, 12]
0.049180567 -0.1419513 -0.2726312 -0.05683418 0.020607322 -0.2164271 -0.02683983 0.22542529
0.3507993 0.3131609 0.0008887506 0.2131093 -0.2689049 0.32269776 0.21492212 -0.35005316
0.14817213 -0.27641192 0.2030826 0.054691058 0.14396437 0.101455726 -0.274316 -0.09472011
0.1478393 -0.2694621 -0.30754817 -0.25680858 0.0061075 -0.28774753 -0.12169995 0.20297496
0.17172143 -0.32029712 0.32073608 -0.0859185 -0.28197077 0.3187899 -0.095484905 0.25373337
-0.16484332 0.14853893 -0.2678114 0.27255866 0.3264238 0.32754055 0.3512543 -0.0683165
-0.2759477 0.2627076 -0.14255965 -0.34499398 0.01712692 0.28127292 0.021356145 0.34941086
0.015109181 0.21561636 0.1761957 -0.33077478 0.09563954 -0.31450063 -0.33066928 -0.1739027
0.01083115 0.350671 -0.09845373 -0.091605246 0.0016952305 0.1784165 0.2158037 0.25437295
-0.09060624 -0.03140408 -0.3330175 -0.3199692 0.003295462 0.12624864 -0.16486204 0.0104821315
0.08774986 0.14589806 -0.3424759 -0.030404946 -0.31295756 -0.19019553 -0.34086728 0.19022529
0.1537833 -0.07208194 -0.107994385 -0.20486711 -0.3267599 0.034483876 0.30513495 -0.32442802
0.13795438 0.34787962 -0.27348515 0.2416675 -0.13324472 0.065119915 -0.20045416 0.322578
0.12361034 -0.19521442 0.062091917 -0.2650491 0.124884225 -0.014750807 -0.1975553 0.030937262
0.022267781 -0.3496215 0.31033352 0.112530865 -0.0026590447 0.22662546 -0.22330673 0.11088216
0.047645748 0.20825613 -0.11653431 -0.17773688 0.0015074663 0.040815473 0.02430613 -0.058533583
-0.016931906 -0.26419708 -0.24689965 -0.33976758 0.23102832 0.3056662 0.19780573 -0.08571379
0.14925754 -0.11670774 -0.18764216 0.08859807 0.020338383 -0.2138177 0.08521756 0.24899961
00000000: 9071 493d ae5b 11be 5196 8bbe f5ca 68bd
00000010: b0d0 a83c 119f 5dbe 34df dbbc e3d5 663e
00000020: f79b b33e a056 a03e 0bfb 683a 5339 5a3e
00000030: e7ad 89be a438 a53e 8b14 5c3e 2b3a b3be
00000040: 6fba 173e dd85 8dbe e3f4 4f3e bb03 603d
00000050: 656b 133e 05c8 cf3d 2673 8cbe 9efc c1bd
00000060: 2f63 173e f0f6 89be f476 9dbe 6a7c 83be
00000070: 6c21 c83b a553 93be d33d f9bd abd8 4f3e
00000080: bed7 2f3e fcfd a3be 8537 a43e 0af6 afbd
00000090: 795e 90be 6e38 a33e 978d c3bd 57e9 813e
000000a0: b0cc 28be 971a 183e 931e 89be cf8c 8b3e
000000b0: 0521 a73e 65b3 a73e 9bd7 b33e 85e9 8bbd
000000c0: 0449 8dbe 9c81 863e 28fb 11be 0da3 b0be
000000d0: c14d 8c3c 0103 903e 15f3 ae3c fbe5 b23e
000000e0: 808c 773c 89ca 5c3e a56c 343e 505b a9be
000000f0: aade c33d 3a06 a1be 7c4d a9be 8d13 32be
00000100: 2375 313c 268b b33e 1ca2 c9bd 889b bbbd
00000110: 7f32 de3a d1b2 363e a5fb 5c3e 2c3d 823e
00000120: c48f b9bd 91a1 00bd 4581 aabe 01d3 a3be
00000130: aef8 573b 5347 013e 98d1 28be 3fbd 2b3c
00000140: 33b6 b33d 4d66 153e 0059 afbe cb13 f9bc
00000150: f93b a0be 9ec2 42be 2886 aebe 6bca 423e
00000160: 5f79 1d3e b29f 93bd 292c ddbd afc8 51be
00000170: 134d a7be f73e 0d3d a63a 9c3e 6e1b a6be
00000180: ea43 0d3e 471d b23e 3f06 8cbe af77 773e
00000190: 4e71 08be 975d 853d db43 4dbe f228 a53e
000001a0: 6b27 fd3d 4ae6 47be 1854 7e3d 84b4 87be
000001b0: 4dc3 ff3d 5ead 71bc f04b 4abe 2470 fd3c
000001c0: ec6a b63c 9701 b3be 09e4 9e3e 9576 e63d
000001d0: 5e43 2ebb 8110 683e 85aa 64be 3016 e33d
000001e0: 3028 433d 1841 553e 8aa9 eebd a800 36be
000001f0: 2d96 c53a 202e 273d a61d c73c e9c0 6fbd
00000200: c8b4 8abc d744 87be 43d3 7cbe 04f6 adbe
00000210: b092 6c3e 4880 9c3e 968d 4a3e b68a afbd
00000220: f8d6 183e 7804 efbd 4425 40be e872 b53d
00000230: ae9c a63c 07f3 5abe 8b86 ae3d c1f9 7e3e
