dnn-models/transformers_single.onnx (onnx, 50427 bytes, 7 tensors)

model/multi_head_attention/attention_output/add/ReadVariableOp f4 [36]
000000 ac ae 65 3e 8c e5 2d 3e 85 dc 6d be 88 e0 12 be
       0.22429913 0.16982096 -0.23228653 -0.14343464
000010 ae 18 e3 bd dc 27 51 3e da 03 8a be b0 b8 6e 3e
       -0.11088692 0.20425361 -0.26956064 0.2331264
000020 28 83 d5 3d 70 cd 20 bd 80 2e 78 3c 34 85 2a 3e
       0.10425407 -0.03925842 0.015147805 0.16652375
000030 32 ab 3e 3e 52 d2 02 be 50 85 a5 bc 1e a2 08 3e
       0.18619993 -0.12775543 -0.02020517 0.13343093
000040 d0 f3 55 be e0 a0 8a 3e 82 fe 88 3e 90 c2 29 be
       -0.20893788 0.27075863 0.26756674 -0.16578126
000050 2e 64 c3 bd 94 4e 4e be 9c e4 e2 3d 2c f7 80 3e
       -0.09540592 -0.20147163 0.1107876 0.25188577
000060 80 8f 03 bc 24 e6 78 be 80 d1 e5 3d 5e 1b 4b 3e
       -0.008029819 -0.24306542 0.112215996 0.19834659
000070 d8 9c 18 bd 42 bb 4b 3e be f2 00 be e4 d4 55 bd
       -0.037258953 0.19895652 -0.12592599 -0.05220498
000080 72 45 b0 bd 90 69 c5 3d 66 9e 38 3e 44 50 78 be
       -0.08606996 0.09639275 0.18029174 -0.24249369

model/multi_head_attention/Mul;model/multi_head_attention/key/einsum/Einsum;model/multi_head_attention/query/add;model/multi_head_attention/query/einsum/Einsum;model/multi_head_attention/query/add/ReadVariableOp;model/multi_head_attention/Mul/y1 f4 [36]
000000 13 24 6e 3d 77 59 1c be b8 42 1c 3e a2 04 34 3e
       0.05813987 -0.15268503 0.15259826 0.17579892
000010 79 6c 68 3d bb 4a 82 bd 3a c8 eb 3d 7e b7 35 be
       0.056744073 -0.0636191 0.115127996 -0.17745778
000020 6d 18 48 bd f8 ab ee 3b c5 a8 cc 3c 80 7c 28 be
       -0.04885142 0.007283684 0.02498282 -0.16453743
000030 17 a8 2b 3e 4e d3 0c 3e e2 e6 2e bc 71 d1 35 be
       0.1676334 0.13752481 -0.010675164 -0.17755677
000040 97 b5 25 3e 16 83 e2 3d dc d5 9d ba a3 14 24 3e
       0.16182552 0.11060159 -0.0012041884 0.16023497
000050 88 1f 40 3d ee aa a8 bd 2e a8 8c ba ba 87 ec 3d
       0.04690507 -0.08235727 -0.0010731274 0.11549325
000060 46 37 f0 3c 23 a2 e2 3d a7 12 f8 bb f4 0e d1 3d
       0.029323231 0.110660814 -0.007570583 0.1020793
000070 5a 05 a6 3c cd b9 06 3e e0 8a 35 be e9 dc 00 3d
       0.020266224 0.13156815 -0.17728758 0.031460676
000080 83 16 29 3d 14 07 ad 3d 94 3c 0d bd 62 dd 87 bc
       0.041281234 0.08448616 -0.0344816 -0.016585056

const_fold_opt__90 f4 [60, 36]
000000 d4 e7 fd bc db 2a 39 bd 1c 83 35 3d 8c 48 3a 3d
       -0.030994333 -0.045206886 0.04431449 0.045479342
000010 c4 d7 86 3d 0c 58 c6 3c 18 02 7f 3c 80 cc 1a bc
       0.06584123 0.024211906 0.015564464 -0.009448171
000020 20 8e 9e 3d e0 c0 89 bd e6 87 1c 3d 9d dc 0c bd
       0.07741952 -0.06726241 0.03821554 -0.03439008
000030 dc da 80 3d f0 2f 63 3c ea 41 16 3d 2c d7 af bc
       0.06291744 0.01386641 0.036683954 -0.021464907
000040 84 b2 7f bd 98 a4 a2 3d d0 a8 cf bb 80 57 6f 3d
       -0.062426105 0.0794155 -0.0063372627 0.058433056
000050 3d 23 a7 bd e0 d8 0a 3d b4 f0 6d 3d c0 44 52 bc
       -0.08161018 0.033898234 0.05809088 -0.012833774
000060 f0 7f 2e 3d 0c 33 4d 3d ec 22 80 3c 84 24 cc 3c
       0.04260248 0.05009751 0.015641652 0.024919756
000070 04 7d a4 3c 10 1f 8b 3d 5a f1 a2 3d 00 82 35 b9
       0.020079143 0.06793034 0.079561904 -0.00017309934
000080 de 95 11 bd 64 35 a0 3d cc 4a 39 3d 20 dd 01 bc
       -0.035543315 0.078226835 0.045237347 -0.007926255
000090 02 03 0d bd 32 74 90 3d c6 c7 30 bd 6a a9 0f 3d
       -0.034426697 0.070534125 -0.04315927 0.035073675
0000a0 f8 18 77 3d dc d5 20 3d 6e 00 3a bd 7c ed 39 3d
       0.060326546 0.039266452 -0.045410566 0.0453925
0000b0 e4 59 5f 3d f1 6b 78 bd 6c 5d dc 3c a6 98 ce bc
       0.054529086 -0.060649816 0.026900016 -0.025219273
0000c0 fc 3a 74 bd f2 55 93 3d f4 3d 82 bd 60 bb 3c 3d
       -0.059626564 0.07194127 -0.06359473 0.046077132
0000d0 90 aa 45 3d 04 43 80 3d 80 26 3d 3c b0 c9 27 3c
       0.048258364 0.06262782 0.011544824 0.010240957
0000e0 20 91 4f bc f0 20 fa 3b e8 a2 87 3c d4 e0 a3 3d
       -0.012668878 0.007633321 0.016557172 0.08001867
0000f0 10 5c 38 3d 40 cf 95 bc a2 c0 dc bc b1 cf 94 bd
       0.045009673 -0.018287301 -0.026947323 -0.072661765
000100 9c 37 77 bd c4 57 36 bd 3b 07 90 bd 9c cf 57 bd
       -0.060355768 -0.044517294 -0.07032629 -0.052688226
000110 d4 58 f4 3c ca b3 83 bd a4 38 9a bd e8 ba 57 3d
       0.029827513 -0.064307764 -0.075303346 0.052668482
000120 44 f2 77 3d 38 c8 41 3d ba 12 f4 bc a4 5e 83 bc
       0.060533777 0.047310084 -0.029794086 -0.01603634
000130 36 78 2a 3d 1e 29 a2 bd c8 cc 0a 3c e8 f0 52 3d
       0.04161855 -0.07917999 0.008471675 0.051499277
000140 a6 d5 98 3d 0e 40 96 3d f8 0e 48 3d 81 26 7f bd
       0.07462625 0.07336436 0.0488424 -0.06229258
000150 ad 58 5b bd 7e bd a4 3d 90 41 89 3c 7c 9a 90 3c
       -0.053551365 0.08043955 0.016754895 0.017651789
000160 80 db c3 ba 04 21 9e bd 40 c9 0e bc d0 f5 1d 3d
       -0.0014942735 -0.07721141 -0.008714974 0.038564503
000170 94 9d b3 3c 70 bc c6 3c 7a 83 23 bd 8c 0e b5 3c
       0.021925725 0.024259776 -0.039920308 0.022101663
000180 32 f2 09 3d 24 bb 97 bd ec 5a 8d 3d c4 8d 38 3d
       0.03367824 -0.07408741 0.069021076 0.045057073
000190 b0 c2 12 3c 8e 70 81 3d 2e 0f a0 3d 16 c6 13 bd
       0.00895755 0.06320296 0.07815395 -0.03607758
0001a0 f2 7c 78 bd f0 45 40 3c 60 71 39 3d c6 f8 e0 bc
       -0.060666032 0.011735424 0.04527414 -0.027462374
0001b0 ec a7 55 bd 16 45 31 3d fc 01 fa bc de 18 b7 bc
       -0.052162096 0.043278776 -0.030518524 -0.022350725
0001c0 f4 f5 06 bd 00 49 97 bc b2 9a 8d bd 2a b2 9e 3d
       -0.032949403 -0.018467426 -0.069142714 0.07748826
0001d0 b0 3e f4 bb 90 c0 b6 bc ba ba 24 3d 45 03 94 bd
       -0.007453762 -0.022308618 0.04021714 -0.07227186
0001e0 38 04 26 bd fb cb 54 bd 80 bc 77 3d 19 46 06 bd
       -0.040531367 -0.051952343 0.060482502 -0.032781694
0001f0 9e 9b 62 bd f2 5d c1 bc 7c 28 e3 3c 93 84 9d bd
       -0.05532419 -0.023604367 0.027729265 -0.07691302
000200 9c 84 27 3d 3d 6e a4 bd 75 b6 8a bd 34 94 85 3d
       0.04089795 -0.08028839 -0.06773082 0.06522408
000210 20 e3 50 3c b0 00 b5 bb 00 84 f3 3c 4e 8a a0 bd
       0.012749463 -0.0055237636 0.029726028 -0.078388795
000220 28 25 9e bd f8 eb 53 bc c0 eb bc bc a8 29 62 3d
       -0.07721931 -0.012934677 -0.023061633 0.055215508
000230 e0 ee 12 3d 24 bd 78 3d a8 51 43 3d 90 9c 82 bc
       0.03587234 0.060727254 0.047685295 -0.015943795
000240 ec bc 5d 3d 69 14 35 bd b6 f5 9d 3d 10 27 65 3d
       0.054135248 -0.044208918 0.07712881 0.055945456
000250 3e 3a 8d 3d 7c 5d 9e 3d b0 00 9c bd f0 cb 56 3d
       0.068958744 0.077326745 -0.07617319 0.052440584
000260 04 b3 73 3d cc d9 9a bd a0 34 f1 3c f0 3e ea bb
       0.059496894 -0.07561073 0.029444039 -0.007148616
000270 5f d1 01 bd f7 98 1c bd d6 0b 95 3d 16 38 26 3d
       -0.031693812 -0.038231816 0.07277648 0.04058083
000280 fc 52 81 bc 14 1e fe bc b0 ec a3 bb 48 c3 80 bc
       -0.01578664 -0.031020202 -0.0050025806 -0.015718117
000290 f0 21 95 bb 80 a3 6c bb f8 b0 3d bc 54 ec 76 3d
       -0.004551165 -0.0036108196 -0.011577837 0.060283974
0002a0 6b e8 01 bd cc 0f a0 3c 22 f4 ba bc 34 36 94 3d
       -0.03171579 0.019538783 -0.02282149 0.07236901
0002b0 f8 cd 6b 3d f0 75 fc 3b 94 5d 24 3d dc d2 0c 3d
       0.057569474 0.007704489 0.040128306 0.03438078
0002c0 5c d3 0a 3d 00 20 9c 3d 1e d3 14 3d 28 53 40 3c
       0.033892974 0.07623291 0.03633415 0.011738576
0002d0 c6 15 8e 3d ea 85 91 3d 2a a1 08 bd 60 21 f9 bb
       0.06937747 0.0710562 -0.033356823 -0.0076028556
0002e0 a1 11 5a bd 8c 7d 91 3d ca 81 80 3d d7 58 87 bd
       -0.05323947 0.07104024 0.06274755 -0.06608742
0002f0 a0 a1 7c 3c 05 4e 18 bd 0a dc 9d bd 80 23 4c 3a
       0.015419394 -0.03718378 -0.07707985 0.00077872723
000300 56 49 5f bd c8 c2 5b bd 6c 2a c1 bc 40 a9 81 3d
       -0.054513298 -0.053652555 -0.023579799 0.0633111
000310 40 41 24 3d a6 50 66 bd c0 98 e9 3c 5a e5 ba bc
       0.04010129 -0.056229256 0.02851522 -0.022814441
000320 b4 17 9d 3d 12 11 60 bd 2a 83 d7 bc 50 26 8c 3b
       0.07670537 -0.05470378 -0.026307661 0.004277028
000330 40 c4 56 bb 2a 03 88 3d 60 d8 af 3b 9e eb 57 bd
       -0.0032770783 0.066412285 0.00536637 -0.052714936
000340 78 15 22 bc 38 16 b1 3c 38 02 32 bc 48 3c 8b 3d
       -0.009892814 0.02161704 -0.010864787 0.06798607
000350 04 cf 7c 3d 68 be 08 bc 60 ba 5f bc e0 62 f3 bb
       0.061720863 -0.008346178 -0.013655275 -0.0074275583
000360 10 01 47 bd de 01 c3 bc 0c fe 26 bd 08 84 64 bc
       -0.048584998 -0.023804601 -0.04076962 -0.013947494
000370 b4 ff f0 3c 90 be 5e bc 40 c6 44 3d 02 44 29 3d
       0.029418804 -0.013595238 0.04804063 0.041324623
000380 64 ec 8e bc 42 90 94 3d 80 ec 60 3d 68 1c e7 bc
       -0.017446704 0.072540775 0.054913044 -0.028211787
000390 70 e2 54 3d 11 8c 69 bd d0 d2 53 bc 40 dd ab bc
       0.05197376 -0.057018343 -0.01292868 -0.020979524
0003a0 fe e2 8c bd 5c 7f 53 3d 60 6d 5c bb 20 44 9d bb
       -0.06879233 0.05163513 -0.0033634529 -0.004799381
0003b0 b1 c9 45 bd 00 98 5c bc b4 0a 6d 3d 00 fa 2f 3b
       -0.04828805 -0.013463974 0.057871535 0.0026851892
0003c0 98 54 1d bd 90 de 39 3d 30 6d 86 3d 37 57 40 bd
       -0.038410753 0.045378268 0.065637946 -0.046958175
0003d0 ac da 81 3d 80 e5 7c bc 40 c4 c3 3b a7 6a 8c bd
       0.063405365 -0.015435576 0.0059743226 -0.0685628
0003e0 d7 d4 04 bd 9f ce a3 bd 38 58 e1 bc e8 10 94 bd
       -0.032429542 -0.07998394 -0.027507886 -0.07229787
0003f0 1e 77 0f 3d 90 1f d5 3c f0 8d fb 3c 10 2a 3b bc
       0.03502571 0.026016027 0.03070733 -0.011423603

const_fold_opt__82 f4 [60, 36]
000000 80 7c 00 3c 40 85 c3 bd e0 84 2d 3e 7c 6b 49 be
       0.007842183 -0.095469 0.16945219 -0.19669908
000010 e0 2e 57 bd 24 67 20 be 00 c0 f3 b9 f0 34 79 3e
       -0.052534938 -0.15664345 -0.00046491623 0.243366
000020 20 3e de 3c 50 16 00 bd 20 d9 0f 3e e0 78 20 3d
       0.027129233 -0.03127128 0.1404767 0.039177775
000030 80 06 96 3b c0 94 62 bc f4 f4 35 be 58 ef 93 3d
       0.0045784116 -0.01382941 -0.17769223 0.072233856
000040 80 67 f3 bb 44 c8 6e 3e 64 2c 16 be 34 02 3e be
       -0.0074281096 0.23318583 -0.14665371 -0.18555528
000050 58 6a f5 3d b8 5e cc 3d 10 ad c0 3d bc 61 3e 3e
       0.11983174 0.09979004 0.09408009 0.1859197
000060 80 cb 2a 3d 20 fc 71 3e 6c ed 04 be e8 13 91 bd
       0.04169798 0.23631334 -0.12981194 -0.07083875
000070 00 be 89 bc 54 98 01 3e 58 bd 4e 3e a0 dd d6 bc
       -0.016814232 0.12655765 0.20189416 -0.026228726
000080 f4 ef 21 be a0 ce c9 bc 94 7f 65 be 0c 2b 17 3e
       -0.15814191 -0.02463466 -0.22411948 0.14762515
000090 04 b6 5a 3e 88 4a 4c 3e 48 f0 f4 3d 08 c3 34 3e
       0.21358496 0.19950306 0.119598925 0.17652524
0000a0 5c 75 08 3e 30 b4 5a be 40 3f 01 3e 98 a9 12 3e
       0.13326019 -0.21357799 0.12621784 0.14322507
0000b0 08 3e c6 3d 18 9f f4 bd 8c b9 3a 3e d0 36 6f 3e
       0.096798 -0.11944407 0.18234843 0.23360753
0000c0 28 55 44 be 60 c9 04 3d b0 dc 48 3e 5c c4 32 3e
       -0.1917311 0.03241861 0.19615436 0.17457718
0000d0 68 08 df bd f8 06 63 3e 14 7d 24 be a0 25 23 3e
       -0.10890275 0.22170627 -0.16063339 0.15932322
0000e0 80 c0 f5 bc 50 82 6c be b0 5d f7 bd e0 76 63 3e
       -0.029999018 -0.23096585 -0.12078416 0.22213316
0000f0 58 9e 8b bd 20 96 46 3d 70 e6 6c 3e 44 be 22 3e
       -0.06817311 0.048483014 0.2313478 0.15892893
000100 6c 81 3a be 00 be 09 3d 30 92 26 3d 4c 54 0c be
       -0.18213433 0.033628464 0.04066676 -0.13704032
000110 e0 55 e6 3d 18 f9 25 3e 40 bc 82 bc e0 b4 52 3e
       0.11246848 0.16208303 -0.015958905 0.20576811
000120 00 b0 0e 3b c0 e3 16 bc 30 5d 20 bd 60 f3 59 bd
       0.0021772385 -0.009209573 -0.03915137 -0.053210616
000130 f0 44 5e be a8 ec 80 bd a8 fc e8 3d c0 27 33 bc
       -0.21705985 -0.062951386 0.11376315 -0.01093477
000140 c0 af d6 bd e0 1b 9f bc ec 44 05 3e b8 2d fa bd
       -0.104827404 -0.019422472 0.13014573 -0.122157514
000150 14 80 58 be f8 eb 8a bd 30 9c e6 bd d8 f5 76 be
       -0.21142608 -0.06783289 -0.11260259 -0.2411722
000160 a4 00 15 3e 5c bf 37 3e c4 ca 73 be 20 6b 57 bd
       0.14551026 0.17944092 -0.23807818 -0.052592397
000170 b0 5c 08 3e a4 38 25 be d0 f5 38 3d 40 3c 1a 3d
       0.13316607 -0.16134888 0.0451563 0.037655115
000180 a0 6b a8 bc a0 46 93 3c f8 5d d3 3d 40 a5 20 3c
       -0.020559132 0.017978013 0.103206575 0.009805024
000190 0c 49 48 3e 6c 81 04 be b0 02 30 be 54 db 26 3e
       0.19559115 -0.12939996 -0.17188525 0.16294605
0001a0 2c 0a 64 3e 40 23 41 bd b0 a8 50 3d 70 af be bd
       0.22269505 -0.047152758 0.050942123 -0.09310806
0001b0 88 7c 0b be 40 9a 1a bd d8 bf d3 3d 04 b0 24 3e
       -0.13621724 -0.03774476 0.10339326 0.1608277
0001c0 48 54 82 3d 00 17 01 3b 58 a4 89 3d 7c 30 74 3e
       0.063637316 0.0019697547 0.06720799 0.2384662
0001d0 78 e5 b3 bd 0c ac 68 be b0 3e b1 bd 80 a2 18 3e
       -0.08784002 -0.2272188 -0.08654535 0.14905739
0001e0 e8 5b 24 be 40 2f 82 bc f8 e6 18 3e b0 07 1d be
       -0.16050684 -0.015891671 0.14931858 -0.15334964
0001f0 88 36 90 3d b0 c5 45 3d 44 a1 24 be f0 1b 17 bd
       0.07041651 0.048284233 -0.16077143 -0.036891878
000200 00 c3 05 bb 30 77 d1 bd e0 fa 73 3d 00 24 35 ba
       -0.0020410419 -0.10227811 0.059565425 -0.00069099665
000210 00 cc ab 3c 28 df a1 bd e0 02 e8 bc 60 9d bf 3c
       0.020971298 -0.07903892 -0.028321683 0.023390472
000220 08 52 92 bd 98 af 80 3d 08 c8 bd bd c4 81 6b 3e
       -0.071445525 0.06283492 -0.092666686 0.2299872
000230 08 0d f6 bd 00 ec 44 be 58 18 d0 bd bc f5 53 be
       -0.12014204 -0.19230652 -0.10160893 -0.20699209
000240 ac 2d 5b be 78 e4 39 be 48 45 c0 3d 50 e2 1a 3d
       -0.21404141 -0.1815356 0.09388214 0.037813485
000250 e8 f8 cc 3d 00 03 f9 bc 00 45 1b bc d0 30 b6 3d
       0.100084126 -0.030396938 -0.0094769 0.08896029
000260 f4 1e 0a 3e b0 fe d0 bd 94 59 49 be dc 25 77 be
       0.1348837 -0.10204828 -0.19663078 -0.24135536
000270 c4 18 53 be 58 54 9f bd e0 bf 15 bd dc dd 4d be
       -0.20614916 -0.07779759 -0.03655994 -0.20104164
000280 c0 a8 1a be d0 26 b1 bd 70 27 12 be c0 dc c3 bc
       -0.15103436 -0.08649981 -0.14272857 -0.023908973
000290 94 96 1f 3e 78 1d 2e 3e 1c a9 3b be 5c a0 12 be
       0.15584785 0.17003429 -0.18326229 -0.14318985
0002a0 34 01 6b be 00 37 60 bd 90 c4 84 3d f0 72 4f bd
       -0.22949678 -0.054739952 0.06482804 -0.050646722
0002b0 00 22 2f bb 0c d9 7a 3e 60 d3 ce 3c d8 c3 07 be
       -0.0026723146 0.2449686 0.025247276 -0.13258302
0002c0 6c 6d 43 be 28 7b d7 3d 10 1a d1 3d a0 6f e5 bd
       -0.1908471 0.10521537 0.10210049 -0.112029314
0002d0 08 1b 85 bd c0 09 59 bd f4 5a 05 3e 50 11 e1 3d
       -0.064992964 -0.052987814 0.13022977 0.1098963
0002e0 58 40 59 be 90 ae 96 bd 7c 82 73 3e 0c 56 5d 3e
       -0.21215951 -0.07357514 0.23780245 0.21614856
0002f0 88 82 fa 3d d0 76 02 3e 00 2f 74 bc 1c 31 33 3e
       0.12231928 0.12740636 -0.014903784 0.17499202
000300 a0 a9 e9 3d 38 3a 20 3e a0 c4 1a bd 68 a5 59 be
       0.114093065 0.15647209 -0.037785172 -0.21254504
000310 00 00 aa 3a 20 09 ab bc b8 ce 95 bd 44 28 35 be
       0.0012969971 -0.020878375 -0.07314819 -0.17691141
000320 80 aa 45 bc 4c bf 52 3e 64 29 65 be c0 30 61 be
       -0.012064576 0.20580786 -0.2237907 -0.21991253
000330 58 f4 c6 3d 78 04 ea 3d 60 08 2d be dc d0 32 be
       0.097145736 0.114266336 -0.16897726 -0.17462486
000340 90 5a 7d be f0 72 76 bd 10 d2 2b 3d 40 49 d2 3d
       -0.24741578 -0.060168207 0.041948378 0.102678776
000350 68 39 1c 3e 40 0e f9 3c 40 33 bc 3d 00 48 56 3b
       0.15256274 0.030402303 0.09189463 0.0032696724
000360 dc d4 56 be 60 d5 06 be e8 f9 37 3e 70 00 f9 bd
       -0.20979637 -0.13167334 0.17966425 -0.121582866
000370 d8 30 6d be d0 ac 20 be 98 9e 65 3e a0 a1 2e 3e
       -0.23163164 -0.15690923 0.2242378 0.17053843
000380 a8 11 c1 3d 38 ae f2 bd c8 62 52 be 40 9d 1b 3d
       0.09427196 -0.11849636 -0.20545495 0.037991762
000390 e0 4f 99 3c 80 31 b5 bd bc 45 03 3e 24 51 1e 3e
       0.018714845 -0.08847332 0.1281957 0.1546064
0003a0 c0 21 59 3d b0 e0 0a bd a8 c2 74 3e a4 f5 49 3e
       0.053010702 -0.033905685 0.2390238 0.1972261
0003b0 4c 39 7d 3e 48 b2 dd bd f0 0c 4e be a8 82 be bd
       0.24728888 -0.1082502 -0.20122123 -0.093022645
0003c0 f8 46 e8 3d d0 88 f4 bd cc 48 05 3e a8 31 23 3e
       0.11341661 -0.119401574 0.13016051 0.15936911
0003d0 f8 2c 22 be a0 9b b7 bc c0 b9 be bc c0 15 c6 3d
       -0.15837467 -0.022413075 -0.023281932 0.09672117
0003e0 b8 b7 3e be 70 56 5c be 3c 7c 2d be 00 20 b7 3a
       -0.1862477 -0.21517348 -0.16941923 0.0013971329
0003f0 20 bd 7a 3e e0 1b 72 be 1c 05 40 be 80 1c c7 bd
       0.24486208 -0.23643446 -0.18751949 -0.09722233

const_fold_opt__78 f4 [36, 36]
000000 d8 6d 25 be 20 83 ba 3b d2 a2 46 3e 4c 4d 23 bd
       -0.16155183 0.005691901 0.19398049 -0.039868638
000010 23 38 3a be 20 9d f5 3b a8 8b e9 3c 98 ef c9 3d
       -0.18185477 0.0074955374 0.028508976 0.09860152
000020 a4 8c 24 bd 4c 21 ae 3d 40 44 d3 3d 2a 3c 44 3e
       -0.040173188 0.085024446 0.10315752 0.19163576
000030 6c b4 94 3d 74 45 1b 3e 78 a1 2a 3e 98 b2 a3 bc
       0.07260975 0.15163213 0.16663158 -0.019982621
000040 cc 61 f8 bd 02 a6 0c 3e 8e fb 2f 3e 8c 9f 7f bd
       -0.12128028 0.13735202 0.17185804 -0.062408015
000050 26 5c 98 bd e2 e7 06 3e aa e4 2a 3e b3 5c 11 be
       -0.07439451 0.13174394 0.16688791 -0.14195518
000060 cc 94 23 3e 04 c4 1e be d0 50 26 3c 81 09 e9 bd
       0.1597473 -0.15504462 0.010151103 -0.11378766
000070 44 83 8d bd 33 1e 1f be 8c 97 7d bd 80 a2 e2 3c
       -0.069098026 -0.15538864 -0.061912104 0.027665377
000080 dc 61 b4 3d 23 d4 48 be c8 e6 a9 bc 8e bd 0e be
       0.08807728 -0.19612174 -0.020739928 -0.13939497
000090 4a 2b 36 3e 98 b1 f5 3c 96 3b ab bd 65 72 06 be
       0.17789951 0.02999191 -0.083609745 -0.13129576
0000a0 70 c6 8c 3c 1d 46 af bd 0a 4f 27 be 69 59 f5 bd
       0.017184466 -0.08558295 -0.16338745 -0.11979944
0000b0 5c bb 2d be 00 39 96 ba ac d7 68 bd 68 0c 53 3d
       -0.16966003 -0.0011461079 -0.056846306 0.051525503
0000c0 10 55 93 bd ac d8 28 bd 00 2e 44 bb c0 51 dc 3d
       -0.07193959 -0.04122226 -0.0029934645 0.1075778
0000d0 8c 1e 13 bd d9 28 05 be d4 5f 04 bd c2 fb 93 bd
       -0.035917804 -0.13003863 -0.03231795 -0.07225753
0000e0 50 e3 8b bd f8 f8 f1 3d b8 2a b7 3d 00 23 ee ba
       -0.06830466 0.11815065 0.08943695 -0.001816839
0000f0 00 d6 f2 bc 5a 92 2f be 30 44 83 3d 2d a1 22 be
       -0.029643059 -0.17145672 0.0640949 -0.15881796
000100 a0 4e 11 3e d8 fd 76 3d f0 39 32 3d 78 bb 4a 3e
       0.1419015 0.060300678 0.043512285 0.19798076
000110 e8 b4 a4 3c 60 22 a7 3c b5 b3 28 be 34 42 cc 3d
       0.020105794 0.020402133 -0.16474803 0.09973565
000120 b5 22 50 be 10 b2 95 3c 40 4e 68 bb 06 4c 96 bd
       -0.2032574 0.018273383 -0.0035447031 -0.07338719
000130 b8 4d da 3c ec 5a a1 3d 94 53 a7 3d a0 3f ba 3c
       0.026648387 0.0787867 0.08170238 0.022735417
000140 b0 12 3d 3d ec 68 15 be ff 7d 49 be 24 52 fd 3d
       0.0461604 -0.14590806 -0.1967697 0.12369183
000150 74 1d da 3d 50 48 1d 3d d8 93 f3 3c b6 40 d1 bd
       0.10650149 0.03839904 0.029733583 -0.10217421
000160 ec 80 9e 3d 02 79 17 be ac 1d 7a bd 70 2e 10 bd
       0.07739434 -0.14792255 -0.061063454 -0.035200536
000170 a0 7d fb 3b d9 c5 48 be c7 fa 49 be 74 d8 a3 bd
       0.007674888 -0.19606723 -0.1972457 -0.080002695
000180 68 2e 68 3d 4c 15 30 be 68 98 20 3e 01 da 24 be
       0.05668488 -0.17195624 0.15683138 -0.16098787
000190 c0 d5 bd bd 20 09 53 bc a2 ed 4f be ac f9 ad bd
       -0.09269285 -0.012880594 -0.20305493 -0.08494887
0001a0 38 84 db 3d 1b 29 04 be 33 54 3c be b0 98 ea 3d
       0.10718578 -0.12906305 -0.18391494 0.11454904
0001b0 70 2c 07 be 30 c9 00 3e 30 5d 58 bd d4 dc dc 3d
       -0.13200545 0.12576747 -0.052823246 0.10784307
0001c0 3c db 2d 3d 00 f8 37 3e 04 35 12 3d 4a 06 ce bd
       0.042445406 0.17965698 0.03569509 -0.10059793
0001d0 8a 9b 9d bd fe 53 0b be 64 bf ed 3d 50 bb 6d bd
       -0.07695682 -0.13606259 0.116087705 -0.058039963
0001e0 d2 ee 26 3e 78 bf e3 3d aa ee 47 3e 86 61 4c 3e
       0.1630204 0.11120504 0.19524637 0.19959077
0001f0 66 85 bf bd 74 c9 1e 3e 65 3d 50 be df 30 4f be
       -0.093516156 0.15506536 -0.2033592 -0.20233487
000200 b0 36 62 bd c6 69 c4 bd 9e 10 34 3e 84 32 2b be
       -0.055227935 -0.09590487 0.17584464 -0.16718489
000210 2c 18 21 be f8 ea 0a 3d d8 2d e0 3d e0 bc c4 3d
       -0.15731877 0.03391549 0.10946244 0.096063375
000220 78 c7 c9 3c d0 c1 20 3e 24 f8 35 be 8e 1e 37 be
       0.024631247 0.15698934 -0.1777044 -0.1788275
000230 4a f3 2e 3e 80 b3 d3 3d 04 93 2e 3e 7c a1 06 be
       0.17084995 0.10336971 0.1704827 -0.13147539
000240 99 11 f0 bd 2c ce 0b 3e 20 27 65 3d 8e a1 15 be
       -0.117221065 0.13652867 0.055945516 -0.1461241
000250 58 3b 94 3d 2c 3b 5b bd 28 51 4f 3d 9e 47 30 3e
       0.072378814 -0.053523228 0.050614506 0.1721482
000260 4c fe 1c 3e 13 aa 32 be 53 7d de bd c1 cd 37 be
       0.15331382 -0.1744769 -0.108637474 -0.17949583
000270 e8 02 21 be 2f de b8 bd 28 da 96 bc 88 1c ac bd
       -0.15723765 -0.09026753 -0.018414572 -0.084038794
000280 6a 7f df bd 11 f1 3c be 0b 89 e5 bd d4 17 bf 3d
       -0.10912974 -0.18451335 -0.112077795 0.09330717
000290 4a 2c 2f be 08 5c 1c bd a0 a6 a1 3d f6 45 04 3e
       -0.17106739 -0.038173705 0.07893109 0.12917313
0002a0 a0 f0 29 3e b0 69 4d be ea 04 15 be 72 b3 13 3e
       0.16595697 -0.20059848 -0.14552656 0.14423922
0002b0 5a cc 26 3e 50 39 11 bc 7c 7c dd 3d b5 0e 33 be
       0.16288891 -0.008863762 0.10814759 -0.17486079
0002c0 34 90 4c be 04 29 21 bd d0 3a ee 3d c0 77 7b bd
       -0.19976884 -0.039345756 0.11632311 -0.0613935
0002d0 52 21 4a 3e 58 00 9d bc 1d 2b 42 be c6 aa 12 be
       0.19739273 -0.019165203 -0.18961759 -0.14322957
0002e0 c0 e4 2e bd ce 56 88 bd f0 59 88 3c 3d 44 ce bd
       -0.04269862 -0.06657182 0.016644448 -0.10071609
0002f0 20 a8 d4 3c cc 1f 73 bd 14 d0 3e bd 4f 5d dc bd
       0.025959074 -0.059356496 -0.046585158 -0.10759985
000300 7f 72 4a be ac dc b1 bd 8b c7 0e be a4 3d 38 3d
       -0.1977024 -0.08684668 -0.13943307 0.04498066
000310 74 6b 3c bd 8c 11 c1 3d 15 ff 43 be dc 92 09 bd
       -0.046000913 0.09427175 -0.19140275 -0.03358732
000320 70 b6 d8 3d 62 3c 08 be 66 be 09 3e 66 2a 42 be
       0.10581672 -0.13304284 0.13451537 -0.18961486
000330 b4 09 4a be 8a 21 1f 3e 4a 4d 1e 3e d0 36 4d 3c
       -0.19730264 0.15540138 0.15459171 0.012525275
000340 44 48 d9 3d 74 60 db 3d 0c b0 d7 3d bc 81 e2 3d
       0.10609487 0.10711756 0.10531625 0.11059901
000350 48 47 d7 bc 18 1d 8c bc b8 fb 38 be 8c 95 78 bd
       -0.026279107 -0.017103717 -0.18064773 -0.060689494
000360 43 ba ee bd 98 dd 02 3e b0 d0 e7 3d 71 11 0d be
       -0.1165662 0.12779844 0.11319101 -0.13776185
000370 a0 77 a0 bd 4c 5c 3e 3e 40 02 9b bc 64 1b 02 3d
       -0.07835317 0.18589896 -0.018921971 0.031764403
000380 16 61 49 3e a8 74 22 3d 54 90 15 bd b0 db ed bd
       0.19665942 0.039662033 -0.036514595 -0.11614168
000390 b6 83 4e be cf c6 43 be d8 9b 5e bd 38 dd 9c 3d
       -0.20167431 -0.19118808 -0.054347843 0.07659382
0003a0 5e e7 9e bd 00 85 7a 3d c3 e2 eb bd fa 3f c6 bd
       -0.077589735 0.061161995 -0.11517861 -0.09680171
0003b0 0c 87 3e 3e e0 25 fc 3d d4 13 93 3d 24 ec e5 3d
       0.18606204 0.123119116 0.07181516 0.11226681
0003c0 3f 6c 33 be ea b9 26 3e a0 b1 04 be 86 fc 18 3e
       -0.17521761 0.16281858 -0.12958384 0.1494008
0003d0 e9 5a ee bd 30 f7 1d bd 64 dd 54 bd e0 d5 88 3d
       -0.116384335 -0.038565814 -0.051968947 0.066814184
0003e0 28 07 a9 3d 48 82 94 3d bc ba 2e be c8 92 d1 3c
       0.08253318 0.07251412 -0.17063421 0.025582686
0003f0 56 54 34 3e 68 59 1d 3d 44 85 3c 3e 98 23 9d 3d
       0.17610297 0.038415343 0.18410212 0.076728046

const_fold_opt__77 f4 [36, 36]
000000 50 b4 30 bc 4a 4c 97 bc 4f 59 5b bc 5d d7 36 3c
       -0.010785177 -0.018468995 -0.013387992 0.011159745
000010 ed 8e 20 3c d6 95 1e bc 11 18 2c bc ea fc 31 bb
       0.009799701 -0.009679278 -0.010503785 -0.0027158805
000020 45 36 8d bc e1 7d 31 bc 26 d0 c9 3c 0b c1 dc bc
       -0.017237792 -0.0108332345 0.024635386 -0.026947519
000030 b0 16 6a bc e4 03 c2 bc 16 22 ad bc e3 0c be 3c
       -0.014287636 -0.023683496 -0.021134418 0.023199504
000040 e8 da d6 bc b5 fc 61 3c 74 1a ab bc 15 be b4 3c
       -0.02622743 0.01379316 -0.020886637 0.022063294
000050 66 92 55 bc 82 8d c6 3c ec f1 41 bc a7 b2 b7 bc
       -0.013035392 0.024237398 -0.011837464 -0.022424055
000060 1c d6 40 bc 19 f4 68 3a d8 30 53 bc 58 ef dc 3b
       -0.011769798 0.0008886471 -0.012890063 0.006742399
000070 fb a9 b9 bc fd 1f 56 3c ea 1a 93 bb 62 4c 92 3c
       -0.02266406 0.01306915 -0.0044892924 0.017858688
000080 fc 7b 6e 3c a0 43 f9 bc 72 c0 bc 3b a3 26 d8 3b
       0.014555927 -0.030427754 0.005760246 0.0065964027
000090 76 98 95 3c f4 ce ee bc d4 2a 9f bc 3d 7f 45 bc
       0.018261176 -0.029151417 -0.019429602 -0.012054262
0000a0 da 9e 76 bc 07 48 1d bc e6 34 c1 3c 77 73 bc bc
       -0.015052522 -0.009599692 0.023584794 -0.023004277
0000b0 c6 78 63 bb c3 0a 80 bc 2d 66 95 3c c0 97 f3 bc
       -0.0034709438 -0.015630132 0.018237198 -0.029735446
0000c0 be 2d e4 bc ac ef ae bc 9d f5 99 3c c0 1f dc 3b
       -0.027853843 -0.021354519 0.018793875 0.006717652
0000d0 16 2a 1b 3c 5b b9 16 3c c2 71 b4 3b d1 80 ac bc
       0.009470483 0.009199466 0.005506725 -0.021057518
0000e0 48 5e 03 3c c3 eb 61 bc 5d 8e f3 38 33 67 3b bc
       0.008018084 -0.01378912 0.0001161366 -0.011438179
0000f0 86 b0 cb bc aa f6 d6 bb 9b 5f 5c bc 76 20 94 bc
       -0.024864446 -0.0065601664 -0.0134505285 -0.018081885
000100 83 e6 f7 bc ef 7d af 3a a6 97 d6 3c f7 71 e1 3c
       -0.030261284 0.0013388972 0.026195358 0.027520163
000110 0f fc 58 3b 15 69 af 3c af e6 8c 3c 31 ff 76 bc
       0.0033109223 0.021412412 0.017199842 -0.015075491
000120 b4 08 d8 bc 22 58 c2 3c 70 f8 bf 3c 4a 00 e6 3b
       -0.026371337 0.023723666 0.023433894 0.0070190774
000130 5c 1b 18 3c 7d 5f 71 3b 7a 30 2c 3b 5a de fa bb
       0.009283867 0.0036830597 0.0026274011 -0.007655901
000140 2e 4b 68 bc a3 94 d1 bc 72 4d ba 3b 6e 5a ad bc
       -0.0141780805 -0.02558357 0.0056855017 -0.021161284
000150 67 45 d9 bb 55 15 8b 3c 91 f5 e8 bc cf 70 f7 3c
       -0.006630588 0.016977945 -0.028437408 0.030205159
000160 48 d0 aa bc 95 20 fc ba 5a 4d be bc dc af 98 bc
       -0.02085127 -0.0019235784 -0.023230243 -0.018638544
000170 8f a9 93 bc e6 f6 c6 3c 7a 4f e9 3c f6 aa 0f bc
       -0.018025188 0.024287652 0.02848028 -0.008768788
000180 30 db d8 ba 84 69 b2 3c c7 58 d4 bc ae 24 fe 3b
       -0.0016544815 0.02177883 -0.025921239 0.0077558374
000190 ba 18 56 ba 4f 49 cf bb 3c 87 47 3c d3 77 c5 bc
       -0.00081671367 -0.0063258777 0.0121782385 -0.024104988
0001a0 d6 fb 4d bc 74 e3 dd bb 8d 4d 82 bc 6c 6d 8a 3c
       -0.012572249 -0.0067714993 -0.01590612 0.01689788
0001b0 5d 9c a6 3b 4a bb 32 3c 6d a0 54 bc 67 b8 1a bc
       0.005084558 0.010908911 -0.012977702 -0.009443379
0001c0 3e 05 4e 3c 42 3a 3c bc 92 18 07 3c 69 4f 53 37
       0.012574492 -0.011488499 0.008245604 1.2595069e-05
0001d0 5a 6b a3 bc e1 17 64 bc a7 48 92 3b 2f 46 f6 3c
       -0.01994865 -0.013921709 0.0044642272 0.030062763
0001e0 c2 e2 ef bc 3a 8d a6 bb 9a 29 81 bc 28 fe aa bc
       -0.029282931 -0.0050827535 -0.015766907 -0.020873144
0001f0 99 40 ed ba 2e 50 ec 3c 70 a1 e0 3b dc 02 f6 bc
       -0.0018100917 0.028846826 0.0068551823 -0.03003066
000200 e0 91 8a bc fb 53 a9 3b 89 20 10 3c a8 59 b0 3c
       -0.016915262 0.005167482 0.0087968195 0.021527126
000210 c1 d0 14 bc 3a 77 d6 3c 72 76 84 bc 8c 7b 40 ba
       -0.009082974 0.026179899 -0.01616976 -0.00073426287
000220 d7 1b da bc f4 c3 ae ba 08 31 e1 3c 6f 82 23 3b
       -0.026624603 -0.0013333545 0.0274892 0.002494957
000230 bd fa cf 3c de dd fe bb a0 89 b2 bb fc dc d0 bb
       0.025388116 -0.0077779135 -0.005448535 -0.0063739996
000240 a9 1d e1 ba 11 88 d8 bc 87 31 d1 3c 8b 85 88 3c
       -0.0017174977 -0.026432069 0.025536312 0.01666524
000250 fb c3 85 bc 66 77 78 3a ae d4 94 3b 66 88 a3 bc
       -0.016328802 0.0009478241 0.004541955 -0.0199625
000260 f6 9d d2 bc c2 6d 70 3b ba f3 ba bc c9 7c ad bc
       -0.025710087 0.0036686515 -0.022821296 -0.021177666
000270 29 d9 e5 3c 49 11 e4 bb 85 1c f6 3b ad 12 99 bc
       0.028057652 -0.0069600684 0.007510724 -0.018685663
000280 24 f3 ab bc 4a 93 4a bc 41 8b 11 bc 85 67 42 3b
       -0.020989962 -0.012364218 -0.008883298 0.0029663753
000290 ba 9b b9 bb 8e 0b e9 bc 55 c8 8e bb 09 fa 20 bb
       -0.005664316 -0.028447893 -0.0043573775 -0.0024563095
0002a0 05 63 5e 3c 07 0d bb 3c b6 2d 0e bc 6c eb 66 bc
       0.013573413 0.02283336 -0.0086778905 -0.014094215
0002b0 cf 30 f0 3c 55 d4 87 bc 33 f5 ec bc 63 c4 5c bc
       0.029320149 -0.01658074 -0.028925514 -0.013474557
0002c0 b9 39 da bc f7 9b 84 3c 92 8d 4d 3c 87 21 e8 bc
       -0.026638852 0.016187651 0.01254596 -0.0283363
0002d0 69 ed 80 bc 13 ad 94 bc 95 b7 b9 3c 65 27 b2 bc
       -0.015738206 -0.018148934 0.022670547 -0.0217473
0002e0 cf 32 ec 3c ff a2 f3 bc 6b 89 f4 3c 54 38 d6 bc
       0.028832821 -0.029740809 0.029850682 -0.026149906
0002f0 98 15 80 3c 18 5e e8 bc d5 d3 4b 3b 34 9a b3 bc
       0.015635297 -0.02836518 0.0031101604 -0.021924116
000300 e8 8d 8c 3c cc 9c f8 bc c5 47 e8 3c 45 5f e5 3c
       0.01715751 -0.030348204 0.028354535 0.02799953
000310 ad ea c9 ba 9e 07 dd bc cb bb 85 bc bc 76 ca 3b
       -0.0015405022 -0.026981171 -0.016324898 0.006178705
000320 85 4e 15 bc c5 aa 1a bc 58 73 81 3b ce 87 a0 bc
       -0.009112959 -0.009440129 0.0039505176 -0.019596007
000330 94 e7 bc bc 68 a8 c4 3c f8 8c 5d 3c 68 29 96 bc
       -0.023059644 0.024006084 0.013522379 -0.01833029
000340 6b 93 0f ba eb c0 28 bc 5a fc 4f 3c 46 71 45 3c
       -0.0005476984 -0.0102999015 0.012694443 0.012050932
000350 23 bd 80 bb 5f 71 a7 3b e0 b0 80 3c 94 c9 c4 3c
       -0.003928797 0.0051099504 0.01570934 0.024021901
000360 7d 41 80 bc 7e 53 ac bc 56 56 ae 3c 09 21 00 bc
       -0.015656227 -0.021035906 0.021281403 -0.007820376
000370 6b 2c 2d ba 94 b0 c5 3c 86 0e 95 bc 29 2d d0 3c
       -0.0006606045 0.02413205 -0.018195402 0.025412159
000380 63 38 84 bc c7 5e c9 3c 29 f6 d1 3c c6 75 d5 3c
       -0.016140169 0.024581326 0.025630074 0.026057135
000390 14 7d df 3c 2e d4 9e bb 14 19 21 3c ca ec 42 3c
       0.027281322 -0.004847071 0.009832639 0.011897275
0003a0 5b 5a 96 bb 0b b0 f4 3c 3c 5d 1b bc d1 fe 1f bb
       -0.004588408 0.0298691 -0.009482678 -0.0024413357
0003b0 e6 cb e2 bc 88 7b 60 bb 47 08 a3 bc f2 cc 8d 3c
       -0.027685117 -0.0034253318 -0.019901408 0.01730964
0003c0 62 fc 7c 3c c9 ab 04 39 8a c0 8e 3b 10 ab cb bc
       0.015441032 0.00012652496 0.0043564485 -0.024861842
0003d0 0a 67 9a bc fe d6 7e 3b 1c 0e 40 3c 0e 4e ee bc
       -0.018847961 0.003888547 0.011722114 -0.029089954
0003e0 35 d9 62 3b e1 09 9a bc e2 07 98 bc ae a4 25 bc
       0.0034614329 -0.018803539 -0.018558446 -0.0101100635
0003f0 f2 21 99 bc 55 91 a0 bc 36 7f a2 3c c7 74 31 3c
       -0.018692944 -0.01960055 0.01983605 0.010831065

const_fold_opt__70 f4 [60, 36]
000000 58 30 ce bc 30 77 1e 3d 18 92 38 bc e8 9e 6c bc
       -0.025169536 0.038687885 -0.0112653 -0.014442183
000010 0c 8f 9f 3c c3 7f 9b bd 7a e5 30 3d 3c bf b1 bc
       0.01947739 -0.07592728 0.043187596 -0.021697633
000020 de 84 82 3d 5b 03 84 bd 00 9a 80 bd 80 70 0b bc
       0.06372999 -0.064459525 -0.06279373 -0.008510709
000030 5e 2c 55 bd 00 52 fd bc 84 c7 c7 3c d4 41 6c 3d
       -0.052044265 -0.03092289 0.024387129 0.057679966
000040 af d2 60 bd 00 07 00 bc 84 68 86 bd f4 af c7 bc
       -0.054888424 -0.007814169 -0.065629035 -0.024375893
000050 82 a3 90 bd 54 25 f6 3c 56 28 a5 3d 7c 6f c3 3c
       -0.07062437 0.030047096 0.08064334 0.02385687
000060 47 f8 81 bd 42 5a 05 3d ac 65 83 bd 30 c9 c7 3b
       -0.06346183 0.03255678 -0.06415877 0.0060969815
000070 10 c4 74 3c 34 f0 8d 3d 7c db 9d 3c 67 a4 a0 bd
       0.014939323 0.06930581 0.019269697 -0.07843857
000080 d7 35 79 bd 25 34 74 bd 10 5b cc bb 30 e6 a8 3c
       -0.06084236 -0.05962004 -0.0062364414 0.020617574
000090 38 ac 59 bd 74 df 2b 3d 30 e3 84 bd d0 61 0f 3d
       -0.053142756 0.04196115 -0.06488645 0.03500539
0000a0 72 99 3c bd f8 aa a6 bd ee 46 89 3d 66 08 96 3d
       -0.046044774 -0.081380785 0.06702982 0.073258206
0000b0 f0 09 d5 3c 38 b9 71 bd 62 79 2c 3d 40 86 75 bc
       0.026005715 -0.05901453 0.042107947 -0.014985621
0000c0 60 51 65 bc a0 ea 57 bc da 1f 3e bd 2e 59 11 bd
       -0.013996452 -0.013178498 -0.046417095 -0.03548544
0000d0 bb 70 40 bd 76 3b 1b 3d 8d b1 13 bd dc ed 57 3d
       -0.04698251 0.037898503 -0.036057997 0.052717075
0000e0 5c f7 85 3d 30 2c e8 3b 6c 10 ab 3c a4 60 72 3d
       0.06541321 0.0070853457 0.020881854 0.059174195
0000f0 d4 08 bb bc 7c 3d 47 3d b8 fe 5f 3c 60 3b cc bb
       -0.022831358 0.04864262 0.0136715695 -0.006232664
000100 27 c1 4b bd f4 f6 93 3d 87 be 09 bd e0 c7 e4 bc
       -0.04974475 0.07224837 -0.033628967 -0.02792734
000110 82 20 12 3d e6 44 15 3d 18 f3 0b 3d d0 c0 a1 bb
       0.035675533 0.03644266 0.03416738 -0.004936315
000120 7c 96 4e bd d0 13 79 bd d0 6e 9b bc 5a 3f 67 bd
       -0.05043648 -0.06080991 -0.018973738 -0.0564569
000130 ec 3b b6 3c 10 dd 46 3c 20 f9 e8 3c 20 20 7b 3d
       0.02224537 0.012137666 0.028439105 0.061309934
000140 cd 26 3d bd 10 b2 ed 3b b0 d2 20 bc a5 8e 32 bd
       -0.04617958 0.0072538927 -0.009815857 -0.043593068
000150 e6 2f 8e bd 39 b2 2d bd d3 2c 09 bd 1f 4b 94 bd
       -0.0694273 -0.042406294 -0.033490013 -0.07240891
000160 71 fc a0 bd 98 35 3e bd 6e fc a7 bc 84 5e 65 bd
       -0.078606494 -0.04643783 -0.02050611 -0.05599834
000170 34 78 9e bc fc 5e 94 bd af be 81 bd 06 12 d9 bc
       -0.019344427 -0.07244679 -0.06335198 -0.026497852
000180 8c e2 3b 3d b6 0e ef bc 54 8c 64 3d c0 b7 f9 3b
       0.04587035 -0.02918182 0.05579789 0.0076207817
000190 18 86 9d bd bc 74 f0 3c 00 9f dc 3b 97 29 85 bd
       -0.07691592 0.029352538 0.0067328215 -0.06502073
0001a0 16 62 5b bd 88 ab 46 bd 18 d9 15 bd 2c d1 32 3d
       -0.05356034 -0.04850343 -0.03658399 0.043656513
0001b0 68 b5 d3 3c d7 93 97 bd c4 13 91 bd da df a3 bd
       0.025843337 -0.07401245 -0.07083848 -0.08001681
0001c0 62 8d d8 bc 00 20 2a bc 5e a0 aa bc 5c 63 64 3d
       -0.026434604 -0.010383606 -0.020828422 0.05575882
0001d0 88 cc 0d bc 96 8f a7 bc cd e2 09 bd 22 01 8e bd
       -0.008654721 -0.02045421 -0.03366356 -0.0693381
0001e0 80 cc 85 3d c8 e9 4a bd 64 46 37 3d 00 b3 2a 3d
       0.06533146 -0.049539357 0.044744864 0.041674614
0001f0 ce c3 80 bd b8 98 ba 3c e0 2f 53 bd ca 1a aa bc
       -0.06287347 0.0227779 -0.05155933 -0.020764727
000200 4c 2d d9 bc 4f 5d 82 bd a4 37 d7 bc f0 99 9c 3c
       -0.026510857 -0.063654535 -0.026271649 0.019116372
000210 0a ea b9 bc 75 8a 8d bd 58 a6 ed bc 6c 54 59 3d
       -0.022694606 -0.06911174 -0.029009983 0.053059027
000220 5e 1b 3b bd 44 73 94 bc 96 93 8b 3d c0 85 7e bc
       -0.045680396 -0.01812137 0.06815259 -0.015534818
000230 c0 b6 96 bd 61 8b 2a bd dc 5a ac 3c 70 1c 9c bd
       -0.073590755 -0.04163683 0.021039419 -0.076226115
000240 00 8b 86 3a 48 37 a1 3d 42 02 86 bd a0 2c 0a bb
       0.0010264814 0.07871872 -0.065433994 -0.0021083727
000250 a8 51 3c 3d 68 24 ea bc 06 fb 96 3d 58 47 e0 bc
       0.04597631 -0.028581813 0.07372098 -0.02737777
000260 84 bf aa 3c 2d 7f 03 bd f4 27 1f 3d 53 88 0d bd
       0.020843275 -0.032103706 0.03885646 -0.034553837
000270 68 e8 6b 3c 50 37 6e bd d8 cc 76 bc 18 85 33 bc
       0.014398672 -0.05815822 -0.015063487 -0.010957025
000280 60 97 3a 3b 32 3d 3a bd 4f 22 0c bd ca d1 27 3d
       0.0028471574 -0.045468517 -0.034212407 0.040971555
000290 c4 f9 c1 3c dc 16 5e 3d 28 17 56 3d 12 af a1 3d
       0.023678668 0.05422102 0.052268177 0.0789472
0002a0 e7 24 42 bd b0 b4 3e bc 0c 2f a2 3d 78 8c 93 bd
       -0.047398474 -0.011639759 0.0791913 -0.07204527
0002b0 e8 0b 6a 3d bb e2 43 bd 70 cd 61 3c 38 82 19 3c
       0.05714026 -0.04782365 0.01378189 0.0093694255
0002c0 b8 fd 42 3d ea fc 08 3d 48 ae 0f 3c 7a 80 e1 bc
       0.047605246 0.033444323 0.008769579 -0.027527083
0002d0 c6 44 9c 3d 50 9a 26 bd 80 03 82 bc c6 8e 96 3d
       0.07630305 -0.040674508 -0.01587081 0.073514506
0002e0 60 b9 20 bc 88 bd 2f 3d 50 f4 87 3c d6 03 a3 bd
       -0.009809822 0.04290536 0.01659599 -0.07959716
0002f0 60 92 d2 bc 04 f4 9d bc a3 ba 3c bd 90 75 80 bb
       -0.025704563 -0.019281395 -0.04607643 -0.0039202645
000300 8e d6 23 bd 10 c8 99 bb e0 7c c3 3c 7d cf 88 bd
       -0.039999537 -0.0046930388 0.023863256 -0.066802
000310 4c da 88 bd 48 81 97 3d 60 87 c4 3c 26 2a 84 3d
       -0.06682262 0.07397705 0.023990333 0.06453352
000320 b8 a0 5f 3d e2 d9 56 bd 47 41 9e bd 9c 35 6c 3d
       0.054596633 -0.052453883 -0.077272944 0.057668313
000330 9c a5 92 bc 24 24 84 3d d1 46 27 bd 40 4d 66 bb
       -0.017901234 0.06452206 -0.04083902 -0.003514126
000340 a8 2d 16 bc 98 02 4c 3d 09 24 46 bd 80 07 4b 3b
       -0.009166159 0.04980716 -0.04837421 0.0030979812
000350 50 70 43 bc 7a a5 ec bc 34 3f 97 3c c9 79 a5 bd
       -0.011928633 -0.0288875 0.018462755 -0.08079869
000360 38 25 50 3d 94 4e 05 bd e3 f8 4a bd 10 09 a7 3d
       0.050816745 -0.03254564 -0.049553763 0.081560254
000370 f4 87 87 3d 70 b7 8d 3c d0 e0 91 3d ee e0 8a 3d
       0.06617728 0.017299384 0.07122958 0.06781183
000380 7f fe 94 bd d4 56 4c 3d 5c 82 a0 3c f2 1e bd bc
       -0.07275104 0.049887493 0.01959341 -0.023086045
000390 5c d8 8d bd e5 54 3a bd d8 5a 00 3c e2 7f 9b 3d
       -0.06926033 -0.045491118 0.007834159 0.07592751
0003a0 a8 a4 00 3c b6 c8 9d bd ea d2 8b 3d 90 30 f0 bb
       0.007851757 -0.07704298 0.06827338 -0.007330008
0003b0 26 95 02 bd 9c 19 8a bc b0 8c 70 bd 98 38 5b 3d
       -0.03188052 -0.016857915 -0.05872792 0.05352077
0003c0 80 a6 8f 3d 68 02 09 bc 88 52 0b bc 3c 94 2d 3d
       0.07014179 -0.00836239 -0.008503564 0.042377695
0003d0 1e aa a1 3d ec 11 33 3d 0a ff 5b bd 6c c0 4b 3d
       0.078937754 0.043718264 -0.05371002 0.049744055
0003e0 1a f5 1f 3d 36 63 f2 bc f2 e7 81 3d 28 eb 20 3d
       0.039052106 -0.029588323 0.06343068 0.039286762
0003f0 00 ee 24 bb e0 ff 60 3d c5 22 10 bd e0 3e 25 3d
       -0.0025166273 0.05493152 -0.03518941 0.040343165
