dnn-models/transformers_batched.onnx (onnx, 70513 bytes, 12 tensors)

model_1/model/multi_head_attention/value/add/ReadVariableOp:0 f4 [3, 12]
0	0xbdbebbf0	-0.0931319
1	0xbe8d132b	-0.27553686
2	0x3ea81526	0.32828635
3	0x3f074df7	0.5285334
4	0x3f2012d7	0.6252875
5	0xbf15467c	-0.58310676
6	0xbeeb6555	-0.45975748
7	0x3eaa9a1a	0.33320695
8	0x3f067985	0.52529174
9	0xbdab4888	-0.083634436
10	0x3f0d92b7	0.55301994
11	0xbe59e2c8	-0.21277916
12	0xbd8d2158	-0.068911254
13	0xbe8bdcf3	-0.27317008
14	0xbe97b3da	-0.29629403
15	0xbedac22e	-0.42726272
16	0x3ea38450	0.31936884
17	0xbf0065a0	-0.5015507
18	0xbd9bdf88	-0.076109946
19	0xbec646ba	-0.38725835
20	0x3ba88c80	0.005143702
21	0xbed5c846	-0.4175436
22	0x3f19d065	0.6008361
23	0x3e884196	0.26612538
24	0x3ea72d98	0.32651973
25	0xbf1a5ad8	-0.60294867
26	0xbd386350	-0.045016587
27	0xbf21d782	-0.63219464
28	0x3e098b74	0.13432103
29	0x3ef79162	0.48353106
30	0x3e08b080	0.1334858
31	0xbe20cc52	-0.15702942
32	0xbcd140a0	-0.02554351
33	0x3ef990da	0.48743325
34	0xbe4691b2	-0.19391516
35	0x3e9211c6	0.28529185

model_1/model/multi_head_attention/query/add/ReadVariableOp:0 f4 [3, 12]
0	0x3e4e3c70	0.20140243
1	0xbf076712	-0.5289165
2	0x3f07535f	0.5286159
3	0x3f1be677	0.60898536
4	0x3e4948ec	0.19656724
5	0xbe61ac16	-0.22038302
6	0x3ecc317e	0.3988151
7	0xbf1d5f10	-0.6147318
8	0xbe2d49a8	-0.16922629
9	0x3cceb220	0.025231421
10	0x3db13d78	0.08654302
11	0xbf11e9d7	-0.56997436
12	0x3f14a8b3	0.58069915
13	0x3ef3eab2	0.47639996
14	0xbd177830	-0.036979854
15	0xbf1d7589	-0.6150747
16	0x3f0f822d	0.5605801
17	0x3ec42a4a	0.38313514
18	0xbb88b080	-0.004171431
19	0x3f0e1915	0.5550702
20	0x3e266230	0.16248393
21	0xbe92120d	-0.28529397
22	0xbb73a000	-0.0037174225
23	0x3eccd756	0.40008038
24	0x3dd00878	0.10157865
25	0x3ec4452e	0.3833403
26	0xbcd6d660	-0.026225269
27	0x3eb50cc6	0.35361308
28	0x3d8fc740	0.07020426
29	0x3ee95a16	0.45576543
30	0xbf1d386c	-0.6141422
31	0x3ddf3278	0.10898298
32	0x3e126f38	0.14300239
33	0x3e95d8aa	0.29266864
34	0xbdf4a108	-0.11944777
35	0xbd6b5320	-0.05745232

model_1/model/multi_head_attention/key/add/ReadVariableOp:0 f4 [3, 12]
0	0xbd71a9b0	-0.058999717
1	0xbec89cee	-0.39182228
2	0x3ea38f9a	0.31945497
3	0xbebd7b9a	-0.37008363
4	0xbe09d3de	-0.13459727
5	0x3e871942	0.26386458
6	0x3f022941	0.508442
7	0x3d60a160	0.0548414
8	0x3ebc394e	0.3676247
9	0xbf0815ab	-0.5315806
10	0xbde10ee0	-0.10989165
11	0xbc6efb40	-0.01458627
12	0xbe019378	-0.12653911
13	0x3d747850	0.05968505
14	0xbf186b50	-0.59538746
15	0xbf1ed3ab	-0.6204173
16	0x3e9abf42	0.30224043
17	0x3e41d358	0.18928277
18	0xbeb6ec64	-0.35727227
19	0x3e261b30	0.16221309
20	0x3f185989	0.5951162
21	0x3e771a7c	0.24131197
22	0xbce923e0	-0.02845949
23	0xbf00b812	-0.5028087
24	0x3f1d93e9	0.6155382
25	0xbec217b4	-0.3790871
26	0x3f1f99a7	0.6234383
27	0x3d023100	0.03178501
28	0x3f0ce7db	0.55041283
29	0xbee8805e	-0.45410436
30	0xbf0125ae	-0.5044812
31	0xbe986e40	-0.29771614
32	0x3e758c80	0.23979378
33	0x3ecc737a	0.39931852
34	0x3e8fda58	0.2809627
35	0x3d1c98d0	0.03823167

model_1/model/multi_head_attention/attention_output/einsum/Einsum/ReadVariableOp:0 f4 [3, 12, 36]
0	0xbe256dd8	-0.16155183
1	0x3bba8320	0.005691901
2	0x3e46a2d2	0.19398049
3	0xbd234d4c	-0.039868638
4	0xbe3a3823	-0.18185477
5	0x3bf59d20	0.0074955374
6	0x3ce98ba8	0.028508976
7	0x3dc9ef98	0.09860152
8	0xbd248ca4	-0.040173188
9	0x3dae214c	0.085024446
10	0x3dd34440	0.10315752
11	0x3e443c2a	0.19163576
12	0x3d94b46c	0.07260975
13	0x3e1b4574	0.15163213
14	0x3e2aa178	0.16663158
15	0xbca3b298	-0.019982621
16	0xbdf861cc	-0.12128028
17	0x3e0ca602	0.13735202
18	0x3e2ffb8e	0.17185804
19	0xbd7f9f8c	-0.062408015
20	0xbd985c26	-0.07439451
21	0x3e06e7e2	0.13174394
22	0x3e2ae4aa	0.16688791
23	0xbe115cb3	-0.14195518
24	0x3e2394cc	0.1597473
25	0xbe1ec404	-0.15504462
26	0x3c2650d0	0.010151103
27	0xbde90981	-0.11378766
28	0xbd8d8344	-0.069098026
29	0xbe1f1e33	-0.15538864
30	0xbd7d978c	-0.061912104
31	0x3ce2a280	0.027665377
32	0x3db461dc	0.08807728
33	0xbe48d423	-0.19612174
34	0xbca9e6c8	-0.020739928
35	0xbe0ebd8e	-0.13939497
36	0x3e362b4a	0.17789951
37	0x3cf5b198	0.02999191
38	0xbdab3b96	-0.083609745
39	0xbe067265	-0.13129576
40	0x3c8cc670	0.017184466
41	0xbdaf461d	-0.08558295
42	0xbe274f0a	-0.16338745
43	0xbdf55969	-0.11979944
44	0xbe2dbb5c	-0.16966003
45	0xba963900	-0.0011461079
46	0xbd68d7ac	-0.056846306
47	0x3d530c68	0.051525503
48	0xbd935510	-0.07193959
49	0xbd28d8ac	-0.04122226
50	0xbb442e00	-0.0029934645
51	0x3ddc51c0	0.1075778
52	0xbd131e8c	-0.035917804
53	0xbe0528d9	-0.13003863
54	0xbd045fd4	-0.03231795
55	0xbd93fbc2	-0.07225753
56	0xbd8be350	-0.06830466
57	0x3df1f8f8	0.11815065
58	0x3db72ab8	0.08943695
59	0xbaee2300	-0.001816839
60	0xbcf2d600	-0.029643059
61	0xbe2f925a	-0.17145672
62	0x3d834430	0.0640949
63	0xbe22a12d	-0.15881796
64	0x3e114ea0	0.1419015
65	0x3d76fdd8	0.060300678
66	0x3d3239f0	0.043512285
67	0x3e4abb78	0.19798076
68	0x3ca4b4e8	0.020105794
69	0x3ca72260	0.020402133
70	0xbe28b3b5	-0.16474803
71	0x3dcc4234	0.09973565
72	0xbe5022b5	-0.2032574
73	0x3c95b210	0.018273383
74	0xbb684e40	-0.0035447031
75	0xbd964c06	-0.07338719
76	0x3cda4db8	0.026648387
77	0x3da15aec	0.0787867
78	0x3da75394	0.08170238
79	0x3cba3fa0	0.022735417
80	0x3d3d12b0	0.0461604
81	0xbe1568ec	-0.14590806
82	0xbe497dff	-0.1967697
83	0x3dfd5224	0.12369183
84	0x3dda1d74	0.10650149
85	0x3d1d4850	0.03839904
86	0x3cf393d8	0.029733583
87	0xbdd140b6	-0.10217421
88	0x3d9e80ec	0.07739434
89	0xbe177902	-0.14792255
90	0xbd7a1dac	-0.061063454
91	0xbd102e70	-0.035200536
92	0x3bfb7da0	0.007674888
93	0xbe48c5d9	-0.19606723
94	0xbe49fac7	-0.1972457
95	0xbda3d874	-0.080002695
96	0x3d682e68	0.05668488
97	0xbe30154c	-0.17195624
98	0x3e209868	0.15683138
99	0xbe24da01	-0.16098787
100	0xbdbdd5c0	-0.09269285
101	0xbc530920	-0.012880594
102	0xbe4feda2	-0.20305493
103	0xbdadf9ac	-0.08494887
104	0x3ddb8438	0.10718578
105	0xbe04291b	-0.12906305
106	0xbe3c5433	-0.18391494
107	0x3dea98b0	0.11454904
108	0xbe072c70	-0.13200545
109	0x3e00c930	0.12576747
110	0xbd585d30	-0.052823246
111	0x3ddcdcd4	0.10784307
112	0x3d2ddb3c	0.042445406
113	0x3e37f800	0.17965698
114	0x3d123504	0.03569509
115	0xbdce064a	-0.10059793
116	0xbd9d9b8a	-0.07695682
117	0xbe0b53fe	-0.13606259
118	0x3dedbf64	0.116087705
119	0xbd6dbb50	-0.058039963
120	0x3e26eed2	0.1630204
121	0x3de3bf78	0.11120504
122	0x3e47eeaa	0.19524637
123	0x3e4c6186	0.19959077
124	0xbdbf8566	-0.093516156
125	0x3e1ec974	0.15506536
126	0xbe503d65	-0.2033592
127	0xbe4f30df	-0.20233487
128	0xbd6236b0	-0.055227935
129	0xbdc469c6	-0.09590487
130	0x3e34109e	0.17584464
131	0xbe2b3284	-0.16718489
132	0xbe21182c	-0.15731877
133	0x3d0aeaf8	0.03391549
134	0x3de02dd8	0.10946244
135	0x3dc4bce0	0.096063375
136	0x3cc9c778	0.024631247
137	0x3e20c1d0	0.15698934
138	0xbe35f824	-0.1777044
139	0xbe371e8e	-0.1788275
140	0x3e2ef34a	0.17084995
141	0x3dd3b380	0.10336971
142	0x3e2e9304	0.1704827
143	0xbe06a17c	-0.13147539
144	0xbdf01199	-0.117221065
145	0x3e0bce2c	0.13652867
146	0x3d652720	0.055945516
147	0xbe15a18e	-0.1461241
148	0x3d943b58	0.072378814
149	0xbd5b3b2c	-0.053523228
150	0x3d4f5128	0.050614506
151	0x3e30479e	0.1721482
152	0x3e1cfe4c	0.15331382
153	0xbe32aa13	-0.1744769
154	0xbdde7d53	-0.108637474
155	0xbe37cdc1	-0.17949583
156	0xbe2102e8	-0.15723765
157	0xbdb8de2f	-0.09026753
158	0xbc96da28	-0.018414572
159	0xbdac1c88	-0.084038794
160	0xbddf7f6a	-0.10912974
161	0xbe3cf111	-0.18451335
162	0xbde5890b	-0.112077795
163	0x3dbf17d4	0.09330717
164	0xbe2f2c4a	-0.17106739
165	0xbd1c5c08	-0.038173705
166	0x3da1a6a0	0.07893109
167	0x3e0445f6	0.12917313
168	0x3e29f0a0	0.16595697
169	0xbe4d69b0	-0.20059848
170	0xbe1504ea	-0.14552656
171	0x3e13b372	0.14423922
172	0x3e26cc5a	0.16288891
173	0xbc113950	-0.008863762
174	0x3ddd7c7c	0.10814759
175	0xbe330eb5	-0.17486079
176	0xbe4c9034	-0.19976884
177	0xbd212904	-0.039345756
178	0x3dee3ad0	0.11632311
179	0xbd7b77c0	-0.0613935
180	0x3e4a2152	0.19739273
181	0xbc9d0058	-0.019165203
182	0xbe422b1d	-0.18961759
183	0xbe12aac6	-0.14322957
184	0xbd2ee4c0	-0.04269862
185	0xbd8856ce	-0.06657182
186	0x3c8859f0	0.016644448
187	0xbdce443d	-0.10071609
188	0x3cd4a820	0.025959074
189	0xbd731fcc	-0.059356496
190	0xbd3ed014	-0.046585158
191	0xbddc5d4f	-0.10759985
192	0xbe4a727f	-0.1977024
193	0xbdb1dcac	-0.08684668
194	0xbe0ec78b	-0.13943307
195	0x3d383da4	0.04498066
196	0xbd3c6b74	-0.046000913
197	0x3dc1118c	0.09427175
198	0xbe43ff15	-0.19140275
199	0xbd0992dc	-0.03358732
200	0x3dd8b670	0.10581672
201	0xbe083c62	-0.13304284
202	0x3e09be66	0.13451537
203	0xbe422a66	-0.18961486
204	0xbe4a09b4	-0.19730264
205	0x3e1f218a	0.15540138
206	0x3e1e4d4a	0.15459171
207	0x3c4d36d0	0.012525275
208	0x3dd94844	0.10609487
209	0x3ddb6074	0.10711756
210	0x3dd7b00c	0.10531625
211	0x3de281bc	0.11059901
212	0xbcd74748	-0.026279107
213	0xbc8c1d18	-0.017103717
214	0xbe38fbb8	-0.18064773
215	0xbd78958c	-0.060689494
216	0xbdeeba43	-0.1165662
217	0x3e02dd98	0.12779844
218	0x3de7d0b0	0.11319101
219	0xbe0d1171	-0.13776185
220	0xbda077a0	-0.07835317
221	0x3e3e5c4c	0.18589896
222	0xbc9b0240	-0.018921971
223	0x3d021b64	0.031764403
224	0x3e496116	0.19665942
225	0x3d2274a8	0.039662033
226	0xbd159054	-0.036514595
227	0xbdeddbb0	-0.11614168
228	0xbe4e83b6	-0.20167431
229	0xbe43c6cf	-0.19118808
230	0xbd5e9bd8	-0.054347843
231	0x3d9cdd38	0.07659382
232	0xbd9ee75e	-0.077589735
233	0x3d7a8500	0.061161995
234	0xbdebe2c3	-0.11517861
235	0xbdc63ffa	-0.09680171
236	0x3e3e870c	0.18606204
237	0x3dfc25e0	0.123119116
238	0x3d9313d4	0.07181516
239	0x3de5ec24	0.11226681
240	0xbe336c3f	-0.17521761
241	0x3e26b9ea	0.16281858
242	0xbe04b1a0	-0.12958384
243	0x3e18fc86	0.1494008
244	0xbdee5ae9	-0.116384335
245	0xbd1df730	-0.038565814
246	0xbd54dd64	-0.051968947
247	0x3d88d5e0	0.066814184
248	0x3da90728	0.08253318
249	0x3d948248	0.07251412
250	0xbe2ebabc	-0.17063421
251	0x3cd192c8	0.025582686
252	0x3e345456	0.17610297
253	0x3d1d5968	0.038415343
254	0x3e3c8544	0.18410212
255	0x3d9d2398	0.076728046

model_1/model/multi_head_attention/attention_output/add/ReadVariableOp:0 f4 [36]
0	0x3e65aeac	0.22429913
1	0x3e2de58c	0.16982096
2	0xbe6ddc85	-0.23228653
3	0xbe12e088	-0.14343464
4	0xbde318ae	-0.11088692
5	0x3e5127dc	0.20425361
6	0xbe8a03da	-0.26956064
7	0x3e6eb8b0	0.2331264
8	0x3dd58328	0.10425407
9	0xbd20cd70	-0.03925842
10	0x3c782e80	0.015147805
11	0x3e2a8534	0.16652375
12	0x3e3eab32	0.18619993
13	0xbe02d252	-0.12775543
14	0xbca58550	-0.02020517
15	0x3e08a21e	0.13343093
16	0xbe55f3d0	-0.20893788
17	0x3e8aa0e0	0.27075863
18	0x3e88fe82	0.26756674
19	0xbe29c290	-0.16578126
20	0xbdc3642e	-0.09540592
21	0xbe4e4e94	-0.20147163
22	0x3de2e49c	0.1107876
23	0x3e80f72c	0.25188577
24	0xbc038f80	-0.008029819
25	0xbe78e624	-0.24306542
26	0x3de5d180	0.112215996
27	0x3e4b1b5e	0.19834659
28	0xbd189cd8	-0.037258953
29	0x3e4bbb42	0.19895652
30	0xbe00f2be	-0.12592599
31	0xbd55d4e4	-0.05220498
32	0xbdb04572	-0.08606996
33	0x3dc56990	0.09639275
34	0x3e389e66	0.18029174
35	0xbe785044	-0.24249369

model_1/model/dense/Tensordot/ReadVariableOp:0 f4 [60, 36]
0	0x3c007c80	0.007842183
1	0xbdc38540	-0.095469
2	0x3e2d84e0	0.16945219
3	0xbe496b7c	-0.19669908
4	0xbd572ee0	-0.052534938
5	0xbe206724	-0.15664345
6	0xb9f3c000	-0.00046491623
7	0x3e7934f0	0.243366
8	0x3cde3e20	0.027129233
9	0xbd001650	-0.03127128
10	0x3e0fd920	0.1404767
11	0x3d2078e0	0.039177775
12	0x3b960680	0.0045784116
13	0xbc6294c0	-0.01382941
14	0xbe35f4f4	-0.17769223
15	0x3d93ef58	0.072233856
16	0xbbf36780	-0.0074281096
17	0x3e6ec844	0.23318583
18	0xbe162c64	-0.14665371
19	0xbe3e0234	-0.18555528
20	0x3df56a58	0.11983174
21	0x3dcc5eb8	0.09979004
22	0x3dc0ad10	0.09408009
23	0x3e3e61bc	0.1859197
24	0x3d2acb80	0.04169798
25	0x3e71fc20	0.23631334
26	0xbe04ed6c	-0.12981194
27	0xbd9113e8	-0.07083875
28	0xbc89be00	-0.016814232
29	0x3e019854	0.12655765
30	0x3e4ebd58	0.20189416
31	0xbcd6dda0	-0.026228726
32	0xbe21eff4	-0.15814191
33	0xbcc9cea0	-0.02463466
34	0xbe657f94	-0.22411948
35	0x3e172b0c	0.14762515
36	0x3e5ab604	0.21358496
37	0x3e4c4a88	0.19950306
38	0x3df4f048	0.119598925
39	0x3e34c308	0.17652524
40	0x3e08755c	0.13326019
41	0xbe5ab430	-0.21357799
42	0x3e013f40	0.12621784
43	0x3e12a998	0.14322507
44	0x3dc63e08	0.096798
45	0xbdf49f18	-0.11944407
46	0x3e3ab98c	0.18234843
47	0x3e6f36d0	0.23360753
48	0xbe445528	-0.1917311
49	0x3d04c960	0.03241861
50	0x3e48dcb0	0.19615436
51	0x3e32c45c	0.17457718
52	0xbddf0868	-0.10890275
53	0x3e6306f8	0.22170627
54	0xbe247d14	-0.16063339
55	0x3e2325a0	0.15932322
56	0xbcf5c080	-0.029999018
57	0xbe6c8250	-0.23096585
58	0xbdf75db0	-0.12078416
59	0x3e6376e0	0.22213316
60	0xbd8b9e58	-0.06817311
61	0x3d469620	0.048483014
62	0x3e6ce670	0.2313478
63	0x3e22be44	0.15892893
64	0xbe3a816c	-0.18213433
65	0x3d09be00	0.033628464
66	0x3d269230	0.04066676
67	0xbe0c544c	-0.13704032
68	0x3de655e0	0.11246848
69	0x3e25f918	0.16208303
70	0xbc82bc40	-0.015958905
71	0x3e52b4e0	0.20576811
72	0x3b0eb000	0.0021772385
73	0xbc16e3c0	-0.009209573
74	0xbd205d30	-0.03915137
75	0xbd59f360	-0.053210616
76	0xbe5e44f0	-0.21705985
77	0xbd80eca8	-0.062951386
78	0x3de8fca8	0.11376315
79	0xbc3327c0	-0.01093477
80	0xbdd6afc0	-0.104827404
81	0xbc9f1be0	-0.019422472
82	0x3e0544ec	0.13014573
83	0xbdfa2db8	-0.122157514
84	0xbe588014	-0.21142608
85	0xbd8aebf8	-0.06783289
86	0xbde69c30	-0.11260259
87	0xbe76f5d8	-0.2411722
88	0x3e1500a4	0.14551026
89	0x3e37bf5c	0.17944092
90	0xbe73cac4	-0.23807818
91	0xbd576b20	-0.052592397
92	0x3e085cb0	0.13316607
93	0xbe2538a4	-0.16134888
94	0x3d38f5d0	0.0451563
95	0x3d1a3c40	0.037655115
96	0xbca86ba0	-0.020559132
97	0x3c9346a0	0.017978013
98	0x3dd35df8	0.103206575
99	0x3c20a540	0.009805024
100	0x3e48490c	0.19559115
101	0xbe04816c	-0.12939996
102	0xbe3002b0	-0.17188525
103	0x3e26db54	0.16294605
104	0x3e640a2c	0.22269505
105	0xbd412340	-0.047152758
106	0x3d50a8b0	0.050942123
107	0xbdbeaf70	-0.09310806
108	0xbe0b7c88	-0.13621724
109	0xbd1a9a40	-0.03774476
110	0x3dd3bfd8	0.10339326
111	0x3e24b004	0.1608277
112	0x3d825448	0.063637316
113	0x3b011700	0.0019697547
114	0x3d89a458	0.06720799
115	0x3e74307c	0.2384662
116	0xbdb3e578	-0.08784002
117	0xbe68ac0c	-0.2272188
118	0xbdb13eb0	-0.08654535
119	0x3e18a280	0.14905739
120	0xbe245be8	-0.16050684
121	0xbc822f40	-0.015891671
122	0x3e18e6f8	0.14931858
123	0xbe1d07b0	-0.15334964
124	0x3d903688	0.07041651
125	0x3d45c5b0	0.048284233
126	0xbe24a144	-0.16077143
127	0xbd171bf0	-0.036891878
128	0xbb05c300	-0.0020410419
129	0xbdd17730	-0.10227811
130	0x3d73fae0	0.059565425
131	0xba352400	-0.00069099665
132	0x3cabcc00	0.020971298
133	0xbda1df28	-0.07903892
134	0xbce802e0	-0.028321683
135	0x3cbf9d60	0.023390472
136	0xbd925208	-0.071445525
137	0x3d80af98	0.06283492
138	0xbdbdc808	-0.092666686
139	0x3e6b81c4	0.2299872
140	0xbdf60d08	-0.12014204
141	0xbe44ec00	-0.19230652
142	0xbdd01858	-0.10160893
143	0xbe53f5bc	-0.20699209
144	0xbe5b2dac	-0.21404141
145	0xbe39e478	-0.1815356
146	0x3dc04548	0.09388214
147	0x3d1ae250	0.037813485
148	0x3dccf8e8	0.100084126
149	0xbcf90300	-0.030396938
150	0xbc1b4500	-0.0094769
151	0x3db630d0	0.08896029
152	0x3e0a1ef4	0.1348837
153	0xbdd0feb0	-0.10204828
154	0xbe495994	-0.19663078
155	0xbe7725dc	-0.24135536
156	0xbe5318c4	-0.20614916
157	0xbd9f5458	-0.07779759
158	0xbd15bfe0	-0.03655994
159	0xbe4ddddc	-0.20104164
160	0xbe1aa8c0	-0.15103436
161	0xbdb126d0	-0.08649981
162	0xbe122770	-0.14272857
163	0xbcc3dcc0	-0.023908973
164	0x3e1f9694	0.15584785
165	0x3e2e1d78	0.17003429
166	0xbe3ba91c	-0.18326229
167	0xbe12a05c	-0.14318985
168	0xbe6b0134	-0.22949678
169	0xbd603700	-0.054739952
170	0x3d84c490	0.06482804
171	0xbd4f72f0	-0.050646722
172	0xbb2f2200	-0.0026723146
173	0x3e7ad90c	0.2449686
174	0x3cced360	0.025247276
175	0xbe07c3d8	-0.13258302
176	0xbe436d6c	-0.1908471
177	0x3dd77b28	0.10521537
178	0x3dd11a10	0.10210049
179	0xbde56fa0	-0.112029314
180	0xbd851b08	-0.064992964
181	0xbd5909c0	-0.052987814
182	0x3e055af4	0.13022977
183	0x3de11150	0.1098963
184	0xbe594058	-0.21215951
185	0xbd96ae90	-0.07357514
186	0x3e73827c	0.23780245
187	0x3e5d560c	0.21614856
188	0x3dfa8288	0.12231928
189	0x3e0276d0	0.12740636
190	0xbc742f00	-0.014903784
191	0x3e33311c	0.17499202
192	0x3de9a9a0	0.114093065
193	0x3e203a38	0.15647209
194	0xbd1ac4a0	-0.037785172
195	0xbe59a568	-0.21254504
196	0x3aaa0000	0.0012969971
197	0xbcab0920	-0.020878375
198	0xbd95ceb8	-0.07314819
199	0xbe352844	-0.17691141
200	0xbc45aa80	-0.012064576
201	0x3e52bf4c	0.20580786
202	0xbe652964	-0.2237907
203	0xbe6130c0	-0.21991253
204	0x3dc6f458	0.097145736
205	0x3dea0478	0.114266336
206	0xbe2d0860	-0.16897726
207	0xbe32d0dc	-0.17462486
208	0xbe7d5a90	-0.24741578
209	0xbd7672f0	-0.060168207
210	0x3d2bd210	0.041948378
211	0x3dd24940	0.102678776
212	0x3e1c3968	0.15256274
213	0x3cf90e40	0.030402303
214	0x3dbc3340	0.09189463
215	0x3b564800	0.0032696724
216	0xbe56d4dc	-0.20979637
217	0xbe06d560	-0.13167334
218	0x3e37f9e8	0.17966425
219	0xbdf90070	-0.121582866
220	0xbe6d30d8	-0.23163164
221	0xbe20acd0	-0.15690923
222	0x3e659e98	0.2242378
223	0x3e2ea1a0	0.17053843
224	0x3dc111a8	0.09427196
225	0xbdf2ae38	-0.11849636
226	0xbe5262c8	-0.20545495
227	0x3d1b9d40	0.037991762
228	0x3c994fe0	0.018714845
229	0xbdb53180	-0.08847332
230	0x3e0345bc	0.1281957
231	0x3e1e5124	0.1546064
232	0x3d5921c0	0.053010702
233	0xbd0ae0b0	-0.033905685
234	0x3e74c2a8	0.2390238
235	0x3e49f5a4	0.1972261
236	0x3e7d394c	0.24728888
237	0xbdddb248	-0.1082502
238	0xbe4e0cf0	-0.20122123
239	0xbdbe82a8	-0.093022645
240	0x3de846f8	0.11341661
241	0xbdf488d0	-0.119401574
242	0x3e0548cc	0.13016051
243	0x3e2331a8	0.15936911
244	0xbe222cf8	-0.15837467
245	0xbcb79ba0	-0.022413075
246	0xbcbeb9c0	-0.023281932
247	0x3dc615c0	0.09672117
248	0xbe3eb7b8	-0.1862477
249	0xbe5c5670	-0.21517348
250	0xbe2d7c3c	-0.16941923
251	0x3ab72000	0.0013971329
252	0x3e7abd20	0.24486208
253	0xbe721be0	-0.23643446
254	0xbe40051c	-0.18751949
255	0xbdc71c80	-0.09722233

const_fold_opt__334 f4 [36, 36]
0	0xbd1907cc	-0.03736095
1	0x3d818db5	0.063258566
2	0xbdbb1747	-0.09135299
3	0x3c904a08	0.017613426
4	0xbbc2f4c0	-0.0059495866
5	0xbd5f4f0d	-0.054518748
6	0xbd5e2545	-0.05423476
7	0xbd849de2	-0.06475426
8	0x3d6563de	0.056003444
9	0x3d6d96ee	0.058005266
10	0x3d27b122	0.04094041
11	0xbd4d9335	-0.050189216
12	0xbdc401a0	-0.095706224
13	0xbd872b76	-0.066000864
14	0x3a94d240	0.0011354163
15	0xbccd94a0	-0.025095284
16	0x3d500ffa	0.050796486
17	0xbdc562a4	-0.09637955
18	0x3d156796	0.03647574
19	0x3d5985e6	0.05310621
20	0x3b862a50	0.0040943995
21	0x398ef600	0.00027267635
22	0x3d3f0292	0.04663331
23	0x3d82829f	0.0637257
24	0x3dc1f9b1	0.09471453
25	0xbc9a3aa0	-0.018826783
26	0x3d972daf	0.0738176
27	0xbb73a3e0	-0.0037176535
28	0xbd7d0dde	-0.061780803
29	0x3d924bc3	0.07143357
30	0xbd6abf23	-0.05731119
31	0xbcd80c58	-0.026373073
32	0xbd704e9c	-0.058668718
33	0xbcfcc050	-0.03085342
34	0xbd811c78	-0.06304258
35	0x3dc80895	0.09767262
36	0xbd830726	-0.06397848
37	0xbdced06c	-0.10098347
38	0x3da84e9d	0.08218119
39	0x3d1ac93e	0.037789576
40	0xbdbb8594	-0.091563374
41	0xbd80c1dc	-0.06286976
42	0xbd953d23	-0.072870515
43	0xbd8b0e43	-0.067898296
44	0x3d93f6a1	0.07224775
45	0xbb445ba0	-0.002996184
46	0x3d88d52b	0.066812836
47	0xbcfc83c0	-0.030824542
48	0xbd91e18a	-0.07123096
49	0x3d8a91c3	0.06766083
50	0x3c5ab420	0.013348609
51	0x3c6c7438	0.014432006
52	0x38995000	7.31051e-05
53	0xbb9bd600	-0.0047557354
54	0x3d7442c6	0.059633993
55	0xbc1e4b38	-0.009661488
56	0x3c2e73c8	0.010647722
57	0xbcef53a8	-0.029214695
58	0x3daab035	0.0833439
59	0xbda435d1	-0.08018077
60	0xbd9ea0e7	-0.077455334
61	0x3d335086	0.043777965
62	0x3cef3564	0.029200263
63	0xbd80e61a	-0.062938884
64	0xbd7f33c3	-0.062305223
65	0x3d2502b6	0.04028579
66	0x3ca387ec	0.019962274
67	0x3d9e6fb7	0.07736152
68	0x3d45a6de	0.04825484
69	0xbdca64c3	-0.098825
70	0x3ca9d324	0.020730563
71	0xbd970e82	-0.07375814
72	0xbd3df631	-0.046377365
73	0xbd89d7ca	-0.067306116
74	0x3da64055	0.08117739
75	0xbd3823dd	-0.044956077
76	0x3db52ab7	0.08846038
77	0x3da0d5f3	0.078533076
78	0x3d96fb01	0.07372094
79	0x3d8cb9f9	0.06871409
80	0x3d6e9242	0.05824495
81	0x3d8b7a55	0.06810442
82	0x3b1d1400	0.002396822
83	0xbd014ab0	-0.03156537
84	0xbdcfd8a1	-0.101487406
85	0xbac52940	-0.0015042201
86	0x3d373a6e	0.044733457
87	0xbdd2655a	-0.102732375
88	0xbcd3fe2c	-0.025878035
89	0x3cfef824	0.031124182
90	0x3d71997e	0.058984272
91	0x3d9ed74b	0.077559076
92	0x3dc783a9	0.09741909
93	0xbdcfee1b	-0.10152837
94	0xbdaafa50	-0.083485246
95	0xbd98010a	-0.07422073
96	0xbd60c8c9	-0.054878984
97	0x3d642f1e	0.055708997
98	0xbda0344e	-0.07822476
99	0xbdbe7977	-0.09300511
100	0x3d8e50e7	0.06949025
101	0x3c5c4a48	0.013445444
102	0x3d6e2b52	0.058146782
103	0x3dc4a2dd	0.09601376
104	0xbca3dd4c	-0.020002984
105	0x3db49c15	0.08818833
106	0xba1af000	-0.00059103966
107	0xbd905752	-0.07047905
108	0x3d1e585e	0.038658492
109	0xbd2b0996	-0.04175719
110	0x3cc72fd4	0.024314798
111	0xbd05fde2	-0.032712825
112	0x3d6c7662	0.057730086
113	0xbd9a492a	-0.07533486
114	0xbcdded10	-0.02709058
115	0x3d19ae7a	0.03751991
116	0xbd88695c	-0.06660721
117	0xbd94385e	-0.07237314
118	0xbb822a60	-0.0039723366
119	0xbd54ac76	-0.051922284
120	0xbdc93101	-0.098238
121	0xbd39e870	-0.045387685
122	0xbd89571d	-0.06706069
123	0xbd01b914	-0.031670645
124	0xbdcbea54	-0.09956804
125	0x3d8efa2b	0.069813095
126	0x3d6c6842	0.057716615
127	0xbc00ed00	-0.007869005
128	0xbdd77ad7	-0.10521477
129	0x3d76be4a	0.060240068
130	0xbd908d9e	-0.07058261
131	0x3d6d7fbe	0.057983153
132	0x3dc95b83	0.098319076
133	0x3d00374e	0.031302743
134	0x3bad9340	0.0052970946
135	0xbdc09b0d	-0.094045736
136	0x3bb85090	0.005624838
137	0xbdd26e5d	-0.102749564
138	0x3ce24564	0.027620979
139	0x3b9dd870	0.004817061
140	0xbd6b2c49	-0.05741528
141	0xbd92554e	-0.07145177
142	0x3d59527a	0.05305717
143	0xbd423712	-0.0474158
144	0x3d0b0c2e	0.033947162
145	0xbd559463	-0.052143466
146	0x3d03ba7a	0.03216026
147	0x3d326b42	0.04355932
148	0xbd67b050	-0.05656463
149	0x3dcc8dcb	0.09987982
150	0xbb15f900	-0.0022884011
151	0x3db695e1	0.08915306
152	0x3baaef30	0.0052165017
153	0x3a41c180	0.00073911995
154	0xbd9a3ea6	-0.075314805
155	0x3d6ec30a	0.058291472
156	0xbd9a2170	-0.07525909
157	0x3d91d657	0.0712096
158	0xbcc3377c	-0.023830168
159	0x3dbe8385	0.09302429
160	0x3db119e7	0.086475186
161	0x3c890968	0.016728118
162	0x3b663300	0.0035125613
163	0x3b9ec090	0.0048447326
164	0xbd34b8f7	-0.04412171
165	0xbc68d728	-0.0142114535
166	0xbcfec408	-0.031099334
167	0x3cb0fb0c	0.021604083
168	0x3d47ded6	0.048796497
169	0x3d2f9812	0.042869635
170	0xbdb1cd78	-0.08681768
171	0x3cfa524c	0.03055682
172	0x3db52177	0.088442735
173	0x3c7666c8	0.015039153
174	0x3d7a9cae	0.061184578
175	0xbc93f9d4	-0.018063463
176	0x3c1b5fe0	0.009483308
177	0xbdce401a	-0.1007082
178	0x3d484882	0.048897274
179	0x3dbc99bf	0.09209012
180	0xbd0956c2	-0.033530004
181	0xbd0835ac	-0.03325431
182	0x3c510900	0.012758493
183	0xbd230286	-0.03979733
184	0x3b572da0	0.003283359
185	0xbdd2fede	-0.10302518
186	0x3dab3451	0.08359588
187	0xbc2022f0	-0.009773955
188	0x3d371dd2	0.044706173
189	0xbd31093d	-0.0432217
190	0xbd82f990	-0.063952565
191	0xbd4db3ce	-0.050220303
192	0x3d26091e	0.04053604
193	0xbd30cbe4	-0.043163195
194	0xbdc0f387	-0.09421449
195	0xbd786329	-0.06064144
196	0x3c453048	0.012035437
197	0xbdb7acde	-0.08968519
198	0x3dac00cb	0.08398589
199	0x3d86da2d	0.065845825
200	0xbd3c7a74	-0.046015218
201	0xbdb18f29	-0.08669884
202	0x3da89391	0.08231271
203	0x3d6b4f4e	0.057448678
204	0xbd4486ff	-0.047980305
205	0x3db9ebf5	0.09078208
206	0xbc5e9b50	-0.013586834
207	0xbcf77e14	-0.030211486
208	0x3dc13e0b	0.09435662
209	0x3d10ff0e	0.03539949
210	0xbdbc5c7b	-0.09197327
211	0xbc2e2e70	-0.010631189
212	0x3da4801f	0.0803225
213	0x3d0a6f5a	0.0337976
214	0x3db31beb	0.08745559
215	0x3cf88654	0.03033749
216	0xbd1509ac	-0.036386177
217	0x3da75265	0.081700124
218	0x3c151ed0	0.009101585
219	0x3ce9fe3c	0.028563611
220	0x3c80e428	0.015733793
221	0x3dd3c66b	0.103405796
222	0xbd811640	-0.06303072
223	0xbdb5436f	-0.088507526
224	0xbd949dc6	-0.072566554
225	0x3d21f836	0.039543353
226	0xbdcc5eb6	-0.09979002
227	0x3da0768b	0.0783511
228	0xbd363ee7	-0.044493582
229	0xbdcabfea	-0.09899886
230	0x3d80f757	0.06297176
231	0xbce54a18	-0.027989432
232	0xbdc58d1f	-0.09646057
233	0x3d536a16	0.051614843
234	0xbb8ebda0	-0.004356101
235	0xbd4a9add	-0.049464095
236	0x3dba3bb9	0.090934224
237	0x3d97d3e3	0.07413461
238	0x3c5008a8	0.012697376
239	0x3c6b2428	0.014351882
240	0x3d930e53	0.071804665
241	0xbd1083d4	-0.03528197
242	0x3d80b2f5	0.06284133
243	0xbb7c56a0	-0.003850378
244	0xbd621e34	-0.055204585
245	0xbcf0aa8c	-0.029378198
246	0xbd411ca0	-0.04714644
247	0xbc8f077c	-0.017459624
248	0x3d90fa13	0.07078948
249	0xbd99a716	-0.07502572
250	0xbdc50ceb	-0.096216045
251	0x3cacb4a4	0.02108223
252	0xbc1a2460	-0.009408087
253	0xbda33411	-0.07968915
254	0xbcd94230	-0.026520818
255	0x38370000	4.36306e-05

const_fold_opt__333 f4 [36, 60]
0	0xbcce3058	-0.025169536
1	0xbd59ac38	-0.053142756
2	0xbd4e967c	-0.05043648
3	0x3cd3b568	0.025843337
4	0x3a868b00	0.0010264814
5	0x3d9c44c6	0.07630305
6	0x3d502538	0.050816745
7	0xbb24ee00	-0.0025166273
8	0x3d66da3c	0.05636047
9	0xbd6178a8	-0.055046707
10	0x3d9e4718	0.07728404
11	0x3c91742c	0.01775559
12	0x3d41ed78	0.04734561
13	0x3d4c2490	0.049839556
14	0xbd841e45	-0.06451086
15	0x3d578f40	0.05262685
16	0xbd5b0aed	-0.053477217
17	0xbd64f25a	-0.055895187
18	0x3d171d14	0.036892965
19	0xbda55405	-0.08072666
20	0xbd0ded2e	-0.03465002
21	0x3c8aa93c	0.0169264
22	0xbd4c03e6	-0.049808405
23	0xbcf42adc	-0.029805593
24	0x3d9959f2	0.07487859
25	0x3c97f5f0	0.01854989
26	0xbcf4c1ca	-0.029877562
27	0x3c1f29e0	0.009714574
28	0x3d6c60a4	0.05770935
29	0x3d890002	0.066894546
30	0x3d691464	0.05690421
31	0x3cc01d38	0.023451433
32	0xbd6f6f18	-0.058455557
33	0xbd637626	-0.055532597
34	0x3cb8c48c	0.022554658
35	0x3d406668	0.046972662
36	0xbcfb31e2	-0.030663434
37	0xbd960ac7	-0.07326274
38	0x3bb55d90	0.005534835
39	0xbd4ee74c	-0.05051355
40	0xbd25ed22	-0.04050935
41	0x3c325360	0.010884136
42	0xbcf3e574	-0.029772498
43	0xbd42ca10	-0.047555983
44	0x3d391548	0.04518631
45	0xbd8fe1b9	-0.07025475
46	0xbd9d206b	-0.07672199
47	0xbc1c5758	-0.009542309
48	0xbd7b0534	-0.06128426
49	0xbc8ef50c	-0.017450832
50	0xbd061f02	-0.032744415
51	0xbd894bd0	-0.06703913
52	0x3d548ca0	0.051891923
53	0x3d5a6e2c	0.053327724
54	0x3d903ee0	0.070432425
55	0xbd80feba	-0.06298585
56	0x3c96446c	0.018343173
57	0xbd61e540	-0.05515027
58	0xbd969732	-0.07353057
59	0xbd2626ec	-0.040564463
60	0x3d1e7730	0.038687885
61	0x3d2bdf74	0.04196115
62	0xbd7913d0	-0.06080991
63	0xbd9793d7	-0.07401245
64	0x3da13748	0.07871872
65	0xbd269a50	-0.040674508
66	0xbd054e94	-0.03254564
67	0x3d60ffe0	0.05493152
68	0xbba4e070	-0.005031638
69	0xbd80ff5e	-0.062987074
70	0x3d907e1e	0.07055305
71	0x3da28006	0.07934575
72	0xbd383e2c	-0.044981167
73	0xbd9def6f	-0.07711684
74	0xbca2b498	-0.019861504
75	0x3d6fd114	0.058549
76	0xbc51bc80	-0.01280129
77	0xbc3dc3a8	-0.011582293
78	0xbda40ffe	-0.08010863
79	0xbd529b8a	-0.051417865
80	0xbd9b6532	-0.07587661
81	0xbd022459	-0.031772945
82	0xbda6cdb1	-0.08144701
83	0xbda5a824	-0.08088711
84	0xbd912465	-0.0708702
85	0xbcbf7198	-0.023369595
86	0xbd026391	-0.031833235
87	0x3ba8d860	0.005152747
88	0xbd864e0a	-0.065578535
89	0xbd4a137d	-0.04933499
90	0xbcd8d080	-0.026466608
91	0x3d0194d4	0.031636074
92	0xbd6c26f6	-0.057654344
93	0xbc3ca008	-0.011512764
94	0x3bd92c90	0.0066276267
95	0x3d6ee7ac	0.05832641
96	0x3d26b94c	0.040704057
97	0x3babfdf0	0.0052487776
98	0xbd92a154	-0.07159677
99	0x3d9a3888	0.07530314
100	0xbc8b6834	-0.017017461
101	0x3d8d28b8	0.06892532
102	0xbd8ffd40	-0.070307255
103	0xbd419553	-0.047261547
104	0xbd8ebb92	-0.0696937
105	0xbd7dad34	-0.061932757
106	0x3d506170	0.050874174
107	0xbd7e8034	-0.062133983
108	0xbd724683	-0.059149276
109	0xbd8bf78e	-0.06834327
110	0xbd22be84	-0.03973247
111	0xbcb3bf4c	-0.021941803
112	0xbd890d74	-0.06692019
113	0x3d6d2570	0.05789703
114	0x3d72b208	0.059251815
115	0x3d6dcb30	0.058055103
116	0x3c67bd30	0.014144227
117	0x3d02329e	0.031786554
118	0xbd85d37c	-0.06534478
119	0x3d50e708	0.05100158
120	0xbc389218	-0.0112653
121	0xbd84e330	-0.06488645
122	0xbc9b6ed0	-0.018973738
123	0xbd9113c4	-0.07083848
124	0xbd860242	-0.065433994
125	0xbc820380	-0.01587081
126	0xbd4af8e3	-0.049553763
127	0xbd1022c5	-0.03518941
128	0x3d2a243c	0.041538462
129	0x3d4ec3d4	0.050479725
130	0xbd3c4be6	-0.04597082
131	0xbd4b131d	-0.049578775
132	0xbd58dc22	-0.05294431
133	0x3d110592	0.035405703
134	0xbd8571ba	-0.06515832
135	0x3d68c6c4	0.056830183
136	0xbcaae528	-0.020861223
137	0xbcdcacd4	-0.02693788
138	0xbd9a98e3	-0.07548692
139	0xbda21b8e	-0.07915412
140	0xbd0ba458	-0.034092277
141	0x3bdb1010	0.0066852644
142	0x3d9ee816	0.07759111
143	0xbd83f611	-0.06443418
144	0xbd1faf55	-0.03898557
145	0xbc86a544	-0.016436227
146	0x3c7d43a0	0.015458018
147	0x3d7e2870	0.062050283
148	0xbcc4e8f4	-0.024036862
149	0x3c8d5734	0.017253496
150	0xbc3ed860	-0.0116482675
151	0xbd2a7050	-0.041611016
152	0xbcc913c8	-0.024545565
153	0xbd14c0ba	-0.03631661
154	0xbd8b70fa	-0.06808658
155	0x3d9c8af0	0.07643688
156	0x3d92b516	0.07163446
157	0x3d3ed234	0.046587184
158	0xbcbb86a8	-0.022891358
159	0x3af18480	0.0018426329
160	0xbc0ef168	-0.008724548
161	0x3d9f6780	0.07783413
162	0xbd05987e	-0.03261613
163	0x3b7c8b20	0.0038535073
164	0xbd5b1741	-0.053488974
165	0x3bf70310	0.007538207
166	0xbca969a6	-0.02068026
167	0x3d90c9ac	0.07069716
168	0x3cf96db4	0.030447818
169	0xbcb4cc4c	-0.022070073
170	0xbaf74740	-0.0018865839
171	0x3b79b180	0.0038100183
172	0x3b5f3e80	0.0034064353
173	0xbd856fb0	-0.06515443
174	0xbcdd036c	-0.02697917
175	0xbada3c00	-0.0016649961
176	0x3c1bf560	0.009518951
177	0x3cb598c0	0.022167563
178	0xbd59203c	-0.053009257
179	0x3d02c828	0.031929165
180	0xbc6c9ee8	-0.014442183
181	0x3d0f61d0	0.03500539
182	0xbd673f5a	-0.0564569
183	0xbda3dfda	-0.08001681
184	0xbb0a2ca0	-0.0021083727
185	0x3d968ec6	0.073514506
186	0x3da70910	0.081560254
187	0x3d253ee0	0.040343165
188	0x3d71268c	0.05887465
189	0x3c2b7ea0	0.0104672015
190	0xbc1981c0	-0.009369314
191	0x3d3a27f8	0.045448273
192	0xbd6057c2	-0.054771192
193	0xbd4c9f1e	-0.049956433
194	0x3d0cf860	0.034416556
195	0xbd5d0327	-0.053958084
196	0x3c406a80	0.011744142
197	0x3d80b8f2	0.062852755
198	0xbd962721	-0.07331682
199	0x3d4e1cf8	0.050320596
200	0xbd43e9f5	-0.04783054
201	0xbd847061	-0.06466747
202	0xbcadae1e	-0.02120119
203	0x3c92655c	0.017870598
204	0xbc892db8	-0.016745433
205	0x3d300bd2	0.042980023
206	0xbd42e389	-0.047580276
207	0xbd71a99a	-0.058999635
208	0xbcf1f35a	-0.029534984
209	0xbd3ad589	-0.0456138
210	0x3cb393dc	0.02192109
211	0x3bfc0f90	0.007692285
212	0x3d753c28	0.059871823
213	0x3aa79dc0	0.0012788102
214	0xbd8a6bc0	-0.06758833
215	0x3c7cf918	0.015440248
216	0xbbff6930	-0.0077945217
217	0xbd6a58c3	-0.057213556
218	0x3a431f80	0.00074433535
219	0xbaae9d80	-0.0013322085
220	0x3da4c77c	0.08045861
221	0xbc85d668	-0.016337588
222	0xbd4c530f	-0.0498839
223	0xbce73c6a	-0.02822705
224	0xbd4195b6	-0.047261916
225	0x3d062d86	0.03275826
226	0xbcd76ba6	-0.026296448
227	0xbc6cc8f8	-0.014452212
228	0x3cc34c80	0.023840189
229	0xbce09c98	-0.02741842
230	0x3d9a87be	0.07545422
231	0x3d81a296	0.06329839
232	0xbd9eccdb	-0.07753917
233	0x3c0fd080	0.008777738
234	0x3c984fec	0.018592797
235	0x3d8fa326	0.0701354
236	0x3c1a7758	0.009427868
237	0xbd9822c9	-0.0742851
238	0x3d1b4462	0.03790701
239	0x3d6d269c	0.05789815
240	0x3c9f8f0c	0.01947739
241	0xbd3c9972	-0.046044774
242	0x3cb63bec	0.02224537
243	0xbcd88d62	-0.026434604
244	0x3d3c51a8	0.04597631
245	0xbc20b960	-0.009809822
246	0x3d8787f4	0.06617728
247	0x3c987888	0.018612161
248	0xbd7304b2	-0.05933065
249	0xbd679ee2	-0.056548007
250	0x3c4263c0	0.011864603
251	0x3d2936dc	0.041312084
252	0x3da64776	0.08119099
253	0x3da5d2ac	0.08096823
254	0xbc3e1800	-0.011602402
255	0x3d89c28a	0.067265585

const_fold_opt__332 f4 [1, 1, 3, 12, 60]
0	0xbcce3058	-0.025169536
1	0xbd59ac38	-0.053142756
2	0xbd4e967c	-0.05043648
3	0x3cd3b568	0.025843337
4	0x3a868b00	0.0010264814
5	0x3d9c44c6	0.07630305
6	0x3d502538	0.050816745
7	0xbb24ee00	-0.0025166273
8	0x3d66da3c	0.05636047
9	0xbd6178a8	-0.055046707
10	0x3d9e4718	0.07728404
11	0x3c91742c	0.01775559
12	0x3d41ed78	0.04734561
13	0x3d4c2490	0.049839556
14	0xbd841e45	-0.06451086
15	0x3d578f40	0.05262685
16	0xbd5b0aed	-0.053477217
17	0xbd64f25a	-0.055895187
18	0x3d171d14	0.036892965
19	0xbda55405	-0.08072666
20	0xbd0ded2e	-0.03465002
21	0x3c8aa93c	0.0169264
22	0xbd4c03e6	-0.049808405
23	0xbcf42adc	-0.029805593
24	0x3d9959f2	0.07487859
25	0x3c97f5f0	0.01854989
26	0xbcf4c1ca	-0.029877562
27	0x3c1f29e0	0.009714574
28	0x3d6c60a4	0.05770935
29	0x3d890002	0.066894546
30	0x3d691464	0.05690421
31	0x3cc01d38	0.023451433
32	0xbd6f6f18	-0.058455557
33	0xbd637626	-0.055532597
34	0x3cb8c48c	0.022554658
35	0x3d406668	0.046972662
36	0xbcfb31e2	-0.030663434
37	0xbd960ac7	-0.07326274
38	0x3bb55d90	0.005534835
39	0xbd4ee74c	-0.05051355
40	0xbd25ed22	-0.04050935
41	0x3c325360	0.010884136
42	0xbcf3e574	-0.029772498
43	0xbd42ca10	-0.047555983
44	0x3d391548	0.04518631
45	0xbd8fe1b9	-0.07025475
46	0xbd9d206b	-0.07672199
47	0xbc1c5758	-0.009542309
48	0xbd7b0534	-0.06128426
49	0xbc8ef50c	-0.017450832
50	0xbd061f02	-0.032744415
51	0xbd894bd0	-0.06703913
52	0x3d548ca0	0.051891923
53	0x3d5a6e2c	0.053327724
54	0x3d903ee0	0.070432425
55	0xbd80feba	-0.06298585
56	0x3c96446c	0.018343173
57	0xbd61e540	-0.05515027
58	0xbd969732	-0.07353057
59	0xbd2626ec	-0.040564463
60	0x3d1e7730	0.038687885
61	0x3d2bdf74	0.04196115
62	0xbd7913d0	-0.06080991
63	0xbd9793d7	-0.07401245
64	0x3da13748	0.07871872
65	0xbd269a50	-0.040674508
66	0xbd054e94	-0.03254564
67	0x3d60ffe0	0.05493152
68	0xbba4e070	-0.005031638
69	0xbd80ff5e	-0.062987074
70	0x3d907e1e	0.07055305
71	0x3da28006	0.07934575
72	0xbd383e2c	-0.044981167
73	0xbd9def6f	-0.07711684
74	0xbca2b498	-0.019861504
75	0x3d6fd114	0.058549
76	0xbc51bc80	-0.01280129
77	0xbc3dc3a8	-0.011582293
78	0xbda40ffe	-0.08010863
79	0xbd529b8a	-0.051417865
80	0xbd9b6532	-0.07587661
81	0xbd022459	-0.031772945
82	0xbda6cdb1	-0.08144701
83	0xbda5a824	-0.08088711
84	0xbd912465	-0.0708702
85	0xbcbf7198	-0.023369595
86	0xbd026391	-0.031833235
87	0x3ba8d860	0.005152747
88	0xbd864e0a	-0.065578535
89	0xbd4a137d	-0.04933499
90	0xbcd8d080	-0.026466608
91	0x3d0194d4	0.031636074
92	0xbd6c26f6	-0.057654344
93	0xbc3ca008	-0.011512764
94	0x3bd92c90	0.0066276267
95	0x3d6ee7ac	0.05832641
96	0x3d26b94c	0.040704057
97	0x3babfdf0	0.0052487776
98	0xbd92a154	-0.07159677
99	0x3d9a3888	0.07530314
100	0xbc8b6834	-0.017017461
101	0x3d8d28b8	0.06892532
102	0xbd8ffd40	-0.070307255
103	0xbd419553	-0.047261547
104	0xbd8ebb92	-0.0696937
105	0xbd7dad34	-0.061932757
106	0x3d506170	0.050874174
107	0xbd7e8034	-0.062133983
108	0xbd724683	-0.059149276
109	0xbd8bf78e	-0.06834327
110	0xbd22be84	-0.03973247
111	0xbcb3bf4c	-0.021941803
112	0xbd890d74	-0.06692019
113	0x3d6d2570	0.05789703
114	0x3d72b208	0.059251815
115	0x3d6dcb30	0.058055103
116	0x3c67bd30	0.014144227
117	0x3d02329e	0.031786554
118	0xbd85d37c	-0.06534478
119	0x3d50e708	0.05100158
120	0xbc389218	-0.0112653
121	0xbd84e330	-0.06488645
122	0xbc9b6ed0	-0.018973738
123	0xbd9113c4	-0.07083848
124	0xbd860242	-0.065433994
125	0xbc820380	-0.01587081
126	0xbd4af8e3	-0.049553763
127	0xbd1022c5	-0.03518941
128	0x3d2a243c	0.041538462
129	0x3d4ec3d4	0.050479725
130	0xbd3c4be6	-0.04597082
131	0xbd4b131d	-0.049578775
132	0xbd58dc22	-0.05294431
133	0x3d110592	0.035405703
134	0xbd8571ba	-0.06515832
135	0x3d68c6c4	0.056830183
136	0xbcaae528	-0.020861223
137	0xbcdcacd4	-0.02693788
138	0xbd9a98e3	-0.07548692
139	0xbda21b8e	-0.07915412
140	0xbd0ba458	-0.034092277
141	0x3bdb1010	0.0066852644
142	0x3d9ee816	0.07759111
143	0xbd83f611	-0.06443418
144	0xbd1faf55	-0.03898557
145	0xbc86a544	-0.016436227
146	0x3c7d43a0	0.015458018
147	0x3d7e2870	0.062050283
148	0xbcc4e8f4	-0.024036862
149	0x3c8d5734	0.017253496
150	0xbc3ed860	-0.0116482675
151	0xbd2a7050	-0.041611016
152	0xbcc913c8	-0.024545565
153	0xbd14c0ba	-0.03631661
154	0xbd8b70fa	-0.06808658
155	0x3d9c8af0	0.07643688
156	0x3d92b516	0.07163446
157	0x3d3ed234	0.046587184
158	0xbcbb86a8	-0.022891358
159	0x3af18480	0.0018426329
160	0xbc0ef168	-0.008724548
161	0x3d9f6780	0.07783413
162	0xbd05987e	-0.03261613
163	0x3b7c8b20	0.0038535073
164	0xbd5b1741	-0.053488974
165	0x3bf70310	0.007538207
166	0xbca969a6	-0.02068026
167	0x3d90c9ac	0.07069716
168	0x3cf96db4	0.030447818
169	0xbcb4cc4c	-0.022070073
170	0xbaf74740	-0.0018865839
171	0x3b79b180	0.0038100183
172	0x3b5f3e80	0.0034064353
173	0xbd856fb0	-0.06515443
174	0xbcdd036c	-0.02697917
175	0xbada3c00	-0.0016649961
176	0x3c1bf560	0.009518951
177	0x3cb598c0	0.022167563
178	0xbd59203c	-0.053009257
179	0x3d02c828	0.031929165
180	0xbc6c9ee8	-0.014442183
181	0x3d0f61d0	0.03500539
182	0xbd673f5a	-0.0564569
183	0xbda3dfda	-0.08001681
184	0xbb0a2ca0	-0.0021083727
185	0x3d968ec6	0.073514506
186	0x3da70910	0.081560254
187	0x3d253ee0	0.040343165
188	0x3d71268c	0.05887465
189	0x3c2b7ea0	0.0104672015
190	0xbc1981c0	-0.009369314
191	0x3d3a27f8	0.045448273
192	0xbd6057c2	-0.054771192
193	0xbd4c9f1e	-0.049956433
194	0x3d0cf860	0.034416556
195	0xbd5d0327	-0.053958084
196	0x3c406a80	0.011744142
197	0x3d80b8f2	0.062852755
198	0xbd962721	-0.07331682
199	0x3d4e1cf8	0.050320596
200	0xbd43e9f5	-0.04783054
201	0xbd847061	-0.06466747
202	0xbcadae1e	-0.02120119
203	0x3c92655c	0.017870598
204	0xbc892db8	-0.016745433
205	0x3d300bd2	0.042980023
206	0xbd42e389	-0.047580276
207	0xbd71a99a	-0.058999635
208	0xbcf1f35a	-0.029534984
209	0xbd3ad589	-0.0456138
210	0x3cb393dc	0.02192109
211	0x3bfc0f90	0.007692285
212	0x3d753c28	0.059871823
213	0x3aa79dc0	0.0012788102
214	0xbd8a6bc0	-0.06758833
215	0x3c7cf918	0.015440248
216	0xbbff6930	-0.0077945217
217	0xbd6a58c3	-0.057213556
218	0x3a431f80	0.00074433535
219	0xbaae9d80	-0.0013322085
220	0x3da4c77c	0.08045861
221	0xbc85d668	-0.016337588
222	0xbd4c530f	-0.0498839
223	0xbce73c6a	-0.02822705
224	0xbd4195b6	-0.047261916
225	0x3d062d86	0.03275826
226	0xbcd76ba6	-0.026296448
227	0xbc6cc8f8	-0.014452212
228	0x3cc34c80	0.023840189
229	0xbce09c98	-0.02741842
230	0x3d9a87be	0.07545422
231	0x3d81a296	0.06329839
232	0xbd9eccdb	-0.07753917
233	0x3c0fd080	0.008777738
234	0x3c984fec	0.018592797
235	0x3d8fa326	0.0701354
236	0x3c1a7758	0.009427868
237	0xbd9822c9	-0.0742851
238	0x3d1b4462	0.03790701
239	0x3d6d269c	0.05789815
240	0x3c9f8f0c	0.01947739
241	0xbd3c9972	-0.046044774
242	0x3cb63bec	0.02224537
243	0xbcd88d62	-0.026434604
244	0x3d3c51a8	0.04597631
245	0xbc20b960	-0.009809822
246	0x3d8787f4	0.06617728
247	0x3c987888	0.018612161
248	0xbd7304b2	-0.05933065
249	0xbd679ee2	-0.056548007
250	0x3c4263c0	0.011864603
251	0x3d2936dc	0.041312084
252	0x3da64776	0.08119099
253	0x3da5d2ac	0.08096823
254	0xbc3e1800	-0.011602402
255	0x3d89c28a	0.067265585

const_fold_opt__331 f4 [1, 1, 3, 12, 36]
0	0xbd1907cc	-0.03736095
1	0x3d818db5	0.063258566
2	0xbdbb1747	-0.09135299
3	0x3c904a08	0.017613426
4	0xbbc2f4c0	-0.0059495866
5	0xbd5f4f0d	-0.054518748
6	0xbd5e2545	-0.05423476
7	0xbd849de2	-0.06475426
8	0x3d6563de	0.056003444
9	0x3d6d96ee	0.058005266
10	0x3d27b122	0.04094041
11	0xbd4d9335	-0.050189216
12	0xbdc401a0	-0.095706224
13	0xbd872b76	-0.066000864
14	0x3a94d240	0.0011354163
15	0xbccd94a0	-0.025095284
16	0x3d500ffa	0.050796486
17	0xbdc562a4	-0.09637955
18	0x3d156796	0.03647574
19	0x3d5985e6	0.05310621
20	0x3b862a50	0.0040943995
21	0x398ef600	0.00027267635
22	0x3d3f0292	0.04663331
23	0x3d82829f	0.0637257
24	0x3dc1f9b1	0.09471453
25	0xbc9a3aa0	-0.018826783
26	0x3d972daf	0.0738176
27	0xbb73a3e0	-0.0037176535
28	0xbd7d0dde	-0.061780803
29	0x3d924bc3	0.07143357
30	0xbd6abf23	-0.05731119
31	0xbcd80c58	-0.026373073
32	0xbd704e9c	-0.058668718
33	0xbcfcc050	-0.03085342
34	0xbd811c78	-0.06304258
35	0x3dc80895	0.09767262
36	0xbd830726	-0.06397848
37	0xbdced06c	-0.10098347
38	0x3da84e9d	0.08218119
39	0x3d1ac93e	0.037789576
40	0xbdbb8594	-0.091563374
41	0xbd80c1dc	-0.06286976
42	0xbd953d23	-0.072870515
43	0xbd8b0e43	-0.067898296
44	0x3d93f6a1	0.07224775
45	0xbb445ba0	-0.002996184
46	0x3d88d52b	0.066812836
47	0xbcfc83c0	-0.030824542
48	0xbd91e18a	-0.07123096
49	0x3d8a91c3	0.06766083
50	0x3c5ab420	0.013348609
51	0x3c6c7438	0.014432006
52	0x38995000	7.31051e-05
53	0xbb9bd600	-0.0047557354
54	0x3d7442c6	0.059633993
55	0xbc1e4b38	-0.009661488
56	0x3c2e73c8	0.010647722
57	0xbcef53a8	-0.029214695
58	0x3daab035	0.0833439
59	0xbda435d1	-0.08018077
60	0xbd9ea0e7	-0.077455334
61	0x3d335086	0.043777965
62	0x3cef3564	0.029200263
63	0xbd80e61a	-0.062938884
64	0xbd7f33c3	-0.062305223
65	0x3d2502b6	0.04028579
66	0x3ca387ec	0.019962274
67	0x3d9e6fb7	0.07736152
68	0x3d45a6de	0.04825484
69	0xbdca64c3	-0.098825
70	0x3ca9d324	0.020730563
71	0xbd970e82	-0.07375814
72	0xbd3df631	-0.046377365
73	0xbd89d7ca	-0.067306116
74	0x3da64055	0.08117739
75	0xbd3823dd	-0.044956077
76	0x3db52ab7	0.08846038
77	0x3da0d5f3	0.078533076
78	0x3d96fb01	0.07372094
79	0x3d8cb9f9	0.06871409
80	0x3d6e9242	0.05824495
81	0x3d8b7a55	0.06810442
82	0x3b1d1400	0.002396822
83	0xbd014ab0	-0.03156537
84	0xbdcfd8a1	-0.101487406
85	0xbac52940	-0.0015042201
86	0x3d373a6e	0.044733457
87	0xbdd2655a	-0.102732375
88	0xbcd3fe2c	-0.025878035
89	0x3cfef824	0.031124182
90	0x3d71997e	0.058984272
91	0x3d9ed74b	0.077559076
92	0x3dc783a9	0.09741909
93	0xbdcfee1b	-0.10152837
94	0xbdaafa50	-0.083485246
95	0xbd98010a	-0.07422073
96	0xbd60c8c9	-0.054878984
97	0x3d642f1e	0.055708997
98	0xbda0344e	-0.07822476
99	0xbdbe7977	-0.09300511
100	0x3d8e50e7	0.06949025
101	0x3c5c4a48	0.013445444
102	0x3d6e2b52	0.058146782
103	0x3dc4a2dd	0.09601376
104	0xbca3dd4c	-0.020002984
105	0x3db49c15	0.08818833
106	0xba1af000	-0.00059103966
107	0xbd905752	-0.07047905
108	0x3d1e585e	0.038658492
109	0xbd2b0996	-0.04175719
110	0x3cc72fd4	0.024314798
111	0xbd05fde2	-0.032712825
112	0x3d6c7662	0.057730086
113	0xbd9a492a	-0.07533486
114	0xbcdded10	-0.02709058
115	0x3d19ae7a	0.03751991
116	0xbd88695c	-0.06660721
117	0xbd94385e	-0.07237314
118	0xbb822a60	-0.0039723366
119	0xbd54ac76	-0.051922284
120	0xbdc93101	-0.098238
121	0xbd39e870	-0.045387685
122	0xbd89571d	-0.06706069
123	0xbd01b914	-0.031670645
124	0xbdcbea54	-0.09956804
125	0x3d8efa2b	0.069813095
126	0x3d6c6842	0.057716615
127	0xbc00ed00	-0.007869005
128	0xbdd77ad7	-0.10521477
129	0x3d76be4a	0.060240068
130	0xbd908d9e	-0.07058261
131	0x3d6d7fbe	0.057983153
132	0x3dc95b83	0.098319076
133	0x3d00374e	0.031302743
134	0x3bad9340	0.0052970946
135	0xbdc09b0d	-0.094045736
136	0x3bb85090	0.005624838
137	0xbdd26e5d	-0.102749564
138	0x3ce24564	0.027620979
139	0x3b9dd870	0.004817061
140	0xbd6b2c49	-0.05741528
141	0xbd92554e	-0.07145177
142	0x3d59527a	0.05305717
143	0xbd423712	-0.0474158
144	0x3d0b0c2e	0.033947162
145	0xbd559463	-0.052143466
146	0x3d03ba7a	0.03216026
147	0x3d326b42	0.04355932
148	0xbd67b050	-0.05656463
149	0x3dcc8dcb	0.09987982
150	0xbb15f900	-0.0022884011
151	0x3db695e1	0.08915306
152	0x3baaef30	0.0052165017
153	0x3a41c180	0.00073911995
154	0xbd9a3ea6	-0.075314805
155	0x3d6ec30a	0.058291472
156	0xbd9a2170	-0.07525909
157	0x3d91d657	0.0712096
158	0xbcc3377c	-0.023830168
159	0x3dbe8385	0.09302429
160	0x3db119e7	0.086475186
161	0x3c890968	0.016728118
162	0x3b663300	0.0035125613
163	0x3b9ec090	0.0048447326
164	0xbd34b8f7	-0.04412171
165	0xbc68d728	-0.0142114535
166	0xbcfec408	-0.031099334
167	0x3cb0fb0c	0.021604083
168	0x3d47ded6	0.048796497
169	0x3d2f9812	0.042869635
170	0xbdb1cd78	-0.08681768
171	0x3cfa524c	0.03055682
172	0x3db52177	0.088442735
173	0x3c7666c8	0.015039153
174	0x3d7a9cae	0.061184578
175	0xbc93f9d4	-0.018063463
176	0x3c1b5fe0	0.009483308
177	0xbdce401a	-0.1007082
178	0x3d484882	0.048897274
179	0x3dbc99bf	0.09209012
180	0xbd0956c2	-0.033530004
181	0xbd0835ac	-0.03325431
182	0x3c510900	0.012758493
183	0xbd230286	-0.03979733
184	0x3b572da0	0.003283359
185	0xbdd2fede	-0.10302518
186	0x3dab3451	0.08359588
187	0xbc2022f0	-0.009773955
188	0x3d371dd2	0.044706173
189	0xbd31093d	-0.0432217
190	0xbd82f990	-0.063952565
191	0xbd4db3ce	-0.050220303
192	0x3d26091e	0.04053604
193	0xbd30cbe4	-0.043163195
194	0xbdc0f387	-0.09421449
195	0xbd786329	-0.06064144
196	0x3c453048	0.012035437
197	0xbdb7acde	-0.08968519
198	0x3dac00cb	0.08398589
199	0x3d86da2d	0.065845825
200	0xbd3c7a74	-0.046015218
201	0xbdb18f29	-0.08669884
202	0x3da89391	0.08231271
203	0x3d6b4f4e	0.057448678
204	0xbd4486ff	-0.047980305
205	0x3db9ebf5	0.09078208
206	0xbc5e9b50	-0.013586834
207	0xbcf77e14	-0.030211486
208	0x3dc13e0b	0.09435662
209	0x3d10ff0e	0.03539949
210	0xbdbc5c7b	-0.09197327
211	0xbc2e2e70	-0.010631189
212	0x3da4801f	0.0803225
213	0x3d0a6f5a	0.0337976
214	0x3db31beb	0.08745559
215	0x3cf88654	0.03033749
216	0xbd1509ac	-0.036386177
217	0x3da75265	0.081700124
218	0x3c151ed0	0.009101585
219	0x3ce9fe3c	0.028563611
220	0x3c80e428	0.015733793
221	0x3dd3c66b	0.103405796
222	0xbd811640	-0.06303072
223	0xbdb5436f	-0.088507526
224	0xbd949dc6	-0.072566554
225	0x3d21f836	0.039543353
226	0xbdcc5eb6	-0.09979002
227	0x3da0768b	0.0783511
228	0xbd363ee7	-0.044493582
229	0xbdcabfea	-0.09899886
230	0x3d80f757	0.06297176
231	0xbce54a18	-0.027989432
232	0xbdc58d1f	-0.09646057
233	0x3d536a16	0.051614843
234	0xbb8ebda0	-0.004356101
235	0xbd4a9add	-0.049464095
236	0x3dba3bb9	0.090934224
237	0x3d97d3e3	0.07413461
238	0x3c5008a8	0.012697376
239	0x3c6b2428	0.014351882
240	0x3d930e53	0.071804665
241	0xbd1083d4	-0.03528197
242	0x3d80b2f5	0.06284133
243	0xbb7c56a0	-0.003850378
244	0xbd621e34	-0.055204585
245	0xbcf0aa8c	-0.029378198
246	0xbd411ca0	-0.04714644
247	0xbc8f077c	-0.017459624
248	0x3d90fa13	0.07078948
249	0xbd99a716	-0.07502572
250	0xbdc50ceb	-0.096216045
251	0x3cacb4a4	0.02108223
252	0xbc1a2460	-0.009408087
253	0xbda33411	-0.07968915
254	0xbcd94230	-0.026520818
255	0x38370000	4.36306e-05
