dnn-models/transformers_single.onnx (onnx, 16682 bytes, 11 tensors)

attn.out_proj.weight f4 [12, 12]
0	0xbdf11478	-0.11771482
1	0x3c1caae0	0.009562224
2	0xbe12d05d	-0.14337297
3	0x3ddef3bc	0.108863324
4	0xbe7bdecd	-0.2459671
5	0x3e58b0b4	0.21161157
6	0xbe56db3d	-0.2098207
7	0xbe6b045d	-0.22950883
8	0xbe3ac9b6	-0.18241009
9	0x3e05e078	0.1307391
10	0xbdda723c	-0.1066632
11	0x3ddd3cc8	0.10802609
12	0xbe7ae322	-0.24500707
13	0xbe33597c	-0.17514604
14	0xbdd913b2	-0.1059946
15	0xbd685e18	-0.05673036
16	0xbe618145	-0.22021969
17	0x3e418eee	0.1890218
18	0xbd8b6cca	-0.06807859
19	0x3dbdc524	0.09266117
20	0x3e5108b4	0.20413476
21	0x3d5c4a68	0.053781897
22	0x3da1aa78	0.078938425
23	0x3e8eaab6	0.27864617
24	0xbe0551e4	-0.1301952
25	0x3dbb43f4	0.091438204
26	0xbe0384c9	-0.12843622
27	0x3e5340ba	0.2063016
28	0x3e6c15e4	0.23055226
29	0xbe8844e0	-0.26615047
30	0x3e7c572c	0.24642628
31	0x3e0d27a4	0.13784653
32	0x3e00d06e	0.1257951
33	0x3df3628c	0.11884031
34	0x3e75bc1c	0.2399754
35	0xbd1c2018	-0.038116544
36	0xbe79fdc5	-0.24413212
37	0xbda9a568	-0.08283502
38	0xbe502f9a	-0.20330659
39	0x3c9c54b0	0.01908335
40	0xbd5cc3f4	-0.053897813
41	0xbe1e8ea3	-0.15484099
42	0xbcd70370	-0.026246756
43	0x3e8c0722	0.27349192
44	0xbcba86d0	-0.022769362
45	0x3c162ac0	0.009165466
46	0xbd3868ec	-0.045021936
47	0x3d39e238	0.045381755
48	0x3e83b172	0.25721318
49	0x3e34c264	0.17652279
50	0x3dd1db08	0.10246855
51	0x3d8079b8	0.06273216
52	0x3d8b6700	0.06806755
53	0x3de4671c	0.11152479
54	0xbd18cba8	-0.037303597
55	0xbe895e40	-0.2682972
56	0xbe36cdfc	-0.17852014
57	0x3e7c52a0	0.24640894
58	0x3c8d5a90	0.017255098
59	0xbe6f75de	-0.23384807
60	0x3d3a7fc0	0.04553199
61	0x3e743fa8	0.23852408
62	0xbe8bac2b	-0.2727979
63	0xbe470305	-0.19434746
64	0xbdeb7510	-0.11496937
65	0x3c3dd620	0.011586696
66	0xbd89e304	-0.06732753
67	0xbd01efd0	-0.031722844
68	0xbe901723	-0.28142652
69	0x3e0a6cc4	0.13518053
70	0x3e81bb5e	0.25338262
71	0x3e34af20	0.1764493
72	0xbe515388	-0.20442021
73	0xbe6e496e	-0.23270199
74	0x3df57ffc	0.11987302
75	0x3bd47140	0.006483227
76	0x3df25a98	0.11833686
77	0xbe906cb3	-0.2820793
78	0xbc8cff80	-0.017211676
79	0x3e5078ee	0.20358631
80	0x3e09223e	0.13391969
81	0x3c2cb6e0	0.010541648
82	0x3d687c28	0.05675903
83	0xbcdfe6e0	-0.02733177
84	0xbe22885a	-0.15872326
85	0xbddf6aa4	-0.10909012
86	0xbe340434	-0.17579728
87	0x3e7587e4	0.2397762
88	0x3e22aaa4	0.15885407
89	0x3dcec224	0.10095623
90	0xbe62af24	-0.22137123
91	0x3e641810	0.22274804
92	0x3db95e58	0.09051198
93	0x3e4c7f2e	0.1997039
94	0xbde89328	-0.11356193
95	0x3d7aab00	0.061198235
96	0x3e904f9a	0.2818573
97	0x3e46d71e	0.19417998
98	0x3e6d12a8	0.23151648
99	0xbd7849f0	-0.060617387
100	0x3e6136a4	0.219935
101	0xbe6786ac	-0.22609967
102	0x3ccc8810	0.024967223
103	0xbe2670e0	-0.16253996
104	0xbd89e0de	-0.06732343
105	0xbd976812	-0.07392897
106	0x3cb0ef20	0.021598399
107	0x3e86852a	0.2627347
108	0x3e125934	0.14291841
109	0xbaa04900	-0.0012228787
110	0x3e51d52c	0.20491475
111	0xbe177bcc	-0.14793319
112	0x3e185874	0.14877492
113	0xbcdb4bf0	-0.026769608
114	0xbd4dc0b4	-0.050232604
115	0x3d0a6de0	0.03379619
116	0xbe6275f3	-0.22115307
117	0x3d08a2f0	0.033358514
118	0x3dc6c940	0.09706354
119	0x3e7cb87c	0.2467975
120	0xbdb81170	-0.08987701
121	0x3dd4d9c8	0.10393101
122	0x3e93bac4	0.28853428
123	0xbdfd9bfe	-0.12383269
124	0x3e8c7fc8	0.2744124
125	0xbe12c3c3	-0.1433249
126	0x3e024cea	0.12724653
127	0x3de79af4	0.11308852
128	0x3da52400	0.08063507
129	0x3e69c398	0.2282852
130	0xbdeef1d8	-0.11667222
131	0x3d9b6160	0.07586932
132	0x3ad45900	0.001620084
133	0xbe5e55e8	-0.21712458
134	0xbd8f8da0	-0.07009435
135	0xbe456926	-0.19278392
136	0x3e02b3de	0.12763926
137	0x3cd496a0	0.02595073
138	0x3ce7ab60	0.02827996
139	0xbdb35ad4	-0.087575585
140	0x3ab5f100	0.0013881028
141	0xbdb7e40a	-0.08979042
142	0x3da9e000	0.08294678
143	0x3e8f8a5e	0.28035253

attn.out_proj.bias f4 [12]
0	0x00000000	0.0
1	0x00000000	0.0
2	0x00000000	0.0
3	0x00000000	0.0
4	0x00000000	0.0
5	0x00000000	0.0
6	0x00000000	0.0
7	0x00000000	0.0
8	0x00000000	0.0
9	0x00000000	0.0
10	0x00000000	0.0
11	0x00000000	0.0

w_q.bias f4 [12]
0	0xbe0201ec	-0.12696046
1	0x39133c00	0.00014041364
2	0xbda75aa0	-0.08171582
3	0xbd52205a	-0.051300384
4	0xbe02ece1	-0.12785675
5	0xbdd7104e	-0.10501157
6	0x3da9d8ae	0.082932815
7	0xbc964148	-0.018341675
8	0x3d865548	0.06559235
9	0xbddd3d80	-0.10802746
10	0xbc7b4850	-0.015337065
11	0x3dbbecac	0.09176001

w_k.bias f4 [12]
0	0xbd39b822	-0.04534162
1	0xbd538588	-0.051641017
2	0x3dc9de18	0.09856814
3	0x3c46e5a0	0.012139708
4	0xbdba5b08	-0.09099394
5	0x3d8f1164	0.06985739
6	0x3da59088	0.08084208
7	0xbda47b7e	-0.08031367
8	0x3bcb13c0	0.0061974227
9	0xbdfd9eab	-0.12383779
10	0x3c8687c0	0.016422153
11	0x3d3a08a4	0.045418397

w_v.bias f4 [12]
0	0xbe0235d2	-0.12715843
1	0xbdfd195f	-0.12358355
2	0xbdd42b10	-0.10359776
3	0xbc89964c	-0.0167953
4	0x3d5ac268	0.053408056
5	0x3dbb6596	0.09150235
6	0x3db0ef90	0.08639443
7	0x3dd87fb8	0.105712354
8	0xbd888af7	-0.066671304
9	0x3c36ab20	0.011149198
10	0x3e02a249	0.1275722
11	0xbda6609c	-0.081238955

onnx::MatMul_170 f4 [60, 12]
0	0xbdda5944	-0.10661557
1	0xbd2e271a	-0.04251776
2	0xbdebd730	-0.11515653
3	0xbd9208e8	-0.07130605
4	0xbc8fe9fc	-0.017567627
5	0xbd75e452	-0.060032196
6	0x3d6bf57c	0.05760716
7	0x3dae4120	0.08508515
8	0xbd7ea8bc	-0.062172636
9	0xbd9ffeec	-0.07812294
10	0x3cadc4b0	0.021211952
11	0xbc8894a4	-0.01667244
12	0xbb907990	-0.0044090226
13	0x3ddbb7b8	0.10728401
14	0x3d5fd738	0.054648608
15	0xbd4e9928	-0.05043903
16	0x3d4d3f1c	0.050109014
17	0x3d2d1c50	0.04226333
18	0xbd9c075c	-0.07618591
19	0xbd1a1482	-0.037617214
20	0xbdf547c6	-0.1197658
21	0x3b6339c0	0.0034671873
22	0xbdddecd1	-0.10836185
23	0xbda94242	-0.08264591
24	0x3d1beac0	0.038065672
25	0xbdc0ccb4	-0.09414044
26	0xbde38f98	-0.11111373
27	0xbd518e78	-0.05116126
28	0x3d2fb020	0.042892575
29	0xbdf7084e	-0.12062131
30	0xbcd8531c	-0.026406817
31	0xbdd05285	-0.10171989
32	0x3dbfb7d0	0.09361231
33	0xbd4f6712	-0.050635405
34	0xbd89b51a	-0.067239955
35	0xbdaac9bf	-0.08339261
36	0xbd79548e	-0.060871653
37	0xbcefb7f0	-0.029262513
38	0x3cd5aae0	0.026082456
39	0x3d929338	0.07156986
40	0xbdb924de	-0.09040235
41	0x3d9cbf82	0.07653715
42	0xbd1dd1f2	-0.038530298
43	0xbc895c88	-0.016767755
44	0x3c6065d0	0.013696149
45	0x3ddf34b2	0.10898723
46	0x3db1d3fc	0.08683011
47	0x3dfbe8fa	0.12300296
48	0xbdabac66	-0.08382492
49	0xbd3016f2	-0.042990632
50	0xbda53d24	-0.08068302
51	0xba791500	-0.00095017254
52	0x3d8e99f2	0.069629565
53	0xbd4c2ab0	-0.049845397
54	0xbd3330be	-0.043747656
55	0xbdddd5a0	-0.10831761
56	0x3d75be44	0.059995905
57	0x3df7bbda	0.12096377
58	0x3dadbb76	0.08483021
59	0xbdfbc78b	-0.12293919
60	0xbc5ff2b0	-0.013668701
61	0xbd015ca0	-0.031582475
62	0x3cb0b7e0	0.021572053
63	0xbcf42570	-0.029803008
64	0xbdb6cb60	-0.089255095
65	0x3d6e1084	0.05812122
66	0xbda1f241	-0.079075344
67	0xbd25e0a6	-0.040497445
68	0x3d7f4fc4	0.06233193
69	0xbdf780e7	-0.12085133
70	0xbd62775e	-0.05528962
71	0xbbfbedf0	-0.0076882765
72	0x3cbe7270	0.023247927
73	0xbc918f64	-0.01776857
74	0x3cd2c218	0.025727317
75	0xbdd64abe	-0.10463475
76	0xbd807dfd	-0.0627403
77	0x3dcc913a	0.09988637
78	0x3dd7449e	0.105111346
79	0xbd869754	-0.06571832
80	0xbd557c76	-0.05212065
81	0x3d8a768a	0.06760891
82	0x3d1e5d90	0.038663447
83	0x3d73e064	0.059540167
84	0xbcbc1348	-0.022958413
85	0x3d97d086	0.074128196
86	0x3d811d20	0.06304383
87	0x3c2d6770	0.010583743
88	0x3dd7a3f0	0.105293155
89	0x3cebe680	0.028796434
90	0x3df900e6	0.121583745
91	0xbe033594	-0.12813407
92	0xbd3cc87e	-0.04608964
93	0xbda84ed6	-0.08218162
94	0x3d70c0a4	0.058777466
95	0xbd8ef118	-0.06979579
96	0x3d6d349c	0.0579115
97	0x3da537f8	0.08067316
98	0xbd1df56e	-0.038564138
99	0x3da3649a	0.079781726
100	0x3d046e7c	0.03233193
101	0xbe00cf6d	-0.12579127
102	0x3cf0c298	0.029389665
103	0x3d6191e8	0.055070788
104	0xbdc2590e	-0.09489642
105	0x3d38d6e8	0.045126826
106	0xbded6ed6	-0.11593406
107	0x3d579890	0.05263573
108	0x3d8a6fb8	0.0675959
109	0xbd3d7d9a	-0.04626236
110	0xbadf8480	-0.0017053038
111	0x3da6efd6	0.08151214
112	0x3d412e48	0.047163278
113	0xbd1b0d4e	-0.037854485
114	0x3d8d12ae	0.068883285
115	0x3e01df1b	0.12682764
116	0x3dda4b94	0.10658947
117	0xbdde92c0	-0.10867834
118	0x3d79d12c	0.060990497
119	0x3c1b23f0	0.009469017
120	0x3d543304	0.051806465
121	0x3c763880	0.015028119
122	0xbd8db8da	-0.06920023
123	0x3c367e00	0.011138439
124	0xbdfea2a0	-0.12433362
125	0x3de1920a	0.11014183
126	0x3dd51e4e	0.10406171
127	0x3b446440	0.002996698
128	0x3da315dc	0.07963154
129	0x3debc584	0.115122825
130	0xbdadf84a	-0.08494623
131	0x3de0255c	0.10944626
132	0x3df43f68	0.11926156
133	0xbdf54a53	-0.11977067
134	0x3c2c0630	0.010499522
135	0x3df30054	0.11865297
136	0xbde5eff3	-0.11227407
137	0xbdf3ece6	-0.11910419
138	0x3d81d37a	0.06339164
139	0x3dd1b90e	0.102403745
140	0xbcd89650	-0.026438862
141	0xbddd4e99	-0.10806007
142	0xbd0cfdf2	-0.03442187
143	0x3de048da	0.10951395
144	0xbda08058	-0.0783698
145	0xbd47b4a0	-0.04875624
146	0x3bfde1c0	0.0077478588
147	0xbd02bca4	-0.031918183
148	0xbcc50b9c	-0.024053387
149	0x3ddcadfe	0.10775374
150	0x3e0364c1	0.12831403
151	0x3daee5de	0.085399374
152	0xbd107fac	-0.035278007
153	0xbdc85cd2	-0.09783329
154	0x3c4b84e0	0.012421817
155	0x3a615f00	0.0008597225
156	0xbdd3cedb	-0.10342189
157	0xbc45abb0	-0.012064859
158	0x3de65a62	0.11247708
159	0x3dcd6b3a	0.100302175
160	0x3df3c084	0.11901954
161	0xbdc91806	-0.09819035
162	0x3d63c930	0.05561179
163	0x3dd998bc	0.10624835
164	0x3dd943b2	0.10608615
165	0x3da3953a	0.07987447
166	0x3da8b17a	0.08236976
167	0xbda302ec	-0.07959542
168	0x3d024b1c	0.03180991
169	0xbb9986e0	-0.004685268
170	0x3dfed916	0.124437496
171	0x3d93c504	0.07215312
172	0xbe026748	-0.12734711
173	0xbce5ddd0	-0.02805987
174	0xbe035efb	-0.12829201
175	0x3c78fc30	0.015196845
176	0xbd0dfa7e	-0.034662716
177	0x3ba35340	0.0049842894
178	0xbdbdf57e	-0.092753395
179	0xbcd3a25c	-0.025834255
180	0x3cc00950	0.02344194
181	0x3cc0fe98	0.0235589
182	0xbcbc2820	-0.022968352
183	0x3de98c32	0.11403693
184	0x3d920148	0.07129151
185	0x3db8bd50	0.090204835
186	0x3e042907	0.12906276
187	0x3dab41f0	0.08362186
188	0xbd3b8d4c	-0.045789048
189	0xbccf6024	-0.025314398
190	0x3db1d036	0.08682291
191	0x3d85a296	0.065251514
192	0x3dfe3ea6	0.12414293
193	0x3be82d80	0.007085502
194	0xbd605066	-0.054764174
195	0x3d8834a4	0.066506654
196	0xbd7925f4	-0.06082721
197	0xbdf993cc	-0.12186393
198	0x3c423740	0.011853993
199	0xbdc3b708	-0.09556395
200	0x3d160230	0.03662318
201	0x3db637f4	0.08897391
202	0x3d813ef4	0.063108355
203	0x3dd1c1a0	0.10242009
204	0x3e002b79	0.12516584
205	0xbd1d4556	-0.038396202
206	0xbc8984c4	-0.01678694
207	0xbdee02a1	-0.11621595
208	0xbdbcdb46	-0.092215106
209	0xbdf3f826	-0.11912565
210	0xbd7a4a02	-0.061105736
211	0xbdfb2b97	-0.122641735
212	0xbd45e78c	-0.048316523
213	0xbd65bf52	-0.05609066
214	0x3dfc5d16	0.12322442
215	0x3c556de0	0.0130266845
216	0x3d62daa8	0.055384308
217	0x3dbe63b0	0.09296358
218	0xbdaed255	-0.085362114
219	0x3d816da2	0.06319739
220	0x3dcccf8e	0.100005254
221	0xbcd4b680	-0.025965929
222	0x3cc37138	0.023857698
223	0x3d2efec4	0.042723432
224	0x39e0a800	0.0004284978
225	0xbd7686c4	-0.060187116
226	0xbc8686f4	-0.016421773
227	0xbd7ce9f8	-0.061746567
228	0x3d9c9846	0.07646231
229	0xbd2d3cbe	-0.042294256
230	0xbd72b984	-0.059258953
231	0xbdbf039c	-0.0932686
232	0xbdc8d4cc	-0.09806213
233	0xbdc3f4ae	-0.09568153
234	0xbdaa3f28	-0.08312827
235	0xbd750c16	-0.05982598
236	0x3dc86c72	0.09786309
237	0xbcfd52b0	-0.030923218
238	0xbbef3340	-0.0072998106
239	0x3d877a52	0.066151276
240	0x3d70b310	0.058764517
241	0x3dd31c5e	0.10308145
242	0xbdac5d58	-0.084162414
243	0xbdb1143e	-0.08646439
244	0x3d3fc550	0.04681903
245	0xbc2bfc98	-0.010497235
246	0xbd61a498	-0.05508861
247	0x3e01f895	0.12692483
248	0xbdc5bf40	-0.09655619
249	0x3db3de0c	0.087825865
250	0x3daaf214	0.08346954
251	0xbded4556	-0.115854904
252	0xbc1dd470	-0.009633169
253	0x3d9c12e4	0.076207906
254	0xbdab3866	-0.083603665
255	0xbdb991a8	-0.09060985

onnx::MatMul_171 f4 [60, 12]
0	0x3da6470e	0.08119021
1	0x3a014600	0.000493139
2	0xbdf11be1	-0.117728956
3	0xbde9a1f7	-0.114078455
4	0xbd873d11	-0.06603444
5	0x3d073704	0.03301145
6	0xbcb71c54	-0.022352375
7	0xbdad72f2	-0.0846919
8	0xbb7e50c0	-0.0038805455
9	0x3da9304a	0.082611635
10	0xbd7cf4ea	-0.061757006
11	0x3cfcf2a8	0.030877426
12	0x3dee9f0c	0.116514295
13	0x3de49514	0.11161247
14	0xbe024110	-0.12720132
15	0x3d3ff424	0.04686369
16	0xbddd9aa5	-0.10820512
17	0x3d39dedc	0.04537855
18	0x3b80ac40	0.003926784
19	0x3db9cb00	0.09071922
20	0xbd496c56	-0.049175583
21	0x3da32344	0.07965711
22	0x3d03f070	0.03221172
23	0xbd99fc63	-0.07518842
24	0x3de6ff5e	0.11279176
25	0x3df361d6	0.11883895
26	0xbd9a40b4	-0.075318724
27	0x3d08f2c0	0.03343463
28	0x3a013700	0.0004929155
29	0xbda79042	-0.08181812
30	0xbd272e20	-0.040815473
31	0xbda75170	-0.0816983
32	0xbdb53f7e	-0.08850001
33	0xbdd9afaa	-0.106292084
34	0xbcda5838	-0.026653394
35	0x3dec64fa	0.11542697
36	0xbdf231be	-0.11825894
37	0x3da35378	0.07974905
38	0x3d8e534e	0.06949483
39	0x3bdf8300	0.0068210363
40	0x3d8dcdfc	0.06924054
41	0x3c28aff0	0.010295853
42	0xbddf577f	-0.109053604
43	0x3d492794	0.04911001
44	0xbdda0101	-0.10644723
45	0xbdb18462	-0.08667828
46	0x3e03fe79	0.12890042
47	0x3dad6c78	0.084679544
48	0xbd4130b4	-0.047165588
49	0x3d03b6a0	0.032156587
50	0xbdbbc162	-0.09167744
51	0x3d3e5a08	0.04647258
52	0xbd660152	-0.056153603
53	0x3e0018cd	0.12509461
54	0xbcbdc5ac	-0.023165546
55	0xbbd81a30	-0.0065949187
56	0x3d13e7d8	0.036109775
57	0xbd8fc4b6	-0.070199415
58	0x3cd80ca0	0.026373208
59	0x3dd1abac	0.10237822
60	0xbdd69179	-0.104769655
61	0xbda13564	-0.078715116
62	0x3dc340a4	0.095338136
63	0x3d4bb444	0.04973246
64	0x3d0311a4	0.031999245
65	0x3dae2c62	0.08504559
66	0x3cd15c90	0.025556833
67	0x3d472cd0	0.04862672
68	0x3c8908e0	0.016727865
69	0xbbc61750	-0.0060452595
70	0xbcff669c	-0.031176858
71	0xbc4fee58	-0.012691103
72	0x3dce6a02	0.10078813
73	0xbda9d46c	-0.082924694
74	0x39b7cc00	0.00035056472
75	0xbd12fb14	-0.035883978
76	0xbc26d140	-0.010181725
77	0xbc6b8c88	-0.014376767
78	0x3c276d00	0.010218859
79	0x3d6c0098	0.057617754
80	0x3d9a1d56	0.07525127
81	0xbdf817a8	-0.12113887
82	0x3d220e80	0.03956461
83	0xbcf2edf4	-0.02965448
84	0xbc8f7dc4	-0.017516024
85	0x3ca19520	0.019724429
86	0x3d7c1924	0.061547413
87	0x3dacbb80	0.084342
88	0xbc44a108	-0.0120012835
89	0xbcdd0718	-0.026980922
90	0xbcf77774	-0.030208327
91	0xbd66d9e6	-0.056360148
92	0x3dcd04d8	0.100106895
93	0x3c99d758	0.018779442
94	0x3dcb54ec	0.09928307
95	0xbdb1d6f2	-0.08683576
96	0xbc94d668	-0.018168643
97	0x3dbfd9ea	0.09367736
98	0x3d7cb694	0.061697558
99	0xbe0400e9	-0.12890972
100	0x3d087268	0.03331223
101	0xbd4e6086	-0.05038502
102	0x3db98cba	0.090600446
103	0xbde9f59d	-0.114238
104	0x3d3ea740	0.04654622
105	0x3d57b740	0.052664995
106	0xbdb0e916	-0.086382076
107	0xbd38539c	-0.04500161
108	0x3d32c0e4	0.043640986
109	0x3c4b5820	0.012411147
110	0x3dc5d814	0.09660354
111	0xbde6672e	-0.11250149
112	0x3dc0fa30	0.094227195
113	0x3d2d4a20	0.04230702
114	0xbc9a8ca8	-0.018865898
115	0xbb0758c0	-0.0020652264
116	0xbd2dfffc	-0.042480454
117	0x3dbd9694	0.09257236
118	0x3da31e68	0.07964784
119	0xbcaf4b94	-0.021398343
120	0x3d18f89c	0.037346467
121	0x3da67d4a	0.08129366
122	0x3d93ab38	0.07210392
123	0xbdc6b13a	-0.09701772
124	0x3cdd3968	0.027004912
125	0xbd9f90ea	-0.07791312
126	0xbdc98885	-0.09840492
127	0x3cb44268	0.022004321
128	0x3da4105c	0.08010933
129	0x3da39c1e	0.07988761
130	0x3e03c571	0.12868287
131	0x3d447258	0.04796061
132	0x3dbd1c32	0.092338935
133	0x3dd42cd0	0.1036011
134	0x3dfb07f2	0.12257375
135	0x3bf21f40	0.007388979
136	0x3c1833c0	0.009289682
137	0x3e02f165	0.12787397
138	0xbd540f1c	-0.051772222
139	0xbc6d78e0	-0.014494151
140	0x3d240da0	0.040052056
141	0xbd84614c	-0.064638704
142	0xbd61a0fa	-0.05508516
143	0xbd3a7e54	-0.045530632
144	0xbd110800	-0.03540802
145	0x3dde2932	0.10847701
146	0xbcdb3cb8	-0.026762351
147	0xbde98df4	-0.114040285
148	0x3cab3970	0.020901412
149	0x3aef0180	0.00182347
150	0xbcfbbc70	-0.030729502
151	0x3d405928	0.046960026
152	0x3dc5a806	0.096511886
153	0xbdaf8869	-0.0857094
154	0xbd1bf0f8	-0.038071603
155	0x3dc5f296	0.0966541
156	0xbd97410c	-0.073854536
157	0xbd6b6ed6	-0.05747875
158	0xbd90ca5a	-0.070698455
159	0x3c173410	0.009228721
160	0x3cc29518	0.023752734
161	0xbdaad5ba	-0.08341546
162	0x3dad9b0c	0.084768385
163	0x3e02cd2d	0.12773581
164	0x3d8c1568	0.068400204
165	0x3d9ef6f4	0.07761946
166	0xbcc0a9dc	-0.023518495
167	0x3d9b6ab2	0.0758871
168	0x3d790d20	0.060803533
169	0xbd6ac7dc	-0.057319507
170	0x3d32ec84	0.04368259
171	0xbae01500	-0.0017096102
172	0xbd2b6228	-0.041841656
173	0xbd804bd8	-0.06264466
174	0x3dce8c00	0.10085297
175	0xbd5851f2	-0.052812524
176	0x3cf2a660	0.02962035
177	0xbc30d858	-0.010793768
178	0x3c59e0d0	0.013298228
179	0x3dc3549c	0.09537622
180	0xbdc1c1eb	-0.09460815
181	0x3de0b72e	0.10972439
182	0x3dd4cd28	0.10390693
183	0xbdf294dc	-0.11844799
184	0xbc7133e0	-0.014721841
185	0xbd4ba670	-0.049719274
186	0x3d3753a8	0.044757515
187	0x3d2ea380	0.042636395
188	0x3d827b5a	0.06371184
189	0xbd9ad01e	-0.075592265
190	0xbd853e2a	-0.065059975
191	0x3d532488	0.05154851
192	0x3da1b1a8	0.07895213
193	0x3cb9dd28	0.022688463
194	0xbd24fd46	-0.040280603
195	0x3e01cb15	0.12675126
196	0x3d00e0b8	0.03146431
197	0xbdd1eee1	-0.10250641
198	0x3dff355a	0.12461348
199	0x3d263e38	0.04058668
200	0xbe01feb4	-0.12694818
201	0x3d9e3516	0.07724969
202	0xbdea75bc	-0.11448237
203	0xbde4e54b	-0.11176547
204	0xbcef230c	-0.029191516
205	0x3de3cabe	0.111226544
206	0x3dfcb882	0.123398796
207	0xbcf71c50	-0.030164868
208	0xbdd0486f	-0.101700656
209	0xbd2548a2	-0.04035247
210	0x3dfc886a	0.123307064
211	0x3d9722b4	0.07379666
212	0x3d893554	0.06699625
213	0x3d82c81a	0.063858226
214	0x3d4c96f4	0.049948648
215	0x3dec0044	0.11523488
216	0x3d856e06	0.06515126
217	0x3df38e86	0.118924186
218	0x3ddbae6e	0.10726629
219	0x3dbe1a54	0.092823654
220	0x38b2e800	8.530915e-05
221	0xbdfdd3ea	-0.12393935
222	0x3cef1330	0.029183954
223	0xbd6139d8	-0.054986805
224	0x3db09f5c	0.086241454
225	0x3d9659b2	0.07341327
226	0x3cbfeee8	0.023429349
227	0xbaeb6180	-0.0017958134
228	0xbdb90243	-0.090336345
229	0xbdfc7f22	-0.12328936
230	0x3d42e83c	0.047584757
231	0x3de910c8	0.11380154
232	0xbdf486b3	-0.11939754
233	0x3d33054c	0.043706223
234	0x3db53d24	0.08849552
235	0xbe000717	-0.12502705
236	0xbc8d269c	-0.017230324
237	0xbd72c08c	-0.05926566
238	0xbd7e25f4	-0.062047914
239	0x3dfad9ca	0.12248571
240	0xbdb8ffcd	-0.09033165
241	0x3dfe2012	0.12408461
242	0x3de66ec8	0.112515986
243	0xbd4f1c04	-0.050563827
244	0xbdf433c9	-0.1192394
245	0xbd2c3812	-0.04204566
246	0x3d640544	0.055669084
247	0xbd9a7484	-0.07541755
248	0xbde540d5	-0.11194006
249	0xbca8c0d8	-0.020599768
250	0x3d33ef00	0.0439291
251	0x3df5e012	0.12005629
252	0xbd284d36	-0.04108926
253	0x3c82c458	0.015962765
254	0x3b088840	0.0020833164
255	0xbd1bd7d4	-0.038047627

onnx::MatMul_172 f4 [60, 12]
0	0x3dec9e74	0.1155366
1	0x3c97a510	0.018511325
2	0x3d20f33c	0.039294466
3	0xbd09c400	-0.033634186
4	0xbc40bb48	-0.011763401
5	0x3db86ef2	0.09005536
6	0x3e00d167	0.1257988
7	0xbd742b42	-0.059611566
8	0x3dc1a1a6	0.0945466
9	0xbcf09a50	-0.029370457
10	0x3b594d40	0.0033157617
11	0x3d474bb0	0.048656166
12	0xbd2b6588	-0.041844875
13	0x3db74482	0.08948614
14	0x3dbffd12	0.09374441
15	0xbd899ec3	-0.067197345
16	0x3d702cac	0.058636352
17	0x3d7dff40	0.062011003
18	0x3d967894	0.07347217
19	0xbd941391	-0.072302945
20	0xbde2b7c7	-0.11070209
21	0xbddfe60e	-0.10932551
22	0xbd4b045e	-0.04956471
23	0x3db7bc50	0.08971465
24	0x3d3ebad0	0.046564877
25	0xbdc5b370	-0.096533656
26	0x3d9ef80a	0.077621534
27	0x3dd0212e	0.101625785
28	0x3d32ec7c	0.04368256
29	0xbdb6cd54	-0.08925882
30	0x3d93cffc	0.07217404
31	0x3c92bf98	0.017913625
32	0xba6adb00	-0.0008959025
33	0x3de001e0	0.10937858
34	0xbd50d45a	-0.050983764
35	0xbd97b9fd	-0.07408521
36	0xbd3131ac	-0.04326026
37	0x3e01a0bb	0.1265897
38	0xbdfba3f2	-0.122871295
39	0xbdbc1ae4	-0.091848165
40	0x3df0501e	0.11734031
41	0x3d76506c	0.06013529
42	0x3d877f3a	0.066160634
43	0xbd8be176	-0.06830113
44	0x3d34e01c	0.04415904
45	0x3d6aa834	0.057289317
46	0xbc7a1ba8	-0.015265383
47	0xbdf94486	-0.12171273
48	0xbd39f34e	-0.04539805
49	0xbdf5f1d5	-0.120090164
50	0x3d0e1364	0.03468646
51	0xbdc0351e	-0.09385131
52	0x3dccb938	0.09996265
53	0x3d00b7d0	0.031425297
54	0x3b705a00	0.0036674738
55	0xbdc4d381	-0.09610654
56	0xbdaa7bd2	-0.08324398
57	0xbd0f7c8e	-0.035030894
58	0x3d94d314	0.072668225
59	0x3dfb48d2	0.12269749
60	0xbdea4760	-0.11439395
61	0xbdc287bb	-0.09498545
62	0xbdf8c600	-0.121471405
63	0x3d8acd90	0.06777489
64	0x3cae5d90	0.021284848
65	0xbd70d570	-0.0587973
66	0xbd8101c0	-0.06299162
67	0x3dc027aa	0.09382565
68	0x3d9cfe6a	0.07665713
69	0xbdf157b8	-0.11784309
70	0x3cec6a10	0.028859168
71	0xbdc01391	-0.09378732
72	0x3cdf3a48	0.02724947
73	0xbcba7b98	-0.022764012
74	0x3dc3edb2	0.09566821
75	0xbdb2163c	-0.08695647
76	0x3d11d74c	0.035605714
77	0xbddba8b9	-0.10725541
78	0xbda97ac8	-0.08275372
79	0xbdc950b3	-0.09829845
80	0xbc765dd8	-0.0150370225
81	0x3ca55e00	0.020186424
82	0x3d4b5c28	0.049648434
83	0x3b3fd700	0.0029272437
84	0x3db168f0	0.08662593
85	0xbde5a525	-0.112131394
86	0x3dac5776	0.08415119
87	0x3d2d9584	0.042378917
88	0xbd64e076	-0.055878125
89	0x3c847150	0.016167313
90	0xbdac4774	-0.08412066
91	0xbdf6bcdb	-0.1204774
92	0x3d669584	0.056294933
93	0xbced8608	-0.028994575
94	0xbdb29330	-0.0871948
95	0x3d82007e	0.0634775
96	0xbd931516	-0.07181756
97	0x3db2579a	0.08708115
98	0xbdf3d0ca	-0.11905058
99	0xbdb7bed4	-0.089719445
100	0x3d398690	0.045294344
101	0x3c3fe9c0	0.011713445
102	0x3e02e07b	0.12780945
103	0xbdde4ebb	-0.108548604
104	0xbd15f01a	-0.03660593
105	0xbdd6fc9e	-0.10497402
106	0x3c001cd0	0.007819369
107	0xbd43322a	-0.047655262
108	0x3d58304c	0.052780434
109	0xbcb935cc	-0.02260866
110	0x3a6ae500	0.0008960515
111	0x3dff63ba	0.12470193
112	0x3dcaf306	0.09909634
113	0xbd846778	-0.064650476
114	0x3d781258	0.06056437
115	0xbda15a28	-0.07878524
116	0x3de6555a	0.11246748
117	0x3d685dfc	0.056730255
118	0x3e03fe03	0.12889867
119	0x3b912220	0.004429117
120	0xbca4f804	-0.020137794
121	0x3ba40800	0.0050058365
122	0x3d24c0ac	0.04022281
123	0x3cc61440	0.024179578
124	0xbb2d0480	-0.0026400387
125	0xbdc77e26	-0.09740858
126	0xbcf0fb54	-0.029416718
127	0xbdee72d7	-0.11642998
128	0xbd32403c	-0.04351829
129	0x3d24eff4	0.0402679
130	0xbdabb488	-0.08384043
131	0xbd8d650c	-0.06904039
132	0xbdbbb79b	-0.09165879
133	0x3d2b258c	0.041783854
134	0x3badae20	0.0053002983
135	0x3dd9d94a	0.10637148
136	0x3ccbae30	0.024863333
137	0xbd41fe0a	-0.04736141
138	0xbd56cdd4	-0.052442387
139	0xbacc5880	-0.001559034
140	0xbcd840f0	-0.026398152
141	0x3d26ea14	0.040750578
142	0x3d07cf20	0.033156514
143	0x3ddf3608	0.108989775
144	0x3c6189b0	0.013765737
145	0x3c6f3960	0.014601082
146	0xbdeeb036	-0.11654703
147	0xbe005985	-0.12534149
148	0xbdd954b4	-0.10611859
149	0x3cf11c98	0.02943258
150	0x3d8c9266	0.06863861
151	0xbdacb182	-0.084322944
152	0xbdcd63fa	-0.10028835
153	0xbe02ba10	-0.1276629
154	0xbcc3791c	-0.02386146
155	0x3d04d0b0	0.032425582
156	0xbe00d3af	-0.12580751
157	0x3de1a7f6	0.11018364
158	0x3df78fde	0.12087987
159	0x3d0bdf0c	0.03414826
160	0x3d944aea	0.07240851
161	0x3dca4c9c	0.09877893
162	0xbc870860	-0.016483486
163	0xbc201cc0	-0.0097724795
164	0xbdb688ee	-0.08912836
165	0x3d93197a	0.07182594
166	0xbc889230	-0.01667127
167	0x3dbcec10	0.09224713
168	0x3d8dbbc8	0.06920582
169	0x3dbdbf56	0.0926501
170	0xbd823384	-0.06357482
171	0xbbd97ed0	-0.0066374317
172	0x3ddf4ef8	0.10903734
173	0x3dc1bf5e	0.094603285
174	0xbe01de03	-0.12682347
175	0xbdd46600	-0.103710175
176	0x3dc271d6	0.09494369
177	0xbda0b4d8	-0.07846993
178	0xbce01bcc	-0.027357005
179	0xbe0379fc	-0.12839502
180	0xbce9ad2c	-0.028524958
181	0x3d33f39c	0.043933496
182	0x3d24691c	0.040139303
183	0x3d82733c	0.063696355
184	0x3df3846c	0.11890492
185	0xbd6a226c	-0.057161734
186	0x3df69dfc	0.12041852
187	0x3bbb6680	0.005719006
188	0x3d6a27d0	0.057166874
189	0x3d05fa7c	0.032709584
190	0x3db55ef0	0.088559985
191	0xbd6663f0	-0.05624765
192	0x3df380a6	0.11889772
193	0xbdfda4b6	-0.12384932
194	0x3da557e8	0.080734074
195	0xbd19ed96	-0.037580095
196	0x3d5e065c	0.054205284
197	0x3dfd3856	0.12364261
198	0x3c8b5f50	0.017013222
199	0xbd980dfc	-0.07424542
200	0xbc2c7bb0	-0.010527536
201	0x3da81500	0.082071304
202	0x3cfe01a8	0.03100665
203	0xbccd1974	-0.025036551
204	0x3b9c2aa0	0.0047658235
205	0x3d46dc7c	0.048550114
206	0xbdf1cb1c	-0.11806318
207	0x3e040943	0.12894158
208	0xbd4b9ca8	-0.049709946
209	0xbd949e34	-0.07256737
210	0xbd3b05ca	-0.045659818
211	0x3d43c0a8	0.047791153
212	0x3d1bd1e0	0.03804195
213	0x3d92d256	0.07169025
214	0xbb6ff740	-0.0036615878
215	0x3d9441a8	0.072390854
216	0xbe002a21	-0.12516071
217	0xbcae8358	-0.021302864
218	0xbd1cb14c	-0.03825502
219	0x3dfe9d0e	0.124322996
220	0x3bbf2260	0.0058329552
221	0xbdf4d9b4	-0.11955586
222	0x3d198764	0.037482634
223	0x3dfdb20a	0.12387474
224	0x3c449ca0	0.012000233
225	0xbdb87584	-0.09006789
226	0x3daff0c0	0.08590841
227	0xbcd404fc	-0.025881283
228	0x3dcd2cb2	0.100182906
229	0x3cb3c468	0.02194424
230	0xbd7468ba	-0.059670188
231	0x3d7dba78	0.06194541
232	0xbd601f12	-0.05471713
233	0xbde0e3e2	-0.10980965
234	0x3c4e07a0	0.01257506
235	0xbd82b54d	-0.06382237
236	0xbda97d9f	-0.082759134
237	0x3e040697	0.12893139
238	0xbd5928a4	-0.053017274
239	0x3e02c4b7	0.12770353
240	0xbce75388	-0.028238073
241	0x3dcab902	0.09898569
242	0x3e0181c3	0.12647156
243	0xbd9ba59c	-0.07599947
244	0xbd7c3a58	-0.06157908
245	0x3d35e0d0	0.04440385
246	0xbd7893d4	-0.060687855
247	0xbcea32e0	-0.028588712
248	0xbd24f3f6	-0.04027172
249	0xbce21960	-0.02759999
250	0xbd4379c0	-0.04772353
251	0xbd4090f2	-0.04701323
252	0xbdb51b1e	-0.08843063
253	0xbd79579c	-0.060874566
254	0xbd565d14	-0.05233486
255	0x3dc5df5c	0.09661743

onnx::MatMul_193 f4 [12, 12]
0	0xbe6352b9	-0.22199525
1	0x3e71c836	0.2361153
2	0xbcb0e820	-0.02159506
3	0x3e0894aa	0.13337961
4	0xbe8c438e	-0.2739529
5	0x3e2da90e	0.1695902
6	0x3e109fc4	0.14123446
7	0x3e41a65a	0.18911114
8	0x3e9bf453	0.30459842
9	0x3e49e586	0.19716462
10	0xbdc67ba0	-0.09691548
11	0xbe91bb1a	-0.2846306
12	0x3cf46a00	0.029835701
13	0x3e870e07	0.2637789
14	0x3c689ec0	0.014198005
15	0x3e91b1b9	0.28455904
16	0x3b1bbe00	0.0023764372
17	0xbe4464a1	-0.19179012
18	0xbc27ef80	-0.010249972
19	0xbd886c6c	-0.06661305
20	0xbe94cf51	-0.2906442
21	0x3e55346e	0.20820782
22	0xbe12aac0	-0.14322948
23	0xbe14057d	-0.14455219
24	0xbea0e794	-0.3142668
25	0xbcbc2590	-0.02296713
26	0x3e61bf66	0.22045669
27	0xbe8c59ff	-0.27412412
28	0x3bd30640	0.006439954
29	0x3c5615e0	0.013066739
30	0xbd870e50	-0.06594527
31	0xbe79f71e	-0.24410674
32	0xbc8b8310	-0.017030269
33	0x3de99734	0.11405793
34	0xbe455429	-0.19270386
35	0x3e91c6a5	0.28471866
36	0x3e4fafa2	0.20281842
37	0xbe8ae9f5	-0.2713162
38	0xbe9fda01	-0.3122101
39	0xbe279bae	-0.16367981
40	0x3be99e80	0.0071294904
41	0x3d0dac08	0.03458789
42	0xbd70ee70	-0.05882114
43	0x3c6892e0	0.014195174
44	0x3bf08b00	0.007340789
45	0xbd102c78	-0.03519866
46	0xbea37fff	-0.3193359
47	0xbe08b596	-0.1335052
48	0x3d96e7a8	0.07368404
49	0xbb902ac0	-0.0043996274
50	0xbe8bac32	-0.27279812
51	0x3de66a94	0.11250797
52	0xbd535460	-0.05159414
53	0xbe91a5c4	-0.28446782
54	0xbe8d7e5a	-0.2763546
55	0x3e8897f1	0.26678422
56	0x3d733e50	0.059385598
57	0x3e4bd9b2	0.19907263
58	0x3e8dc9c1	0.2769299
59	0x3e96dd83	0.29465875
60	0x3eaf15a5	0.341962
61	0x3d87cad0	0.0663048
62	0xbdf0bbfa	-0.11754604
63	0xbe6c67ec	-0.23086518
64	0x3e687496	0.22700724
65	0xbe83a076	-0.2570836
66	0x3dcd583c	0.10026595
67	0x3ea5b1b7	0.32362148
68	0xbe889823	-0.2667857
69	0x3bc546c0	0.006020397
70	0xbea1c684	-0.31596768
71	0xbd796568	-0.060887724
72	0xbe80be3f	-0.25145146
73	0xbe769c0a	-0.24082962
74	0xbe505c1d	-0.20347638
75	0x3e99c5b1	0.3003364
76	0xbdca0f78	-0.09866232
77	0x3e0ad8be	0.13559243
78	0x3c1062c0	0.008812606
79	0xbe88a232	-0.26686245
80	0x3ea61443	0.32437333
81	0xbe040a80	-0.1289463
82	0x3eb3b355	0.35097757
83	0xbd38b038	-0.04508993
84	0x3e912a31	0.28352502
85	0xbe4fadf7	-0.20281206
86	0x3e3abbf2	0.18235758
87	0x3da8d3a4	0.08243492
88	0xbd0c2bb8	-0.03422138
89	0xbdd2bf58	-0.10290402
90	0xbe79d8fa	-0.24399176
91	0xbe23858a	-0.1596891
92	0x3eb1e6a5	0.3474628
93	0x3e3aec6e	0.18254253
94	0xbe3de5c4	-0.1854468
95	0x3e107e7a	0.14110747
96	0x3e98d241	0.2984791
97	0xbead8d38	-0.33896804
98	0x3e7fcf82	0.24981502
99	0xbdc99240	-0.09842348
100	0x3e14dda6	0.14537677
101	0x3e570376	0.20997414
102	0x3e083b0e	0.13303778
103	0x3e8cf231	0.27528527
104	0xbe7a06ce	-0.24416658
105	0x3de33854	0.11094728
106	0xbcdea180	-0.027176619
107	0xbd54c898	-0.051949114
108	0x3e925b79	0.28585413
109	0xbdfdd2ce	-0.123937234
110	0xbeafa12f	-0.3430266
111	0x3cbc1df0	0.022963494
112	0xbe63e172	-0.2225397
113	0xbeb2d27d	-0.34926215
114	0xbbe8da40	-0.0071060956
115	0x3e30f4e6	0.17280921
116	0x3c55fbe0	0.01306054
117	0xbdbb9e78	-0.09161085
118	0x3e93aa43	0.28840837
119	0xbb432280	-0.0029775202
120	0x3d4ea4e8	0.050450236
121	0x3e9dae23	0.30796918
122	0xbe99a09f	-0.30005357
123	0x3de1be98	0.11022681
124	0x3dc1e0c0	0.09466696
125	0xbe32f751	-0.17477156
126	0xbeaf128a	-0.34193832
127	0x3e601b4a	0.2188541
128	0xbe40d824	-0.18832451
129	0xbdc67014	-0.09689346
130	0x3deee1a0	0.11664128
131	0x3e7abed6	0.2448686
132	0x3ea498df	0.3214788
133	0x3d77a0f8	0.060456246
134	0xbeb047a4	-0.34429657
135	0xbe000589	-0.12502111
136	0xbda01ad8	-0.0781762
137	0xbe951946	-0.29120845
138	0x3e42bf76	0.19018349
139	0xbe3432f6	-0.17597565
140	0x3ead939f	0.33901688
141	0xbea01523	-0.31266126
142	0xbdceb93c	-0.100939244
143	0x3df1fc48	0.11815697

onnx::MatMul_194 f4 [12, 12]
0	0xbc669280	-0.014073014
1	0xbe53e72d	-0.20693655
2	0x3e5c5fe2	0.21520951
3	0xbe6521ff	-0.2237625
4	0x3e9aa487	0.3020365
5	0x3e9aeb21	0.30257514
6	0x3e913b93	0.28365764
7	0xbeada46f	-0.33914515
8	0xbe9d3921	-0.30707648
9	0x3ea89bbb	0.32931313
10	0x3e6df27a	0.23237029
11	0xbb0bc880	-0.0021329224
12	0x3e09dffa	0.13464347
13	0x3eab1fc1	0.33422664
14	0xbe9a7e37	-0.3017442
15	0xbe587c44	-0.21141154
16	0x3dee8ed8	0.11648339
17	0x3e87c8d1	0.26520398
18	0x3e63d1f6	0.22248062
19	0x3e6e360e	0.23262808
20	0x3e2cd9d2	0.16879967
21	0x3e8fd207	0.28089926
22	0x3ca91f80	0.020644903
23	0xbdd19f48	-0.102354586
24	0x3e9da85f	0.3079252
25	0xbe17163e	-0.14754578
26	0x3e2a7e8e	0.1664984
27	0x3ea6a92f	0.32550952
28	0x3e9b870f	0.3037648
29	0xbe14e83f	-0.1454172
30	0xbe539ec4	-0.20666033
31	0xbe8e89cb	-0.27839503
32	0xbe6f9632	-0.23397139
33	0x3e8bcf21	0.27306464
34	0x3e5307da	0.20608464
35	0xbe2f7d25	-0.17137583
36	0x3db67f24	0.08910969
37	0x3d9a6a50	0.07539809
38	0x3db4c608	0.08826834
39	0x3e06bc68	0.13157809
40	0xbda6c78c	-0.08143529
41	0x3d0c7680	0.034292698
42	0xbd186de8	-0.03721419
43	0xbe54c4b6	-0.20778164
44	0xbe4bc1e0	-0.19898176
45	0x3dd6c4e4	0.10486773
46	0xbe82d281	-0.25551227
47	0x3e29d9be	0.16586968
48	0xbdd45654	-0.10368028
49	0xbe30e746	-0.17275724
50	0xbe736fb8	-0.23773086
51	0xbd6535a0	-0.055959344
52	0x3e9dbdcb	0.30808863
53	0x3d28c658	0.04120478
54	0x3d582698	0.05277118
55	0x3b878900	0.0041362047
56	0x3e962c47	0.29330656
57	0xbe232ffd	-0.15936275
58	0xbead01ea	-0.33790523
59	0xbcfc4920	-0.030796587
60	0x3ded4264	0.11584929
61	0xbe2e9f69	-0.17052998
62	0x3c371be0	0.0111760795
63	0x3e5c8e0a	0.21538559
64	0xbe2ca106	-0.168583
65	0x3e9446cf	0.28960273
66	0x3dceef98	0.10104293
67	0x3ddc78b4	0.1076521
68	0xbe6e8fd4	-0.23297054
69	0x3e63f232	0.22260359
70	0xbe9379b5	-0.28803793
71	0xbd8f80ac	-0.07006964
72	0xbcfd6590	-0.030932218
73	0x3e2225a6	0.15834674
74	0x3d90cc90	0.07070267
75	0xbe2c3bcc	-0.16819686
76	0xbd3e0970	-0.04639572
77	0x3e4b6eae	0.1986644
78	0xbea7a752	-0.32744843
79	0x3e525692	0.20540836
80	0xbe92e4f2	-0.28690296
81	0xbe77fabe	-0.24216744
82	0x3e47c8b2	0.19510153
83	0x3e7b840e	0.24562094
84	0xbe8d8677	-0.2764165
85	0xbdca1eb0	-0.098691344
86	0xbe4395cf	-0.19100116
87	0xbe9de863	-0.3084136
88	0x3e709a8e	0.23496458
89	0x3e92929d	0.28627482
90	0x3c819420	0.015817702
91	0xbd4b5f20	-0.049651265
92	0x3e89964f	0.2687249
93	0xbe52eca4	-0.20598084
94	0x3ea672e7	0.3250954
95	0xbe897739	-0.26848772
96	0xbe0bcb20	-0.13651705
97	0xbe659e1b	-0.22423594
98	0xbe18c8d9	-0.14920367
99	0xbeb3b6f4	-0.3510052
100	0xbe3b924e	-0.1831753
101	0x3e5cb63e	0.21553895
102	0x3e3ca08e	0.18420622
103	0xbe3a5397	-0.1819595
104	0xbe2cc2b3	-0.16871147
105	0xbe2e8584	-0.1704312
106	0xbdc83f30	-0.09777677
107	0x3e6c6bae	0.23087952
108	0x3e24a8fe	0.1608009
109	0xbe13fb36	-0.14451298
110	0x3e93a7db	0.28839
111	0x3e131ab2	0.14365652
112	0x3e8a2113	0.2697836
113	0xbe9d827e	-0.3076362
114	0x3e4c609a	0.19958726
115	0xbcf957e0	-0.03043741
116	0x3cbc03a0	0.022950947
117	0x3e1c94ae	0.15291092
118	0x3e484ebe	0.19561288
119	0x3ea0c431	0.31399682
120	0x3c3df6c0	0.011594474
121	0x3e83ffdb	0.2578114
122	0xbce9fe90	-0.028563768
123	0xbe0d284e	-0.13784906
124	0x3db17ac0	0.08665991
125	0x3e708652	0.23488739
126	0x3e32139a	0.1739029
127	0x3ded46c4	0.11585763
128	0x3eb454cb	0.35220942
129	0x3d477468	0.048694998
130	0xbe8158c8	-0.25263047
131	0xbe5e6979	-0.21719922
132	0x3e059274	0.13044149
133	0x3e59ef72	0.21282747
134	0xbb74b900	-0.0037341714
135	0x3e5e4fb2	0.21710089
136	0xbbe2f300	-0.0069259405
137	0xbdc04724	-0.09388569
138	0x3d64fe08	0.055906326
139	0xbe4bac10	-0.19889855
140	0xbe107798	-0.14108121
141	0x3e66570e	0.22494146
142	0xbbdaa200	-0.006672144
143	0xbeab83fe	-0.3349914

onnx::MatMul_195 f4 [12, 12]
0	0x3d497190	0.049180567
1	0xbe115bae	-0.1419513
2	0xbe8b9650	-0.27263117
3	0xbd68caf8	-0.05683419
4	0x3ca8d0b0	0.020607322
5	0xbe5d9f11	-0.2164271
6	0xbcdbdf30	-0.026839823
7	0x3e66d5e2	0.22542527
8	0x3eb39bf7	0.3507993
9	0x3ea056a1	0.31316093
10	0x3a68fc00	0.00088876486
11	0x3e5a3952	0.21310928
12	0xbe89ade7	-0.2689049
13	0x3ea538a5	0.3226978
14	0x3e5c148a	0.2149221
15	0xbeb33a2b	-0.35005316
16	0x3e17ba6e	0.14817211
17	0xbe8d85dd	-0.27641192
18	0x3e4ff4e2	0.20308259
19	0x3d6003b8	0.054691046
20	0x3e136b64	0.14396435
21	0x3dcfc804	0.10145572
22	0xbe8c7326	-0.274316
23	0xbdc1fc9c	-0.094720095
24	0x3e17632e	0.14783928
25	0xbe89f6f0	-0.2694621
26	0xbe9d76f4	-0.30754817
27	0xbe837c6a	-0.25680858
28	0x3bc82180	0.006107509
29	0xbe9353a5	-0.28774753
30	0xbdf93dd2	-0.121699944
31	0x3e4fd8aa	0.20297495
32	0x3e2fd7be	0.17172143
33	0xbea3fdfc	-0.32029712
34	0x3ea43785	0.32073608
35	0xbdaff608	-0.085918486
36	0xbe905e78	-0.28197074
37	0x3ea3386f	0.31878993
38	0xbdc38d98	-0.09548491
39	0x3e81e957	0.25373337
40	0xbe28ccb0	-0.16484332
41	0x3e181a96	0.14853892
42	0xbe891e93	-0.2678114
43	0x3e8b8ccf	0.27255866
44	0x3ea72105	0.3264238
45	0x3ea7b365	0.32754055
46	0x3eb3d79b	0.3512543
47	0xbd8be984	-0.06831649
48	0xbe8d4904	-0.2759477
49	0x3e86819b	0.26270756
50	0xbe11fb28	-0.14255965
51	0xbeb0a30d	-0.34499398
52	0x3c8c4dc0	0.017126918
53	0x3e900301	0.28127292
54	0x3caef310	0.021356136
55	0x3eb2e5fb	0.34941086
56	0x3c778c80	0.015109181
57	0x3e5cca8a	0.21561638
58	0x3e346ca6	0.17619571
59	0xbea95b50	-0.33077478
60	0x3dc3deac	0.09563956
61	0xbea1063a	-0.31450063
62	0xbea94d7c	-0.33066928
63	0xbe32138d	-0.1739027
64	0x3c317520	0.010831147
65	0x3eb38b27	0.35067102
66	0xbdc9a21c	-0.09845373
67	0xbdbb9b88	-0.091605246
68	0x3ade3200	0.0016952157
69	0x3e36b2d2	0.17841652
70	0x3e5cfba6	0.21580371
71	0x3e823d2d	0.25437298
72	0xbdb98fc4	-0.09060624
73	0xbd00a190	-0.031404078
74	0xbeaa8145	-0.3330175
75	0xbea3d301	-0.3199692
76	0x3b57f880	0.0032954514
77	0x3e014754	0.12624866
78	0xbe28d198	-0.16486204
79	0x3c2bbd40	0.010482132
80	0x3db3b634	0.08774987
81	0x3e15664c	0.14589804
82	0xbeaf5900	-0.3424759
83	0xbcf913d0	-0.030404955
84	0xbea03bf8	-0.31295753
85	0xbe42c29e	-0.19019553
86	0xbeae8628	-0.34086728
87	0x3e42ca6a	0.19022527
88	0x3e1d795e	0.15378329
89	0xbd939fb4	-0.07208195
90	0xbddd2c2a	-0.10799439
91	0xbe51c8af	-0.20486711
92	0xbea74d13	-0.3267599
93	0x3d0d3ef8	0.03448388
94	0x3e9c3aa7	0.30513498
95	0xbea61b6e	-0.32442802
96	0x3e0d43ea	0.13795438
97	0x3eb21d47	0.34787962
98	0xbe8c063f	-0.27348515
99	0x3e7777ae	0.24166748
100	0xbe08714e	-0.13324472
101	0x3d855d98	0.06511992
102	0xbe4d43db	-0.20045416
103	0x3ea528f3	0.32257804
104	0x3dfd276c	0.12361035
105	0xbe47e64a	-0.19521442
106	0x3d7e5418	0.062091917
107	0xbe87b484	-0.2650491
108	0x3dffc34c	0.12488422
109	0xbc71ad60	-0.0147508085
110	0xbe4a4bf0	-0.1975553
111	0x3cfd7020	0.030937254
112	0x3cb66af0	0.022267789
113	0xbeb30197	-0.3496215
114	0x3e9ee409	0.31033352
115	0x3de67694	0.11253086
116	0xbb2e4380	-0.0026590526
117	0x3e681082	0.22662547
118	0xbe64aa85	-0.22330673
119	0x3de31630	0.11088216
120	0x3d432830	0.047645748
121	0x3e55411a	0.20825616
122	0xbdeea98a	-0.11653431
123	0xbe3600a8	-0.17773688
124	0x3ac59600	0.0015074611
125	0x3d272e20	0.040815473
126	0x3cc71da0	0.024306118
127	0xbd6fc0e8	-0.05853358
128	0xbc8ab4c0	-0.016931891
129	0xbe8744d8	-0.2641971
130	0xbe7cd343	-0.24689965
131	0xbeadf604	-0.33976758
132	0x3e6c92b2	0.23102835
133	0x3e9c8049	0.30566624
134	0x3e4a8d96	0.19780573
135	0xbdaf8ab8	-0.085713804
136	0x3e18d6f6	0.14925751
137	0xbdef0478	-0.11670774
138	0xbe402544	-0.18764216
139	0x3db572e8	0.08859807
140	0x3ca69cb0	0.020338386
141	0xbe5af307	-0.2138177
142	0x3dae868c	0.085217565
143	0x3e7ef9c2	0.24899963
